torch/model110.pth (torch, 342035 bytes, 8 tensors)

lstm.weight_ih_l0 f4 [512, 3]
000000 84 6a c0 bd 76 29 90 3d 46 95 60 bc f4 05 a4 3d
       -0.09395316 0.07039158 -0.013707465 0.08008948
000010 51 06 ae bc 85 34 46 bd a8 86 a5 3c e7 01 5f bd
       -0.021243246 -0.04838993 0.02020581 -0.054445174
000020 18 5a 94 3d 09 c9 d5 3b d2 cf a7 3d a4 6d 04 3e
       0.072437465 0.0065242094 0.081939355 0.1293245
000030 56 cf a6 3d 18 dc fa 3c 0a 0e 94 bd 13 81 7e 3d
       0.08145015 0.030622527 -0.0722924 0.062134814
000040 9a d9 b8 bd d1 d4 d0 3d c0 03 ac 3d 8f 25 0d 3e
       -0.09025879 0.101968415 0.08399153 0.13783859
000050 4c 8c b7 bd 8c 11 b2 3d 13 e6 c7 3c 2e 52 25 be
       -0.089623064 0.08694753 0.0244017 -0.1614463
000060 43 23 e0 3d ae d1 0e 3e a1 00 fd 3d 4f e1 80 3c
       0.10944226 0.13947174 0.123536356 0.015732436
000070 f4 95 b2 bd ac 6c d2 3b 3a ff 1b 3d 75 f2 87 bd
       -0.087200075 0.006421646 0.0380852 -0.06638042
000080 74 1e 12 3c 9e b0 fa bc c7 4a dd 3d 04 fe e3 bc
       0.008918393 -0.030601796 0.10805278 -0.027831085
000090 82 c9 57 bc 53 9d 2a 3d 8c 8b a5 be 33 cd 5d bd
       -0.013170602 0.041653942 -0.32333028 -0.05415077
0000a0 8f 18 09 be 71 35 22 3e 83 1e 0d bd 23 aa f6 3d
       -0.13388275 0.15840699 -0.034452926 0.1204417
0000b0 0f ff 20 3e 4c 2c 94 bd d8 d7 57 3d 8a 21 1b be
       0.15722297 -0.072350115 0.05269608 -0.15149513
0000c0 98 3c 54 3d 9c 5a 6d 3d 2a 60 a7 3d 52 e3 cf 3c
       0.0518156 0.05794774 0.08172639 0.02537695
0000d0 ba 4a a0 3e e7 ee 88 ba 22 42 ff bc 21 91 96 3d
       0.31307012 -0.0010447175 -0.031159464 0.073519
0000e0 90 d6 03 3d 61 62 0c 3c 32 98 9a 3d 3b f1 33 bd
       0.032187045 0.008568377 0.0754856 -0.043931227
0000f0 e3 69 d3 bb 8f aa 7f 3d 9a ac 6b 3d d0 34 cc bd
       -0.0064518317 0.062418517 0.057537653 -0.09971011
000100 29 20 81 3c aa 7d c5 bc 46 b3 b8 bd 4b 8d c0 3c
       0.015762405 -0.024107773 -0.09018569 0.023504874
000110 b6 84 46 bd 29 60 81 bd 1d 7e ec 3e 50 6c 65 bf
       -0.048466407 -0.06317169 0.46189967 -0.89618397
000120 cc 48 8d 3d db 74 42 bc bd de 76 3d 45 c3 ad 3d
       0.068986505 -0.011868681 0.060271014 0.0848451
000130 a3 12 3e 3d 47 6f 3b 3d 3b 6e aa bd b9 6e 82 3e
       0.046404492 0.04576042 -0.08321806 0.254751
000140 24 58 01 3d b3 66 3e be af 15 62 3e bf 89 e0 be
       0.031578198 -0.18593864 0.22078584 -0.43855092
000150 1a ea 7b bc a8 77 ac 3d ff d7 45 be 2a 7b 00 3d
       -0.015375638 0.0842126 -0.19320677 0.03136746
000160 99 96 d0 3d a8 41 84 bd 1f 2f 7d 3d b9 71 a5 3d
       0.10184974 -0.064578354 0.061812516 0.080783315
000170 88 b7 82 3e 8b 67 86 bc bb ac 7b bb 99 e6 74 3d
       0.25530648 -0.016406795 -0.0038402516 0.059790228
000180 26 91 d9 ba 30 e5 c9 3d 74 38 aa 3d 14 34 9c bd
       -0.0016599044 0.09858167 0.08311549 -0.076271206
000190 a5 33 a5 bd f3 ce 93 bb 36 a4 a8 bd 65 c2 0f 3e
       -0.08066491 -0.0045107543 -0.08234446 0.14039
0001a0 61 49 0c 3e aa c0 ae bc 10 61 b9 3d 8e 20 0b 3e
       0.13699867 -0.021332104 0.09051716 0.13586637
0001b0 16 ed df bd 7f 10 9e 3d fe 85 13 bd 7d 35 a1 bd
       -0.109338924 0.0771799 -0.036016457 -0.0787153
0001c0 82 5f db 3c b9 ca 9c bd e6 68 81 3d 45 ba 81 bd
       0.02677894 -0.07655854 0.06318836 -0.06334356
0001d0 3a df bf 3c 06 b8 44 bc 6a b0 08 3e b3 87 d0 3c
       0.023421872 -0.012006765 0.13348547 0.025455331
0001e0 88 8a ed bd 2f 9d 6b 3d f0 d0 48 3e 45 0f a4 bd
       -0.11598688 0.05752295 0.19610953 -0.08010725
0001f0 45 5f a4 3d 96 bb a0 bd ff 52 da bc 61 b2 9a 3c
       0.08025984 -0.07848279 -0.026650904 0.018883886
000200 58 8f f6 bc f4 2b 87 bd 86 13 b2 bd 6d ca b6 3c
       -0.030097649 -0.0660018 -0.0869513 0.022313321
000210 a9 5b 90 bd bb f0 32 3d b7 28 5d bc 0d 90 43 3d
       -0.07048733 0.04368661 -0.013498477 0.0477448
000220 2c b1 df 3c 08 98 f8 3d f2 89 7d bd 81 5f 6e 3c
       0.027306162 0.12138373 -0.061899133 0.014549137
000230 e5 e6 c2 bc b3 b6 37 be df 8f 7f 3d d2 04 08 3d
       -0.02379174 -0.17940788 0.062393066 0.033207722
000240 8d aa 27 3b de 89 ae bc f2 47 81 bd 3e ad 61 bd
       0.0025583834 -0.021305975 -0.063125506 -0.055096857
000250 6a 60 40 3d c1 ac 6a 3d e4 f3 aa bd 4f 40 55 3d
       0.046966948 0.057293657 -0.083473 0.052063283
000260 06 50 c2 bb b4 3e e5 bc 77 30 1c bc d2 ce 9c 3d
       -0.0059299497 -0.027984 -0.009533039 0.07656635
000270 0c 2d ac bd 5c 49 ec 3c d2 9e a2 bd ce 61 57 bb
       -0.084070295 0.028843574 -0.07940449 -0.0032864693
000280 e8 15 92 bd e8 7f 34 3c ec 2e 64 bd 56 11 c6 bc
       -0.071330845 0.011016823 -0.05570881 -0.024178188
000290 0a f5 24 3e e1 82 e4 bc bc 80 05 be 3c c2 26 bd
       0.161091 -0.02789444 -0.1303739 -0.04071258
0002a0 e6 dd 10 bb c6 7c fa 3d 26 db ae 3d de 59 dc bc
       -0.0022104918 0.1223083 0.08537893 -0.02689832
0002b0 34 01 84 bd e3 35 a2 3d fd 44 7d bd 92 84 83 3d
       -0.06445542 0.07920434 -0.06183337 0.0642177
0002c0 12 02 b7 3d 9d 56 9e 3d 62 f8 c7 3d 4a 56 a6 3d
       0.08935942 0.07731364 0.09764172 0.08121927
0002d0 17 37 15 3d 6e 3f 0b 3d dd 69 b9 3b 78 cb 38 bc
       0.03642949 0.03399604 0.005658372 -0.0112789795
0002e0 51 ca a0 3d a0 ba 5e bc 39 9a c7 3d 33 0b ce 3d
       0.07851089 -0.0135943 0.097462125 0.1006073
0002f0 fd b9 08 bd 9d 2d b9 3b 65 03 75 bd 0f 3e c2 3c
       -0.033380497 0.0056511895 -0.05981769 0.023711232
000300 0c 89 1d bd 4c dc 11 bd 80 2f 30 3c 48 29 26 be
       -0.038460776 -0.035610482 0.010753512 -0.16226685
000310 b2 e8 dd 3d 8b ce 81 3d 1b 60 d6 3c 03 f1 53 3e
       0.10835399 0.06338223 0.026168874 0.20697407
000320 b4 d0 85 3e 14 23 84 bd 8b f8 67 bd 59 a3 f3 3d
       0.2613579 -0.06452003 -0.056633513 0.118963905
000330 22 ce 84 3c 14 57 95 be 73 35 94 be 62 c6 88 bd
       0.016211573 -0.29167998 -0.2894703 -0.066784635
000340 6c fe 91 3d bd a2 0f 3a c1 17 16 bd 1d b1 a3 3d
       0.07128605 0.0005479267 -0.036643747 0.07992766
000350 a4 26 be 3d 10 98 24 bd 8c 8a 0a be 1f 7d 32 3e
       0.09284714 -0.04018408 -0.13529414 0.17430542
000360 cc 88 13 bc fe 48 73 3d f6 ad fc bc f1 09 9d bd
       -0.009004783 0.059395783 -0.03084467 -0.07667912
000370 53 68 38 bd 10 e7 01 3d a1 26 0e 3e 42 ea 94 3c
       -0.045021366 0.0317145 0.13881923 0.01817811
000380 da 00 08 bc 0f 84 c4 bc 83 07 11 3d 13 9f 93 bd
       -0.008300984 -0.023988752 0.035407554 -0.072080754
000390 29 d6 85 3c 52 ff bb 3d 90 4c ae 3d f7 58 4f 3d
       0.016337471 0.09179558 0.08510697 0.050621953
0003a0 b1 d1 66 3d 60 b0 21 3d dc e9 94 bd da 4f 8c 3d
       0.05635232 0.039474845 -0.07271168 0.06851168
0003b0 66 e1 0c 3c 95 36 33 be 07 26 ff 3b cc ad 22 3e
       0.008598661 -0.1750129 0.0077865156 0.15886611
0003c0 e6 5b 6f bd 3f b0 41 be f1 d8 88 bd 29 18 95 bd
       -0.05843725 -0.18914889 -0.06682003 -0.07279999
0003d0 12 2a 71 3c 7d 94 48 bb 7c 45 33 3e 40 1d 5d 3e
       0.014719503 -0.0030606084 0.17506975 0.21593189
0003e0 d7 d3 0d bf 09 9b 03 3c 8f cb c7 3d 0b 1f 6c bd
       -0.55401367 0.008032569 0.097556226 -0.057646792
0003f0 67 f7 68 bd c3 90 b0 3d 8e fc c7 3d 24 09 3c 3d
       -0.056876566 0.08621361 0.09764968 0.045907155

lstm.weight_hh_l0 f4 [512, 128]
000000 d3 ac 1a bc 1a ab b6 3d a1 51 97 3d 99 55 b0 3c
       -0.009440619 0.08919354 0.07388616 0.021525191
000010 d6 9c 7f bd 35 63 6e bd ef 83 9b 3d c6 67 4f bd
       -0.06240543 -0.05820008 0.07593524 -0.050636075
000020 a7 32 00 3c 2f a6 b6 bc 6d 33 9d 3d 1b fd eb bc
       0.007824576 -0.02229604 0.07675824 -0.028807214
000030 08 54 e0 bc ef 27 14 3d f5 72 9b bd c2 ee 14 3d
       -0.02738382 0.036170896 -0.07590286 0.03636051
000040 06 1c 2a 3c 46 a6 7e 3d be 25 aa bd da f0 9b 3d
       0.010382658 0.06217029 -0.0830798 0.07614298
000050 c0 23 43 bd 4c 85 67 bd 74 6b 49 3d de 75 ac bb
       -0.047641516 -0.056523606 0.04917474 -0.0052630743
000060 6b b7 8a 3d 8f 3c b2 3d 77 ec 5d bc 86 50 ce bd
       0.067732655 0.08702957 -0.013545147 -0.100739524
000070 df be af bd 02 8f c0 bd e0 3d 7d 3d 4c dd 79 bd
       -0.08581328 -0.094022766 0.061826587 -0.06100206
000080 e8 4a ee bb ca 2f ee bc 42 e7 32 bd 3f 35 9c bd
       -0.007272113 -0.029075522 -0.043677576 -0.076273434
000090 89 33 29 bd 40 4f 24 bd 11 bf 55 bd 68 3e 88 3d
       -0.041308913 -0.04011464 -0.05218417 0.06652528
0000a0 50 18 8c 3d 31 20 12 3d cf 1f 35 3d 9f 0e 16 bd
       0.06840575 0.03567523 0.04421979 -0.036635038
0000b0 b2 44 ac 3b 3b 84 07 3d 4d 73 94 bd 0c f9 90 bd
       0.0052572126 0.03308509 -0.072485544 -0.07078752
0000c0 aa ea 31 bc 96 9a 9c bd 7b 22 06 3d 04 90 74 3d
       -0.010859171 -0.076466724 0.032747727 0.059707657
0000d0 07 a9 64 3d 3e 22 a5 bd 88 5d 3f bd 9c 69 8a bd
       0.05582526 -0.08063172 -0.046720058 -0.06758425
0000e0 b1 b6 3e 3d a2 29 2d bc f3 bd d1 3c 09 b2 67 bd
       0.046560947 -0.010569008 0.02560327 -0.056566272
0000f0 71 8b 6e 3d 77 63 3e bc 54 cc 01 bd f3 46 82 3d
       0.05823845 -0.011620394 -0.031689003 0.06361189
000100 f2 c9 f8 3b 3d a2 91 bd 52 99 c5 3d 6b 1b 99 3d
       0.007592433 -0.071110226 0.09648384 0.07475933
000110 e6 1d 30 3d 18 08 f1 3d 1e e6 80 bd 76 9c 8b 3d
       0.042997263 0.11769122 -0.06293891 0.06816952
000120 27 43 b8 bc 3e 4b 73 3d 57 f6 c2 bd cd ae e1 3c
       -0.022492958 0.05939793 -0.09519642 0.027549172
000130 fd 1a a4 bd 73 5d 87 3c fc 0e 79 3d bf 42 10 bd
       -0.0801296 0.016524052 0.060805306 -0.035219904
000140 62 42 cb bd e7 af 22 3c b4 c5 73 3c 5c 60 8c bc
       -0.09924771 0.009929634 0.014878679 -0.017135791
000150 b1 cb a1 3c 36 a7 df 3c 2a db 5c 3d 28 b7 4c bd
       0.019750448 0.027301412 0.05391995 -0.04997936
000160 64 5b 61 3d 95 3c 25 bd 36 e4 91 bd c9 2c 2c bd
       0.055018798 -0.04034098 -0.07123606 -0.042034898
000170 1b 47 98 bd 08 df 79 bc f1 1a 9e 3d 85 17 6b 3b
       -0.07435437 -0.015250929 0.077199824 0.0035872173
000180 f1 8b d4 3d f8 2d 2a ba bf f2 89 bd 40 0b 14 3d
       0.10378254 -0.0006491835 -0.06735753 0.03614354
000190 9e 95 87 bd 79 14 68 bd 9a 76 96 bd d2 b8 eb 3c
       -0.06620334 -0.05666015 -0.0734684 0.028774653
0001a0 e3 cc 84 bd 63 92 30 3d 66 88 5b bd 3e 80 5c bb
       -0.064843915 0.043108355 -0.053596877 -0.0033645774
0001b0 4e 4a 9b 3d 7b 78 d6 3c cd f3 ae 3c 3a 3f 94 bc
       0.07582532 0.026180496 0.021356488 -0.018096555
0001c0 24 7f 25 bd 61 9d 70 3d 83 e0 bb ba 73 c5 a0 3b
       -0.040404454 0.05874384 -0.0014333877 0.0049063503
0001d0 0c 55 ab 3d 95 5c 82 3d 3c 6c 78 bd 9a 32 95 3d
       0.08365831 0.06365315 -0.060650095 0.07285042
0001e0 f8 2a b2 3c 03 a3 a8 bd 24 06 2c bd d4 6c 99 3c
       0.021749005 -0.08234217 -0.041998044 0.018728651
0001f0 ce 51 41 3d a7 16 e7 3c 70 ee ac bd e7 e4 78 bd
       0.047197156 0.028209044 -0.08443916 -0.060765173
000200 8a 05 31 bd fe 29 27 3c 51 d3 35 3d ee cd fd bc
       -0.043218173 0.010202883 0.04439098 -0.030981984
000210 dd 09 9e bd 95 dd 87 bd d7 60 45 bd f5 4b 3c bd
       -0.07716725 -0.0663406 -0.048188057 -0.045970876
000220 21 b5 60 3d 43 08 55 bc c9 57 a9 bd b7 06 50 3d
       0.054860238 -0.013002458 -0.08268697 0.050787654
000230 4d 99 a1 bc 56 7a eb 3c 7c dd 12 bd da 6b 50 bd
       -0.01972642 0.028744858 -0.035855755 -0.050884105
000240 e1 fd 85 3d 6a ca c5 bd ad f2 94 bd e5 e8 8c 3d
       0.06542564 -0.09657748 -0.07272849 0.068803586
000250 c4 e8 2c 3d 84 ee c0 3c 18 8b 79 bd b7 c3 2f 3d
       0.04221417 0.023551233 -0.060923666 0.042911258
000260 22 fa 82 3d b2 28 a4 3d 0d 58 15 3d 2a 09 6a bd
       0.06395365 0.080155745 0.036460925 -0.057137646
000270 07 30 86 bd ff 4d 5b bd 93 30 a1 bd a8 03 2c bd
       -0.06552129 -0.05354118 -0.07870593 -0.041995674
000280 89 07 f1 bb fd e8 39 3d 71 71 83 3d 2b b5 8c 3c
       -0.0073556346 0.04538821 0.064181216 0.017176231
000290 35 7e a0 3d ad 0d 37 bb dc b7 72 bd 04 16 86 3d
       0.07836572 -0.0027931735 -0.059257373 0.06547168
0002a0 4c a5 8c 3c 4d 6b 7d bc ec b2 af bd d9 b6 84 bd
       0.017168663 -0.015467477 -0.085790485 -0.06480188
0002b0 92 bc a7 bc 48 29 b4 3d 0e b1 92 3d 26 d8 8f 3d
       -0.02047566 0.08796936 0.07162677 0.07023649
0002c0 0d 37 41 3d 79 57 84 3d fe 2c 7c 3d 3d 66 02 3d
       0.04717164 0.064619966 0.061566345 0.031835783
0002d0 ee fd 65 3d a7 ce c6 bc 89 87 0c 3d 2c 0a 58 3c
       0.05615037 -0.024268461 0.034308944 0.013186019
0002e0 cc 1a 22 3c 3b 59 c7 3b cc e4 81 3d 02 3b 64 3d
       0.009894084 0.006083635 0.06342468 0.055720337
0002f0 63 ba 47 3d 53 87 09 3d 88 04 0c bd 63 15 a0 bc
       0.048761737 0.03357632 -0.03418401 -0.019541448
000300 61 7b 75 bd 7a e6 39 3d b5 27 10 3d bb e9 ae bd
       -0.059932116 0.045385815 0.035194118 -0.08540674
000310 c8 f1 67 3c 77 46 9b 3d 42 80 03 3b 87 6a d6 bc
       0.014156766 0.075817995 0.0020065461 -0.026173843
000320 46 46 93 bd 80 0e be bc 86 19 0a 3c 49 a5 9c 3d
       -0.07191138 -0.023200274 0.008428937 0.07648713
000330 07 a8 ec bb 5c d0 48 bd c7 a9 b0 bd cb c6 32 bd
       -0.007222179 -0.049026832 -0.086261325 -0.043646615
000340 28 e6 8b 3d f8 b1 69 3c 39 c3 79 3d fc 8e 50 bc
       0.06831008 0.014263622 0.060977194 -0.012729403
000350 3a d7 3e bd 7d 7b 3e bd 09 c2 e8 bc 79 7a f1 3c
       -0.046591975 -0.046504486 -0.028412836 0.029477345
000360 8c 97 16 3d 50 2f 47 3d e4 07 95 bd 52 1f 77 3d
       0.03676562 0.048629105 -0.07276896 0.060332604
000370 9a 2c 28 3b 6e 50 a5 3d 34 88 f9 3c b5 61 8a bd
       0.002566135 0.08071981 0.030460455 -0.067569174
000380 e6 a5 83 3d a2 a9 9d bd 68 0f 92 3d 69 ca a9 bc
       0.06428127 -0.076983705 0.07131845 -0.0207264
000390 63 6f 98 bd b3 a4 a2 3d e7 f1 f7 3c b6 98 92 bd
       -0.0744312 0.0794157 0.030266715 -0.071580335
0003a0 f6 77 8b bd 4d 82 67 bd 64 50 64 3d 00 af 20 bd
       -0.0680999 -0.05652075 0.05574073 -0.039229393
0003b0 17 4f 5a 3d 38 b9 56 3d cb ea 87 3d ce 68 54 bd
       0.053298082 0.052422732 0.0663658 -0.051857762
0003c0 a6 0f e6 3b 42 bb 58 3d 32 c8 0f 3c e6 75 6b bd
       0.0070209084 0.052912958 0.008775758 -0.057485484
0003d0 4a 8e ea bc c4 26 8b bd 98 1f 94 3c e2 ea 9c bd
       -0.028632302 -0.06794503 0.018081471 -0.07661988
0003e0 6c 47 3e bd 88 86 41 3d 59 8f 09 3d 10 a5 e1 3c
       -0.046454832 0.04724744 0.033583973 0.027544528
0003f0 50 07 7e bc 89 9f 00 3c 93 71 93 3d fe 25 1a 3c
       -0.015504673 0.007850536 0.07199397 0.009408472

lstm.bias_ih_l0 f4 [512]
000000 19 f6 2f be 87 01 46 bc c3 9d 5f 3d e3 e0 95 bd
       -0.17183723 -0.012085325 0.054593813 -0.07318284
000010 91 52 09 3c 5f d6 5a 3c eb f1 8f 3c 17 79 f5 ba
       0.008381502 0.013356774 0.01757141 -0.0018728104
000020 ce 02 e6 bd 76 7c 00 be b2 1d 6a 3c 85 c0 e4 bd
       -0.11231004 -0.12547478 0.0142893065 -0.11169533
000030 5d ca 88 3d 79 65 75 bd e2 bd 3e bd 52 f2 97 bd
       0.06679223 -0.059911225 -0.046567805 -0.07419266
000040 13 8d 01 3d e1 a3 cf 3c c6 26 3f bd ea a9 c7 bb
       0.03162868 0.025346698 -0.046667837 -0.0060932534
000050 c0 1c c5 3c 90 61 c1 bb 0c f2 98 bd 95 24 0c bf
       0.02406156 -0.005901523 -0.07468042 -0.5474332
000060 a1 81 be bd 6b 22 9a 3d dc 07 97 be ce 4e 56 be
       -0.093020685 0.07526096 -0.29498184 -0.20928499
000070 6a d5 9a bd 44 2e 82 3d 88 09 67 bd d9 97 b1 bd
       -0.07560237 0.06356481 -0.056405574 -0.08671541
000080 5f d1 90 bd cc 0e 35 3d e2 75 6a be ae 00 18 be
       -0.07071184 0.044203565 -0.22896531 -0.1484401
000090 8b 51 16 bc 46 d3 4b 3d 53 b7 80 bd a8 5b 25 be
       -0.009174715 0.049762033 -0.06284966 -0.16148245
0000a0 a8 e2 23 be dc f4 21 be ff 2d 1b bd 2c 85 57 bd
       -0.16004431 -0.15816063 -0.037885662 -0.052617237
0000b0 72 80 82 bc 84 9d 22 be 9f dc 1f be f3 9f 23 be
       -0.015930388 -0.158804 -0.15611504 -0.15978985
0000c0 da 8c 6a bc 39 1c 65 bd e8 1f 8c be 02 ff dc bd
       -0.014315808 -0.05593512 -0.27368093 -0.107908264
0000d0 1b 8e 0b 3d c2 f0 3c bc b1 7b 90 bb bc f6 62 3d
       0.03407107 -0.0115320105 -0.0044092764 0.055411085
0000e0 20 b3 01 be 4c a1 a1 3d cd 4a 4f 3d 77 c2 03 bd
       -0.12665987 0.07892093 0.050608445 -0.032167878
0000f0 59 37 78 bd 8f 58 96 bd 67 cb 91 3d a4 f8 31 be
       -0.06059966 -0.0734111 0.07118874 -0.17380005
000100 2a 81 f3 bc 18 53 4a be de 31 13 be 04 5b 0e bd
       -0.029724676 -0.1975826 -0.14374492 -0.034754768
000110 7f ea 4d be 2f 23 36 be 8d b0 06 bd 82 59 50 be
       -0.20108984 -0.17786859 -0.032883216 -0.20346645
000120 6b 14 6b bd 1e e9 6d 3d 28 58 b3 bd c4 46 c2 3a
       -0.05739252 0.058083646 -0.08757049 0.0014822115
000130 44 ec eb bd 8a 10 7d 3c f4 bb 8c bc 05 cf a3 bd
       -0.115196735 0.015445838 -0.017179467 -0.0799847
000140 3a a6 f5 bc cd f2 ee bd e6 82 88 bf fd 64 a7 bd
       -0.02998649 -0.11667404 -1.0664947 -0.08173559
000150 8d d0 cb bd 0d 10 ce 3c 96 4e e0 bd 93 67 3a be
       -0.09951887 0.025154138 -0.10952489 -0.18203573
000160 11 30 05 be 6f bc 18 be 22 90 ec bb e9 7e 40 be
       -0.13006617 -0.14915632 -0.0072193304 -0.18798412
000170 6d f0 17 be 7b 6d 0d be 84 b1 dd bd ad 15 dc bd
       -0.14837809 -0.13811295 -0.10824874 -0.10746322
000180 27 e9 d8 bd e0 5b 97 3d f7 ae 93 3c 35 33 a1 3c
       -0.10591345 0.07390571 0.018027766 0.019677738
000190 d4 8d d9 3c 00 a8 b5 be c9 ec e9 bd 5b 86 68 3c
       0.026556887 -0.35479736 -0.11422116 0.014192189
0001a0 5a 85 8f bd a5 c7 78 bd 7a af 38 bd 37 9f 1f bd
       -0.07007857 -0.06073727 -0.045089222 -0.0389702
0001b0 a2 db 31 be 0f 06 03 bd 0e a7 94 3d 39 fc d7 bd
       -0.1736894 -0.0319882 0.07258426 -0.105461545
0001c0 95 80 06 3d 3b 16 41 bf 74 c4 b4 bd dd 6c f3 bd
       0.03283747 -0.75424546 -0.08826533 -0.118859984
0001d0 b0 4f de bb 58 c0 67 be 05 bd dc bd 06 ef 55 be
       -0.006784402 -0.22631967 -0.1077824 -0.20891961
0001e0 a1 20 20 be bc bc 00 be 8d b2 09 bc 32 b1 b1 3d
       -0.15637447 -0.12571996 -0.008404386 0.086763754
0001f0 81 dd ea bc a2 a1 06 bd 30 7a 45 bd c5 94 61 3d
       -0.028670074 -0.03286899 -0.04821223 0.05507352
000200 b7 fe ba 3c 38 69 84 bd 2e b6 6a ba 8c bd a3 3d
       0.022826536 -0.064653814 -0.00089535385 0.079951376
000210 16 d3 2b bd c9 59 27 3d 9b 3e 98 3b 99 2e e8 bc
       -0.041949354 0.04085711 0.004646135 -0.028342532
000220 66 1d 15 3e 74 13 44 3d 46 7b 91 bd 34 5b 1b bd
       0.14561996 0.047870114 -0.07103591 -0.037928775
000230 0a de 12 3e 43 0d ce 3d 82 c4 d7 3d 84 79 3e bd
       0.14342514 0.10061123 0.10535528 -0.046502605
000240 63 2b 49 bb eb 6d 19 3e 04 90 43 bd e3 0a 94 bd
       -0.0030696027 0.14983337 -0.047744766 -0.07228639
000250 ff 11 e6 3c 34 81 63 3d e5 41 16 3e e0 18 fd 3e
       0.028084753 0.05554314 0.14673574 0.4943304
000260 d5 e1 ba 3d d9 91 80 3c 53 24 9d 3e 46 12 af 3e
       0.09125105 0.015694546 0.30691776 0.3419363
000270 cf ef c8 3d 46 04 3d 3d 57 d4 ca 3d a9 a3 1d bd
       0.09811365 0.046146654 0.09903782 -0.038486157
000280 45 04 de 3d f5 c4 34 3c 22 61 40 3d 1b c5 1e bd
       0.10840658 0.011033286 0.046967633 -0.038762193
000290 6b 7a 76 bd 23 49 a8 3d 8a e4 70 3c 53 49 72 bc
       -0.06017534 0.08217075 0.014702925 -0.01478799
0002a0 31 87 43 bc 0c a7 83 bc 64 5a a8 3c dd 11 67 3c
       -0.011934088 -0.016070865 0.020550914 0.01410338
0002b0 28 e3 db 39 b1 1c 98 3d b2 9b 1a 3e 71 40 6e 3d
       0.0004194018 0.074273475 0.15098456 0.058166925
0002c0 e1 c0 5a bd 81 72 40 bc 65 48 a8 3e a0 17 12 bd
       -0.0534066 -0.01174605 0.32867733 -0.03566706
0002d0 49 ad b1 3d c9 bf 58 3b d8 86 bc 3d be 89 2a 3d
       0.0867563 0.0033073297 0.09205407 0.041635267
0002e0 86 99 89 3d 9c c9 69 3d 99 5b a5 3d ae cf 3a bd
       0.067187354 0.057077035 0.080741115 -0.045608215
0002f0 83 06 85 bd 7f d7 aa bc 9a 9b 4f 3d f1 43 60 bd
       -0.06495383 -0.02085471 0.050685503 -0.054752294
000300 10 58 1d 3e ac 95 59 3e 93 37 8e 3e 39 ec 7d bd
       0.15365624 0.21248502 0.27776775 -0.061992858
000310 6b 0d 06 3e f5 6f 3c 3e 9e 00 91 3d e2 1b 76 bd
       0.13091056 0.18402083 0.07080196 -0.060085185
000320 66 c7 8f bd 40 e3 0b bc 73 0b 3e 3e 9e 31 96 3d
       -0.07020454 -0.008538067 0.18559055 0.073336825
000330 33 79 7e 3d 4d bc a6 3d 65 0a d2 bb 5b b3 0e 3d
       0.062127303 0.08141384 -0.0064099305 0.034839015
000340 5a b7 d8 3d c1 3f a3 bd b0 7f dd 3f 18 9b ce bc
       0.105818465 -0.079711445 1.7304592 -0.025220439
000350 94 ea 93 bc 92 ca a0 bd d6 ca 57 bd df 89 a8 3c
       -0.018056192 -0.07851137 -0.052683674 0.020573555
000360 48 b6 70 3d 8b 33 c4 bc fa 14 64 3d 3b 1c 22 bd
       0.058767587 -0.023950359 0.055684067 -0.039577704
000370 27 c6 d4 3d 12 60 21 3b 23 d6 38 bc 8a 14 93 bd
       0.10389357 0.0024623913 -0.011281523 -0.07181652
000380 c0 d1 04 3e f8 dd 19 3e d6 33 20 3c c8 8f fe 3d
       0.12970638 0.1502608 0.009777984 0.12429768
000390 0a 60 7b bd 81 64 49 3e c8 58 24 bc cb 35 48 3d
       -0.061370887 0.19667245 -0.010030933 0.048879426
0003a0 28 f1 c2 3d 26 3d b6 3d 28 e5 a4 bd de bd a6 3d
       0.09518653 0.08898382 -0.080515206 0.08141683
0003b0 3a 0f 44 3e cb 79 7c ba 6c 07 cf bc 29 f4 48 3e
       0.19146433 -0.00096311857 -0.025272094 0.1962439
0003c0 fe 22 17 3d 32 e3 44 3f 38 b3 1c 3d 65 28 82 3e
       0.036898606 0.7690917 0.038256854 0.25421444
0003d0 98 ac ac 3d f8 be 0e 3d f5 e0 01 bc 0c 16 85 3e
       0.08431357 0.03485009 -0.007927169 0.25993383
0003e0 b8 0c ab 3e 98 f2 08 bd 6a bd 4e bd a0 f5 df bc
       0.3340814 -0.03343448 -0.050473608 -0.027338803
0003f0 d8 64 b8 3d d7 11 1a bc f2 ab 44 3d 4b b1 aa 3c
       0.090036094 -0.009403667 0.048015542 0.020836493

lstm.bias_hh_l0 f4 [512]
000000 b0 8a f5 bd fb 78 76 3d 54 27 7a 3d 00 2b e0 bb
       -0.11989343 0.06017397 0.061072662 -0.0068410635
000010 ce 24 2f 3c a9 8a c5 bd a3 c8 3e 3a aa b6 4a bc
       0.010689927 -0.09645588 0.0007277822 -0.012372652
000020 6b 06 f8 bd 6e 7b de bb 8a 08 cd bd f4 cf 05 be
       -0.12110599 -0.0067896163 -0.10011394 -0.13067609
000030 9a 2d 6e 3d 02 7f b9 3c 9f ce 4f be 4e e0 86 bd
       0.058148958 0.02264357 -0.20293663 -0.065857515
000040 c6 fd 45 3d 9d 20 4c bd 30 75 b0 bb 61 6f 33 3d
       0.04833772 -0.04983579 -0.0053850636 0.04380739
000050 0b bf e6 3c 2c f7 d9 bd ba 77 b0 bd 47 3f db be
       0.028167268 -0.106428474 -0.08616586 -0.42821714
000060 0e 2c 8b bd b6 0d a8 bc 26 07 86 be 17 91 6a be
       -0.06795512 -0.02051435 -0.2617733 -0.2290691
000070 af 0d 37 be 73 72 3e 3d ef 55 15 be 5e 80 1a 3d
       -0.17876314 0.046495866 -0.14583562 0.037720077
000080 53 00 be 3c 6f fd c9 bd 5f f4 1d be c0 3f e4 bd
       0.023193514 -0.09862792 -0.15425251 -0.11144972
000090 d9 12 22 bc 11 18 b9 bc 33 4d b6 bd 9e e1 5f be
       -0.009892189 -0.022594484 -0.08901443 -0.2186341
0000a0 24 0c 41 be f6 be c6 bc 6f aa ba bd de 58 e5 bd
       -0.18852288 -0.02426098 -0.09114539 -0.11198591
0000b0 15 52 0c be b3 de 25 bc 40 7a ea bd 81 63 3d be
       -0.13703187 -0.010123896 -0.114490986 -0.18494989
0000c0 fe 75 13 3c 18 f1 ca bd db cd 31 be d0 8b 87 bd
       0.0090002995 -0.09909266 -0.17363684 -0.06618464
0000d0 cf a3 90 bd 00 43 bc bb 50 1f d8 bd 09 3b 7d 3d
       -0.07062494 -0.0057452917 -0.105528474 0.06182388
0000e0 4c dc b1 bd 14 97 95 3c 1c f3 72 bd d0 19 7b 3d
       -0.086845964 0.018260516 -0.05931388 0.061303914
0000f0 40 10 59 3c bd bb 46 3c 12 60 fd bc be 12 4d be
       0.013248503 0.012129721 -0.030929599 -0.20026681
000100 da 50 8f bd d5 2d 8f be b5 c3 27 be 28 a4 4b bd
       -0.06997843 -0.27964655 -0.1638325 -0.0497171
000110 32 89 12 be 4f b9 82 be 5e dd 6c bc 9f f3 66 bd
       -0.14310148 -0.25532004 -0.014457075 -0.05638468
000120 92 e5 85 3c cf a8 c5 bd a7 52 21 3d 44 bd 08 3d
       0.01634482 -0.09651338 0.039385464 0.033383623
000130 fc 7f ae bd 5f 12 90 bc 76 69 51 bd 78 9d 37 be
       -0.08520505 -0.017586885 -0.051125966 -0.17931163
000140 51 6c ba bd ae 3f be bc bf b9 99 bf 0c 06 6a bd
       -0.09102691 -0.023223724 -1.200981 -0.057134673
000150 0e f6 47 bc f2 f5 fb bc e3 fe 06 3c 46 dd 2b be
       -0.01220466 -0.030756924 0.008239481 -0.16783628
000160 4f 2c 9e bd 56 de b9 bd f0 15 11 bc 44 59 10 be
       -0.07723295 -0.0907561 -0.008855328 -0.14096552
000170 9a 28 35 be 95 59 40 bd 0c 59 b7 3c dd cd 0f be
       -0.1769127 -0.046960432 0.022381328 -0.14043374
000180 33 58 aa bd 30 3d c9 bd ef c6 b4 3c 92 19 8f bd
       -0.08317604 -0.09826124 0.022067515 -0.06987299
000190 e4 89 d5 bd 63 ff a8 be e6 dc e2 bd d9 ac 24 3c
       -0.10426691 -0.33007345 -0.11077289 0.010050976
0001a0 39 b8 3b bd 5f 91 89 bd 1e cf 93 3d be aa b3 3c
       -0.045829985 -0.067171805 0.07217239 0.021932002
0001b0 a9 3e 5a be f2 86 af bd a1 e0 4c 3b 9c 2d 73 be
       -0.21312965 -0.08570661 0.003126182 -0.23747867
0001c0 09 83 38 bc eb 6b 35 bf 8a 9f 0d be 2f 0c 07 be
       -0.01126171 -0.70867795 -0.1383039 -0.13188241
0001d0 d5 7e ee bc 00 04 6d be 51 55 7a bd 79 6b 0e be
       -0.029113213 -0.23146057 -0.06111652 -0.13908185
0001e0 a4 cc 8c be a4 39 a1 bd ed 2b 49 bd 07 26 5a 3d
       -0.27499878 -0.07872322 -0.049114157 0.053258922
0001f0 19 67 0a 3d d2 9a 87 bd c5 79 6e bb 98 51 ea 3c
       0.033789728 -0.066213265 -0.0036388498 0.02860336
000200 0d 3c d0 3d 6f 7d 35 bd 8e 91 d0 bc b0 78 52 bd
       0.10167704 -0.044309076 -0.02546003 -0.051384628
000210 de 16 9d 3d c4 77 ce 3d b1 13 73 3c 5f 16 95 3d
       0.07670377 0.10081437 0.014836238 0.072796576
000220 30 9a 23 3e 64 d7 9c 3d b2 22 cb 3b 38 84 21 3d
       0.15976787 0.0765827 0.0061992044 0.039432734
000230 61 88 fe 3d f5 3b ec 3d 51 1f 05 3e b6 c1 b3 3d
       0.12428356 0.115348734 0.13000228 0.08777182
000240 c6 2b 60 3b 93 a2 66 3e f7 48 dd 3d f5 b6 f5 bc
       0.0034205779 0.22522955 0.108049326 -0.029994467
000250 75 23 27 bd 85 16 8e bc 5a 08 b2 3d 71 08 14 3f
       -0.0408053 -0.017344723 0.08692999 0.5782538
000260 49 7f 68 3d 29 9e 8b bd 4c 23 82 3e 6b 7b b0 3e
       0.056762014 -0.06817276 0.25417554 0.3446916
000270 36 30 7a 3c 38 b1 f5 bc 5c cf 0a bd fd 2e ba 3d
       0.015270283 -0.029991731 -0.03388916 0.090909936
000280 06 8e 85 3d 21 ff 6c 3d bf 93 f3 3d 2a be d4 3d
       0.065212294 0.057860497 0.11893415 0.103878334
000290 d0 ec 23 bd 02 17 50 3c 24 ea b7 bb 48 cc 48 bd
       -0.040020764 0.012700798 -0.0056126285 -0.049022943
0002a0 71 14 e0 3c f0 26 90 3d 37 01 2b 3d de 09 30 bc
       0.027353497 0.07038677 0.041749205 -0.01074454
0002b0 34 ca 46 3d bc f4 47 3d 89 f4 03 3e ed 07 5a 3d
       0.04853268 0.04881738 0.12886252 0.053230215
0002c0 06 17 ca bc c3 8e 49 3d f7 7b bc 3e 7f 69 53 bd
       -0.024669182 0.049208414 0.36813328 -0.05161428
0002d0 2a 19 52 3d b1 61 cc 3d 65 cb e9 bc b5 8f 13 bc
       0.05129353 0.09979571 -0.028539369 -0.00900643
0002e0 08 2b 46 bd 7d 3d d4 bc 2d cd 5a bd b7 89 0b 3c
       -0.04838088 -0.025908226 -0.053418327 0.0085167205
0002f0 58 e7 e3 bb db f8 ca 3c 94 69 d0 3d 84 44 04 bc
       -0.0069550686 0.024776867 0.101763874 -0.008072976
000300 0a 8a 05 3e 9f 8f 90 3d 63 56 55 3e 87 bb 7d 3d
       0.13040939 0.070586435 0.20833735 0.061946418
000310 ec 45 25 3e 35 7d 85 3e e3 8a 45 bd b7 ed 4d 3d
       0.16139954 0.26072088 -0.048228156 0.05027553
000320 e8 27 02 bd c5 d2 4f 3d a3 84 1c 3e 0c 65 03 3d
       -0.03177634 0.050738115 0.15284972 0.032078788
000330 6c 02 4f bb 11 f4 9f bc 17 66 e0 3d e4 41 67 bd
       -0.0031587137 -0.01952556 0.10956972 -0.056459323
000340 7a 25 10 3e 26 6d 00 3d b2 53 dd 3f 6a 41 94 3c
       0.14076796 0.031354092 1.7291167 0.018097598
000350 8a 41 33 bd db 15 0f 3b 25 f8 b0 bd 4e b0 34 bc
       -0.043763675 0.0021833095 -0.0864108 -0.011028362
000360 9b 49 70 3c 8a d1 9d 3b 4f b6 5b 3d 3b 5c 38 bc
       0.014665986 0.004816239 0.05364066 -0.011252458
000370 9f ee 03 3e 92 bd 5f bd ef 7d 2d 3d 34 53 5a bd
       0.12883995 -0.054624148 0.042356428 -0.053302005
000380 d6 5c 04 3c 46 3b 2f 3e 7f a3 1c bc 57 02 d2 3d
       0.008078774 0.17112455 -0.009560465 0.102543525
000390 d8 8b a8 3d 04 2b 6b 3e df 56 b1 bd 56 5a e4 3b
       0.08229798 0.22965628 -0.086591475 0.0069687767
0003a0 1d 8c 2d 3d 5d 25 3a bc 26 f9 f0 3c bc 5f 96 bc
       0.04236995 -0.011361447 0.029415678 -0.018356197
0003b0 1f e6 0f 3e 4a 5f ed 3d 04 77 76 3d a4 cb 97 3d
       0.14052628 0.115904406 0.060172096 0.07411888
0003c0 c9 57 4f 3d bb 32 50 3f 80 d3 49 3d a5 75 7e 3e
       0.050620828 0.8132741 0.049273968 0.24849565
0003d0 bf d2 a4 bc f6 75 f4 3d 1e 61 4b bc a6 ea c8 3d
       -0.020120023 0.11936562 -0.012413291 0.09810381
0003e0 e3 ea bb 3e 14 25 32 3d b7 ff 80 bd db a8 e2 bc
       0.36702642 0.04349239 -0.06298774 -0.027668407
0003f0 c9 ee 5e 3d cd 36 3d bd de c4 e3 bc 80 d7 00 3d
       0.054426942 -0.04619484 -0.027803835 0.031455517

pitch_linear.weight f4 [128, 128]
000000 93 19 84 be fd e6 02 3e 8f 03 9f 3c db 0e cd 3d
       -0.25800762 0.12783428 0.019410877 0.10012599
000010 1b 29 63 3d b7 28 81 3e ed df 08 3c b8 0e 87 3e
       0.055459123 0.25226375 0.008354169 0.26378417
000020 7b be dd 3e ba 83 b9 3d cf 04 82 bd e1 4b e4 3c
       0.43309388 0.09058328 -0.063485734 0.027868213
000030 65 71 80 be 9d 68 17 be eb 34 da bc b9 ee a7 3a
       -0.25086513 -0.14786 -0.026636561 0.0012812234
000040 fe 8c 99 3b c9 7c 8a be 2a 1c 21 be 30 c4 92 3d
       0.004685997 -0.2704833 -0.157334 0.07166326
000050 6b 7b 8e 3e cf 47 80 be f5 8c 3a 3e 86 1e 80 be
       0.27828535 -0.25054786 0.18217833 -0.25023288
000060 5b 1d a7 3b 6a ea 9f 3d 20 72 93 3e 3b b8 ab be
       0.005099935 0.07808383 0.28798008 -0.33538994
000070 de 5a 85 be 04 8e a7 bc 70 c9 01 bd 41 d7 b2 bd
       -0.2604589 -0.02045346 -0.031686246 -0.08732463
000080 34 8b 90 bd 0b ce 7e 3d fb ed c9 3e a1 10 b1 3d
       -0.07057801 0.062208217 0.39439377 0.0864575
000090 59 d6 08 bc 97 23 01 3e e9 30 4d be eb 29 87 be
       -0.008351886 0.12611233 -0.20038189 -0.26399168
0000a0 0c 84 50 bb 9a 70 3f be fb 24 92 3d a3 86 e8 3c
       -0.0031816987 -0.18695298 0.0713596 0.028384512
0000b0 a8 c2 5d be 6d 57 62 3d 35 a3 32 3e 51 9c a8 be
       -0.21656287 0.055259157 0.17445071 -0.3293176
0000c0 af 6b c0 3c c7 37 71 bc 6f e9 e7 be 44 d9 11 3d
       0.023488848 -0.014722771 -0.45295283 0.03560759
0000d0 90 00 80 3d 8e db 4c bd 21 b7 57 bd 19 2b 23 bc
       0.06250107 -0.05001407 -0.05266488 -0.009959006
0000e0 36 bb 57 3d a0 b1 3c 3d 98 98 2d be 9d 25 86 bd
       0.052668773 0.046067834 -0.16952741 -0.06550143
0000f0 4d b0 ac bc 00 36 1e 3d e6 45 10 3d 0e d5 39 3e
       -0.02108016 0.038625717 0.03522291 0.1814768
000100 34 1c 8a be 67 06 9d 3e cc 52 87 3e 51 aa b8 3c
       -0.26974642 0.30668947 0.26430357 0.02254215
000110 2b 43 df be aa de 8f 3e 16 75 ec 3c 19 ae 34 be
       -0.43605933 0.28099567 0.028864425 -0.17644538
000120 46 8e c4 3a 20 ad 95 bd 3a 1f 44 be af 71 e7 3d
       0.0014996014 -0.073084116 -0.19152537 0.1130098
000130 ff 91 bd be 06 34 cd 3d c4 23 34 3e 06 c1 9a 3e
       -0.3702545 0.10019688 0.17591769 0.3022539
000140 88 42 a2 be bb 24 01 bd db 28 fb 3e da a8 c4 bc
       -0.31691384 -0.03152917 0.49054608 -0.024006296
000150 3c 34 b6 bd 05 23 de bd 42 04 c7 3d 61 ae 43 be
       -0.08896682 -0.10846523 0.09717609 -0.19109489
000160 df 02 00 be be 19 97 3c 2a 45 73 3d 1e 12 0a bd
       -0.12501095 0.018444892 0.059392132 -0.033708684
000170 c5 ee 50 3e e0 f6 42 bd c3 0d 80 3e 14 7f 44 3e
       0.20403583 -0.04759872 0.250105 0.19189101
000180 bc ac 87 3e 23 84 d1 be 9d 2d 04 3e 1e ad 7a 3e
       0.26498973 -0.40921125 0.12908025 0.24480101
000190 6e 4e 75 be 34 e7 8b be a3 7c b7 bd ac 51 43 3e
       -0.239557 -0.2732483 -0.089593194 0.19074124
0001a0 79 6a c2 be b6 46 69 bd 04 42 de 3d 4e 16 13 3e
       -0.37971857 -0.0569522 0.10852435 0.14363977
0001b0 00 00 80 3e a2 7f 2a be 5d 5f 00 3e 4b 57 07 be
       0.25 -0.1665025 0.12536378 -0.13216893
0001c0 20 95 b3 bd 4f b9 b1 be e4 64 c2 bd 3d 06 80 3e
       -0.08768678 -0.34711692 -0.094918996 0.2500476
0001d0 a2 eb 3b 3e 04 a4 c7 bd 37 e7 59 3e d2 e6 25 be
       0.18351606 -0.097480804 0.21279608 -0.16201332
0001e0 7a 7f 2f bd 03 d5 e1 bc 4f 2f 31 3e b3 ef 14 be
       -0.04284618 -0.027567392 0.17303203 -0.14544563
0001f0 cd cc 86 3d 73 c2 00 3e d0 f9 57 bd 5b 1e a6 3d
       0.065820314 0.12574176 -0.052728474 0.081112586
000200 57 da 51 be 39 74 43 3e 84 eb 52 3d ac de b3 3d
       -0.20493446 0.19087304 0.051494136 0.08782706
000210 bb b5 e8 3d 60 91 0c 3e 44 37 9a 3d 00 00 80 3e
       0.11362787 0.13727331 0.07530072 0.25
000220 b4 8a de 3e 99 00 00 3e 36 c4 f3 ba 75 6e 81 3d
       0.43465197 0.12500228 -0.0018597904 0.06319896
000230 e9 0d 17 be 5f 50 09 be 39 b9 e2 3c 68 a2 c2 bd
       -0.147514 -0.13409565 0.027676212 -0.09503633
000240 35 f1 de bb 76 64 83 be fe a2 fe bd fb 79 00 3e
       -0.0068036565 -0.25662583 -0.12433432 0.12546532
000250 e4 60 83 3e 75 ed 74 be a0 33 3a 3e 77 da 4c be
       0.2565986 -0.23918708 0.18183756 -0.20005213
000260 7f f5 27 bd c8 14 07 3e ae bf 75 3e a4 5f d1 be
       -0.041005608 0.13191521 0.23998901 -0.4089328
000270 1a 0a 30 be ed 04 62 3c 21 90 e7 bd 13 66 0e be
       -0.17191353 0.01379512 -0.11306787 -0.13906126
000280 8c bf 4d 3a e0 91 49 3b 40 cd cf 3e 62 16 14 3d
       0.0007848672 0.0030757114 0.4058628 0.03615416
000290 8d 30 17 3d de 8c 01 3e 00 00 80 be 4f 7e 2b be
       0.036911536 0.12651393 -0.25 -0.16747402
0002a0 87 96 a0 bd 0f 0d cf bd b7 52 81 3d 89 fe 30 3e
       -0.07841211 -0.101099126 0.06314605 0.17284597
0002b0 f4 76 81 be de e6 c2 3d 3a f1 2f 3e ce 99 b3 be
       -0.25286067 0.09516691 0.17181864 -0.3507828
0002c0 58 f0 69 3b 38 a4 b3 3d 7a 9e b9 be 49 bb 6a 3d
       0.0035696235 0.087715566 -0.3625372 0.057307515
0002d0 2e f9 9f bc 49 27 24 be cf 90 42 bd d6 39 af bd
       -0.019527998 -0.16030611 -0.04750138 -0.08555953
0002e0 8f 7d bc 3d 60 ce 9d 3d 0a 80 9b bd 67 e8 61 be
       0.09203636 0.077053785 -0.07592781 -0.2206131
0002f0 87 0e d1 3d 9c 9a 76 3d 76 a5 4a 3d 1b b9 83 3e
       0.10207849 0.06020604 0.049474202 0.25727162
000300 43 bf 89 be 49 56 44 3e 81 1e 23 3e 6b d5 0c 3e
       -0.26903734 0.1917354 0.15929605 0.13753287
000310 e0 d8 b4 be 75 24 b1 3e 23 83 82 bd 5e 04 10 be
       -0.35321712 0.34598127 -0.063726686 -0.14064166
000320 b0 2d f0 bd 90 16 f0 bd 58 0f 75 be 01 30 bc bc
       -0.11727464 -0.117230535 -0.23931634 -0.022972109
000330 db 31 84 be 1d cd 0a bd 0b 02 48 3d 45 39 8e 3e
       -0.25819287 -0.033887018 0.048830073 0.27778068
000340 33 00 80 be 83 17 f1 3d 34 d1 b9 3e b3 17 30 3d
       -0.25000152 0.11772063 0.36292422 0.04299135
000350 84 9a 13 bd c3 35 7c bb 6d af 1e 3e 68 2e 56 be
       -0.03603603 -0.0038484193 0.15496607 -0.2091614
000360 92 59 69 bd 57 85 ab bc 7f 3e f3 3d 8b a3 8f bd
       -0.056970187 -0.020937605 0.118771546 -0.07013615
000370 65 f5 1d 3e c4 36 8b bd 54 2c 80 3e 37 9e 70 3e
       0.15425642 -0.06797555 0.2503382 0.23497854
000380 64 65 99 3e c1 bc c4 be 67 30 00 3e 2e 27 b6 3e
       0.29960167 -0.38425258 0.12518464 0.35576767
000390 7e a2 59 be 15 d5 9b be ec 9f 6f 3d b3 6f 25 3e
       -0.21253392 -0.30436006 0.058502123 0.16155891
0003a0 d6 1f b9 be 8b 4d 46 bd 17 45 14 3e 48 0f 56 3d
       -0.361571 -0.048413794 0.1447948 0.052260667
0003b0 59 8a 83 3e 98 0e 80 be f1 24 ba 3d e9 a6 6c bd
       0.25691488 -0.25011134 0.09089077 -0.057776365
0003c0 c0 aa 07 3d 58 bb 54 be 2a 5a fe bd ea 06 80 3e
       0.033121824 -0.20774591 -0.12419541 0.25005275
0003d0 1f b7 3e 3e bc 32 a1 bd 64 1d 83 3e 60 f1 54 be
       0.18624543 -0.07871005 0.2560836 -0.20795202
0003e0 34 14 30 be 16 62 2e be 49 5d 17 3e 6a 22 42 bd
       -0.17195207 -0.17029604 0.14781679 -0.0473961
0003f0 d8 15 fb 3d ce 09 13 3e 4f c0 a7 bc 1f 83 26 3e
       0.12260026 0.14359209 -0.020477442 0.16260956

pitch_linear.bias f4 [128]
000000 28 19 d2 bf 6a e8 de bf 48 fc d7 bf c4 bf dc bf
       -1.6413927 -1.7414677 -1.6873865 -1.7246022
000010 bb 56 e0 bf cd cf e1 bf 06 3f de bf 48 95 d7 bf
       -1.7526468 -1.7641541 -1.7362983 -1.6842432
000020 34 a7 dd bf f7 39 d7 bf 8e 6a e5 bf 8c 6a e2 bf
       -1.7316651 -1.6814564 -1.7923143 -1.7688766
000030 8d 6d d8 bf eb db d8 bf 4a 0f d5 bf f1 4c d9 bf
       -1.6908432 -1.6942114 -1.6645291 -1.6976606
000040 fd 5d d8 bf 92 f0 dc bf 3e 26 d8 bf 0a 2c dd bf
       -1.6903683 -1.7260916 -1.688667 -1.7279065
000050 6b d6 d6 bf e4 f9 db bf b3 00 db bf d6 d8 d6 bf
       -1.6784185 -1.7185636 -1.7109588 -1.6784923
000060 de f8 d9 bf 77 7e d2 bf f6 2f d8 bf 16 54 dd bf
       -1.7029073 -1.6444844 -1.6889637 -1.7291286
000070 50 c6 d3 bf 5c 98 c0 bf 00 c0 b9 bf 45 33 a7 bf
       -1.6544895 -1.5046496 -1.4511719 -1.3062521
000080 27 9d 98 bf 30 54 85 bf d1 6e 82 bf 9c 9a 72 bf
       -1.1922959 -1.0416317 -1.0190068 -0.94767165
000090 2b 26 a8 be e4 7f f4 be 08 95 b8 be 45 8d a1 be
       -0.3284162 -0.47753823 -0.36051202 -0.31553093
0000a0 cd 78 36 be 38 48 cf 3d 82 c4 4d bd 5f f9 f4 3e
       -0.1781952 0.101211965 -0.050236233 0.47846505
0000b0 51 07 f6 3e 54 c0 2a 3f 76 18 2c 3f ba f0 0a 3f
       0.48052457 0.6669972 0.67224824 0.5427357
0000c0 40 06 bd 3f d0 79 81 3f fa 7a dc 3f 67 69 c2 3f
       1.4767532 1.0115299 1.722503 1.5188416
0000d0 4b 51 dd 3f 26 bb f7 3f cb 52 e3 3f 14 69 04 40
       1.7290434 1.9353988 1.7759641 2.0689135
0000e0 ec 58 02 40 41 1e 0d 40 ab ae 0b 40 84 88 fd 3f
       2.0366774 2.2049716 2.182536 1.9807286
0000f0 69 15 11 40 81 ce 08 40 04 af 19 40 c7 96 0d 40
       2.2669318 2.137604 2.401307 2.2123277
000100 4b 44 12 40 a3 a2 10 40 47 17 08 40 28 65 15 40
       2.2854183 2.2599266 2.1264207 2.334299
000110 2f 5e 07 40 c5 69 12 40 00 5a 02 40 4e c6 fe 3f
       2.1151235 2.2877057 2.0367432 1.9904268
000120 ee a6 03 40 bc 4c fa 3f 4e 06 05 40 69 db e4 3f
       2.0570636 1.9554667 2.0785098 1.7879459
000130 87 17 d9 3f 14 1e dd 3f cc 8d ab 3f da 78 c2 3f
       1.6960305 1.7274804 1.3402648 1.5193131
000140 fb 72 88 3f 42 f7 80 3f ab b8 ae 3e fc 8e dd 3d
       1.0660089 1.0075457 0.34125265 0.10818288
000150 e5 c7 f2 3d 97 1c 57 be ed 9e 86 be 5d 9a f0 be
       0.11854533 -0.21007 -0.26293126 -0.4699277
000160 ce 51 f9 be 70 aa 12 bf d5 0f 58 bf c0 54 73 bf
       -0.48695225 -0.57291317 -0.8439916 -0.95051193
000170 48 ab 8f bf 39 c5 9c bf 02 ce a6 bf c6 05 be bf
       -1.1224146 -1.2247688 -1.3031619 -1.4845512
000180 6f 0b ca bf 26 f2 cc bf d6 38 d1 bf ee 21 d4 bf
       -1.5784739 -1.6011398 -1.634547 -1.6572855
000190 58 84 da bf 1a ed d7 bf a2 62 dd bf 7a c4 d9 bf
       -1.7071638 -1.6869233 -1.7295725 -1.7013085
0001a0 c4 2f e3 bf 82 3e dc bf 84 5f da bf fa 5a d9 bf
       -1.7748952 -1.7206576 -1.7060399 -1.6980889
0001b0 6b 9b e2 bf 41 80 da bf a1 fe d8 bf 65 e1 d9 bf
       -1.770368 -1.707039 -1.6952707 -1.702191
0001c0 7f 8d dd bf af d3 db bf 59 bf e1 bf ba 80 e2 bf
       -1.7308806 -1.7173976 -1.763652 -1.7695534
0001d0 9e 7f e4 bf 4a 00 d8 bf fa 6f d7 bf 07 da d7 bf
       -1.7851446 -1.6875088 -1.6831048 -1.6863412
0001e0 ec 7c dd bf f5 39 df bf b4 f5 e2 bf 4b 85 e2 bf
       -1.7303748 -1.7439562 -1.7731233 -1.7696928
0001f0 6a d9 d7 bf dc e2 df bf 25 47 e0 bf 42 a3 d8 bf
       -1.6863225 -1.7491107 -1.7521712 -1.6924822

step_linear.weight f4 [1, 128]
000000 87 b5 89 bc 20 91 98 3b 73 74 92 bb 36 48 18 3c
       -0.016810192 0.004655972 -0.0044694482 0.00929456
000010 90 93 92 bb 7d 28 fb 3b 0c c8 bb 3b 83 4b 5c 38
       -0.004473157 0.0076647387 0.0057306346 5.2522413e-05
000020 d9 e5 c3 3d e5 38 53 bc 4e 50 8c 3b 6c b9 cf 3b
       0.09565324 -0.012891983 0.004282034 0.0063392427
000030 1f c4 77 3c d6 42 8b bc ad 9f f1 bc cf 93 80 38
       0.0151224425 -0.016999643 -0.029495085 6.131047e-05
000040 a0 c0 2a bc bf 47 df bc 48 40 d6 3b 9b 89 9f bb
       -0.010421902 -0.02725589 0.0065384246 -0.004868699
000050 93 c2 73 3b 67 83 ce bb 93 64 5b bb 31 f7 03 3e
       0.0037194833 -0.0063022855 -0.0033476695 0.12887265
000060 1b eb 90 3c 5c 82 e8 b8 87 f9 04 bd 25 06 1f be
       0.017690232 -0.000110869034 -0.03246453 -0.15529688
000070 da 1f 80 bd 4f db 87 3a 7a 8c c1 bc 99 fe c3 bc
       -0.06256075 0.0010365042 -0.023626555 -0.023925113
000080 33 26 47 bb d6 81 81 bb 02 f1 73 bc 49 4c 5f bc
       -0.0030387759 -0.003952245 -0.014889004 -0.013629028
000090 cc a0 27 bc 31 3e 96 3b a6 c6 1a 3d e4 88 00 bd
       -0.010231208 0.0045850505 0.037787102 -0.03138055
0000a0 01 93 1a 3c 1f b2 96 bc 60 40 0a 3b e0 4c ea bb
       0.0094344625 -0.018395482 0.00210955 -0.0071502775
0000b0 51 3e 32 bc f2 09 90 3d a3 90 3f bc 9f 14 83 bb
       -0.010879115 0.07033147 -0.011692199 -0.004000261
0000c0 9a b5 49 bd c8 12 d8 bc 8d 3e 9e bd 30 00 8a 3c
       -0.049245454 -0.026376143 -0.07726774 0.016845793
0000d0 03 4a d6 3b b2 66 1e ba 1a 09 97 3b f0 94 e7 ba
       0.0065395846 -0.00060425245 0.0046092393 -0.0017668288
0000e0 0f 41 3d bb 15 af ed 3c bb 53 7b bc 3b ab 56 3b
       -0.002887789 0.02901415 -0.015339787 0.003275587
0000f0 74 40 ac 3c bc 73 64 bb 57 24 53 bc 5c fd fc 3a
       0.021026827 -0.0034859022 -0.012887082 0.0019301581
000100 1a b2 bf 3b f5 8b d0 3d ae d5 88 3c 0b b9 37 bb
       0.005850089 0.10182945 0.016703453 -0.0028033878
000110 e4 e2 ac 3c 91 e0 f3 3d 14 ff be 3a 7b 13 85 3b
       0.021104284 0.11908067 0.0014571869 0.00406116
000120 1f 49 f8 bb ac 48 a1 bb 49 80 95 bc 58 4a 29 3c
       -0.007577076 -0.0049219932 -0.018249648 0.010332666
000130 52 49 56 3c 24 05 08 3c 13 2a ad 3a 54 71 24 bd
       0.013079004 0.008302007 0.0013211392 -0.04014714
000140 75 08 58 3c 5c b9 36 bc 63 f1 ae 3e 4e 9e 06 3b
       0.01318561 -0.011152592 0.34168538 0.0020541134
000150 98 a6 bc bc dc a0 01 3b 16 96 65 3c e9 3f e2 3b
       -0.023028657 0.0019779718 0.014012834 0.0069045913
000160 24 c6 1d bc 88 2c 82 bc 73 ba d4 bc 50 bd fd 3b
       -0.00962976 -0.015890375 -0.025967812 0.007743515
000170 17 cb a1 3d 1c d4 3c 3a 26 33 15 bb bc 60 e9 3c
       0.079000644 0.00072032376 -0.0022766083 0.02848851
000180 0f a5 0e bb b3 8d bc b9 46 6e 48 3c 3c db 85 3c
       -0.0021765863 -0.00035963728 0.0122333225 0.01633989
000190 f9 82 cf bc cc 70 2a bd 98 0c 07 3c 51 58 c1 ba
       -0.025331007 -0.041611478 0.008242749 -0.0014751052
0001a0 f5 a6 85 3c ba 5b a4 bc bb c8 2f 3b e5 11 6a 3b
       0.016314963 -0.02006327 0.0026822526 0.0035716232
0001b0 63 6d 37 bd 2c 43 7b bc 88 63 85 bb 9f b8 7f bd
       -0.044782054 -0.015335839 -0.004070703 -0.062431928
0001c0 86 ff 95 bc 14 b6 44 be 41 d4 0d bc 71 dd c9 3c
       -0.01831032 -0.19210082 -0.008656562 0.024641724
0001d0 c3 8f 0b 3c eb ba 01 3d 2d b6 01 3d 12 f0 96 bd
       0.008518162 0.0316724 0.031667877 -0.073700085
0001e0 07 b8 d2 3c da 73 1e 3c a0 8f 8f 3a c5 4d f8 3a
       0.025722517 0.009671176 0.0010952838 0.0018944076
0001f0 4b 2d a2 bc 55 5b 04 3d c3 36 9b ba 5c 8c 02 3c
       -0.019796988 0.032313664 -0.0011841882 0.007968035

duration_linear.weight f4 [1, 128]
000000 aa 2e 11 bc 3c d3 0b 3d 9b 76 88 3c e7 6e dc 3c
       -0.008861223 0.034136996 0.016658118 0.026908351
000010 fb 1c c3 3b 13 79 01 be 7b 89 00 3d 26 44 e1 bb
       0.0059543825 -0.12643842 0.03138111 -0.006874579
000020 c9 12 8d 3e dd 8e 19 3c ce bb b6 bb 51 7e 13 3d
       0.27553394 0.00937244 -0.0055765873 0.036009137
000030 7a 4f a6 3c 31 69 e3 bd 29 47 4f bc b9 91 74 3d
       0.02030157 -0.11104048 -0.012651243 0.059709284
000040 15 f7 a4 3c 59 64 52 bd ff a3 0f bd 6e ac a7 3c
       0.02013735 -0.05136523 -0.03506851 0.020467963
000050 f1 11 b6 3d f0 67 a4 3d 5b 88 f8 bd e1 f4 34 3f
       0.08890141 0.08027637 -0.12135383 0.70686156
000060 dc 10 21 3a 53 27 5b 3b e4 47 33 3e 44 51 88 bc
       0.0006144175 0.0033440187 0.17507893 -0.016640313
000070 65 0e 9e bc 3b 1d bd 3a bc d7 7d 3c 8e 7d aa 3c
       -0.019293973 0.0014428267 0.01549333 0.020811822
000080 33 ca fa bc 49 1f 9f bc 97 e4 16 3e 29 e2 df 3c
       -0.030613994 -0.019424098 0.14735638 0.027329521
000090 1e cd 5f bd 22 e8 a0 3d 9e da 93 bd 9d bb 99 bd
       -0.054638974 0.07856776 -0.07219432 -0.075064875
0000a0 64 1f f5 3c be fb 9a 3d d6 bf 88 bd 3e 14 0b bd
       0.029922195 0.07567547 -0.06677215 -0.03395485
0000b0 63 ad 6f 3b 8e dd c7 bc 2e fe e4 bb 0a 1b 7f bd
       0.0036571852 -0.024397638 -0.0069883084 -0.062281646
0000c0 fb d5 6f bd 6e 7e ed 3d 2d a2 77 3d 31 1f 18 bd
       -0.058553677 0.1159638 0.060457397 -0.03713912
0000d0 1e 82 f5 3c 3f 8c a0 39 fc d9 dd bc b1 07 98 bd
       0.029969271 0.0003062207 -0.027081482 -0.07423342
0000e0 ff 46 ad 3d fa 7e ce bc 7f 1e 0c 3d 3e 05 c4 3c
       0.08460807 -0.025207032 0.03420877 0.02392828
0000f0 68 8d 7f bc 6d 3f 2b 3d ff 31 68 bb 56 ec b2 3d
       -0.015597679 0.041808534 -0.003543019 0.08736484
000100 0c bd aa bc db 3f 0f 3e 15 c7 58 3e 3f 4c 8d 3d
       -0.020842098 0.13989203 0.21169694 0.068993084
000110 d7 14 48 bb 80 8e 31 3e 1f e4 a3 bb a6 e3 ee bd
       -0.003053 0.17339516 -0.0050015594 -0.11664514
000120 0b a7 2e bd bd 77 57 bd e3 a9 bc bd c2 ae be 3a
       -0.042639773 -0.052604426 -0.09212091 0.0014547931
000130 be ec 7f 3d 20 d4 1d 3d c1 4c d5 3c 6c 19 25 3d
       0.062481634 0.038532376 0.026037576 0.040307447
000140 58 9f 83 bc 7a 4d ec 3c 2b 1e bb 3f b9 2e de 3c
       -0.016067192 0.028845537 1.4618582 0.027121888
000150 4b 49 a2 3c 9e 47 ce 3c c6 75 99 3d 52 1e f2 bd
       0.01981034 0.025180634 0.074931666 -0.118221894
000160 95 9a d0 ba 11 4e 35 3b 8e 28 93 bc 2b eb f8 bc
       -0.001591521 0.002766494 -0.017963674 -0.030385574
000170 49 50 95 3d b6 7e ee bd 5b f7 64 bd 7b 0b f3 3d
       0.07290704 -0.11645262 -0.05589996 0.11867424
000180 a9 c4 85 bd 4d 1a 03 3d c0 20 24 3d 3f 87 40 3c
       -0.065316506 0.032007504 0.040070295 0.011750995
000190 5c f2 ea 39 23 fe cc bd a1 b3 04 bd 3c 46 55 bd
       0.0004481253 -0.1000941 -0.03239787 -0.052068934
0001a0 b3 70 ca 3c a7 e0 c7 bd 1e b9 4a 3d 9a 7c 46 3d
       0.024711942 -0.09759646 0.049492948 0.048458673
0001b0 9e 2c 8a bd c9 b9 5a bd 5e fc d4 3d e9 f5 63 3e
       -0.06746791 -0.053399835 0.10399698 0.22261776
0001c0 40 8b 66 bd 3d 87 dc be 60 9a b2 3d 84 0e 0b be
       -0.056285143 -0.4307193 0.08720851 -0.13579756
0001d0 91 70 19 bd cd cf 81 be 5a 8a 95 bc b2 d5 01 3e
       -0.037460867 -0.25353852 -0.018254448 0.12679175
0001e0 c9 dc 9f bd 59 a7 35 bd 3f 2a 7e 3d d2 67 32 3d
       -0.07805783 -0.04434905 0.062052008 0.043556042
0001f0 7c a0 90 3c 30 49 a8 bc 48 48 c6 3c 80 4f 8c 3d
       0.01765465 -0.020542711 0.024204388 0.06851101
