torch/model.pth (torch, 342035 bytes, 8 tensors)

lstm.weight_ih_l0 f4 [512, 3]
00000000: 47d1 e53c a389 7bba a992 e5bc 6ff5 b4bd
00000010: 3378 943d 1deb 51bd 05ec 363d 9d01 843d
00000020: 0c15 a53d 570f ec3c 55d6 a6bd 3234 0fbd
00000030: 6650 46bc ee9b b8bc d402 7c3d 5d3e 823d
00000040: 7f34 29bd 3861 d9bd 9268 4dbd a1fd a1bd
00000050: 8588 5f3c b472 4cbd 7cf6 a73d 86bf 53bd
00000060: 977e d9bc 384b 3a3d 71bd 413d 3773 93bd
00000070: 715d 55bd 2d4e cfbd fc54 fdb9 b7a9 a1bc
00000080: 86dc db3c 52e8 1d3d e135 ab3b b5b4 2cbd
00000090: ae33 b2bd f081 93bc 52aa 8bbd 5ed9 a03d
000000a0: 471f 953c a420 12bd dc82 473d ce47 9ebd
000000b0: 7257 b0bd 356d a2bd 8aff 47bd 9613 b5bd
000000c0: a0fb 483d 0ab0 23bd 932a e5bc b1ea 673d
000000d0: e826 40bd a71c c1bc 6e41 9a3c 702e 5a3c
000000e0: 9f90 54bd 358d c23c 6806 82bc 6bde d6bd
000000f0: e075 c63c e125 ff3c b72e 243d 7d42 16bd
00000100: 589b 293b dd4c c2bd fafd 8e3c df5a bc3c
00000110: 495d 65bd 85c3 833c 2616 fe3b ee98 173d
00000120: 96d0 86bd 6204 ac3c 2428 a13a 1380 863d
00000130: 2376 5e3c 48d8 81bd 5d23 81bd 2350 d03c
00000140: 7938 3ebc 9009 653d fc4d 823c 03ac cb3c
00000150: 1033 1c3d fcaa a23c a76c 85bd b18c a9bc
00000160: 4f3d 503d a82b 793d 9ebc d2bc 9da7 95bd
00000170: 0b12 893d 0a28 c6bc 0d11 50bc a2b3 0e3d
00000180: f871 82bd e6cc 14bd 88cf a5bd 77b7 4f3c
00000190: 2053 a73d 367f 3b3d 40e2 b5bd c84f edbb
000001a0: 41c1 4abc ee57 62bd f004 223d 48d5 763d
000001b0: 8a7a 663d 8435 973d c7aa 8a3d b305 a43d
000001c0: 3ac4 02bd a59c dcbc f065 f73c 2531 983d
000001d0: e02c 233d d3c6 603d ebd8 ec3c 3f24 083d
000001e0: 38aa 9f3d 64dc b53d bbe5 18bd 60ba a63d
000001f0: 7f98 73ba d667 3a3d 2a3c be3c b3a8 c83b
00000200: e457 45bc 31eb 10bd a38b 973d 04be b23d
00000210: 3952 943d e2d9 b33d 1236 01bd 01c8 74bc
00000220: 8081 043b ade8 4f3d 9614 3c3c 68c9 7b3d
00000230: 72bd 2ebd d574 4f3d 2520 b93b e4c6 093d
00000240: 6a96 23bd be38 103c 7644 1d3d 113c 01bd
00000250: b70d b13d 306e 22bc a923 63bd 8ef0 0a3c
00000260: c811 ef3c 8002 95bc 2ec5 433d 1439 56bd
00000270: 03e0 893d bf4f 5abd 981f 96bc f88e 8f3d
00000280: d971 87bd bdab 3d3d b34b ed3b 4088 3fbc
00000290: 0cd1 77bc b6d1 a6bd acca 953d 5df2 9dbb
000002a0: 3f0f 43bd d707 44bd 1383 d63c 789e 92bd
000002b0: 6e97 a73b 2ad3 0ebd 222e 763d 3044 bbbc
000002c0: 9474 04bd f058 893d 4e40 313d acdf 8fbd
000002d0: 70e7 b13d a74c 913d 0a0d 2d3d 0b66 68bd
000002e0: 7c85 3fbd 8622 b9bd 5672 0dbc ba54 233d
000002f0: 779c 173d 33e9 47bd 130a 6a3d f720 7b3c
00000300: ff91 2c3d 7ffb 52bd 2700 a93d 5411 8cbd
00000310: e4fe 8c3d ab6d 0a3c d894 173d 3ab8 6b3d
00000320: 6f29 183c 6961 58bb 2083 303d 5ff4 aebc
00000330: 9bd4 d1bc ac77 423d b52f 493b 5c2e 46bd
00000340: 2bff 20bd b010 55bd d8ba 783d 2243 9f3d
00000350: 59ee a13d 8722 1c3d cfc2 113d 4d02 173d
00000360: dda1 bfbc 5135 b23d 47db acbc 8492 033d
00000370: ea9b 8cbd 4f24 b23c 5f64 713d 34b6 913d
00000380: e301 bfbd 852b 66bd 83ea d2bb 0961 30bb
00000390: a41c 4fbc c41d 85bd 5f35 bf3c b6a2 b13c
000003a0: 22bb 643d 777e 31bd ad86 253d b55d 363c
000003b0: cdb3 4ebc 5324 783d aa12 d9bb 8c1a 053d
000003c0: 10fd 1d3d 6ca3 5d3b 857b 86bd 876a 843b
000003d0: 4106 dcbc f1e8 03bc 6c5f 913d cc0c b83c
000003e0: 5d19 8ebd 63b3 283d 7c2c 31bc 867c 173c
000003f0: c3da 333d 21da 31bd d50b f23c fe51 383d
0.028053893 -0.00095953996 -0.028024035 -0.08835875 0.07249489 -0.051249612 0.04465868 0.0644562
0.08060655 0.028815908 -0.08146349 -0.034961887 -0.012104129 -0.02253529 0.061526135 0.06359551
-0.04130983 -0.10614246 -0.050148554 -0.07909704 0.013643389 -0.049914077 0.0820131 -0.051696323
-0.02654962 0.04548189 0.047299806 -0.0719971 -0.052091066 -0.10122333 -0.0004831924 -0.019734247
0.026838552 0.038551636 0.0052249287 -0.042164523 -0.08701263 -0.018006295 -0.068195954 0.078539595
0.01820339 -0.03567566 0.04870878 -0.077285394 -0.08610429 -0.07930986 -0.048827685 -0.08841626
0.049068093 -0.039962806 -0.027974403 0.056620304 -0.046912104 -0.023573233 0.018830027 0.013316736
-0.051895734 0.023748973 -0.015872195 -0.104916416 0.024226129 0.031145992 0.040083613 -0.036684502
0.0025879946 -0.09487317 0.01745509 0.02299255 -0.055997167 0.016084442 0.007754105 0.03701108
-0.06582753 0.020998184 0.0012295288 0.06567397 0.013577971 -0.063400805 -0.06305573 0.025428837
-0.011610144 0.055917323 0.015906326 0.024862295 0.038134634 0.019856922 -0.065148644 -0.02069697
0.05083972 0.06083265 -0.025724705 -0.0730736 0.066928945 -0.024189014 -0.012699378 0.03483928
-0.06369394 -0.03632822 -0.08096224 0.012678019 0.08170152 0.045775615 -0.088810444 -0.0072421767
-0.012375177 -0.055259638 0.03955549 0.060261995 0.056269206 0.07383254 0.067708544 0.080088995
-0.031925417 -0.026930163 0.030199975 0.074312486 0.039837718 0.054877114 0.028912028 0.033237692
0.077961385 0.08879927 -0.037328463 0.08141017 -0.0009292438 0.045509182 0.023222048 0.006123626
-0.012044881 -0.035380546 0.073996805 0.08727649 0.07242245 0.08781792 -0.031545706 -0.014940263
0.002021879 0.050759006 0.011479517 0.061471373 -0.042661138 0.05064853 0.005649584 0.033636943
-0.039938368 0.008802591 0.038395368 -0.031551424 0.08645194 -0.009913966 -0.05545393 0.008480204
0.029183283 -0.018189669 0.047795467 -0.052300528 0.0673218 -0.053298708 -0.018325612 0.07009691
-0.066135116 0.04630636 0.00724169 -0.011690199 -0.015125524 -0.08145468 0.07314047 -0.0048201517
-0.04762196 -0.04785904 0.026185548 -0.07159132 0.0051144874 -0.03486935 0.06010259 -0.022859663
-0.03233774 0.067064166 0.043274216 -0.07025084 0.08686721 0.070946984 0.042248763 -0.05673794
-0.04675816 -0.09039788 -0.008633217 0.039875723 0.03701445 -0.04880638 0.057138514 0.015327684
0.04213142 -0.051509377 0.08251982 -0.068392426 0.06884554 0.008448998 0.037007183 0.05754874
0.009287222 -0.0033017045 0.0430938 -0.02135676 -0.025614074 0.04747741 0.0030698602 -0.048384055
-0.039305847 -0.052017868 0.060725063 0.077764764 0.07906789 0.038118865 0.035586175 0.03686743
-0.023392612 0.087015755 -0.021100653 0.03212215 -0.06865676 0.021745829 0.058933612 0.071148306
-0.09326532 -0.056193847 -0.0064366474 -0.0026913306 -0.012641106 -0.06499818 0.023340879 0.021684032
0.055842526 -0.043333497 0.04041164 0.01113074 -0.01261611 0.060581516 -0.0066245394 0.03249602
0.038571417 0.003381933 -0.06566528 0.0040410194 -0.02685845 -0.008051143 0.070982784 0.02246704
-0.069384314 0.0411867 -0.010813829 0.009245997 0.0439098 -0.043420915 0.029546658 0.04500007

lstm.weight_hh_l0 f4 [512, 128]
00000000: 0feb 123d 4b19 0f3c 1a39 efbc 2b13 a43d
00000010: 29b6 873d b6c2 973d 8d88 10bd eb9c 00bd
00000020: f0d5 5abd d96f 6ebd a024 8c3d 8c6b c3bc
00000030: b585 ab3c 8a92 4fbd 397a c7bb afc4 54bd
00000040: ad83 9f3d cda4 83bc f4df a23d 41d3 903d
00000050: c89d 9a3d 84ec 78bc bcd7 92bd 537d 413d
00000060: 4f8e a1bc aba4 593d d500 a0bb 8e28 823d
00000070: 8ef8 b53d b713 823d 5ebc 593d e18b 5f3d
00000080: 12ef 243d a5eb 4d3c 1314 02bd 4e95 81bd
00000090: 6047 81bd 1dd2 2dbd dcee 82bc cd74 043d
000000a0: 99b5 4ebd c10d 8c3c b8a8 31bd c0e8 a8bd
000000b0: 8985 af3d 2da4 89bd 9661 5b3d 76f7 333d
000000c0: 0051 6bbd 3be4 a5bd 1a42 553c eb7b ad3d
000000d0: b8ff 05bd 54e8 bebc 1907 5fbd d98a 563d
000000e0: 7409 a3bd c798 253c 94a5 0ebd 9087 8b3d
000000f0: b61c 40bd 8d0e 98bd 6740 5bbd 2090 973d
00000100: a06d bf3b 5889 853d 56d6 453d 49af ed3c
00000110: e1c5 97bc bdf6 ad3c 5679 46bd 5864 a43d
00000120: 2944 7a3d 589b acbd 43c7 1f3d 8c1d 95bc
00000130: c1e1 9abd 842a 9d3d 1dca 29bd dacc 913d
00000140: 540e 8bbd 7580 c53a b590 183c 9115 1dbd
00000150: 8cbf 863d 1098 06bd 00fc 8dbd 879a 80bc
00000160: 23aa 72bd 2825 b2bd 3adf 1d3d 7caf 1dbd
00000170: b71b a2bc 5fdf 4dbd 6e47 a53d fad9 833d
00000180: be92 85bd 4f7b 9abd a813 a53c e679 e0bb
00000190: df5e 92bd 65a6 c0bc 6fb8 ea3c d872 373d
000001a0: 6ee9 80bd 1405 823d 8b2b 15bd 4f13 a63d
000001b0: 88a4 b93c d103 c8bb e3ff 25bd db86 a8bd
000001c0: 0aa1 953d b0eb 01bd 81c6 47bd 8ef9 a93d
000001d0: 9694 da3c 2d37 283d d670 ab3d a68b a23d
000001e0: 6700 81bd 2a50 71bd b25f 42bd 5f5a a23d
000001f0: 8662 03bd 4315 0cbc 690e 6c3d 96d3 27bd
00000200: e1d0 d53c cf91 953b 25bc 863d a389 8b3b
00000210: 6132 c13c 2bde 193d fcb9 95ba 09c1 4f3d
00000220: 5370 cfbc 93dc 9dbd 6174 c33c 3323 84bc
00000230: 8a64 b13d fe1b 8ebd 4b94 9b3d 9d68 ebbc
00000240: b7e4 9b3d aa6b a83d 3d0a 13bd 06c7 023c
00000250: f084 90bd d8b6 9ebd 7599 0c3d 172f b2bd
00000260: 5a3c 183d c7fb 70bd 9c0f ae3d 0317 d0bb
00000270: f337 183d 6005 853c 28c0 a2bd e86e b9bc
00000280: 177a 89bd 71ea 683d e4ef 603d 8859 8c3c
00000290: 5f71 a13c 87dd 833d 7063 cb3c bf97 55bd
000002a0: 22c4 96bb 3a1f 74b9 0f77 83bd 92f6 bf3c
000002b0: 96b2 8ebc 7361 62bb 6a24 c3bc eca4 42bd
000002c0: abcb 8ebc cdbf ff3c b0ae 33bc 8c08 51bd
000002d0: b982 013c d440 a13b 1e25 483d 5769 683c
000002e0: 8cdf 583d 6137 30bc c50d af3d 5f3b 6c3d
000002f0: c29f 133d cb68 923d 5677 943d bda7 113d
00000300: 8b2e 763c ed7e 99bd 60a3 0bbd 07c8 a5bd
00000310: 5cc5 133d c36b 8d3d 1787 c63c e5d4 d73c
00000320: d634 e63c d3ad 143c 4987 a6bb 9cc9 a6bd
00000330: 7d27 8f3d 73ab 3cbd 59f3 923d 1318 dd3b
00000340: 1155 2cbb 17c1 cf3c 3126 393d bacb a73c
00000350: 58b3 433d b568 9abd 3dbd c53c b0cd a7bd
00000360: 492e 9e3d cadb 3f3c 8f03 b3bc 3460 493d
00000370: 867f 90bd 4e81 aabc 423e 423d c77a 4abc
00000380: 038d 90bc d8b0 a7bd 40ab 8cbc 2607 27bc
00000390: 2764 a13d c35c 4ebc 53b5 993c 659e 9a3c
000003a0: 7046 723c 4c15 9fbd 9a1b c23b 3e5a e73b
000003b0: 02cb 18bd 5879 80bd bb76 6ebd a4c8 773d
000003c0: 5e83 023d 1eea 66bc 51f3 82bd d651 7cbd
000003d0: 4a7b 2abd 1fa6 2d3d cf0d d9bc b7a3 4ebd
000003e0: 9650 07bd 32d5 f0bb f837 0d3d 13c9 aa3d
000003f0: a934 2abc ca12 29bc 668d 6e3d 3b92 713d
0.0358687 0.008734058 -0.029202033 0.080114685 0.06626541 0.07410185 -0.035286475 -0.03139965
-0.053426683 -0.058212135 0.06842923 -0.023854993 0.02093778 -0.05067686 -0.006087568 -0.051945385
0.07788787 -0.016069794 0.07952872 0.070715435 0.07549626 -0.0151931085 -0.07170054 0.04723866
-0.019721178 0.053135555 -0.0048829117 0.063553914 0.08885299 0.063514166 0.053158157 0.05457676
0.040267058 0.012568389 -0.031757426 -0.06327306 -0.06312442 -0.042436708 -0.015983038 0.032337952
-0.050466154 0.017096402 -0.043373793 -0.082475185 0.08570392 -0.06720767 0.053559862 0.04393717
-0.057450294 -0.08100172 0.013016248 0.08470901 -0.032714576 -0.023304142 -0.05445013 0.05237851
-0.079607874 0.010107226 -0.034825876 0.06812966 -0.04690238 -0.0742465 -0.053528216 0.074005365
0.0058419257 0.06520337 0.04830011 0.029014247 -0.018526973 0.021235818 -0.04845556 0.080269516
0.06110016 -0.08428067 0.03900839 -0.018202566 -0.075625904 0.07674125 -0.041452516 0.071191505
-0.06789842 0.001506819 0.009311845 -0.038350645 0.065795034 -0.03285986 -0.06932831 -0.015698684
-0.059244286 -0.08698493 0.038542964 -0.038497433 -0.019788606 -0.05026185 0.08070265 0.0643806
-0.065221295 -0.075430505 0.020150974 -0.006850469 -0.071470015 -0.023516843 0.028652398 0.044787258
-0.06294523 0.06348625 -0.03641848 0.081091516 0.022661462 -0.0061039706 -0.040527236 -0.08228847
0.073061064 -0.03171891 -0.048773292 0.08299552 0.02668218 0.041068245 0.08371131 0.07936792
-0.06298905 -0.05891434 -0.047454543 0.07927393 -0.03207638 -0.008549991 0.05763093 -0.04097327
0.026100578 0.004564501 0.065788545 0.004258351 0.023583593 0.03756539 -0.0011423226 0.050721202
-0.025322115 -0.07708087 0.023859205 -0.016130066 0.086617544 -0.06938933 0.07596644 -0.028736407
0.07611983 0.0822366 -0.035898436 0.007982021 -0.07056606 -0.077497184 0.034326036 -0.08700388
0.03716693 -0.058833864 0.08499071 -0.0063503995 0.037162732 0.016237915 -0.07946807 -0.022635892
-0.0671274 0.056864206 0.054916278 0.017132536 0.01970738 0.06438737 0.024827689 -0.05214667
-0.0046010176 -0.00023281286 -0.06419193 0.023433004 -0.01741914 -0.0034542948 -0.023821075 -0.047520563
-0.0174311 0.031219387 -0.010966942 -0.05103354 0.007904702 0.004921058 0.048863523 0.014185271
0.052947566 -0.010755391 0.08547548 0.05767381 0.03604103 0.07148894 0.07249324 0.03556036
0.015025745 -0.07494912 -0.034091353 -0.08094793 0.03607689 0.069053195 0.024234338 0.026346633
0.028101366 0.009074646 -0.005082045 -0.08143923 0.06989954 -0.046061944 0.07175321 0.0067472546
-0.002629582 0.025360627 0.045202438 0.020482887 0.047778457 -0.075395025 0.024138087 -0.08193529
0.07723672 0.011710117 -0.021852283 0.049164012 -0.07055573 -0.02081361 0.047422655 -0.012358374
-0.017645365 -0.08188027 -0.017171502 -0.010194575 0.07880431 -0.012595358 0.01876322 0.018874357
0.014787301 -0.07767734 0.0059237005 0.0070603183 -0.03730298 -0.062731445 -0.0582187 0.06049408
0.031863563 -0.014093904 -0.06394065 -0.061601482 -0.041621484 0.042394754 -0.026495842 -0.0504491
-0.033035837 -0.0073496336 0.034477204 0.08339133 -0.010388532 -0.010319421 0.058240317 0.058977347

lstm.bias_ih_l0 f4 [512]
00000000: 596c 8dbc a557 163d e52f bfbb 49f5 223d
00000010: 6ca4 62bd adbd 1abd 0c2a 0abd f9b6 38bd
00000020: afbb bd3c 1d08 cebc c69c 17bd b363 d7bb
00000030: 9b51 5abd 1a2b b73d a71e 5abc 8080 8f3d
00000040: e411 13bd 5c64 803d bf9c 49bd f648 7abd
00000050: 41a1 a4bb ebb7 b2bc 672c 8e3d 2e0b 96bc
00000060: b5c6 75bd e8e0 66bd 153f 5cbd b30b 7939
00000070: 1a7a 73bc eb75 95bd f668 45bc 1eb5 abbd
00000080: bf69 e43c e526 ca3d ea8a 423d 998c e63c
00000090: 82fd 083d b3f3 0f3d 1c33 803d 76c6 73bd
000000a0: 8923 7fbd b3f3 f8bc f645 1cbd 9d5b a03d
000000b0: 214b bbbc ec6d bb3b 713d 953d 09e9 243d
000000c0: 7c71 cebc 70d5 833c 1622 34b9 0571 0cbd
000000d0: c554 3dbd 1cad 69bd a312 e8bb 630b 23bc
000000e0: 0d3b 82bd cf7f 793d d5c8 21bd 1ad5 ae3d
000000f0: 56f7 ac3d 0570 60bd 313e b6bd 4a74 27bd
00000100: fd32 ce3c 3930 1c3d 3949 13bd c8f7 8ebd
00000110: 3880 aa3d c378 80bd c54c 403d 5644 6abd
00000120: e2a7 183d ab99 c13d 27a5 f3bc 57e7 1a3d
00000130: 7032 c33c 5a8a 973d dce4 52bd 2653 cf3d
00000140: 3741 2cbc 9736 9f3d 0702 ea3c 6b93 53bd
00000150: 8303 27bd 1ba0 a23d 0daa 733d e188 82bd
00000160: c436 263b 08d8 c1bc 0233 9e3d 3463 91bb
00000170: 957d a9bd fe66 b33b 6f40 063d ab04 6f3d
00000180: 51e6 913c ab7c 25bd d92d 13bd 8458 583d
00000190: 8783 b33d dfa9 5b3d 4105 203c df94 2b3d
000001a0: a15b 843c 815c 833d ede0 643d 9ec7 a03d
000001b0: 6edb a73d cd70 d33d ea82 103d f1a2 ab3d
000001c0: 7193 7d3d fc19 47bd 3248 b23b d96c 90bd
000001d0: c423 02bd 82af a8bc c003 5c3b ad56 253d
000001e0: 8d55 0dbd f7d5 ab3d 2415 72bd e6a3 abbd
000001f0: 32b2 99bb 6b68 073d 56b3 19bd ccc0 1b3d
00000200: 936b e2bc 5c3d 4c3c 5b72 1d3d 9c05 193d
00000210: 571a a3bc 8641 373d 5986 dbbc 3de3 b83d
00000220: 046a e33c e650 9b3c d28d c6bb 6a25 42bc
00000230: f650 d2bc 3779 bfbc 1336 4c3b 62df 8abd
00000240: 0f70 92bd 7c4f 87bc 1810 7bbd 09f9 6e3b
00000250: 8286 a1bc 565c 1f3c d797 1b3d db53 f23a
00000260: af94 21bd 2773 3c3d 94b6 81bd 6739 f63c
00000270: dc76 d53d 8983 4fbd 9b65 4b3d 5cb2 673d
00000280: 2111 46bd 1e68 a6b9 6c05 ec3d af3e 803c
00000290: 1e93 84bd 5a68 9dbd 6a36 253c 44ca f7bc
000002a0: 2b72 3c3d be25 aa3d 4e64 6abd 189c 473d
000002b0: 97c4 88bd 1a4d 20bd d1b7 af3d e607 af3c
000002c0: 27a0 9abc 6c68 123d 563d 013c d641 083d
000002d0: f527 0cbc 9233 943d 65a5 a2bd de3a 8d3d
000002e0: 49e6 0f3d 990e 3d3d f8da 90bd 23ea 8bbc
000002f0: a96c 003d 2abe b23c 26f6 b5bc f1ab b83a
00000300: fa81 62bd 0d90 b03c fff2 f73c 773d e23d
00000310: 0e13 713d 87de 00bd 23f4 363b fb2e d038
00000320: 27e8 a43d 9bdd aa3b 8628 a8bc b370 d53c
00000330: 44c3 58bd 0b22 843d b4ac c53d 0152 133b
00000340: cc6f 9a3d 49e4 b63d 5f6b 823d fe87 04bd
00000350: 6e5b b3bd f2be 29bd 1259 9e3d 5116 c73c
00000360: 1856 d33c 9c1c 703d b13e 95bd b4da 083d
00000370: 9a9c e5bc 994f e33c 18da 9bbd c45e c33c
00000380: 9f1d 0ebd a743 3a3d a2df 79bd 44de dd3d
00000390: d1a6 393d 6b2b 6abd 653e 213c f69d 4bbd
000003a0: 003e 413c 4f09 2ebd f6c5 36bd 2944 b83d
000003b0: 4018 8bbd 9284 57bb d23b 6d3d cdcc 95bd
000003c0: 49bd 44bd 42f0 943d 4e98 983d 5fa2 f0bc
000003d0: c598 62bd abc4 89bd 22d4 27bd 500d db3c
000003e0: 2cd2 a33c a294 283d e00c 20bd 2ad8 713d
000003f0: 0d3b c6bb a39b abbd 63f4 16bd eacf b43b
-0.017263578 0.036704678 -0.005834567 0.039784703 -0.055332586 -0.037778545 -0.033731505 -0.04509637
0.023160784 -0.025150353 -0.037014745 -0.0065731644 -0.05330048 0.08943768 -0.013312972 0.07006931
-0.035905734 0.06269142 -0.04922175 -0.061104737 -0.005024106 -0.021816215 0.06942063 -0.018315878
-0.060003955 -0.05636683 -0.053771097 0.00023750849 -0.014860654 -0.07297882 -0.01204895 -0.08384155
0.027882455 0.098707 0.04749576 0.028143214 0.03344489 0.03514452 0.06259748 -0.05951544
-0.06228975 -0.030389642 -0.038152657 0.07829974 -0.022862973 0.005719891 0.0728711 0.040261302
-0.025200598 0.016092986 -0.00017178836 -0.03428747 -0.04622342 -0.057049856 -0.0070823 -0.009951445
-0.06358919 0.060912903 -0.03949817 0.0853674 0.08445613 -0.05479433 -0.08898581 -0.040882386
0.025170797 0.038131926 -0.035958502 -0.06980854 0.08325237 -0.062730335 0.046948213 -0.057194076
0.03726948 0.09453138 -0.029741837 0.03781828 0.023827761 0.07399435 -0.05148779 0.10123281
-0.010513595 0.07774084 0.02856542 -0.05165426 -0.040774833 0.07940694 0.059488345 -0.06373764
0.0025362233 -0.023662582 0.07724573 -0.0044368748 -0.08275906 0.005474924 0.032776292 0.05835406
0.017810019 -0.040402096 -0.035932396 0.05281879 0.08765321 0.0536288 0.009766878 0.04189002
0.016156973 0.06414128 0.05587857 0.07850574 0.0819615 0.103242494 0.0352811 0.08380688
0.06190819 -0.048608765 0.0054407353 -0.07052011 -0.03177239 -0.020591501 0.003357157 0.040365864
-0.034505416 0.0839042 -0.059102193 -0.083808705 -0.004690432 0.033058565 -0.037524544 0.038025662
-0.027639186 0.012465801 0.038439136 0.037358865 -0.01991002 0.044740222 -0.02679746 0.09027717
0.027760513 0.018959474 -0.006059387 -0.0118497405 -0.02567337 -0.02337323 0.003116016 -0.06780888
-0.0715028 -0.016517393 -0.061294645 0.0036464354 -0.019717459 0.009726604 0.037986603 0.0018488126
-0.039448436 0.046008255 -0.06333652 0.030056668 0.10423061 -0.05066255 0.049657445 0.05656658
-0.04835618 -0.0003173956 0.11524472 0.01565489 -0.06473373 -0.07685919 0.010083774 -0.030247815
0.046007317 0.0830798 -0.057224564 0.048732847 -0.066781215 -0.03913603 0.08579982 0.021366071
-0.018875195 0.035744116 0.007888159 0.03326591 -0.008554448 0.07236399 -0.07941703 0.06895994
0.035131726 0.0461565 -0.07073015 -0.017079419 0.031353626 0.021819193 -0.0222121 0.0014089328
-0.055299737 0.021553064 0.030267237 0.1104688 0.058856063 -0.03146222 0.0027916513 9.926964e-05
0.08052092 0.0052144057 -0.020527136 0.026054716 -0.052920595 0.06451806 0.09652081 0.0022479298
0.07540855 0.08930261 0.06368136 -0.032356255 -0.08757673 -0.041441865 0.077318326 0.024302633
0.025797889 0.058621034 -0.07287348 0.033411697 -0.028028775 0.027747916 -0.076099575 0.023848899
-0.034696218 0.045474675 -0.06100429 0.108334094 0.045325104 -0.057170313 0.009841536 -0.04971119
0.011794567 -0.042489346 -0.044622384 0.089973755 -0.06791735 -0.0032885415 0.057918377 -0.07314453
-0.04803208 0.07272388 0.07450925 -0.0293743 -0.055321474 -0.067269646 -0.04097379 0.026739746
0.019997679 0.041157372 -0.03907478 0.05904404 -0.00604952 -0.08379295 -0.03685416 0.0055179494

lstm.bias_hh_l0 f4 [512]
00000000: bcb6 a6bc 8f83 48bd 3944 3f3d c89b 09bd
00000010: fcbb a43d 4874 24bd a2f7 35bd c137 663d
00000020: 95ff cbbc 624f e6bc 3994 b33c 7a4e 333d
00000030: f0e6 abbd 95ea 5c3d 0cec 043d 5901 87bd
00000040: 04bf 77bd b24a 62bc 1b10 09bd 0e55 6cbd
00000050: eb82 463d a36c 9e3d 27f1 a33d 007b 84bb
00000060: 7d35 cdbc 50b3 943d 09db 183d fc26 873d
00000070: bf9a 20bd eb26 9dbc 769a 9bbd 27d8 133d
00000080: caf7 68bd 04bc 9b3c 44db 14bd cda9 fb3c
00000090: 859c b2bd a865 45bd fd28 893d 21ed 203c
000000a0: e322 98bd 1c5a 8bbc 4f91 01ba 6301 6ebc
000000b0: 8c7f 0cbb ede4 7fbd 30c7 0fbd 3439 bdbc
000000c0: dd5d d8bb 2be0 9abc 7322 653d 646b bb3d
000000d0: 2dde 493d 7f08 98bd 9c9a 833d 450f 8ebd
000000e0: 097f 813d 35c3 6fbd 33ad a83b 3c56 893d
000000f0: 7a9f eebb 7106 0c3d 9784 adbd f326 03bd
00000100: 03f9 a6bc d467 823d 6eba 9abd befb ae3d
00000110: 1507 5b3c 1e15 1cbd f01c 3e3c 3cb4 40bc
00000120: c7cc adbd 0394 60bd 4a9f 85bd 8e16 d7bc
00000130: 0acc 8bbd 667f 433d ec2c 923d 32a6 833c
00000140: b0c5 aebd bf35 d43c 27b8 5f3d d1c0 543d
00000150: ee55 af3d ff03 b1bd 02c3 4dbd dc71 a4bd
00000160: 89ef f5bc 7e3a 28bd b872 afbd 0fe6 7b3c
00000170: 3cbd 45bd 0a09 4c3c c803 99bd a368 93bc
00000180: 061c 8d3c e007 9dbd 4f44 6bbd 92c7 5ebc
00000190: 3360 7bbd 1711 483d 0cdc f4bc e6db 043c
000001a0: 8000 523c 4d12 4b3d 7171 263d d95a 233d
000001b0: 82dc 5ebd 8a47 7f3a c0dc 89bb db45 973d
000001c0: 3b43 83bd b4c9 93bc 86cc 4a3d a706 283d
000001d0: 02ef b43d 8136 4fbc e5a3 a7bd 18a5 f5ba
000001e0: 0a0d bdbc 395c 9abd 5e77 11bd 829d 8f3d
000001f0: 822e 9ebc 1ecd 593c 6178 8c3d 380d aebd
00000200: 0f6c d43d 53e5 b73b bfd4 02bd 43d7 f739
00000210: f54d f9bc af08 003e 45ef d03d 016e 673c
00000220: 7f06 7c3c 6687 8f3d cff6 78bb acb6 683d
00000230: e0a2 9cbd 5659 713d ae69 983d f598 d03c
00000240: 0de8 91bb ff7b 1ebd 9ee0 843c 89a5 85bd
00000250: e993 d2bc f08c 45bd 37d9 1a3d e99e 8b3d
00000260: 86bd 86bd 7a21 b43c 153f 823d 3be7 9dbd
00000270: d668 8f3d 5825 a23d ef70 2f3d 695e 32bd
00000280: fdc9 6bbd ebd3 b03c e7e6 ae3d 41b1 923d
00000290: c064 6abb 8ed8 c03c 548e 913d dba6 103d
000002a0: 6693 853d eeb9 833d e19c 733d 672b 4dbc
000002b0: 00ce a7bd 9cc3 a7bd a9df 02bd ebf4 6d3d
000002c0: 6374 4b3d 0c16 08bc 5754 3c3d 92fc c13c
000002d0: be2a 23bd 5693 5d3d 135e 7abb d31b 113d
000002e0: f1b2 a4bc c500 96bc 468e 85bd 359d 55bc
000002f0: d2c6 88bd 6c47 593d 73de afbd e5ce ffbc
00000300: 2d6f a63d 9e47 003d b395 d23c 8599 a03d
00000310: f7df 7d3c d430 ae3b a0b8 a5ba 81c2 00bb
00000320: c850 97bd ce29 f13c 197a 46bd 389d 35bd
00000330: f10e 9dbd 5769 3e3d 68f2 c03d f47b d03c
00000340: da64 903c 562a f5bb 9586 ae3d 07f5 5dbd
00000350: 1451 ae3d ee4a 1dbb 4bd0 713c 0800 853d
00000360: 580c d13c ce15 f73c eef8 4cbd e3b4 97bd
00000370: 66bd b83d 76b6 d73b dbc1 d13b f0b6 233d
00000380: bf64 1d3d 4828 63bd 5ac4 99bd 2a66 fcbc
00000390: 6f21 6abd 9cf4 a83d 5fc8 aa3d 1dba d4bb
000003a0: a6f1 76bd bb02 3b3d 6d5e 68bd e757 b93d
000003b0: e2d5 733d 5d4d 8c3d 4b10 b03d c30f 80bd
000003c0: b29f e3bb ee88 8abd 420b 5fbd ac68 873d
000003d0: 783f 8c3d d075 54bb cd00 37bd 451d 95bd
000003e0: bb53 61bd 4203 833d 5e93 243d 2fbf cb3c
000003f0: e238 ebbb bb92 803d b670 cc3d a3a4 333c
-0.020350806 -0.04895359 0.04669592 -0.03359583 0.08043668 -0.040149957 -0.044425614 0.056205515
-0.024902144 -0.028114025 0.021921264 0.043776013 -0.08393657 0.053934652 0.032451674 -0.06592054
-0.0604849 -0.013811754 -0.033462625 -0.057698302 0.048464697 0.077355646 0.080049805 -0.004042983
-0.02504992 0.07260764 0.037318263 0.065992326 -0.039210077 -0.019183597 -0.075978205 0.03609481
-0.056876935 0.019010551 -0.03634192 0.030720616 -0.0872126 -0.04819265 0.06697271 0.009822161
-0.07428529 -0.017010741 -0.0004942612 -0.014526698 -0.0021438329 -0.06247418 -0.03510207 -0.023098566
-0.0066029863 -0.01890572 0.055941056 0.091513425 0.04928415 -0.074234955 0.06425974 -0.06936506
0.06323058 -0.058535773 0.0051476 0.06705901 -0.0072821947 0.03418583 -0.08472555 -0.032019567
-0.02038241 0.0636746 -0.0755509 0.0854411 0.013368388 -0.038106076 0.011603579 -0.011761721
-0.08486324 -0.054828655 -0.065245226 -0.026255872 -0.06826027 0.04772892 0.071374744 0.016070459
-0.085338 0.025904534 0.05461898 0.051941697 0.08561312 -0.0864334 -0.050234802 -0.080295295
-0.030021446 -0.041071407 -0.08566803 0.015374674 -0.04827617 0.012453327 -0.07471424 -0.01799423
0.017225277 -0.07667518 -0.05743819 -0.013597386 -0.06137104 0.048844423 -0.029890083 0.0081090685
0.012817502 0.049578 0.04063553 0.03988156 -0.05440951 0.0009738138 -0.0042072237 0.07386371
-0.064093076 -0.018040515 0.049511455 0.04102197 0.088346496 -0.012647272 -0.08185557 -0.0018741218
-0.023077507 -0.07537121 -0.035514228 0.07012464 -0.019309286 0.013293533 0.06858898 -0.08498615
0.10372173 0.0056120544 -0.03194117 0.00047271894 -0.03043268 0.12503313 0.10201887 0.014125348
0.015382408 0.07008247 -0.0037988906 0.056814834 -0.076482534 0.058923088 0.07442032 0.02546356
-0.0044527114 -0.03869247 0.016220387 -0.06525714 -0.025705295 -0.04823011 0.03780481 0.06817419
-0.065791175 0.02198862 0.06359688 -0.07710119 0.07002418 0.07917279 0.04283231 -0.043547068
-0.057565678 0.021585425 0.08540135 0.07162715 -0.0035765618 0.023540761 0.07107225 0.035315376
0.06522255 0.06431948 0.059475783 -0.012522555 -0.08193588 -0.081916064 -0.03195158 0.0580949
0.049671542 -0.008306038 0.04597887 0.023680005 -0.039835684 0.05409559 -0.0038203045 0.035426926
-0.020104857 -0.018310914 -0.06521277 -0.013037969 -0.06678547 0.05304663 -0.08587351 -0.031226585
0.08126674 0.0313183 0.025706148 0.078417815 0.015495292 0.0053158794 -0.0012643524 -0.0019647183
-0.07388455 0.02943888 -0.048456285 -0.04433939 -0.076688655 0.04648718 0.09421235 0.02544973
0.017626215 -0.0074818535 0.08521763 -0.054188754 0.08511558 -0.002400096 0.014759134 0.064941466
0.025518581 0.030161764 -0.050042085 -0.07407548 0.090205 0.0065830303 0.006401283 0.039969385
0.038426157 -0.055458337 -0.07508154 -0.030810434 -0.05716079 0.082497805 0.08338999 -0.006491913
-0.060289048 0.0456569 -0.056730676 0.09049969 0.059530146 0.068506934 0.08596858 -0.06253006
-0.0069465274 -0.067643985 -0.054454096 0.066117615 0.06848043 -0.0032418855 -0.044678498 -0.07280973
-0.055011492 0.06397106 0.040179603 0.024871437 -0.007178412 0.062779866 0.099824354 0.010964545

pitch_linear.weight f4 [128, 128]
00000000: f9a0 dd3c d59f 8c3d b207 25bd a627 b33d
00000010: b9af b7bd 73c3 74bd d393 1e3d ac04 863d
00000020: c5b4 adbd 2ba3 57bc 40af fabc 9c11 9b3d
00000030: 40ea 8b3d cf09 453d a0de 8b3d e254 923d
00000040: 3b88 743d 44ad 873c 11b7 c13c bab6 c53c
00000050: 2b07 013d 9307 91bb 1d1c f6bc 2d48 d83b
00000060: 130c afbd 9285 963c 41ef 4bbd d13c a33d
00000070: b13e 3a3c 5947 9fbd 2b26 933d c4d4 833b
00000080: 9982 523d cefc 943b abf8 a2bd 1fdd 44bd
00000090: 002d 963c cc3a 95bd 43ef 83bc 70ef 94bd
000000a0: 0c26 a4bd 02f7 313d 404f 46bd 7feb 0fbb
000000b0: 6e2c 92bd 995b ae3d 6ce1 a1bd 944f 523d
000000c0: 927e 263a 09e6 393d 2601 2a3d 8ee5 91bc
000000d0: adcc b1bd d630 47bd 28c0 6a3d 6553 1fbd
000000e0: 6599 4fbd 2494 83bc 5d2d 703d dc73 363d
000000f0: ca7a 7ebc c9f9 763d 40e1 3ebd ec1d 623d
00000100: 6a32 abbc eb91 bcbc c0f2 ffbc 6e0e 90bd
00000110: d4b1 9d3d 11a7 fdbc 6dbc 0dbd 79eb 7f3b
00000120: cd2a 94bb 8882 9abd af5f 823c 28bf 823d
00000130: bd91 65bd 3bdf 3b3d 78e3 95bd 77b0 653d
00000140: 5650 9dbd 3b7d 8e3c 0b07 813d 6fe3 7abc
00000150: 71f5 9abd 4b65 1d3d 6795 9bbd b1b4 97bd
00000160: 80ee 02bd 4d54 ea3c 534a 8bbb 15e1 4b3d
00000170: 0b3b fb3b 8f67 2bbd 2732 f2bb 3ef8 96bd
00000180: 28e3 88bc 1da8 f23c f0e6 0d3d a53a 5fbd
00000190: ccd1 87bd 9375 66bd 58a6 0a3d e7ee a03d
000001a0: 217d 66bd e5e6 80bd 223f 913d a7a4 6bbc
000001b0: 5f09 813d e352 8e3d 5ee5 7b3d 8146 683d
000001c0: 5586 a83d ee01 123c 4424 87bd 3dbd a0bc
000001d0: ae2b be3c e3d1 8b3d 5007 9abd 230e 81bd
000001e0: d548 9dbd 13c7 8fbd 2c50 7a3d e806 3dbd
000001f0: 68a4 b93c f106 a03d e252 0dbd a5bd 5dbc
00000200: c2ba 13bd 72b9 bfbc 4f97 99bd 57c0 073c
00000210: 7dce debc 57e5 b4bd 4305 4d3c 4310 543c
00000220: d1e2 ac3d 9c8b 833c 52d3 d4bc 1b99 97bd
00000230: cc90 de3c 342f a63d 73d6 1f3d 4ae7 7a3d
00000240: 1354 a0bd c79a 833d 1f08 813d 247c 33bd
00000250: ead8 8dbd f082 91bd 5acb 9bbb 6fe7 8bbd
00000260: 1279 9abc 9396 53bd 11a9 ce3b 4305 ae3d
00000270: 1b39 833c 0e6e 65bc 92c4 3fbd aa31 a9bd
00000280: 3f09 c43c 4e17 9b3d 38ae a2bd bb03 2dbd
00000290: a97b 903c 4977 87bd 6bb5 7d3d fdfe 2bbd
000002a0: c20e 673d b338 4b3d 0379 183d cd2b 9bbd
000002b0: 08d5 39bd 1832 b6bb b25d ce3c ac28 3b3a
000002c0: 10df 4dbd f5f8 82bd 3e4b 96bd 969d a53d
000002d0: 9937 9ebc 9d50 ac3d 32bd aabd 3a24 793c
000002e0: 70e9 abbd 4e7e ae3b 8b85 57bd 9a26 a3bd
000002f0: bb69 4ebb 97fc 88bd e78d 2c3d 3e98 1d3d
00000300: 2def adbd ad93 863d 4997 073d 19e5 05bd
00000310: 2599 b9bc 6526 ed3b a6bd a2bc b58f 1abd
00000320: 1113 78bd 392b 53bd 2be7 3d3d db65 4dbc
00000330: a0a0 1f3d 5e49 e93c f2df f7bc 7960 593d
00000340: ae3a a9bd e239 983d 5384 243d 0a4e 503d
00000350: 3846 8c3d 9ad8 07bd c3bc 893d 3cdd b0bc
00000360: 6b00 8b3d 1685 8f3d 5d2c 13bd a7e7 df3c
00000370: 3b43 f23c 555d 8bbd 399d 5fbd f71b e83a
00000380: 1f54 5cbd 3b96 933d 4c5a ccbc b0aa 31bd
00000390: ffb0 5f3d 7ef9 18bb ebb5 193d 42b1 aebd
000003a0: d1ef 8ebd 88f4 a73d 6312 f5bc 8108 2ebb
000003b0: 6724 9a3d 184a 953d 570e 1a3c 9f3c 773d
000003c0: 0984 813d 8a80 a43d e7b0 5dbd 6bb3 ccbc
000003d0: e57d 323d abff a63d 07c2 f63c ad1e 27bd
000003e0: e802 79bd 5ee2 3a3c 990f 2ebd 8055 7a3d
000003f0: a835 a23c 394e 9abb e53b bfbc 5f68 3d3d
0.027054297 0.06866423 -0.040290542 0.08747797 -0.08969063 -0.059756707 0.038715195 0.0654386
-0.08481745 -0.013161461 -0.030601144 0.07571718 0.06831789 0.048105057 0.06829572 0.07145096
0.059700232 0.016562112 0.023646863 0.024134982 0.031500977 -0.0044259517 -0.030042702 0.006600401
-0.08547225 0.018374238 -0.049788717 0.07970584 0.011367486 -0.0777728 0.07185014 0.0040231664
0.05139408 0.004546738 -0.07957586 -0.04806244 0.018332005 -0.07286605 -0.0161053 -0.072722316
-0.08015069 0.043448456 -0.048415422 -0.0021960435 -0.071373805 0.085135646 -0.07904324 0.051345423
0.0006351258 0.045385394 0.041505 -0.017809656 -0.08681617 -0.048630558 0.05731216 -0.03889789
-0.050683398 -0.01606185 0.05863701 0.044544086 -0.015532205 0.060296807 -0.046601534 0.055204317
-0.020898063 -0.023018798 -0.031243682 -0.07034002 0.07699934 -0.030963453 -0.034603525 0.0039050265
-0.004521704 -0.07544428 0.015914766 0.063841164 -0.05604719 0.045867186 -0.07318777 0.056076493
-0.076813385 0.017393699 0.063001715 -0.015313013 -0.075663455 0.03842668 -0.075968556 -0.07407511
-0.031965733 0.02860465 -0.0042508035 0.0497752 0.0076669506 -0.041846808 -0.0073912325 -0.07371567
-0.016709879 0.029621178 0.034644067 -0.054499287 -0.066318125 -0.05626447 0.033850044 0.07858067
-0.056271676 -0.0629404 0.0709212 -0.014382518 0.063006155 0.06949403 0.06149804 0.056707863
0.08228747 0.008911593 -0.06598714 -0.019621486 0.023214187 0.06827142 -0.07520926 -0.063015245
-0.07679907 -0.07020392 0.061111614 -0.046149164 0.022661403 0.07813824 -0.03450287 -0.013533984
-0.036066778 -0.023403857 -0.07499563 0.0082856035 -0.02719807 -0.088328056 0.0125134615 0.01294333
0.08441699 0.016057782 -0.025979672 -0.074022494 0.027168654 0.08114472 0.039022874 0.06125573
-0.07828536 0.06426006 0.06300377 -0.04381956 -0.06926139 -0.071050525 -0.004754466 -0.06831252
-0.018856559 -0.05165727 0.0063067754 0.08497097 0.016018441 -0.01400329 -0.046818323 -0.08261426
0.02393019 0.075728044 -0.07943386 -0.042239886 0.01763709 -0.06614549 0.06194059 -0.041991223
0.05641056 0.04961462 0.03722478 -0.07576714 -0.045369178 -0.005560171 0.025191162 0.00071395445
-0.050261557 -0.06395141 -0.0733857 0.08086698 -0.01931362 0.08413813 -0.083368674 0.015206391
-0.08394134 0.0053251153 -0.05261759 -0.07966347 -0.0031496126 -0.06688803 0.042127516 0.038475268
-0.08492885 0.06571136 0.03310326 -0.032689188 -0.022656033 0.007237243 -0.019865822 -0.037734706
-0.06056506 -0.051554892 0.046363037 -0.012536491 0.038971543 0.028477367 -0.030258153 0.05307052
-0.082631454 0.07432915 0.040165257 0.050855674 0.06849331 -0.03316555 0.067254566 -0.021589868
0.06787189 0.07007806 -0.03593098 0.02733214 0.029573074 -0.06804911 -0.0545933 0.001770853
-0.05379116 0.072063886 -0.0249454 -0.04337567 0.054612156 -0.0023342068 0.037527006 -0.08529903
-0.06979335 0.082009375 -0.029915994 -0.0026555362 0.075264744 0.07289523 0.009402833 0.060360547
0.06324012 0.080323294 -0.054123785 -0.024987897 0.043577094 0.081542335 0.030121816 -0.04080074
-0.060793787 0.011406509 -0.042495344 0.061116695 0.019800976 -0.004709032 -0.02334399 0.046242114

pitch_linear.bias f4 [128]
00000000: 9b49 9ebd b6a9 f0bc 82c5 33bd 5860 72bd
00000010: 828d d3bd 5a5c a1bd 9038 873b 65ac a2bd
00000020: 5db2 ddbd 6033 15bd 80bf 113d f661 07be
00000030: 3bc3 03bc 50d4 0cbe 72e1 c7bc 508d c03c
00000040: 1e11 ddbc 8c15 54bd 67f6 8abc bd22 e2bc
00000050: 67d7 0cbe 3750 d9bb 7a84 ba3c 2187 fabc
00000060: 3867 43bd 63dc 8a3c b7d8 debd 5a25 1e3d
00000070: 55a7 96bc 3a68 753c feb8 93bd cff1 333d
00000080: bff5 80bd b49a e4bd 182c 723a e4d5 653c
00000090: ef22 8e3d cf98 c8bd 5bd1 c73c 3173 8c3b
000000a0: 2211 31bd 399a 003d 07a9 abbd 2e68 30bd
000000b0: 388a 9d3d 1bf2 23bd 56af ef3c 7489 ed3d
000000c0: cbb0 103e a779 debb 02ee f63c 6e39 533d
000000d0: 72f8 b33d de0a 6e3c fc89 a83c 5486 043e
000000e0: 3467 1d3e 379e 1b3d cec1 b53b 5d47 c03c
000000f0: cc3c 023e e5a0 f23d b780 863d 2783 183e
00000100: 4e2c 813d 7efb b33d 9839 eb3d cd91 8b3d
00000110: 4747 ca3d 78c9 273d d92d 8dbb 3a40 9e3d
00000120: ecc0 303e ec77 0f3e c51c 103d 796d ac3d
00000130: 47c7 183e ebc6 423e 5d1a cb3d 2439 a63d
00000140: 01dc 173d 70bd acbc fde5 813d 3917 1b3c
00000150: 5efc b13d 9841 cd3d 5eb0 bb39 a2e8 963c
00000160: c414 5c3d 8b85 8fbd 8960 afbd cf65 cdbc
00000170: 5691 4d3d 6d50 dcbd 9b80 9bbd 86b8 1a3d
00000180: c9d8 c7bd acd6 66bd daa0 c73c 7f9e b9bd
00000190: b2d5 233d 46de bcbc 854a ab3c b4c0 8abd
000001a0: 5280 86bd 6717 babd eee9 f6bc aa8d 02be
000001b0: 3e7b 703c 6562 2bbd 7a6a bdbc 77a9 5e3b
000001c0: 9e79 b739 f8d5 06be b1bc 033d a32a 99ba
000001d0: ca46 bfbd 8288 81bc f763 81bd 7661 2cbd
000001e0: b258 b43b 9ef3 d0b8 eed7 84bd dd27 35bd
000001f0: a875 d63c 74dc 00be e116 4dbd 1de4 0cbe
-0.07728883 -0.0293778 -0.04388953 -0.05917391 -0.10329725 -0.07878943 0.004126616 -0.07943038
-0.10825036 -0.03642595 0.03558302 -0.13220963 -0.008042152 -0.13752866 -0.024399493 0.023504883
-0.026985701 -0.05177836 -0.016963197 -0.027604455 -0.13754044 -0.006631877 0.022768248 -0.030582013
-0.04770586 0.016950792 -0.10881179 0.03860984 -0.018390337 0.014978463 -0.07213019 0.04393178
-0.06296872 -0.1116232 0.0009238138 0.014028046 0.06940257 -0.09794771 0.02439182 0.004286193
-0.04322923 0.03139708 -0.08381849 -0.043068103 0.07692379 -0.04002581 0.029258411 0.11598483
0.14129941 -0.0067894044 0.030142788 0.05156844 0.087876216 0.014528958 0.020573609 0.12941867
0.153714 0.037992682 0.005546785 0.023471529 0.12718505 0.118470944 0.06567519 0.1489378
0.063072786 0.08788203 0.114855945 0.06814919 0.09876876 0.04096362 -0.004308444 0.07727094
0.17261094 0.1401059 0.035183687 0.08419318 0.14919768 0.19021194 0.09917138 0.081163675
0.037075046 -0.021086425 0.06342695 0.009465986 0.08690713 0.10022277 0.00035798823 0.018421475
0.05373074 -0.07007893 -0.085633345 -0.02507296 0.05018743 -0.107575275 -0.07592889 0.03777363
-0.09758145 -0.05635707 0.024368692 -0.09063434 0.039998718 -0.023055207 0.020909557 -0.067750365
-0.06567444 -0.09086495 -0.030140843 -0.12749353 0.014677821 -0.041841883 -0.023122061 0.003397552
0.00034995092 -0.1316756 0.032162372 -0.001168568 -0.09339674 -0.015812162 -0.06317895 -0.042085133
0.0055037374 -9.96359e-05 -0.06486498 -0.04422747 0.02617915 -0.12584096 -0.050070647 -0.13758893

step_linear.weight f4 [1, 128]
00000000: bb31 74bd 09f1 303d 0a70 f73b 800c 2d3c
00000010: 41fb 3e3c d9e6 73bc 6ce5 e33c 7dd3 3fbd
00000020: 2ee4 87bc e9bf acbc e3ec de3c fa3e 7e3d
00000030: f6de 30bd 41d7 1a3c 0ea4 81bd 5a1a 1c3d
00000040: 20f9 74bd 194c 6c3c 5b3b 10bd 1b89 753d
00000050: c0bb e2bc ceae a73b c3e3 343d 03e5 c4bc
00000060: 62be 6c3d 7de5 7f3c 87a3 4a3d a68b ae3c
00000070: b743 5c3d c6ed 19bd 072d dc3c 2a5d 2cbd
00000080: 053f 103d 63ce 48bc c1ac 1d3d b516 86bc
00000090: 2059 dcbc 0022 153c 07c3 07ba 2c36 093c
000000a0: 1d0a 6fbd b6c3 e03c 8dc9 ccbc c7da 06bd
000000b0: 0b1e 9fbd c479 74bd 8e08 5fbd 51d2 dd3a
000000c0: 3487 73bc b7cf 453d 5373 abbc 7a86 f73c
000000d0: 68df a43a 6e13 753b 0ab2 2c3b 3a77 383d
000000e0: 868c e33c 3e3c 76bd e02f 8c3d 6837 52bd
000000f0: 5987 333d da75 833d 5d46 a6bc 1cb4 39bb
00000100: 6cca 9dbd 006b 043d e3de 463d ec2b 62bc
00000110: 35b3 1fbc 62bc 5e3c 9025 44bc c68f 473d
00000120: ca95 b2bd eb64 a23c 8110 8ebc 7f28 95bc
00000130: 5ee5 c5bc 9602 893b d452 d53b 502f aebc
00000140: eb00 9c3a df9a 8f3d d897 e7bc b889 1dbd
00000150: f397 5cbd a55e 1bbb ee65 c9bc c2d2 08bd
00000160: 94b8 40bd 191b e13c c1c2 bb3c f8b5 2ebd
00000170: 1cee 1b3d ecd9 c43c cfd6 b9bc ae8f 92bb
00000180: a439 33bc 1997 e03c 476a b2b9 3261 17bd
00000190: ead8 c0ba b3ea 293d 6d98 17bd 5ec4 1abc
000001a0: 07d0 043d 5ca3 f53c 4980 c93c c7cc 033d
000001b0: ab42 ebbc 9bdc 10bb cc50 4dbd 16a8 3a3c
000001c0: a02b 833c f5fc 96bc 794a 153d 4d1e a1bd
000001d0: be96 1fbd ff0c 41bd c21c 573c a8e9 a63b
000001e0: fccb 1dbd 3aad febc 3510 fa3b 7194 63bd
000001f0: 56e8 f7bc 4806 4c39 3e74 2cbc 7675 373c
-0.05961774 0.04319862 0.007551198 0.010562062 0.011656583 -0.014886581 0.027819358 -0.04683255
-0.016588297 -0.021087604 0.027212566 0.062071778 -0.043181382 0.009450735 -0.06330119 0.03811107
-0.059807897 0.01442244 -0.035212856 0.059945207 -0.027677417 0.005117274 0.044162523 -0.024034983
0.05779875 0.015618679 0.049472358 0.021306824 0.053775515 -0.037580274 0.02687694 -0.042081036
0.03521635 -0.012256238 0.03849483 -0.01636825 -0.026897967 0.0091023445 -0.00051789026 0.008374732
-0.058359254 0.027437072 -0.02499845 -0.032923486 -0.07769402 -0.059686437 -0.054451518 0.0016923641
-0.014863778 0.048293795 -0.020929014 0.03021549 0.0012578787 0.0037395614 0.0026351237 0.04503558
0.027776968 -0.060116045 0.06845069 -0.05132237 0.04383025 0.06418963 -0.020297224 -0.0028336113
-0.077046245 0.032328606 0.048552405 -0.013804417 -0.009747316 0.013594719 -0.011971846 0.048721097
-0.08719976 0.019823512 -0.017341854 -0.018207787 -0.024157222 0.0041812165 0.006510118 -0.021262795
0.0011902129 0.07011961 -0.028270647 -0.038461417 -0.053855848 -0.0023707536 -0.024584737 -0.03340412
-0.047051027 0.027478741 0.022920014 -0.042654008 0.038068876 0.024029694 -0.022685437 -0.0044726944
-0.010939036 0.027415799 -0.00034029988 -0.036957927 -0.0014713083 0.041483592 -0.0370106 -0.009446232
0.032424953 0.029985122 0.024597304 0.032177713 -0.028718313 -0.0022104147 -0.050125882 0.011392614
0.016012013 -0.018431166 0.036447976 -0.078671075 -0.03896212 -0.047131535 0.013129415 0.005093772
-0.038524613 -0.03108846 0.0076313266 -0.055561487 -0.030262154 0.00019457296 -0.010525761 0.011197438

duration_linear.weight f4 [1, 128]
00000000: 462d 813c d31b de3c a10b 11bd 3f35 0bbd
00000010: 8518 f33d a0e8 0dbe 25f1 a0bd 4ecf 29bd
00000020: ed7f 30bd 6cd4 f0bb 6273 30be c15c 99bd
00000030: ada8 40bd a684 cfbd 4e92 fd38 375e e33d
00000040: 90d7 aebb 8ded 44bd 2749 093d 1903 f53d
00000050: 445e 6dbd 17eb a33d bfa6 38bd 803b 88bd
00000060: 68b9 a8bc 33fa dbba efca 1d3e 8fd4 0dbd
00000070: fa5e ed3d e14e 35bc 3db0 153d 4488 673c
00000080: 88cc 033d 14d4 ffbd c3c7 d73d 9dae e63c
00000090: b51b 6e3d d352 a83d 64da d2bd 977f d63c
000000a0: c9cf 73bc b9f1 da3b 75f9 933d e540 793d
000000b0: 76fe 3f3d 7dc6 e23c 943a a53d 7b25 e33d
000000c0: 1805 17be ac5e d7bd 6c8f 7fbc 4655 003d
000000d0: 528c 01be 12e1 a23d 5bfd c7bd feac cb3d
000000e0: 2d17 933c aadc 993d 1111 f13d d917 7e3d
000000f0: 4533 bf3d 32a9 163e d882 1b3d 160b 6c3d
00000100: 7651 1a3d d22a 2dbe 977d 45bd 6707 1f3d
00000110: d8eb a03b 7fd9 b53d 7969 a8bd 7d88 a2bd
00000120: b109 08bd aa09 8dbd c2f9 cfbc 9f0b 823a
00000130: 17c2 8ebc a329 89bd baaa c03c 9100 bf3d
00000140: 97af 4cbd a2e1 3d3c 08e3 2e3d 03a1 8b3d
00000150: 4a68 87bd f710 873d 8234 0ebd 36ff dfbd
00000160: a4f9 bebd 0b57 b8bc 7343 32bc bc4a a5bc
00000170: 5f5e d9bd d7c5 b93d 2a96 753d 1c92 27ba
00000180: c80e 1dbd fd6c ddbd edd4 d83c 3170 fdbc
00000190: 5506 63bd bd48 423d d5be 2fbd a671 8e3d
000001a0: 2db9 1bbd 96fd 743d ed11 5f3c 4283 043e
000001b0: a694 56bd cc45 e53b 24c8 1a3d 9bb3 e2bb
000001c0: 4100 463d 3e09 983d 79da d6bc 6c0a e53b
000001d0: 65b7 413d 2859 b4bd 3fa7 793c 275d 30bd
000001e0: 9cdf e5bc 9741 9c3c 5927 75bd 16c5 293d
000001f0: ad72 3e3d 740b 89bd df15 c33d 20db d43d
0.015768658 0.027112877 -0.03541148 -0.033986326 0.11869911 -0.1385827 -0.07858495 -0.041457467
-0.04309075 -0.0073495414 -0.17231515 -0.074883945 -0.04703586 -0.101327226 0.000120912315 0.111019544
-0.0053357556 -0.04807811 0.03351703 0.119634815 -0.057951227 0.08003824 -0.045080896 -0.06651974
-0.020596221 -0.0016782939 0.15409444 -0.03462654 0.11590381 -0.0110661695 0.036545027 0.014131609
0.032177478 -0.124916226 0.105361484 0.028159434 0.058131892 0.082189225 -0.10295561 0.026183886
-0.014881083 0.0066816476 0.072253145 0.060852904 0.046873532 0.027682537 0.080678135 0.11091133
-0.14748037 -0.10516104 -0.015598159 0.031331323 -0.12651184 0.07953085 -0.097651206 0.09945105
0.017955387 0.075127915 0.11770833 0.06203446 0.09335951 0.1471298 0.03796658 0.05762776
0.037675343 -0.16910866 -0.048215475 0.03882542 0.0049109273 0.08879375 -0.08223242 -0.07936189
-0.033212367 -0.06886609 -0.025387648 0.0009921676 -0.017426534 -0.06697395 0.023518909 0.0932628
-0.049972143 0.01158944 0.042696983 0.0681782 -0.066116884 0.06595033 -0.034718044 -0.109373495
-0.09324959 -0.022502443 -0.010880339 -0.020177238 -0.10613703 0.09070938 0.05995766 -0.00063923164
-0.038344175 -0.108118035 0.026468718 -0.030937286 -0.05542596 0.04743265 -0.0429066 0.069552705
-0.038018394 0.05981215 0.013615114 0.12940696 -0.052387856 0.006996846 0.037788525 -0.0069183833
0.048340086 0.07423638 -0.026227223 0.006989768 0.04729404 -0.08806068 0.0152376285 -0.043057587
-0.028060727 0.019074244 -0.059851978 0.04144772 0.046496082 -0.06691638 0.09525656 0.10393357
