torch/model40.pth (torch, 342035 bytes, 8 tensors)

lstm.weight_ih_l0 f4 [512, 3]
-0.046325926 0.092953384 0.05040063 0.075843275 -0.034556914 -0.035944995 0.025198089 -0.054004766
0.066725865 0.013115439 0.08500261 0.08587322 0.0738418 0.029812867 -0.08766598 0.014841625
-0.11938262 0.09128783 0.08250758 0.077220574 -0.09245414 0.058398243 0.03206379 -0.1432744
0.058358572 0.052421834 0.09766338 0.010437562 -0.03298715 0.01753275 0.039568983 -0.07002074
0.011784914 -0.017887162 0.068605274 -0.054949146 -0.021550396 0.06328972 -0.14941905 -0.06444094
-0.011062215 0.04518833 -0.018569417 0.079232305 0.10247757 -0.0754466 0.04550594 -0.17224067
0.058091223 0.065872386 0.05378765 0.053683225 0.13831481 -0.06358234 -0.035116736 0.05000313
0.031668372 0.011619355 0.079987176 -0.04031689 -0.012855944 0.08348541 0.07046453 -0.08975748
0.031660818 0.01870268 -0.07208296 0.005208842 -0.022453764 0.040814813 0.24049665 -0.384181
0.07509277 -0.040029883 0.031160098 0.0788369 0.047141176 0.0020031806 -0.020606063 0.10125432
0.07982212 -0.12131152 0.20730878 -0.27493533 0.0036129982 0.09586358 -0.061074052 0.032588117
0.09971295 -0.058520753 0.052332964 0.056158688 0.15906735 -0.032165334 0.035986878 0.022108098
-0.007661575 0.087096766 -0.0034982949 -0.08870296 -0.05534965 0.00018761145 -0.07895351 0.106716275
0.13711444 -0.015668543 0.078722045 0.09220876 -0.09653609 0.0762871 0.0044867564 -0.06969483
0.05600558 -0.042828694 0.056565844 -0.042143293 0.001713413 0.012384471 0.113644846 0.07804044
-0.10227539 0.05152119 0.16524668 -0.06754796 0.0947676 -0.06533125 -0.009860141 0.041353334
-0.044963375 -0.05580004 -0.08311655 -0.008574773 -0.041677352 0.043997735 0.009300598 0.04685764
0.05836541 0.09730383 -0.056218423 0.01282535 -0.03749369 -0.12988746 0.087433435 -0.015481306
0.027494518 0.016974498 -0.065830424 -0.06206457 0.055520047 0.0376387 -0.038213767 0.06036921
0.03439373 -0.024244724 -0.013997623 0.09034676 -0.08379012 0.018243004 -0.0806257 -0.005553914
-0.07934798 0.031165877 -0.05392965 0.02009016 0.1168056 -0.05313262 -0.08447624 -0.015124027
0.016659489 0.115277536 0.045623466 -0.025556773 -0.07463558 0.07222875 -0.056063436 0.066130325
0.0436517 0.07739178 0.057533298 0.078886695 0.025285989 0.054661967 0.00060442515 -0.012516746
0.058815073 -0.03420977 0.07969468 0.06854349 -0.042022523 0.03994388 -0.031005302 0.057944864
-0.06453054 -0.005793399 0.006376102 -0.10346607 0.08492526 -0.02907447 0.040296417 0.0806416
0.24496695 -0.061061762 -0.029499214 0.114616096 -0.0024889812 -0.19716045 -0.16207628 -0.013321365
0.09570486 -0.023348533 -0.041196704 0.023099756 0.050760716 -0.061149046 -0.14736335 0.14740793
-0.0038169867 0.04859373 -0.013053418 -0.07426931 -0.02638219 0.031576376 0.074192196 0.061320692
0.029024102 -0.017611818 0.015333331 -0.00466193 0.009284429 0.0666445 0.059808362 0.03995604
0.029545782 0.053303503 -0.061428208 0.05777188 0.04422837 -0.11379578 0.0012194439 0.111729115
-0.0909249 -0.14792855 -0.039686937 -0.067456305 0.007260727 0.028814869 -0.2546514 0.102463715
-0.6593902 0.0031265996 0.090019636 -0.059169892 -0.049611896 0.046279754 0.019562235 0.045480665
00000000: 41c0 3dbd 585e be3d e470 4e3d b853 9b3d
00000010: 8d8b 0dbd 0f3b 13bd 396c ce3c 1a34 5dbd
00000020: 92a7 883d 23e2 563c d915 ae3d 4cde af3d
00000030: 5f3a 973d 1d3a f43c 398a b3bd 492a 733c
00000040: e07e f4bd 1df5 ba3d bcf9 a83d d225 9e3d
00000050: 9958 bdbd ff32 6f3d 5255 033d 86b6 12be
00000060: 6609 6f3d 47b8 563d bd03 c83d 4f02 2b3c
00000070: 891d 07bd d7a0 8f3c 1613 223d 0967 8fbd
00000080: 8315 413c 1988 92bc ec80 8c3d 5b12 61bd
00000090: 758a b0bc 0a9e 813d 4f01 19be 9df9 83bd
000000a0: 4b3e 35bc 6617 393d e41e 98bc 8c44 a23d
000000b0: c3df d13d bf83 9abd 7064 3a3d dc5f 30be
000000c0: 10f1 6d3d 1ae8 863d 7050 5c3d f1e2 5b3d
000000d0: 66a2 0d3e 7537 82bd 91d6 0fbd 15d0 4c3d
000000e0: b2b6 013d 1b5f 3e3c 51d0 a33d 5323 25bd
000000f0: bda1 52bc 66fa aa3d b54f 903d c5d2 b7bd
00000100: c6ae 013d 5d36 993c 3ba0 93bd efae aa3b
00000110: f5f0 b7bc 6f2d 273d c144 763e 5fb3 c4be
00000120: 3dca 993d 60f6 23bd 7643 ff3c 3e75 a13d
00000130: 1b17 413d cb47 033b 0cce a8bc 6d5e cf3d
00000140: c879 a33d 2d72 f8bd c148 543e 53c4 8cbe
00000150: 0dc8 6c3b 2054 c43d c928 7abd 1e7b 053d
00000160: 4e36 cc3d 75b3 6fbd 175b 563d a706 663d
00000170: 8de2 223e ccbf 03bd fa66 133d 0b1c b53c
00000180: f30d fbbb ca5f b23d a643 65bb e6a9 b5bd
00000190: 51b6 62bd 91b9 4439 61b2 a1bd 108e da3d
000001a0: ba67 0c3e 515b 80bc 0639 a13d f2d7 bc3d
000001b0: b7b4 c5bd 693c 9c3d a405 933b 2abc 8ebd
000001c0: 1b66 653d 246d 2fbd 96b1 673d 729e 2cbd
000001d0: 9a94 e03a 3ce8 4a3c a1be e83d abd3 9f3d
000001e0: c275 d1bd e207 533d 6d36 293e 9656 8abd
000001f0: 8415 c23d 64cc 85bd 6e8c 21bc 1d62 293d
00000200: 842b 38bd 958e 64bd 0339 aabd 347d 0cbc
00000210: dfb5 2abd f836 343d 8961 183c cced 3f3d
00000220: 9110 6f3d 3b47 c73d 4a45 66bd 6b21 523c
00000230: fc92 19bd 3801 05be 4d10 b33d 4ea5 7dbc
00000240: 2f3c e13c 1a0e 8b3c 1ad2 86bd 6b37 7ebd
00000250: fd68 633d 0a2b 1a3d 0a86 1cbd b445 773d
00000260: 71e0 0c3d df9c c6bc 4956 65bc b907 b93d
00000270: 289a abbd 5a72 953c 161f a5bd 9bfd b5bb
00000280: 3281 a2bd 954f ff3c 56e5 5cbd 1f94 a43c
00000290: c637 ef3d 97a1 59bd e101 adbd c4ca 77bc
000002a0: 7b79 883c a116 ec3d acdf 3a3d 705c d1bc
000002b0: 8ada 98bd abec 933d c6a2 65bd 566f 873d
000002c0: 20cc 323d 957f 9e3d 09a8 6b3d 598f a13d
000002d0: 9024 cf3c 3ae5 5f3d 4972 1e3a 0a13 4dbc
000002e0: 13e8 703d 8b1f 0cbd f736 a33d 8760 8c3d
000002f0: cf1f 2cbd 329c 233d d5fe fdbc 9857 6d3d
00000300: 9628 84bd 8ed6 bdbb 9fee d03b 05e6 d3bd
00000310: 4bed ad3d 952d eebc db0d 253d 6c27 a53d
00000320: 9ed8 7a3e e61b 7abd 56a8 f1bc d8bb ea3d
00000330: 2d1e 23bb 6ee4 49be 53f7 25be db41 5abc
00000340: e900 c43d 6c45 bfbc e0bd 28bd b33b bd3c
00000350: 78ea 4f3d 6c77 7abd 6be6 16be 1bf2 163e
00000360: 6926 7abb 380a 473d 01de 55bc 821a 98bd
00000370: 761f d8bc 3b56 013d 14f2 973d 682b 7b3d
00000380: f4c3 ed3c a946 90bc a738 7b3c 1ac3 98bb
00000390: b81d 183c e97c 883d 9df9 743d f2a8 233d
000003a0: ff09 f23c c654 5a3d 259c 7bbd 35a2 6c3d
000003b0: cf28 353d c30d e9bd bfd5 9f3a 3cd2 e43d
000003c0: d536 babd 957a 17be c58e 22bd 8826 8abd
000003d0: 65eb ed3b 290d ec3c ab61 82be 7fd8 d13d
000003e0: cccd 28bf a3e7 4c3b 375c b83d 215c 72bd
000003f0: d835 4bbd d78f 3d3d fb40 a03c ef49 3a3d

lstm.weight_hh_l0 f4 [512, 128]
-0.0038399135 0.084104486 0.07820222 0.014322605 -0.060482472 -0.05910873 0.07252904 -0.06389509
0.009611026 -0.02519134 0.08161611 -0.030938124 -0.016360696 0.03874255 -0.08016148 0.040202
0.0158644 0.068416946 -0.08241951 0.07486229 -0.0569038 -0.05044081 0.042422082 0.011671051
0.068746634 0.087102324 -0.022409767 -0.098690756 -0.077010676 -0.09199138 0.06459646 -0.0620331
-0.00190501 -0.031712927 -0.049003407 -0.07620327 -0.039942257 -0.043162946 -0.047434717 0.06734521
0.07479248 0.03873329 0.042960875 -0.03620832 0.009521506 0.029696126 -0.073471166 -0.06302423
-0.012111359 -0.07505877 0.04124242 0.06118215 0.0528313 -0.079130046 -0.047593582 -0.07136266
0.04410931 -0.015918747 0.024456762 -0.051894642 0.056286316 -0.014259318 -0.04009836 0.04862054
0.0063521666 -0.07331436 0.09661606 0.074960716 0.05525596 0.10435373 -0.06198909 0.06945944
-0.016067445 0.06217982 -0.08596954 0.026526975 -0.0693136 0.015144752 0.058691014 -0.041993614
-0.088338286 0.012833662 0.026864955 -0.015752185 0.027102344 0.02461854 0.05058558 -0.04641401
0.056690235 -0.041317854 -0.07404362 -0.04085398 -0.07623536 -0.009012673 0.06938764 -0.005474921
0.09463057 0.013575268 -0.07512274 0.016594172 -0.05142715 -0.056090046 -0.07010848 0.026331421
-0.05241971 0.045006722 -0.055003643 -0.0133622065 0.071370356 0.025853561 0.018076949 -0.016563673
-0.03506103 0.05547842 0.0020038004 0.0062139416 0.07599815 0.060609646 -0.06672876 0.07601365
0.03713849 -0.081021935 -0.048507728 0.01954593 0.04694549 0.020726651 -0.08624401 -0.059607416
-0.042422026 0.005300317 0.045249674 -0.03418408 -0.078889556 -0.069495134 -0.053703465 -0.050896488
0.053184364 -0.014185835 -0.081439435 0.049392365 -0.016213946 0.03218183 -0.039673064 -0.0498996
0.06904056 -0.08614946 -0.07046587 0.07017584 0.03625591 0.025909511 -0.062291004 0.03328617
0.064537995 0.077405326 0.034566235 -0.05532588 -0.065686636 -0.057191998 -0.07306805 -0.040696517
-0.008584397 0.045198057 0.06193916 0.014321905 0.08067636 -0.002690319 -0.057368945 0.06667194
0.021565292 -0.015407123 -0.08549909 -0.06347027 -0.019173065 0.083203055 0.072583996 0.07258149
0.049409527 0.06657625 0.0635055 0.034382094 0.05426579 -0.021699104 0.0354093 0.0130119575
0.009853193 0.0037480078 0.0622645 0.057543896 0.04626131 0.035193246 -0.041260064 -0.023879344
-0.05894795 0.044881508 0.034359865 -0.08699456 0.017147189 0.07305335 0.007894916 -0.02597259
-0.070355184 -0.020514937 0.019544134 0.077622905 -0.0019105995 -0.049967777 -0.08523322 -0.0456607
0.07566031 0.014269258 0.049172882 -0.00971252 -0.04748225 -0.048178203 -0.030392975 0.030643111
0.034422044 0.048143942 -0.07321679 0.05896949 0.0012113982 0.083560914 0.027547227 -0.069604784
0.06463306 -0.06543932 0.068600476 -0.031351514 -0.072262034 0.08105524 0.031586666 -0.07210483
-0.062260818 -0.055110626 0.053619605 -0.047046933 0.053789917 0.049795948 0.0627127 -0.053608302
0.012305688 0.054921046 0.009883496 -0.05773269 -0.030108934 -0.07093502 0.015768798 -0.07499857
-0.033149738 0.047140084 0.02943912 0.029020043 -0.012365574 0.0045241155 0.069826104 0.009952328
00000000: 0fa7 7bbb f93e ac3d 7c28 a03d 5ca9 6a3c
00000010: 78bc 77bd ff1b 72bd 1b8a 943d 6edb 82bd
00000020: 9177 1d3c 125e cebc 5926 a73d f371 fdbc
00000030: de06 86bc 82b0 1e3d b42b a4bd daaa 243d
00000040: 0ff6 813c 2f1e 8c3d 8fcb a8bd 6651 993d
00000050: f613 69bd 069b 4ebd c7c2 2d3d f037 3f3c
00000060: 09cb 8c3d b462 b23d b094 b7bc 611e cabd
00000070: c6b7 9dbd fa65 bcbd 264b 843d 6b16 7ebd
00000080: 87b1 f9ba 6ae5 01bd ccb7 48bd 7610 9cbd
00000090: 7e9a 23bd a1cb 30bd e84a 42bd 49ec 893d
000000a0: cd2c 993d cca6 1e3d bef7 2f3d 2d4f 14bd
000000b0: 1700 1c3c 4a45 f33c 0d78 96bd d912 81bd
000000c0: b96e 46bc 6ab8 99bd d0ed 283d 229a 7a3d
000000d0: a265 583d ef0e a2bd 7df1 42bd 9626 92bd
000000e0: f7ab 343d 0868 82bc 8c59 c83c 7a8f 54bd
000000f0: 7b8c 663d ea9f 69bc 2e3e 24bd 5526 473d
00000100: d625 d03b d725 96bd a4de c53d 0185 993d
00000110: 1354 623d 69b7 d53d 46e8 7dbd c040 8e3d
00000120: e09f 83bc 44b0 7e3d cc10 b0bd 194f d93c
00000130: 4af4 8dbd b221 783c fd65 703d 7f01 2cbd
00000140: b4ea b4bd 4844 523c e513 dc3c ba0a 81bc
00000150: bc05 de3c d2ac c93c d332 4f3d 9e1c 3ebd
00000160: 0534 683d e93c 29bd 2ea4 97bd 8156 27bd
00000170: 4921 9cbd e4a9 13bc 1b1b 8e3d f766 b3bb
00000180: accd c13d cd6a 5e3c f3d9 99bd 80f0 873c
00000190: 46a5 52bd adbe 65bd 0995 8fbd feb4 d73c
000001a0: 0db6 56bd f858 383d 804b 61bd 28ed 5abc
000001b0: 9f2a 923d d9ca d33c 1c16 943c 8ab0 87bc
000001c0: 289c 0fbd 573d 633d 3152 033b 529e cb3b
000001d0: eba4 9b3d d241 783d 17a9 88bd 0bad 9b3d
000001e0: 871e 183d d4ee a5bd 0ab0 46bd c91e a03c
000001f0: ea49 403d f0ca a93c b3a0 b0bd e826 74bd
00000200: b8c2 2dbd 48ae ad3b b957 393d 9b04 0cbd
00000210: d990 a1bd 7753 8ebd 2af8 5bbd d678 50bd
00000220: d9d7 593d b46b 68bc b8c9 a6bd a64f 4a3d
00000230: 1cd3 84bc 18d1 033d 3980 22bd 8663 4cbd
00000240: 2365 8d3d 216f b0bd 6950 90bd 5ab8 8f3d
00000250: 1481 143d 2f40 d43c da24 7fbd 1457 083d
00000260: 7f2c 843d af86 9e3d 5395 0d3d 649d 62bd
00000270: b786 86bd 2842 6abd b4a4 95bd 64b1 26bd
00000280: 92a5 0cbc 9921 393d ebb3 7d3d 6ca6 6a3c
00000290: a639 a53d 1050 30bb b3fb 6abd 4c8b 883d
000002a0: b2a9 b03c 286e 7cbc 261a afbd b3fc 81bd
000002b0: d510 9dbc 5d66 aa3d eba6 943d 9ba5 943d
000002c0: a561 4a3d 2159 883d 2c0f 823d 3dd4 0c3d
000002d0: ce45 5e3d 52c2 b1bc 5809 113d 1b30 553c
000002e0: 496f 213c 23a1 753b 0f09 7f3d 26b3 6b3d
000002f0: 807c 3d3d cb26 103d 5000 29bd 9d9e c3bc
00000300: 6873 71bd acd5 373d eebc 0c3d 342a b2bd
00000310: 4378 8c3c ff9c 953d ae59 013c 78c4 d4bc
00000320: 6116 90bd f10e a8bc 051b a03c c2f8 9e3d
00000330: 156d faba 03ab 4cbd c18e aebd b706 3bbd
00000340: cbf3 9a3d 9bc9 693c 8169 493d 4321 1fbc
00000350: bf7c 42bd 8256 45bd b0fa f8bc 4307 fb3c
00000360: 21fe 0c3d 9532 453d aff2 95bd fe89 713d
00000370: c7c7 9e3a fc21 ab3d b9aa e13c f48c 8ebd
00000380: 565e 843d 0d05 86bd 687e 8c3d 726a 00bd
00000390: 1efe 93bd 4a00 a63d 0561 013d b2ab 93bd
000003a0: 3305 7fbd aebb 61bd 3ba0 5b3d 49b4 40bd
000003b0: d152 5c3d d6f6 4b3d 846f 803d 6194 5bbd
000003c0: cc9d 493c e4f4 603d 63ee 213c 1d79 6cbd
000003d0: 03a7 f6bc 6146 91bd 912d 813c da98 99bd
000003e0: 05c8 07bd f615 413d 4f2a f13c 71bb ed3c
000003f0: fa98 4abc 083f 943b fd00 8f3d 170f 233c

lstm.bias_ih_l0 f4 [512]
-0.085660554 1.5822625e-05 0.06277775 -0.07810677 0.0013570439 0.0027844824 0.030180188 0.03978298
-0.008603242 -0.122136444 0.03074905 -0.05754187 0.04701339 -0.042567763 0.028885601 -0.06983622
0.047135945 0.041379083 -0.06218773 -0.0004650126 0.039012365 0.013601796 -0.053561658 -0.16669631
-0.079537876 0.076589026 -0.12563667 -0.10628639 0.01134393 0.06740741 -0.015481916 -0.07887747
-0.06318347 0.043005537 -0.14238808 -0.10615392 0.022340456 0.06594569 -0.03157171 -0.08825293
-0.08255233 -0.12821506 0.019671548 -0.025993321 0.0194509 -0.09709875 -0.104872234 -0.09610509
0.021287525 -0.056561224 -0.124142736 -0.09944065 0.03624051 -0.011621852 -0.008405637 0.049494654
-0.08563488 0.08657802 0.06859713 -0.025713146 -0.07097882 -0.07766517 0.07077743 -0.10831166
-0.047898337 -0.107360005 -0.030957194 -0.029929765 -0.1402068 -0.08386176 -0.024894608 -0.16609813
-0.019263908 0.07208948 -0.083693884 0.016766611 -0.055995848 0.006601386 0.0187998 -0.011092585
0.028247409 -0.09503643 -0.72724456 -0.089393765 -0.07164422 0.03444578 -0.08309768 -0.15769166
-0.10022087 -0.08673067 0.028416762 -0.082557715 -0.10487226 -0.07823708 -0.104660995 -0.05815906
-0.068351135 0.010745188 0.025664002 0.040166453 0.050128274 -0.18082161 -0.08820286 0.017480541
-0.023252733 -0.059679464 -0.04641524 -0.014001553 -0.06175306 -0.018951323 0.0747274 0.0030489923
0.033742514 -0.25049275 -0.042706728 0.010363736 0.03130299 -0.099811286 -0.052568436 -0.08525383
-0.08816667 -0.09155421 -0.0023127294 0.08073477 -0.019531906 -0.017283564 -0.033909127 0.057466846
0.043841872 -0.06351906 0.0005476487 0.066049896 -0.047605887 0.009932141 0.003075088 -0.018375877
0.034770522 0.045149878 -0.06592968 -0.028565899 0.09616322 0.06678251 0.075264215 -0.034392264
0.002929194 0.08620813 -0.06901836 -0.07235133 0.030917207 0.043343745 0.117971554 0.20238505
0.08704379 0.014674926 0.24496573 0.16133824 0.076319665 0.037220214 0.10877099 -0.040507995
0.10225257 0.0051577035 0.07574915 -0.03424593 -0.046883628 0.08710838 0.026819069 0.0070430734
-0.018828444 -0.02684369 0.025296893 0.006839308 -0.0013785748 0.07306472 0.13720813 0.050435986
-0.05215105 -0.023400744 0.16451745 -0.035558794 0.084687345 -0.008790983 0.08070859 0.027515538
0.079261206 0.046494722 0.069722995 -0.036132663 -0.07036691 -0.03604141 0.026833246 -0.030690128
0.10747207 0.16294941 0.13708633 -0.058318466 0.105760306 0.14763054 0.06291312 -0.04973734
-0.06339604 -0.0072617363 0.14116336 0.049602166 0.062364645 0.066893525 -0.005287729 0.062676765
0.096676566 -0.06805811 1.3055297 -0.041396298 -0.012410699 -0.07251157 -0.03918178 0.024542145
0.053596444 -0.0077260057 0.0787749 -0.019091437 0.09046567 0.00047154893 -0.030853491 -0.068580605
0.12504096 0.2294992 0.0042525977 0.09908528 -0.061273728 0.0968274 -0.002528039 0.04393025
0.08544086 0.08285789 -0.08201608 0.08697258 0.14312291 -0.035245784 -0.039231397 0.1241924
0.022942144 0.29259953 0.042779975 0.06578393 0.08393977 0.029773176 -0.0052719023 0.17914252
0.32081592 -0.017556604 -0.046698138 -0.039661266 0.081169486 -0.0021759141 0.05339754 -0.020815423
00000000: cd6e afbd d4ba 8437 9f91 803d 71f6 9fbd
00000010: d6de b13a dd7b 363b 713c f73c 7af3 223d
00000020: 9df4 0cbc ac22 fabd 6fe5 fb3c 06b1 6bbd
00000030: 1d91 403d 895b 2ebd 7fa1 ec3c 4b06 8fbd
00000040: 9f11 413d 1d7d 293d 90b8 7ebd efcc f3b9
00000050: 6ecb 1f3d 11da 5e3c 7863 5bbd 70b2 2abe
00000060: c1e4 a2bd b5da 9c3d e6a6 00be aeac d9bd
00000070: e4db 393c e50c 8a3d dda7 7dbc 838a a1bd
00000080: 5666 81bd 9326 303d 2ece 11be 3a67 d9bd
00000090: 5503 b73c 890e 873d 5651 01bd f4bd b4bd
000000a0: 3211 a9bd cf4a 03be 3a26 a13c f2ef d4bc
000000b0: 7e57 9f3c b6db c6bd 41c7 d6bd bfd2 c4bd
000000c0: 2d63 ae3c beac 67bd 8c3e febd 8aa7 cbbd
000000d0: ee70 143d 9569 3ebc ccb7 09bc e8ba 4a3d
000000e0: 5761 afbd d14f b13d a77c 8c3d 60a4 d2bc
000000f0: 585d 91bd eb0e 9fbd c2f3 903d 81d2 ddbd
00000100: 0c31 44bd 90df dbbd f199 fdbc 442f f5bc
00000110: 5f92 0fbe b7bf abbd c7ef cbbc a115 2abe
00000120: 58cf 9dbc a6a3 933d b367 abbd 225a 893c
00000130: e75b 65bd 7050 d83b 0a02 9a3c acbd 35bc
00000140: 1c67 e73c 76a2 c2bd b32c 3abf 1414 b7bd
00000150: 34ba 92bd 0517 0d3d 1e2f aabd ec79 21be
00000160: 9940 cdbd d99f b1bd 45ca e83c 0514 a9bd
00000170: 44c7 d6bd c33a a0bd 8158 d6bd 3238 6ebd
00000180: aefb 8bbd 960c 303c 503d d23c 9485 243d
00000190: 4e53 4d3d 4d29 39be b3a3 b4bd 5a33 8f3c
000001a0: 847c bebc 7472 74bd e81d 3ebd c566 65bc
000001b0: c7f0 7cbd ce3f 9bbc ae0a 993d 9ad1 473b
000001c0: 9735 0a3d 9640 80be 40ed 2ebd a9cc 293c
000001d0: 9037 003d dc69 ccbd 0052 57bd 8f99 aebd
000001e0: ba90 b4bd c680 bbbd 2991 17bb 4558 a53d
000001f0: 6001 a0bc 4396 8dbc 4ce4 0abd 5b62 6b3d
00000200: 8993 333d 4816 82bd 1590 0f3a 2b45 873d
00000210: 64fe 42bd 6bba 223c 6a87 493b 0289 96bc
00000220: 896b 0e3d 14ef 383d 2406 87bd 0803 eabc
00000230: 39f1 c43d 45c5 883d 2024 9a3d e7de 0cbd
00000240: b8f7 3f3b e38d b03d 7f59 8dbd ef2c 94bd
00000250: 1546 fd3c 3689 313d 129b f13d 073e 4f3e
00000260: 0444 b23d 1a6f 703c 4cd8 7a3e da35 253e
00000270: 7c4d 9c3d 3974 183d 53c3 de3d b6eb 25bd
00000280: cc69 d13d f401 a93b 5f22 9b3d 7645 0cbd
00000290: 0c09 40bd e165 b23d aab3 db3c 95c9 e63b
000002a0: 1c3e 9abc 4ce7 dbbc 6e3b cf3c 461c e03b
000002b0: 4bb1 b4ba f5a2 953d 4a80 0c3e f795 4e3d
000002c0: 579c 55bd ebb2 bfbc 4377 283e 19a6 11bd
000002d0: 8f70 ad3d 0e08 10bc 8c4a a53d 4468 e13c
000002e0: b353 a23d 4071 3e3d eeca 8e3d d8ff 13bd
000002f0: 871c 90bd 28a0 13bd 65d1 db3c dd69 fbbc
00000300: 511a dc3d 36dc 263e 5c60 0c3e 58df 6ebd
00000310: dc98 d83d 762c 173e 98d8 803d 62b9 4bbd
00000320: c8d5 81bd dcf3 edbb 218d 103e a42b 4b3d
00000330: 1272 7f3d 79ff 883d b044 adbb ad5c 803d
00000340: 5dfe c53d 0d62 8bbd 991b a73f 2a8f 29bd
00000350: 3f56 4bbc f280 94bd 137d 20bd 9c0c c93c
00000360: f287 5b3d 6f2a fdbb bc54 a13d a565 9cbc
00000370: 1146 b93d 3a3a f739 76c0 fcbc fd73 8cbd
00000380: bd0a 003e d701 6b3e 6059 8b3b 39ed ca3d
00000390: 29fa 7abd 724d c63d 75ad 25bb 35f0 333d
000003a0: 9efb ae3d 66b1 a93d 0cf8 a7bd ae1e b23d
000003b0: d08e 123e e25d 10bd 1ab1 20bd 9658 fe3d
000003c0: 2af1 bb3c 9bcf 953e 0e3a 2f3d bab9 863d
000003d0: 9de8 ab3d e0e6 f33c ecbf acbb 2371 373e
000003e0: fc41 a43e ded2 8fbc 8c46 3fbd da73 22bd
000003f0: 303c a63d c899 0ebb 61b7 5a3d 1b85 aabc

lstm.bias_hh_l0 f4 [512]
-0.03372787 0.07227732 0.06925658 -0.011772704 0.0036649716 -0.10702492 0.013334148 0.029282793
-0.017398633 -0.0034629526 -0.083660156 -0.07652721 0.038369764 0.039988495 -0.12748605 -0.06149736
0.06384521 -0.033803005 -0.020905694 0.0494321 0.04311926 -0.08691771 -0.06504219 -0.04744207
-0.05447048 -0.019183755 -0.09244306 -0.12606645 -0.09182497 0.050339337 -0.10491782 0.04555782
0.030720172 -0.09983171 -0.067687646 -0.06915914 0.021623516 -0.006413562 -0.05772774 -0.14540523
-0.11102279 0.0056873374 -0.03358949 -0.085358545 -0.10164041 0.051578492 -0.06325238 -0.121254794
0.044606633 -0.09972378 -0.024097135 -0.0577121 -0.068461195 -0.0058358745 -0.10952475 0.055906847
-0.045813963 0.025918052 -0.041330572 0.0677645 0.002864423 0.007875124 -0.031336132 -0.13478586
-0.08814939 -0.18944573 -0.0510511 -0.044891592 -0.08223056 -0.1613138 -0.0064679333 -0.018999185
0.05447244 -0.082506336 0.04326109 0.048672497 -0.025995994 -0.026430279 -0.015145949 -0.11040975
-0.032788675 -0.0015833981 -0.86157846 -0.0647999 0.015665563 -0.021462834 0.034661897 -0.1434922
-0.047381517 -0.028336106 0.026780458 -0.035543445 -0.13341552 0.012913577 0.025962388 -0.09113214
-0.0456235 -0.16143237 0.029703787 -0.049387716 -0.08068748 -0.15610993 -0.084754586 0.013338735
0.000995739 -0.06612278 0.07084999 0.046895515 -0.101181485 -0.07267363 0.0052730264 -0.12897956
-0.010358549 -0.20490693 -0.09273307 -0.002655991 0.008973591 -0.10495323 -0.0059013665 -0.015405669
-0.2067786 -0.04456266 -0.043022696 0.04722311 0.04292629 -0.050628286 0.010666382 0.030995619
0.12268119 -0.043173354 -0.024015922 -0.065292865 0.07104851 0.06988533 0.013265486 0.08275756
0.04891799 0.07386635 0.011295874 0.04879329 0.07702032 0.08152001 0.09990872 0.09988417
0.009419435 0.16160227 0.08677467 -0.030062854 -0.037974596 -0.02954137 0.058169957 0.286356
0.052546125 -0.0691931 0.19223863 0.16409484 -0.006521717 -0.03892018 -0.02415041 0.08888924
0.05905751 0.051988848 0.1477131 0.10838662 -0.026729165 0.017636348 0.0065039117 -0.02718962
0.020459816 0.059615556 0.046496984 -0.018008662 0.04673591 0.047595415 0.11508248 0.045500763
-0.023410402 0.037559524 0.2039512 -0.051506013 0.049227953 0.08771128 -0.03988713 -0.023126613
-0.036319498 -0.03648992 -0.064436555 0.017988853 -0.012365936 0.009590294 0.07790599 0.015992709
0.08422754 0.021076743 0.0676801 0.06561111 0.13624878 0.22435442 -0.056124534 0.06062236
-0.02497179 0.052010845 0.10842053 0.008340956 -0.0029231475 -0.034046244 0.11069888 -0.028624913
0.13162912 0.04301987 1.3041872 0.0019189842 -0.038119603 0.008186171 -0.0729153 -0.0070604
0.0094915135 0.021040883 0.07673263 0.009234841 0.115409255 -0.056610588 0.022782622 -0.050073873
0.0034001383 0.25036755 -0.015086003 0.07733491 0.08240561 0.12980287 -0.07909833 0.0020136216
0.03262734 -0.017494548 0.027910113 -0.012798445 0.09218357 0.081622496 0.046211287 0.0020620918
0.036665544 0.33678123 0.05379709 0.060059987 -0.020494075 0.114293285 -0.009758756 0.01731896
0.35376093 0.05937227 -0.05921038 -0.039990623 0.045566246 -0.03897243 -0.022416987 -0.010196487
00000000: 3c26 0abd 2206 943d 65d6 8d3d 4de2 40bc
00000010: 0530 703b e22f dbbd 7877 5a3c 78e2 ef3c
00000020: 9487 8ebc b4f2 62bb 0456 abbd 4cba 9cbd
00000030: 9d29 1d3d faca 233d b48b 02be a8e4 7bbd
00000040: 47c1 823d 0575 0abd 6b42 abbc 5079 4a3d
00000050: d29d 303d ea01 b2bd d734 85bd 9e52 42bd
00000060: 701c 5fbd 4027 9dbc c952 bdbd 9017 01be
00000070: bb0e bcbd 9f30 4e3d 27df d6bd d69a 3a3d
00000080: dfa8 fb3c 9174 ccbd d29f 8abd 4fa3 8dbd
00000090: cd23 b13c dc28 d2bb ec73 6cbd 1ce5 14be
000000a0: eb5f e3bd d85c ba3b 2295 09bd 76d0 aebd
000000b0: d928 d0bd f843 533d 778a 81bd 6f54 f8bd
000000c0: 72b5 363d fb3b ccbd 5b67 c5bc 8663 6cbd
000000d0: 6235 8cbd dd3a bfbb 834e e0bd 94fe 643d
000000e0: 6ca7 3bbd 1852 d43c 3f4a 29bd 1dc8 8a3d
000000f0: 0bb9 3b3b aa06 013c 515a 00bd 4e05 0abe
00000100: ab87 b4bd 10fe 41be f51a 51bd 3fe0 37bd
00000110: 7f68 a8bd 722f 25be f5f0 d3bb 2ea4 9bbc
00000120: 7e1e 5f3d 15f9 a8bd 8a32 313d d05c 473d
00000130: 8df5 d4bc 5084 d8bc b726 78bc 821e e2bd
00000140: 6b4d 06bd 068a cfba 6890 5cbf cfb5 84bd
00000150: 1155 803c d3d2 afbc a2f9 0d3d 9fef 12be
00000160: 1f13 42bd 1f21 e8bc b162 db3c 0196 11bd
00000170: 149e 08be 7893 533c 13af d43c 7da3 babd
00000180: b5df 3abd 874e 25be 5b55 f33c c64a 4abd
00000190: 7a3f a5bd 48db 1fbe d093 adbd b68a 5a3c
000001a0: 7583 823a 616b 87bd cd19 913d 8315 403d
000001b0: 3d38 cfbd ead5 94bd 5ac9 ac3b 3813 04be
000001c0: e7b6 29bc 1fd3 51be d6ea bdbd 2210 2ebb
000001d0: f805 133c b8f1 d6bd 4060 c1bb 0f68 7cbc
000001e0: c5bd 53be 5687 36bd 9138 30bd 056d 413d
000001f0: 7ad3 2f3d 9b5f 4fbd 0cc2 2e3c 86ea fd3c
00000200: 4740 fb3d 8bd6 30bd 0abd c4bc 44b8 85bd
00000210: e281 913d 0a20 8f3d 7b57 593c cc7c a93d
00000220: 3b5e 483d 3e47 973d 5412 393c 79db 473d
00000230: d4bc 9d3d f7f3 a63d f19c cc3d 1290 cc3d
00000240: f953 1a3c 117b 253e ebb6 b13d 6046 f6bc
00000250: 408b 1bbd be00 f2bc 9f43 6e3d 419d 923e
00000260: 9b3a 573d 1db5 8dbd 34da 443e 7a08 283e
00000270: 21b4 d5bb c46a 1fbd 15d7 c5bc 900b b63d
00000280: 4ae6 713d 42f2 543d 1a42 173e cef9 dd3d
00000290: 1ff7 dabc 1a7a 903c c41e d53b c4bc debc
000002a0: 589b a73c 712f 743d 9f73 3e3d e786 93bc
000002b0: 276e 3f3d 69f3 423d 5db0 eb3d 025f 3a3d
000002c0: 2cc7 bfbc 04d8 193d 95d8 503e f8f7 52bd
000002d0: 40a3 493d f9a1 b33d b060 23bd 0674 bdbc
000002e0: c1c3 14bd 7476 15bd 50f7 83bd 5c5d 933c
000002f0: 7f9a 4abc 9c20 1d3c 2d8d 9f3d 2403 833c
00000300: 7d7f ac3d 22a9 ac3c dd9b 8a3d 1e5f 863d
00000310: cd84 0b3e 2abd 653e d7e2 65bd 274f 783d
00000320: a491 ccbc 5309 553d 950b de3d 81a8 083c
00000330: 4792 3fbb 1374 0bbd 18b6 e23d cb7e eabc
00000340: c9c9 063e 9a35 303d 9bef a63f 6d86 fb3a
00000350: 4d23 1cbd 4a1f 063c 9e54 95bd ee5a e7bb
00000360: 4b82 1b3c ee5d ac3c ff25 9d3d bb4d 173c
00000370: b05b ec3d 81e0 67bd 9fa2 ba3c 431a 4dbd
00000380: dbd4 5e3b 2d30 803e 482b 77bc c461 9e3d
00000390: 46c4 a83d 0beb 043e 4efe a1bd f7f6 033b
000003a0: 3fa4 053d ba50 8fbc c0a3 e43c 92b0 51bc
000003b0: bdca bc3d b229 a73d 0c48 3d3d 2924 073b
000003c0: 9c2e 163d 976e ac3e 565a 5c3d 7601 763d
000003d0: 31e3 a7bc 9912 ea3d 30e3 1fbc 7ee0 8d3c
000003e0: 2720 b53e 5630 733d 9586 72bd 35cd 23bd
000003f0: aca3 3a3d 8ea1 1fbd d4a3 b7bc 2b0f 27bc

pitch_linear.weight f4 [128, 128]
-0.21202518 0.09694004 0.008287978 0.06803871 0.04671346 0.22179444 -0.007930839 0.23596865
0.29807052 0.048294567 -0.054860093 -0.004419786 -0.19355123 -0.14280966 -0.01620558 2.7798926e-05
0.02033437 -0.24813795 -0.14630501 0.06122835 0.26018164 -0.23461679 0.10557014 -0.20324972
0.021905882 0.05868993 0.2540695 -0.2538374 -0.23380579 -0.009018159 -0.004812219 -0.06893869
-0.07496362 0.05993964 0.30446535 0.085806124 0.0043396126 0.09400938 -0.13780522 -0.22589919
0.005415908 -0.16233687 0.035755772 -0.0048112776 -0.14170882 0.041132037 0.13354391 -0.2669641
0.008046067 -0.022292 -0.35516596 0.034362305 0.06282863 -0.014995023 -0.020260675 0.014924521
0.015616836 0.040960122 -0.15430008 -0.022916393 -0.038944174 0.041031573 0.002309256 0.10711617
-0.21738474 0.27484626 0.2124054 -0.006275374 -0.32887226 0.21852168 0.04256587 -0.14914678
0.018754728 -0.064738564 -0.12503667 0.11439209 -0.288159 0.10031405 0.15127279 0.24757215
-0.24988803 -0.04306636 0.31819186 -0.015635593 -0.08984811 -0.10688673 0.07191354 -0.15262961
-0.1020539 0.032523718 0.031662777 0.0028545323 0.18123059 -0.054123115 0.16876197 0.12823541
0.24632514 -0.31458497 0.082834184 0.16097385 -0.16944651 -0.200537 -0.089770794 0.17284745
-0.32140976 -0.057587717 0.0910762 0.13784227 0.2179434 -0.11636599 0.10559351 -0.11219471
-0.08292103 -0.27641615 -0.07720687 0.21756184 0.14382905 -0.08376925 0.12759371 -0.12137496
-0.0022490493 0.005194051 0.14996476 -0.14026698 0.058402505 0.07880436 -0.059226856 0.05967688
-0.1239442 0.17976807 0.041092385 0.05616252 0.11061857 0.09007135 0.059421763 0.17548174
0.30193457 0.09017519 0.012875202 0.032050643 -0.09638931 -0.13021404 0.03887976 -0.09918195
0.0082745785 -0.23070498 -0.08878041 0.12366995 0.24533376 -0.18050937 0.106276795 -0.15251315
-0.022986524 0.1293592 0.15641898 -0.32894903 -0.10024803 0.025268542 -0.09151676 -0.12598728
-0.00010240493 -0.007165773 0.31736466 0.03777386 0.04627425 0.09682926 -0.18886371 -0.09514176
-0.07487671 -0.060207263 0.026748963 0.16066001 -0.23306493 0.08681239 0.13083285 -0.2897098
-0.012248191 0.08865394 -0.2652726 0.05593315 -0.023906201 -0.14692672 -0.014835683 -0.06332274
0.05175214 0.075547166 -0.043130945 -0.19818582 0.09521014 0.06247466 0.017152743 0.23054968
-0.21784335 0.1077918 0.09758025 0.1363463 -0.24711886 0.26952446 -0.05953961 -0.11795103
-0.10263322 -0.10983878 -0.17381862 -0.032431908 -0.19916481 -0.047455255 0.011490668 0.22971347
-0.18717894 0.11420314 0.19612187 0.04422318 -0.025804369 0.0058771865 0.15130815 -0.17131965
-0.026645962 -0.006581615 0.08886888 -0.034474876 0.13124345 -0.072389945 0.17127793 0.17248097
0.2779011 -0.2901571 0.06971074 0.30116084 -0.14326091 -0.24609528 0.05472137 0.14460155
-0.30391276 -0.049404446 0.1448814 0.03044203 0.24973306 -0.19660662 0.07041014 -0.021807084
0.046456166 -0.11053489 -0.12517789 0.19656613 0.14716221 -0.065214835 0.2423331 -0.16665582
-0.12969325 -0.16035852 0.12671424 -0.021184536 0.11706687 0.111158706 -0.028444964 0.16288352
00000000: 211d 59be 8088 c63d 4dca 073c e157 8b3d
00000010: 9d56 3f3d 151e 633e 5af0 01bc c4a1 713e
00000020: b39c 983e 86d0 453d fab4 60bd dad3 90bb
00000030: 4b32 46be b23c 12be 91c1 84bc bd31 e937
00000040: 4494 a63c e017 7ebe fbd0 15be 94ca 7a3d
00000050: 8736 853e 623f 70be 2835 d83d b220 50be
00000060: f773 b33c da64 703d 6615 823e faf6 81be
00000070: c96a 6fbe e6c0 13bc d2af 9dbb ba2f 8dbd
00000080: 8786 99bd 4583 753d e2e2 9b3e 1fbb af3d
00000090: 4f33 8e3b fd87 c03d d01c 0dbe 1e52 67be
000000a0: ee77 b13b a33b 26be a574 123d eca7 9dbb
000000b0: 1e1c 11be 117a 283d bcbf 083e 85af 88be
000000c0: a7d3 033c b69d b6bc 50d8 b5be 7dbf 0c3d
000000d0: 4cac 803d afad 75bc b7f9 a5bc fa85 743c
000000e0: c2dd 7f3c cdc5 273d d700 1ebe 29bb bbbc
000000f0: ed83 1fbd b910 283d e356 173b b95f db3d
00000100: 1b9a 5ebe a6b8 8c3e cd80 593e a7a1 cdbb
00000110: f261 a8be 26c4 5f3e 8d59 2e3d efb9 18be
00000120: 84a3 993c a795 84bd 9d09 00be 6646 ea3d
00000130: 9489 93be 7471 cd3d 41e7 1a3e 8e83 7d3e
00000140: a6e2 7fbe 5a66 30bd 0bea a23e 3716 80bc
00000150: 4902 b8bd 6ee7 dabd 6847 933d f04a 1cbe
00000160: a301 d1bd 9737 053d d4b0 013d 1b13 3b3b
00000170: 8394 393e 33b0 5dbd f0cf 2c3e 2550 033e
00000180: a83c 7c3e 4811 a1be f8a4 a93d 54d6 243e
00000190: 6383 2dbe 9259 4dbe c0d9 b7bd ecfe 303e
000001a0: d28f a4be 19e1 6bbd 2986 ba3d 8626 0d3e
000001b0: 8e2c 5f3e 4b51 eebd 6941 d83d 57c6 e5bd
000001c0: 80d2 a9bd 6b86 8dbe a31e 9ebd 88c8 5e3e
000001d0: ec47 133e 368f abbd eda7 023e 6f93 f8bd
000001e0: c964 13bb dc32 aa3b 5d90 193e 26a2 0fbe
000001f0: 7737 6f3d 2e64 a13d dc97 72bd be6f 743d
00000200: 75d6 fdbd 1f15 383e 7d50 283d ac0a 663d
00000210: fd8b e23d 5477 b83d 3c64 733d 7cb1 333e
00000220: 2b97 9a3e c5ad b83d 83f2 523c 8947 033d
00000230: c267 c5bd d456 05be 6240 1f3d e81f cbbd
00000240: 1992 073c ed3d 6cbe 81d2 b5bd ac46 fd3d
00000250: c638 7b3e 73d7 38be a6a7 d93d 682c 1cbe
00000260: 3c4e bcbc bd76 043e 4c2c 203e 026c a8be
00000270: d74e cdbd f9ff ce3c 246d bbbd cf02 01be
00000280: 3ac2 d6b8 dcce eabb 9f7d a23e c3b8 1a3d
00000290: 118a 3d3d 6b4e c63d 7d65 41be afd9 c2bd
000002a0: f658 99bd e49b 76bd a420 db3c 0f84 243e
000002b0: 93a8 6ebe b2ca b13d 0cf9 053e d854 94be
000002c0: a3ac 48bc 3290 b53d cfd1 87be 291a 653d
000002d0: f0d6 c3bc f573 16be 5d11 73bc 5aaf 81bd
000002e0: 0dfa 533d 79b8 9a3d 13aa 30bd 39f1 4abe
000002f0: 89fd c23d 6ee5 7f3d e983 8c3c 3715 6c3e
00000300: 5412 5fbe f2c1 dc3d 27d8 c73d 5d9e 0b3e
00000310: ba0c 7dbe 1cff 893e cedf 73bd 4f90 f1bd
00000320: 5e31 d2bd 27f3 e0bd 82fd 31be 52d7 04bd
00000330: dcf1 4bbe 7160 42bd 5b43 3c3c 023a 6b3e
00000340: d6ab 3fbe 56e3 e93d 2cd4 483e 5d23 353d
00000350: af63 d3bc 6a95 c03b 86f0 1a3e 6b6e 2fbe
00000360: a248 dabc 97aa d7bb e300 b63d 8735 0dbd
00000370: af64 063e 2e41 94bd 7b63 2f3e da9e 303e
00000380: 0e49 8e3e 798f 94be 81c4 8e3d c131 9a3e
00000390: fdb2 12be 6700 7cbe 8423 603d 6e12 143e
000003a0: 749a 9bbe 515c 4abd ca5b 143e 9061 f93c
000003b0: 06ba 7f3e 3f53 49be 3133 903d c5a4 b2bc
000003c0: d248 3e3d 1e60 e2bd a22e 00be a248 493e
000003d0: b1b1 163e 5b8f 85bd 2b26 783e d3a7 2abe
000003e0: 4fce 04be 0635 24be 61c1 013e 318b adbc
000003f0: c1c0 ef3d 2da7 e33d 6a05 e9bc f0ca 263e

pitch_linear.bias f4 [128]
-0.97687995 -1.088544 -1.0246025 -1.0646679 -1.1107725 -1.1116725 -1.0867229 -1.0315232
-1.0733494 -1.019659 -1.1416304 -1.1136993 -1.0273013 -1.0414362 -1.0041729 -1.0367416
-1.0182719 -1.0803863 -1.0354153 -1.0746813 -1.0177957 -1.0703547 -1.0664363 -1.0211943
-1.0484762 -1.0017456 -1.0478005 -1.0777133 -1.0231409 -0.9134333 -0.90519714 -0.8583828
-0.7783231 -0.7213734 -0.66012967 -0.6211225 -0.36097312 -0.3993802 -0.3720537 -0.32898763
-0.20884818 0.05174444 -0.113381885 0.375226 0.357926 0.551329 0.5510263 0.45188573
0.9411436 0.74229324 1.0955925 0.9940853 1.1395845 1.3019906 1.1844002 1.4008236
1.4115932 1.5320078 1.5133961 1.3802412 1.5456197 1.4604208 1.6830639 1.5270196
1.6016775 1.5649966 1.5069325 1.6217027 1.4942095 1.618706 1.4381006 1.4295844
1.4473205 1.4156656 1.5066322 1.2427245 1.184127 1.2388505 0.999158 1.097055
0.86728483 0.8296435 0.47894183 0.39108396 0.3632091 0.120940454 0.060263097 -0.1582683
-0.16904965 -0.32010278 -0.58492464 -0.5889562 -0.7311215 -0.7614272 -0.8154341 -0.9066562
-0.9432842 -0.9938523 -0.96893984 -1.0111333 -1.0333159 -1.0081837 -1.0512863 -1.0269806
-1.1219394 -1.0610704 -1.0434854 -1.0427454 -1.1031971 -1.0687547 -1.0371895 -1.0433508
-1.0851533 -1.058295 -1.1325423 -1.1304963 -1.1287193 -1.0295033 -1.0285653 -1.0324473
-1.0775266 -1.0978206 -1.1285298 -1.1145202 -1.0283588 -1.1024835 -1.1089346 -1.0358634
00000000: ce14 7abf 6955 8bbf 2d26 83bf 0a47 88bf
00000010: cb2d 8ebf 494b 8ebf bc19 8bbf f408 84bf
00000020: 8363 89bf 3084 82bf f220 92bf b38d 8ebf
00000030: 9c7e 83bf c84d 85bf bd88 80bf f3b3 84bf
00000040: bc56 82bf 194a 8abf 7d88 84bf 288f 89bf
00000050: 2147 82bf 6201 89bf fc80 88bf 7fb6 82bf
00000060: 7834 86bf 3339 80bf 541e 86bf 82f2 89bf
00000070: 48f6 82bf c4d6 69bf 00bb 67bf fabe 5bbf
00000080: 2f40 47bf edab 38bf 42fe 28bf e201 1fbf
00000090: 78d1 b8be 907b ccbe d37d bebe 1171 a8be
000000a0: 4cdc 55be faf1 533d c334 e8bd 9f1d c03e
000000b0: 1442 b73e e623 0d3f 0f10 0d3f 915d e73e
000000c0: c9ee 703f ee06 3e3f 603c 8c3f 607c 7e3f
000000d0: e8dd 913f a1a7 a63f 6d9a 973f 304e b33f
000000e0: 16af b43f d518 c43f f7b6 c13f beab b03f
000000f0: ded6 c53f 12ef ba3f a36e d73f 6175 c33f
00000100: c503 cd3f cf51 c83f 2ae3 c03f f493 cf3f
00000110: 4242 bf3f c231 cf3f ae13 b83f 9ffc b63f
00000120: cc41 b93f 8834 b53f 53d9 c03f 9911 9f3f
00000130: 7991 973f a792 9e3f d2c8 7f3f 4c6c 8c3f
00000140: 6106 5e3f 8463 543f dd37 f53e 283c c83e
00000150: 8bf6 b93e a1af f73d 70d6 763d 1611 22be
00000160: 5a1b 2dbe 83e4 a3be 9fbd 15bf d5c5 16bf
00000170: c72a 3bbf e5ec 42bf 4ac0 50bf 9f1a 68bf
00000180: 137b 71bf 1b6d 7ebf 710c 78bf d16c 81bf
00000190: b243 84bf 2a0c 81bf 8d90 86bf 1a74 83bf
000001a0: b69b 8fbf 28d1 87bf ee90 85bf ae78 85bf
000001b0: 9035 8dbf f4cc 88bf a0c2 84bf 858c 85bf
000001c0: 4ee6 8abf 3676 87bf 25f7 90bf 1ab4 90bf
000001d0: e079 90bf c4c6 83bf 07a8 83bf 3c27 84bf
000001e0: 64ec 89bf 6385 8cbf aa73 90bf 99a8 8ebf
000001f0: 43a1 83bf 2e1e 8dbf 92f1 8dbf 2c97 84bf

step_linear.weight f4 [1, 128]
-0.012504628 0.010717156 0.0020185525 0.02562327 0.014599742 -0.02382938 0.0039677825 0.01419554
0.115187846 -0.013996812 -0.010992403 0.013022988 -0.027314195 -0.006055091 -0.049098138 0.0044769766
-0.017595772 -0.0400087 -0.0027819364 -0.0015582384 0.007921599 -0.02327834 0.011371712 0.13623638
0.01203556 0.008445006 0.07757634 -0.08132943 -0.06330281 0.009228148 -0.0070160762 -0.020420052
0.007263505 -0.017678374 0.02206218 -0.017569957 -0.015298523 0.0032980507 0.025483465 -0.023432026
0.022231385 -0.009108373 0.0055149402 0.0032065725 -0.013351504 0.06326918 -0.0073182858 -0.03107229
-0.016985286 -0.013911018 -0.036746453 -0.01041959 0.0030264591 -0.016459288 -0.0006201652 -0.0043584527
0.014241969 -0.0039076675 -0.04375256 0.01205438 0.0071110013 -0.006056394 -0.008280057 -0.020671785
-0.003513657 0.046009038 -0.025951479 -0.0074048704 0.01691876 0.053343434 -0.002123345 -0.02346155
0.0032266942 -0.0013222672 -0.023373472 -0.004487534 -0.00997958 0.013979896 -0.0026021965 -0.014108828
-0.015536604 -0.009133521 0.23826589 -0.0081857955 -0.020827858 -0.0014752767 0.00011293427 -0.009868229
-0.015887855 -0.007932351 -0.016944373 -0.0049159955 0.05286078 0.0044865985 0.020233335 0.013470789
-0.005437261 -0.0070452457 0.0266527 0.018251702 -0.016469896 -0.019575521 0.0139726335 -0.010741796
-0.015029438 -0.012913101 0.0014834818 0.011563766 -0.033739436 -0.0026940326 0.019135598 -0.05719543
-0.0017846767 -0.10121601 -0.011022045 -0.017585864 0.021961946 -0.00838822 0.03878665 -0.015813282
-0.0022643104 -0.005338894 -0.000115730945 0.008239972 0.0029723048 0.015143963 -0.00969928 -4.4816872e-05
00000000: 36e0 4cbc 0397 2f3c b149 043b e4e7 d13c
00000010: c233 6f3c d535 c3bc 2c04 823b 6994 683c
00000020: 9be7 eb3d e252 65bc 7b19 34bc 5f5e 553c
00000030: 05c2 dfbc c969 c6bb 211b 49bd 9ab3 923b
00000040: 0225 90bc 2ae0 23bd 2651 36bb ce3d ccba
00000050: 98c9 013c 38b2 bebc 6b50 3a3c 8d81 0b3e
00000060: cc30 453c ec5c 0a3c 58e0 9e3d 0b90 a6bd
00000070: e7a4 81bd a831 173c 1de7 e5bb f447 a7bc
00000080: b202 ee3b 3dd2 90bc bfbb b43c dfee 8fbc
00000090: a8a6 7abc 1c24 583b b3c2 d03c 85f4 bfbc
000000a0: 981e b63c 493b 15bc acb6 b43b 5c25 523b
000000b0: 44c0 5abc 4693 813d 3bce efbb 518b febc
000000c0: ba24 8bbc 0aeb 63bc 7383 16bd eeb6 2abc
000000d0: 8f57 463b a1d5 86bc 9592 22ba 5ad1 8ebb
000000e0: 2657 693c e40b 80bb e235 33bd bc7f 453c
000000f0: 6703 e93b b774 c6bb 14a9 07bc e057 a9bc
00000100: 6245 66bb f973 3c3d 3298 d4bc 8ea4 f2bb
00000110: 3699 8a3c a57e 5a3d d127 0bbb 7032 c0bc
00000120: f276 533b ed4f adba b979 bfbc 2a0c 93bb
00000130: 6481 23bc ef0b 653c 9d89 2abb b728 67bc
00000140: 3e8d 7ebc c3a4 15bc f9fb 733e b71d 06bc
00000150: 2f9f aabc 125e c1ba 20d7 ec38 5aae 21bc
00000160: 3f27 82bc b1f6 01bc edce 8abc 5c16 a1bb
00000170: 8c84 583d 5104 933b 61c0 a53c 96b4 5c3c
00000180: 0d2b b2bb cedb e6bb c356 da3c 9884 953c
00000190: e0eb 86bc d85c a0bc 79ed 643c 5cfe 2fbc
000001a0: 083e 76bc 7991 53bc 6471 c23a f375 3d3c
000001b0: 5d32 0abd 5e8e 30bb 42c2 9c3c c145 6abd
000001c0: d0eb e9ba 574a cfbd cf95 34bc 3b10 90bc
000001d0: 8ae9 b33c bf6e 09bc c0de 1e3d db8a 81bc
000001e0: d364 14bb e4f1 aebb 94b4 f2b8 f300 073c
000001f0: 00cb 423b 621e 783c bbe9 1ebc c0f9 3bb8

duration_linear.weight f4 [1, 128]
-0.07252482 0.0148811815 0.035323426 0.0017543412 -0.03160389 -0.050316952 0.1455783 -0.029361844
0.10335898 0.060663078 0.015011888 0.02709025 0.0012143061 -0.079364866 0.024715457 0.05915748
0.032424014 -0.047432177 -0.028406454 0.03152221 0.056447666 0.0816753 -0.16375606 0.45805493
-0.014272296 -0.056776326 0.19623093 -0.08198632 0.048305754 -0.011835308 0.046553396 0.039453886
-0.066887766 0.03157736 0.14204313 0.04501 -0.06673318 0.043132592 -0.08797955 -0.09109713
-0.025324542 0.048706967 -0.07922129 -0.029406162 0.04209555 -0.05151201 0.029840546 -0.023555318
-0.1045573 0.0916209 0.11658792 0.046857744 0.046638843 0.084874064 -0.09658444 -0.021989647
0.10939217 -0.07526051 0.07661947 0.009552206 -0.009140601 0.022105273 0.014597826 0.12901343
0.039810486 0.077444844 0.17642877 0.13213219 -0.0187314 0.028741179 0.03433044 -0.17436679
-0.024893826 -0.060509402 -0.038106043 0.04072934 0.0047722473 0.02616073 0.008255563 0.15415302
-0.03592821 0.0068850373 1.0644047 0.058808286 0.08146133 -0.0013597289 0.17998153 -0.14356567
-0.022698311 0.06256204 0.03548165 -0.021497061 0.061545897 -0.13494663 -0.08853297 0.11481754
-0.020426644 0.004128603 0.006655506 -0.0505781 0.025269708 -0.124382 -0.0032483896 -0.027859021
0.08482091 -0.086927876 0.033301163 0.05544378 -0.03250072 -0.08988911 0.049228407 0.24324463
-0.07577694 -0.16653094 0.11462335 -0.09045953 -0.097258635 -0.11522907 -0.0034587379 0.055649254
-0.35779044 -0.091509916 0.079447396 0.0401652 0.049183436 -0.020370059 0.07075029 0.0712287
00000000: e587 94bd 33d0 733c 4caf 103d ecf1 e53a
00000010: 1573 01bd 2619 4ebd 7a12 153e 4088 f0bc
00000020: dfad d33d d979 783d 6cf4 753c 5fec dd3c
00000030: 5a29 9f3a 0c8a a2bd 1278 ca3c 1d4f 723d
00000040: 0bcf 043d 3e48 42bd a7b4 e8bc 6f1d 013d
00000050: ab35 673d 6145 a73d abaf 27be 2d86 ea3e
00000060: 59d6 69bc 4b8e 68bd c3f0 483e 72e8 a7bd
00000070: 41dc 453d e1e8 41bc c6ae 3e3d 669a 213d
00000080: 74fc 88bd 4357 013d c173 113e 685c 383d
00000090: 68ab 88bd cdab 303d 9f2e b4bd 2291 babd
000000a0: 6a75 cfbc f580 473d c63e a2bd 31e5 f0bc
000000b0: 626c 2c3d 42fe 52bd 2974 f43c 15f7 c0bc
000000c0: 2322 d6bd bda3 bb3d a6c5 ee3d e8ed 3f3d
000000d0: 5f08 3f3d 74d2 ad3d 10ce c5bd a223 b4bc
000000e0: 0109 e03d 2f22 9abd abea 9c3d db80 1c3c
000000f0: 76c2 15bc 1e16 b53c b82b 6f3c 191c 043e
00000100: 5210 233d 679b 9e3d bea9 343e a94d 073e
00000110: 9872 99bc 9f72 eb3c 139e 0c3d 358d 32be
00000120: 23ee cbbc b5d8 77bd 1515 1cbd cfd3 263d
00000130: 8360 9c3b 074f d63c 5742 073c 4ada 1d3e
00000140: 7529 13bd e19b e13b 6a3e 883f f5e0 703d
00000150: 33d5 a63d ee38 b2ba 144d 383e e102 13be
00000160: cff1 b9bc 8720 803d 3555 113d 9b1a b0bc
00000170: 8d17 7c3d 732f 0abe c650 b5bd 7525 eb3d
00000180: c755 a7bc 3b49 873b 6e16 da3b fb2a 4fbd
00000190: 6b02 cf3c fdbb febd efe2 54bb 9a38 e4bc
000001a0: 96b6 ad3d 3e07 b2bd cd66 083d 0419 633d
000001b0: 7a1f 05bd c817 b8bd baa3 493d 1f15 793e
000001c0: f130 9bbd 1687 2abe a6bf ea3d d942 b9bd
000001d0: 892f c7bd 38fd ebbd feab 62bb 79f0 633d
000001e0: 4f30 b7be 8d69 bbbd 51b5 a23d 4484 243d
000001f0: 9274 493d 1cdf a6bc 87e5 903d 5ae0 913d
