torch/model100.pth (torch, 342035 bytes, 8 tensors)

lstm.weight_ih_l0 f4 [512, 3]
000000 6b 9d b9 bd 62 e3 89 3d 02 99 df bb 1c 36 a2 3d
       -0.09063228 0.06732823 -0.00682366 0.07920477
000010 56 e2 ae bc 36 5c 3c bd 4d 4a ab 3c 9a ea 61 bd
       -0.02134816 -0.045986377 0.020909453 -0.055155374
000020 e1 55 8e 3d c6 ef e0 3b 41 a5 aa 3d 24 2c 05 3e
       0.06949974 0.0068645207 0.08332301 0.1300512
000030 28 ad a3 3d 1e 92 df 3c 43 39 97 bd a7 db 68 3d
       0.07992011 0.027291354 -0.07383969 0.0568501
000040 1a 7b c8 bd b7 d6 c3 3d 73 94 a9 3d 5f d2 02 3e
       -0.09789105 0.09562438 0.082802676 0.12775563
000050 e2 e2 b6 bd 8f cb 96 3d 88 66 c3 3c 33 a7 29 be
       -0.08929993 0.073630445 0.023852602 -0.16567688
000060 9d a1 cc 3d c3 ff 00 3e 93 c3 01 3e cc d0 69 3c
       0.09991763 0.12597565 0.12672262 0.014270972
000070 49 99 a9 bd 16 da b5 3b 0d c8 16 3d 9a e2 88 bd
       -0.0828119 0.0055496795 0.036811877 -0.06683846
000080 31 e3 33 3c 92 58 fb bc bc 77 d8 3d e2 43 fc bc
       0.01097946 -0.030681882 0.105697125 -0.030794088
000090 7d 17 a5 bc 71 da 23 3d a2 e4 94 be 97 6b 5f bd
       -0.020152802 0.040003244 -0.29080683 -0.054545965
0000a0 96 65 e5 bd 70 02 19 3e b6 fc 0b bd ae c6 f6 3d
       -0.112010166 0.14942336 -0.03417655 0.12049614
0000b0 fb 1f 1c 3e ec 5c 99 bd 7e 58 5d 3d 59 db 19 be
       0.15246575 -0.074884266 0.05403947 -0.1502508
0000c0 d3 71 55 3d c5 31 70 3d 07 73 a3 3d 47 93 fd 3c
       0.052110504 0.058641214 0.07980924 0.030954016
0000d0 d1 57 93 3e 58 1f 96 bc a8 8e 01 bd 9f d6 92 3d
       0.28777936 -0.018325493 -0.03163019 0.07169842
0000e0 ec 8c 16 3d 26 d6 13 3c 01 56 9d 3d f3 40 33 bd
       0.036755487 0.009023225 0.076824196 -0.043763112
0000f0 5b 44 ee bb fe b3 87 3d 9b fd 73 3d cb e6 cf bd
       -0.007271332 0.06626128 0.05956803 -0.10151442
000100 b0 c9 73 3c f3 7f a3 bc 63 c0 b7 bd 11 41 ab 3c
       0.014879629 -0.019958472 -0.08972242 0.02090505
000110 e9 51 31 bd cb 14 45 bd 7d f4 e7 3e 94 38 53 bf
       -0.043291006 -0.048115533 0.45303717 -0.82508206
000120 1b 13 8e 3d ce b1 83 bc 40 ea 71 3d f0 38 ae 3d
       0.06937238 -0.016075995 0.05906129 0.08506954
000130 a3 43 48 3d 84 b3 1c 3d 18 a6 a8 bd 4f 09 66 3e
       0.04889263 0.038257137 -0.08234805 0.22464488
000140 3c 25 2b 3d 02 4c 3d be 00 b4 54 3e 10 5b d4 be
       0.041783556 -0.18486026 0.2077179 -0.41475725
000150 49 14 82 bc 1f 5b b2 3d d9 32 36 be b3 70 03 3d
       -0.015878813 0.08708786 -0.17792834 0.0320899
000160 38 e6 cd 3d ff 58 82 bd 53 aa 7b 3d 44 40 a1 3d
       0.10053676 -0.06364631 0.06144173 0.07873586
000170 00 6a 7f 3e eb b1 a2 bc a8 71 d7 3b 83 8f 62 3d
       0.2494278 -0.019860229 0.006574828 0.055312645
000180 f4 40 63 bb e0 ad c9 3d dd 74 8b 3d 2d 0d 9f bd
       -0.0034676166 0.09847617 0.06809399 -0.07766185
000190 a3 b6 9e bd 09 85 9f bb 4d f4 b7 bd 14 da 04 3e
       -0.07749679 -0.004868154 -0.089821436 0.12973815
0001a0 d4 75 0e 3e cd cd ad bc a9 df b4 3d b1 c1 05 3e
       0.13912135 -0.021216298 0.08831722 0.13062169
0001b0 c6 e1 dd bd 2b f8 9b 3d 81 6f ff bc 35 24 9d bd
       -0.108340785 0.07615694 -0.031181099 -0.076729216
0001c0 64 03 03 3d 74 48 9a bd d5 a7 76 3d f3 dc 7d bd
       0.031985655 -0.075333506 0.06021865 -0.06197829
0001d0 fe 7b b0 3c 16 34 70 bc 19 d9 05 3e b4 1e ff 3c
       0.0215435 -0.014660856 0.13071097 0.03114257
0001e0 ef 96 e9 bd 85 64 7b 3d 43 81 47 3e 2e 20 a3 bd
       -0.114057414 0.06137516 0.19482903 -0.07965122
0001f0 78 54 ab 3d f7 c9 9a bd a9 a3 ce bc 51 76 b8 3c
       0.083657205 -0.07558053 -0.025224524 0.022517355
000200 fc 92 e0 bc 78 08 83 bd 3f 07 b1 bd 7f 09 9b 3c
       -0.027413838 -0.063981 -0.0864396 0.018925427
000210 17 9e 8b bd 92 01 3a 3d fb df 41 bc fd 26 4c 3d
       -0.068172626 0.045411654 -0.011833186 0.04984187
000220 fd 0d f5 3c fe e3 fb 3d 11 81 7b bd 2a d4 80 3c
       0.029913897 0.122993454 -0.061402384 0.015726168
000230 35 5f d2 bc 4f e6 34 be 42 87 89 3d f2 2d 01 3d
       -0.025680164 -0.17665981 0.067152515 0.031537957
000240 8b ea 15 3c 0e 8a 9b bc 36 4c 70 bd 89 a8 59 bd
       0.009150158 -0.018986728 -0.05866643 -0.053139243
000250 0b c5 54 3d 3a d4 5b 3d 68 e1 a1 bd c1 a1 56 3d
       0.051945727 0.053669192 -0.07904321 0.052400354
000260 17 67 62 bc 00 79 e5 bc 81 da 59 bc 0a 25 a2 3d
       -0.013818524 -0.028011799 -0.013296724 0.07917221
000270 0a d6 ab bd c0 98 e4 3c d7 a4 a5 bd d9 6c 93 bb
       -0.08390434 0.027904868 -0.08088081 -0.0044990596
000280 fe e2 95 bd 5d 8c 8a 3c 9d 35 63 bd 71 85 7c bc
       -0.07318686 0.016912634 -0.05547105 -0.015412674
000290 4e a2 1f 3e ed 47 fb bc bd 63 f0 bd 5f 0b 13 bd
       0.15589258 -0.030673945 -0.117377736 -0.035899516
0002a0 94 37 32 3a e9 10 f9 3d 2e ad a4 3d 3c ef c8 bc
       0.0006798443 0.121614285 0.08040844 -0.024528138
0002b0 31 84 70 bd 3f 6f b5 3d 7c ba 7e bd d8 87 8e 3d
       -0.058719818 0.08859109 -0.062189564 0.06959504
0002c0 bc ee a7 3d ae 83 9e 3d c4 1a bf 3d d1 ef a8 3d
       0.08199832 0.0773996 0.09331277 0.08248866
0002d0 4e 07 0d 3d cc 07 0f 3d fd 08 c6 3b 80 cc 39 bc
       0.034430794 0.034919545 0.006043552 -0.0113402605
0002e0 fa 05 9f 3d 6a 64 a4 bc 1a 22 bd 3d 47 2d d3 3d
       0.07764812 -0.020067412 0.0923502 0.1031137
0002f0 52 bd dd bc 19 ef 1f 3c cf a2 3d bd af 5a ba 3c
       -0.027067814 0.009761595 -0.046297844 0.02274832
000300 3d e1 23 bd 7c 88 dc bc 9f 8f 23 3c 40 bf 1d be
       -0.040009726 -0.02692055 0.009982972 -0.15404987
000310 61 4b e7 3d 8d f9 3c 3d ce 74 68 3c 39 93 40 3e
       0.11293674 0.046136428 0.014188005 0.18806161
000320 56 53 8e 3e 06 36 84 bd 65 df 5f bd fa 19 ef 3d
       0.27797955 -0.06455617 -0.054656405 0.116748765
000330 4c d5 b4 3b 13 95 90 be 47 d4 8e be 70 af 7b bd
       0.005518591 -0.28238735 -0.2789633 -0.061446607
000340 3a 34 a2 3d 6b 17 a3 bb 76 bf 1b bd 6b 2b 96 3d
       0.07920118 -0.004977157 -0.03802439 0.073325
000350 ae 11 b5 3d 23 fb 30 bd fc 79 06 be 1f 19 32 3e
       0.08841263 -0.043208253 -0.13132471 0.17392395
000360 92 14 2a bc a1 9b 78 3d 04 60 ef bc 7c f3 9d bd
       -0.010380881 0.060695294 -0.029220589 -0.077124566
000370 ef 03 39 bd a1 48 0f 3d c4 0e 0d 3e 38 99 f1 3c
       -0.045169767 0.034981374 0.13775164 0.029492006
000380 38 6a 56 b7 ea b0 b1 bc 12 c3 13 3d 20 ef 80 bd
       -1.2780125e-05 -0.021690805 0.036074705 -0.062956095
000390 5b 35 ea 3b f9 13 ac 3d 08 09 9e 3d 80 f3 41 3d
       0.0071474737 0.08402247 0.07716566 0.04735136
0003a0 85 e2 5f 3d 68 93 35 3d fa 12 90 bd 70 98 8d 3d
       0.054659385 0.04433003 -0.070348695 0.06913841
0003b0 3d 34 81 3c c1 ac 2e be c2 a3 af ba a6 dd 22 3e
       0.01577198 -0.17058088 -0.0013400244 0.15904865
0003c0 c8 71 a0 bd 59 3e 3e be b8 17 94 bd 98 5d 91 bd
       -0.07834202 -0.18578471 -0.072310865 -0.0709793
0003d0 21 c6 85 3c cd 46 3e ba 35 7d 28 3e e7 41 3d 3e
       0.016329827 -0.0007258475 0.16454013 0.18482171
0003e0 61 8f 14 bf 19 6c d7 3b 76 f0 c7 3d e0 ff 60 bd
       -0.5803128 0.0065741655 0.09762661 -0.05493152
0003f0 7e 2a 68 bd 68 5e ac 3d 8f a0 b6 3d b7 a7 3a 3d
       -0.05668115 0.08416444 0.08917343 0.0455701

lstm.weight_hh_l0 f4 [512, 128]
000000 23 de 0a bc 6c 96 b4 3d ac 8b 98 3d 54 dd ac 3c
       -0.008475813 0.08817753 0.07448515 0.021101631
000010 c6 5d 7f bd 2b 4b 71 bd 89 86 99 3d e3 b0 57 bd
       -0.06234529 -0.058909576 0.07496364 -0.052658927
000020 0e 38 f8 3b d7 c3 b7 bc 6b 28 9e 3d 03 54 f0 bc
       0.0075750416 -0.02243225 0.07722553 -0.029336935
000030 9b b0 d2 bc 17 af 15 3d de 12 9c bd 2d 27 15 3d
       -0.025718978 0.03654393 -0.07620786 0.036414314
000040 72 79 2f 3c 5c 90 80 3d 65 7a a9 bd b3 bc 9b 3d
       0.010710107 0.06277534 -0.08275298 0.07604351
000050 71 5e 4a bd fa d8 64 bd f5 da 45 3d 71 c6 c6 bb
       -0.049406473 -0.055870987 0.048304517 -0.0060661365
000060 6f 96 8b 3d 8d 5f b2 3d 88 0e 77 bc 29 a2 ce bd
       0.06815802 0.08709631 -0.015079148 -0.10089523
000070 32 11 ae bd 54 27 c0 bd e5 0f 7e 3d bd bc 7a bd
       -0.084993735 -0.09382501 0.062026877 -0.06121515
000080 46 88 bb bb a7 0b f1 bc e3 22 36 bd 42 9e 9b bd
       -0.005723032 -0.029424502 -0.044466864 -0.07598545
000090 a9 93 29 bd 8a 9a 26 bd c6 8c 51 bd 70 38 8a 3d
       -0.041400585 -0.040674724 -0.051159643 0.06749046
0000a0 79 f7 8c 3d 4b 91 13 3d 35 fb 33 3d 4a 43 15 bd
       0.06883139 0.036027234 0.04394074 -0.036441125
0000b0 5f a8 bb 3b 67 d2 05 3d 10 57 94 bd 6f 8a 8e bd
       0.0057268585 0.03267136 -0.07243168 -0.06959998
0000c0 a7 5f 40 bc 4c 31 9c bd 4d 78 06 3d 2e c0 75 3d
       -0.011741555 -0.0762659 0.03282957 0.05999773
0000d0 00 9e 63 3d 39 ac a3 bd 35 59 3e bd 1a 1a 8a bd
       0.055570602 -0.07991833 -0.046471793 -0.0674326
0000e0 fb 2d 3b 3d bc 6d 3d bc a9 61 cc 3c e7 1f 65 bd
       0.045698147 -0.011561807 0.024948912 -0.055938628
0000f0 86 d9 6d 3d 0f 1c 44 bc fa 72 09 bd d4 ae 7b 3d
       0.058068775 -0.01196958 -0.033556916 0.061446026
000100 3d d2 01 3c 6b f1 91 bd 61 89 c3 3d b2 25 98 3d
       0.00792366 -0.07126125 0.09547687 0.07429065
000110 4b bc 38 3d 3c 4c ee 3d 1d cb 80 bd 0d b9 8b 3d
       0.045101445 0.11635634 -0.06288741 0.06822405
000120 3d e1 af bc 52 13 73 3d 81 4a c2 bd 07 12 e3 3c
       -0.021469707 0.059344597 -0.09486867 0.027718557
000130 b2 29 a1 bd 81 16 81 3c b5 1a 77 3d 1d 1b 16 bd
       -0.07869281 0.015757801 0.060328204 -0.03664695
000140 d5 af c7 bd 5d aa 20 3c 74 b5 88 3c 9e 17 88 bc
       -0.09750334 0.009806243 0.016688086 -0.016612824
000150 ae c1 ae 3c c7 a8 df 3c 81 18 5a 3d 75 fe 49 bd
       0.021332588 0.027302159 0.053246025 -0.049314935
000160 6b e0 62 3d d4 14 24 bd 8d a0 92 bd 14 a9 2b bd
       0.055389803 -0.040058926 -0.07159529 -0.041909292
000170 a8 c1 97 bd ee 92 6d bc a9 c3 9b 3d 93 ca f4 3a
       -0.07409984 -0.014500363 0.076056786 0.0018676094
000180 ed 58 d2 3d 23 b0 86 38 65 05 8d bd bb 97 09 3d
       0.102708675 6.422426e-05 -0.068857946 0.033591967
000190 98 35 83 bd 41 f9 68 bd 5f 67 96 bd 56 d9 e9 3c
       -0.064067066 -0.056878332 -0.07343935 0.028546017
0001a0 89 9a 81 bd 63 e1 2f 3d 5d 30 5c bd 97 89 a8 bb
       -0.06328303 0.042939555 -0.05375706 -0.005143355
0001b0 0f 10 9a 3d 83 35 d6 3c 77 b0 a6 3c 04 17 95 bc
       0.07522594 0.026148563 0.020347817 -0.018199451
0001c0 33 a2 23 bd 95 d8 68 3d d4 86 76 ba f4 a3 bc 3b
       -0.039949607 0.056847174 -0.0009404246 0.0057568494
0001d0 b0 ba a9 3d 0e 5a 82 3d c8 95 7c bd a9 b8 93 3d
       0.08287561 0.06364833 -0.06166628 0.072129555
0001e0 74 60 bf 3c c2 57 a7 bd 00 d9 2e bd 84 35 9a 3c
       0.023361422 -0.08171035 -0.042687416 0.018824346
0001f0 81 2e 40 3d da 1a e0 3c 91 4f ad bd 38 e2 79 bd
       0.04691935 0.027356554 -0.08462442 -0.061006755
000200 e6 22 31 bd a5 55 1d 3c a7 b3 35 3d 64 45 00 bd
       -0.043246172 0.009602939 0.044360783 -0.031316176
000210 df a6 9e bd 22 4e 89 bd bf 91 48 bd cd d7 3e bd
       -0.07746672 -0.06704356 -0.04896712 -0.046592522
000220 44 56 62 3d 69 9f 57 bc 47 fc a8 bd bf ff 4f 3d
       0.05525805 -0.013160565 -0.08251243 0.050781008
000230 31 64 99 bc 4d 44 ee 3c d1 f4 15 bd 84 da 50 bd
       -0.018724533 0.029085303 -0.03661043 -0.050989643
000240 ea c2 86 3d 19 c3 c2 bd 49 0b 94 bd 09 3f 8d 3d
       0.06580146 -0.09509868 -0.07228715 0.068967886
000250 d7 ab 2a 3d ca 28 c4 3c ff 80 7a bd 4a e4 2c 3d
       0.041667785 0.023945231 -0.061158177 0.0422099
000260 e7 02 83 3d b3 56 a3 3d bc 21 14 3d 74 5a 6a bd
       0.06397038 0.07975521 0.036164984 -0.05721517
000270 cc 48 86 bd 5e f1 5c bd 0b dd 9f bd ba 56 2a bd
       -0.06556854 -0.053941123 -0.078058325 -0.041586615
000280 24 17 f8 bb 94 fc 3a 3d e5 1a 83 3d 64 e5 89 3c
       -0.007571118 0.045651034 0.06401614 0.016833015
000290 d0 19 a1 3d 69 8b 37 bb 18 cc 71 bd 75 3f 86 3d
       0.078662515 -0.002800668 -0.05903253 0.06555072
0002a0 e2 e9 91 3c af 1d 7f bc a0 67 af bd ae 3b 84 bd
       0.01781172 -0.015571042 -0.08564687 -0.064566955
0002b0 8b 69 a7 bc bc 69 b2 3d fd 54 93 3d 5c 7e 90 3d
       -0.020436069 0.087115735 0.071939446 0.07055351
0002c0 6c 5f 41 3d 6f 48 85 3d ba 11 7c 3d 1d 19 03 3d
       0.047210142 0.06507956 0.061540343 0.03200637
0002d0 c1 00 65 3d 13 da c2 bc 1d 3b 0e 3d ad 55 59 3c
       0.055908922 -0.023785627 0.034724344 0.013265056
0002e0 8b 8d 22 3c 68 61 c1 3b 1c f2 81 3d 13 34 65 3d
       0.009921442 0.0059015043 0.06345007 0.055957865
0002f0 91 3d 47 3d 20 3b 0b 3d da 90 10 bd f3 fd a2 bc
       0.0486427 0.033991933 -0.03529439 -0.019896483
000300 b1 c8 74 bd 00 a0 3a 3d b4 95 0e 3d 23 99 af bd
       -0.059761707 0.045562744 0.034810737 -0.085741304
000310 ee 2b 6e 3c 03 9a 9a 3d 5e 88 2f 3b 00 f8 d7 bc
       0.014536841 0.07548907 0.0026784162 -0.026363373
000320 74 13 93 bd 83 a1 bc bc f5 c6 17 3c 1a 3d 9d 3d
       -0.07181445 -0.023026234 0.009263744 0.0767767
000330 66 f3 dd bb 89 59 48 bd 68 45 b0 bd 58 a2 33 bd
       -0.0067734 -0.048913512 -0.08606988 -0.043855995
000340 e0 a1 8d 3d 0a dd 69 3c b1 a5 78 3d 21 5c 48 bc
       0.06915641 0.014273891 0.06070489 -0.0122289965
000350 be 7d 40 bd fb 16 3f bd e3 63 eb bc 4a 03 f2 3c
       -0.046994917 -0.046652775 -0.028734153 0.029542584
000360 cb cc 14 3d 8b bc 46 3d 80 d6 94 bd ce 69 75 3d
       0.03632812 0.048519652 -0.07267475 0.059915356
000370 dc 19 37 3b d2 dd a5 3d 6c 35 f5 3c 28 b7 8a bd
       0.0027938997 0.080989495 0.0299327 -0.067732155
000380 b0 24 84 3d 41 f2 9b bd d3 4d 91 3d 65 1f b4 bc
       0.0645231 -0.07614566 0.07094922 -0.021987626
000390 82 83 98 bd d3 17 a3 3d c7 17 fa 3c 76 c0 92 bd
       -0.07446958 0.079635285 0.030528916 -0.07165615
0003a0 67 02 8a bd 37 00 67 bd ce ab 63 3d 29 3d 24 bd
       -0.067387395 -0.05639669 0.055583768 -0.04009739
0003b0 dc 15 5b 3d 89 a6 54 3d 85 c8 86 3d 10 92 56 bd
       0.053487644 0.051916633 0.06581215 -0.05238539
0003c0 68 ba f5 3b 69 b1 56 3d 5b 9c 10 3c 08 65 6b bd
       0.007499028 0.052415285 0.008826341 -0.057469398
0003d0 d5 3e ec bc 8e 7a 8b bd d7 3c 92 3c 6a c5 9d bd
       -0.028838554 -0.06810485 0.017851276 -0.07703669
0003e0 33 7d 3b bd 7d 16 42 3d e8 c5 07 3d aa 2f e4 3c
       -0.045773696 0.047384728 0.033147722 0.02785476
0003f0 60 02 7c bc 45 ce f7 3b 85 d2 92 3d 7f 50 20 3c
       -0.015381426 0.007562431 0.0716906 0.009784817

lstm.bias_ih_l0 f4 [512]
000000 34 8d 25 be 2c 6a 22 bc 15 d2 62 3d 5c 19 9b bd
       -0.16167146 -0.009913009 0.05537613 -0.07573196
000010 d7 3c d3 3b e0 bf 77 3c 2d 07 b5 3c 90 0b 89 3a
       0.0064464617 0.01512143 0.022098148 0.0010455716
000020 07 77 ce bd 0c 8f 00 be 73 aa 78 3c b9 cb d7 bd
       -0.100812964 -0.12554568 0.015177357 -0.10536904
000030 7c e7 81 3d a1 1c 6d bd e6 40 1b bd 36 ba 9d bd
       0.0634298 -0.05788863 -0.03790369 -0.077015325
000040 c1 3d 06 3d b1 fe fc 3c cc 07 47 bd ac df b4 bb
       0.032773737 0.030883165 -0.04859142 -0.005519828
000050 13 a1 f1 3c 84 4b 7b bb 3d c6 90 bd e3 f7 f6 be
       0.029495751 -0.0038344571 -0.07069061 -0.48235998
000060 8a 04 bb bd 83 0e 9e 3d 06 1a 8d be d3 6d 48 be
       -0.09131725 0.07717612 -0.27558917 -0.19573145
000070 3a 99 88 bd 4e 5c 88 3d 28 fe 49 bd 9d cb ad bd
       -0.06669851 0.06658231 -0.049314648 -0.08486102
000080 18 01 8e bd c5 47 3d 3d 21 1c 60 be 54 fd 13 be
       -0.06933802 0.046211023 -0.2188573 -0.14452106
000090 4a be be bb ed e1 58 3d 24 46 6e bd 31 c3 1d be
       -0.005821024 0.052949835 -0.05817236 -0.15406491
0000a0 3f 95 1a be a4 48 1e be 0b 13 f4 bc 54 8a 41 bd
       -0.15095995 -0.15457398 -0.029794237 -0.04725106
0000b0 02 f2 3d bc f7 93 15 be c4 bb 15 be 7c 04 1b be
       -0.011593344 -0.14607225 -0.14622408 -0.1513843
0000c0 fe c0 c2 bb d1 a1 53 bd 94 dd 80 be d7 dd d8 bd
       -0.0059434166 -0.051667992 -0.2516905 -0.105891876
0000d0 f8 ee 0c 3d 36 ea 48 bc ee cc a3 bb b2 d8 5b 3d
       0.034407586 -0.0122628715 -0.0049987948 0.053673454
0000e0 dd ab f8 bd 01 f4 ab 3d 4e 5b 5b 3d e6 b2 f8 bc
       -0.12142155 0.083961494 0.05355387 -0.030358743
0000f0 be 03 7d bd 61 b8 95 bd 68 dc 8e 3d 6e 0c 2a be
       -0.061771147 -0.07310558 0.06975633 -0.16606304
000100 65 01 d8 bc 9f a0 3e be ff 4f f8 bd fa 2b 0e bd
       -0.026367852 -0.1861596 -0.12124633 -0.034709908
000110 88 0d 3f be 22 26 29 be 25 1a 04 bd d7 73 4f be
       -0.18657506 -0.16518453 -0.032251496 -0.20259033
000120 a7 0d 55 bd 2d f5 6b 3d 86 43 88 bd d9 76 cf 3b
       -0.052014973 0.057606865 -0.06653504 0.0063313064
000130 88 52 dd bd 22 13 5c 3c 2b 9e 3b bc 8e e1 93 bd
       -0.10806757 0.013432296 -0.011451284 -0.072207555
000140 99 dc c4 bc a0 4f e8 bd a5 7a 84 bf 6a 83 aa bd
       -0.02403097 -0.11343312 -1.0349928 -0.083258465
000150 75 85 c2 bd da be cb 3c 5c 17 dd bd 1e ba 39 be
       -0.09498111 0.024871279 -0.10795471 -0.18137404
000160 1a b1 ff bd 81 b8 11 be 49 41 ca bb 0a 39 35 be
       -0.12484951 -0.14230539 -0.0061723334 -0.1769754
000170 17 a3 10 be a8 0e 06 be 71 1b de bd c8 9c cf bd
       -0.14124714 -0.13091528 -0.10845078 -0.101373255
000180 31 87 d4 bd f5 81 cf 3d b0 a1 8b 3c 11 56 e7 3c
       -0.10377348 0.10132209 0.017044872 0.028239282
000190 5d 84 08 3d 0e 3e a9 be 47 e7 e4 bd ce b3 64 3c
       0.033329356 -0.33055156 -0.11176925 0.013958884
0001a0 1b 38 8a bd 9e 04 77 bd 35 d5 39 bd 50 1a 11 bd
       -0.067489825 -0.060307138 -0.045369346 -0.035425484
0001b0 f5 9a 1a be f4 1c df bc 70 6e 91 3d 2b 39 bd bd
       -0.15098174 -0.027235486 0.071011424 -0.092394195
0001c0 28 48 03 3d 24 d5 2b bf 10 f6 a7 bd a1 df c1 bd
       0.032051235 -0.671221 -0.082012296 -0.09466482
0001d0 da 74 53 bb 3c 08 55 be 06 9e d0 bd 3b 40 47 be
       -0.0032265694 -0.20803922 -0.101863906 -0.19458096
0001e0 79 03 17 be 44 02 fd bd 97 88 f6 bb 2f c8 b2 3d
       -0.14747418 -0.12353948 -0.007523607 0.08729588
0001f0 a4 7d cf bc 4b 81 fe bc f0 df 3c bd 00 54 6a 3d
       -0.025328465 -0.031067511 -0.046112 0.057209015
000200 af d3 d1 3c 3e 3d 7b bd e6 f9 5d ba 33 62 9e 3d
       0.025613634 -0.061337702 -0.0008467719 0.07733574
000210 b2 51 31 bd 4e a3 2a 3d 97 5c f1 3b 01 c4 f1 bc
       -0.0432908 0.041659646 0.007365774 -0.029512407
000220 b2 9b 05 3e d4 6c 42 3d fb 52 93 bd 13 1b 15 bd
       0.13047674 0.047467068 -0.07193562 -0.036402773
000230 e5 19 14 3e 6e 98 bd 3d c5 8b d1 3d 42 fb 44 bd
       0.14463003 0.09257589 0.10231737 -0.04809118
000240 05 e9 58 bb a0 f7 1a 3e 07 d5 47 bd 64 a7 94 bd
       -0.0033097875 0.15133524 -0.048787143 -0.0725849
000250 58 15 01 3d b1 1f 61 3d 51 2b 13 3e ec f7 e5 3e
       0.031514496 0.054961864 0.14371993 0.44915712
000260 ab 1e ba 3d 5a 99 8f 3c 58 e3 97 3e 9e 93 9d 3e
       0.09087881 0.017529178 0.29665637 0.30776685
000270 2d a1 bf 3d 0f 19 42 3d 9d a2 cd 3d 02 8c 1f bd
       0.09356914 0.04738718 0.10040782 -0.03895188
000280 e7 fb da 3d b2 bf 28 3c 42 99 50 3d 53 59 1f bd
       0.10692578 0.01029961 0.050927408 -0.038903546
000290 94 b4 71 bd ed 30 ac 3d 79 30 97 3c f3 9b 61 bc
       -0.059010103 0.08407769 0.01845573 -0.013770091
0002a0 1b f6 4d bc ab 87 9b bc 41 e5 b5 3c aa a7 64 3c
       -0.012570883 -0.01898559 0.022204043 0.01395599
0002b0 d9 ff c8 b8 15 3a 9b 3d 7d ca 1a 3e a6 ed 74 3d
       -9.5843985e-05 0.07579438 0.15116306 0.05979695
0002c0 48 10 59 bd fa 97 48 bc e7 3a 97 3e df 33 10 bd
       -0.052994043 -0.012243265 0.29537126 -0.035205718
0002d0 60 ca af 3d 07 c3 0b 3a a0 f4 b8 3d 38 38 22 3d
       0.08583522 0.00053314905 0.090310335 0.039604396
0002e0 ec 05 8c 3d 1b f4 74 3d 4a 2a 9f 3d 6e 30 30 bd
       0.06837067 0.05980311 0.07771738 -0.043014936
0002f0 c2 38 88 bd 58 91 ba bc 06 91 30 3d 88 55 54 bd
       -0.06651451 -0.022774383 0.043107055 -0.05183938
000300 bb 15 1d 3e 09 0f 4a 3e b9 9a 82 3e ad 49 7b bd
       0.15340321 0.19732298 0.2550867 -0.06134956
000310 36 d8 0a 3e e6 f0 36 3e 57 e4 8c 3d bf 10 7c bd
       0.1355904 0.17865333 0.0687949 -0.061539408
000320 43 c7 8f bd df ac 10 bc b4 ee 46 3e 5c d6 90 3d
       -0.07020428 -0.008830278 0.19426996 0.07072136
000330 16 68 74 3d 67 23 a2 3d 4f 54 a1 bb ad b7 27 3d
       0.059669577 0.07916909 -0.0049233804 0.04094665
000340 43 ca db 3d 6c df 9e bd 6a a8 d6 3f f8 54 ea bc
       0.10731938 -0.07757458 1.6770146 -0.02860497
000350 e3 85 7f bc 20 ad a1 bd b5 50 54 bd 10 82 98 3c
       -0.015595886 -0.07894349 -0.05183478 0.018616706
000360 3f 69 72 3d fe 3f b0 bc 61 31 6b 3d d5 4f 1b bd
       0.0591824 -0.021514889 0.05742014 -0.03791793
000370 25 63 d8 3d 85 34 c8 3a 49 21 40 bc 82 57 96 bd
       0.10565785 0.0015274441 -0.011726686 -0.073409095
000380 41 20 05 3e 4f 9d 3f 3e b5 5d f7 3b d6 44 00 3e
       0.13000585 0.18712352 0.0075490125 0.12526259
000390 37 b4 75 bd 5d 31 40 3e c7 01 1e bc 38 8d 43 3d
       -0.05998632 0.1876883 -0.009643978 0.0477421
0003a0 ae 1f c6 3d fa cc b1 3d 50 2c a5 bd 07 b3 a5 3d
       0.09674011 0.08681674 -0.080650926 0.080907874
0003b0 47 98 45 3e 85 29 a4 bb e1 61 ff bc 04 50 34 3e
       0.1929637 -0.0050098323 -0.031174602 0.17608649
0003c0 7d 0c 11 3d 6d f9 2b 3f 1e 43 22 3d 81 7e 5d 3e
       0.0354123 0.6717747 0.03961479 0.21630289
0003d0 87 17 ac 3d 0a 6c ef 3c e3 42 f3 bb 37 15 5d 3e
       0.08402925 0.029226322 -0.007423745 0.21590124
0003e0 e1 55 b9 3e 3c c7 03 bd 65 83 4a bd 6d d9 e8 bc
       0.36198333 -0.032172427 -0.049441714 -0.02842399
0003f0 ab 2a b9 3d 7f ec 0c bc 63 08 47 3d 86 e3 6c 3c
       0.090413414 -0.008601307 0.048591983 0.014458543

lstm.bias_hh_l0 f4 [512]
000000 dc b9 e0 bd 3f 5d 7f 3d a6 5b 7d 3d 41 dd 19 bc
       -0.1097295 0.062344786 0.06185498 -0.00939113
000010 21 6f 0f 3c b6 ed c1 bd 74 31 ac 3b c3 e5 1a bc
       0.008754523 -0.09469168 0.0052549187 -0.0094541935
000020 bc 7a e0 bd f8 e7 e0 bb 3e 36 cb bd 12 ae fe bd
       -0.1096091 -0.0068635903 -0.09922455 -0.12435545
000030 66 68 60 3d b2 13 ca 3c f4 ef 46 be 32 a8 8c bd
       0.054787062 0.024667595 -0.19427472 -0.06868018
000040 c7 ae 4a 3d 37 74 35 bd 76 8d ef bb ce c7 35 3d
       0.049483087 -0.044300284 -0.0073105646 0.04438
000050 d6 a2 09 3d b3 bb d5 bd eb 4b a8 bd 66 ea b9 be
       0.033602558 -0.104361914 -0.08217605 -0.36311644
000060 f7 ae 87 bd a0 5f 98 bc 01 32 78 be 1c b0 5c be
       -0.06625169 -0.018600285 -0.24237825 -0.21551555
000070 d2 ef 2d be 34 cd 4a 3d 3c 13 0e be e7 19 22 3d
       -0.16986015 0.049512103 -0.13874525 0.039575484
000080 07 48 c9 3c e2 e1 c5 bd 9e 9a 13 be e8 36 dc bd
       0.024570478 -0.09662224 -0.1441445 -0.1075266
000090 97 41 d6 bb 2e f9 9e bc a0 b8 ac bd 27 49 58 be
       -0.0065385806 -0.019405928 -0.08433652 -0.21121655
0000a0 bb be 37 be 00 67 a9 bc 30 17 aa bd c9 5c da bd
       -0.17943852 -0.020678997 -0.08305204 -0.106622286
0000b0 07 e1 07 be 28 81 2a 3b f3 38 d6 bd 0a c8 34 be
       -0.13269435 0.0026016925 -0.10460081 -0.17654434
0000c0 70 51 8e 3c b2 32 c2 bd fe 49 1b be a5 6a 83 bd
       0.017372817 -0.094823256 -0.15164945 -0.06416825
0000d0 0c f4 8f bd d6 37 d4 bb 47 55 d9 bd 89 1d 76 3d
       -0.0702897 -0.0064763827 -0.106119685 0.06008676
0000e0 5c 20 a7 bd f0 dd be 3c 9b e2 66 bd 8c 42 81 3d
       -0.08160469 0.023299187 -0.05636845 0.06311521
0000f0 3a df 45 3c a2 c5 4b 3c 01 8e 04 bd 88 26 45 be
       0.012077147 0.012437256 -0.032361988 -0.1925298
000100 c4 71 88 bd 9b 55 89 be 34 ba 10 be 1e 75 4b bd
       -0.06662324 -0.26823124 -0.14133531 -0.04967224
000110 3b ac 03 be 25 76 78 be 0a 80 62 bc 89 55 63 bd
       -0.1285867 -0.24263819 -0.013824472 -0.055501495
000120 5d f2 b1 3c 08 a3 c6 bd a6 7b 77 3d c6 9a 1c 3d
       0.021722013 -0.096990645 0.060420655 0.03823354
000130 40 e6 9f bd 4f 8f a0 bc ec f2 39 bd 4c a6 2f be
       -0.078075886 -0.019599585 -0.045397684 -0.17153281
000140 1c 3a ae bd c8 af a3 bc 7e b1 95 bf 90 49 70 bd
       -0.08507177 -0.01998128 -1.1694791 -0.058663905
000150 3c 47 fb bb 49 47 fe bc b0 be 20 3c d1 2f 2b be
       -0.007668404 -0.03103985 0.009811088 -0.1671746
000160 da 7b 93 bd 54 d5 ab bd 44 de ff bb 65 13 05 be
       -0.07201357 -0.083902985 -0.0078084785 -0.1299568
000170 44 db 2d be e9 e1 22 bd 52 b4 b5 3c 76 91 09 be
       -0.16978174 -0.039766226 0.02218071 -0.13434395
000180 3d f6 a5 bd 83 18 91 bd 68 b9 ac 3c 93 25 7b bd
       -0.08103607 -0.07084753 0.021084502 -0.06131513
000190 1b ab c7 bd 71 95 9c be 64 d7 dd bd 4c da 20 3c
       -0.09749433 -0.30582765 -0.10832098 0.009817671
0001a0 51 1d 31 bd ac af 88 bd 71 3c 93 3d e9 b1 d0 3c
       -0.04324085 -0.06674132 0.07189263 0.02547546
0001b0 fc fd 42 be 1e cc a5 bd c7 06 cc 3a 64 cd 65 be
       -0.190422 -0.08095573 0.0015565985 -0.22441632
0001c0 be 62 45 bc d4 2a 20 bf db 37 07 be 76 8a dc bd
       -0.012047468 -0.6256535 -0.13204901 -0.10768597
0001d0 22 58 d1 bc e4 4b 5a be 43 18 62 bd 2a 79 ff bd
       -0.02555472 -0.21318012 -0.05519892 -0.12474282
0001e0 1a 3f 88 be 84 c2 9c bd 93 91 45 bd c9 50 5c 3d
       -0.26610643 -0.076542884 -0.048234534 0.05378798
0001f0 4e 19 18 3d c8 ea 83 bd fd 8c c9 ba a3 ce fb 3c
       0.037133507 -0.06441265 -0.0015377101 0.03073818
000200 5b ef d5 3d 39 e7 27 bd 30 2b d0 bc 07 31 5d bd
       0.10446044 -0.040991995 -0.025411218 -0.054001834
000210 ce 57 9a 3d 86 1e d0 3d 7c d0 8f 3c 55 b0 92 3d
       0.07536279 0.10162072 0.017555468 0.07162539
000220 85 18 14 3e 06 04 9c 3d 10 95 ad 3b 59 c4 27 3d
       0.14462478 0.07617955 0.0052973107 0.040958736
000230 b1 7f 00 3e 20 c7 db 3d 71 02 02 3e bc 81 b0 3d
       0.1254871 0.107313395 0.12696244 0.08618495
000240 55 6d 50 3b 48 2c 68 3e f7 24 db 3d 64 2e f8 bc
       0.0031803448 0.22673142 0.1070041 -0.030295558
000250 39 17 19 bd 74 d8 92 bc 5e d7 ab 3d 49 79 08 3f
       -0.037375662 -0.017925479 0.083906874 0.53310066
000260 a7 f9 66 3d f3 dc 87 bd 3a c6 79 3e c3 fc 9e 3e
       0.05639043 -0.066339396 0.24392024 0.31052217
000270 f1 b6 2f 3c c4 8b eb bc 28 33 05 bd 04 3a b9 3d
       0.010724769 -0.028753169 -0.03251949 0.09044269
000280 76 86 82 3d 23 fe 69 3d dc ab fb 3d af 73 d4 3d
       0.06373303 0.05712713 0.12288639 0.103736274
000290 f9 26 1f bd 71 5a 6f 3c 46 d4 f3 ba 49 a0 44 bd
       -0.038855527 0.014608965 -0.0018602691 -0.048004422
0002a0 e3 de da 3c fd 2e 8a 3d a5 c7 31 3d 11 74 32 bc
       0.026717609 0.067472436 0.043403286 -0.01089193
0002b0 60 ad 44 3d da 2f 4e 3d 54 23 04 3e 22 b5 60 3d
       0.048016906 0.050338604 0.12904102 0.05486024
0002c0 91 b6 c6 bc ab 84 47 3d 79 6e ab 3e be 85 51 bd
       -0.024256976 0.048710506 0.3348272 -0.051152937
0002d0 1f 54 4e 3d 57 b4 c6 3d f9 16 f8 bc fe d2 34 bc
       0.050373193 0.09702366 -0.030284392 -0.011036633
0002e0 4f 51 41 bd 64 ea bd bc 5b 30 67 bd e2 04 36 3c
       -0.047196683 -0.023183055 -0.0564426 0.011109563
0002f0 57 73 0b bc 02 3f bb 3c 7a e4 c0 3d ca 14 a9 bb
       -0.008511386 0.022857193 0.094185784 -0.005159949
000300 29 47 05 3e e1 0b 63 3d d3 1e 3e 3e bb 2e 80 3d
       0.13015427 0.05543125 0.18566446 0.06258913
000310 92 10 2a 3e cf be 82 3e fb c1 4d bd d5 f8 47 3d
       0.16607884 0.255362 -0.050233822 0.04882129
000320 d7 29 02 bd 6a a1 4e 3d e4 67 25 3e a4 5a f1 3c
       -0.031778183 0.050446905 0.16152912 0.029462166
000330 4d 07 b8 bb 74 5d b2 bc da 71 e3 3d 91 3d 4e bd
       -0.0056161047 -0.021773078 0.111057 -0.050351683
000340 56 ad 11 3e ad 2c 09 3d 6c 7c d6 3f b4 10 71 3c
       0.14226279 0.03348987 1.675672 0.014713455
000350 75 2c 29 bd cc 0a e6 3a 37 3b af bd c2 be 54 bc
       -0.041302163 0.0017550825 -0.08556216 -0.012984933
000360 1f 16 77 3c 1e 9a ed 3b b6 d2 62 3d 2f 2d 1d bc
       0.015080958 0.007251038 0.05537673 -0.009593292
000370 82 bb 05 3e 0a 90 63 bd 2d aa 2b 3d 3c db 60 bd
       0.1305981 -0.05555729 0.04191034 -0.05489658
000380 16 54 09 3c 0c fa 54 3e c1 26 41 bc 95 fb d3 3d
       0.008381864 0.2079851 -0.011789025 0.1035072
000390 cc 61 ab 3d e0 f7 61 3e ce 8a b0 bd 4d 18 bf 3b
       0.08368263 0.22067213 -0.08620225 0.0058317543
0003a0 e7 ec 33 3d 2e c1 5d bc 25 de ef 3c 2c 87 9a bc
       0.0439271 -0.013534827 0.029280731 -0.018863283
0003b0 2c 6f 11 3e 70 16 e5 3d 1d 48 5e 3d 5e 10 5d 3d
       0.14202565 0.1118592 0.05426799 0.053970687
0003c0 48 41 49 3d f6 48 37 3f 66 63 4f 3d 4f a2 57 3e
       0.049134523 0.71595705 0.050631903 0.2105801
0003d0 35 2c a7 bc 83 f0 e8 3d 9d 20 43 bc b1 73 5d 3d
       -0.020406822 0.11373999 -0.011909631 0.05406541
0003e0 0c 34 ca 3e 70 50 37 3d 6e c3 7d bd a8 8c eb bc
       0.39492834 0.044754446 -0.061953954 -0.028753594
0003f0 9f 7c 60 3d 93 ed 39 bd c2 07 df bc ce 6e cd 3c
       0.054806348 -0.045392584 -0.027225379 0.02507725

pitch_linear.weight f4 [128, 128]
000000 78 61 83 be c9 f2 01 3e af cc 92 3c 74 bd c7 3d
       -0.256603 0.12690271 0.017919866 0.09752932
000010 0f cb 5c 3d fd 31 81 3e 9a 0b f5 3b 97 25 87 3e
       0.05390459 0.2523345 0.0074781897 0.26395866
000020 9e c0 d7 3e 85 d3 b3 3d ac bf 82 bd 32 42 cc 3c
       0.42139143 0.087805785 -0.06384215 0.024933908
000030 7a 17 80 be e6 48 16 be 35 35 d4 bc 47 ec 03 3a
       -0.2501791 -0.14676246 -0.025904277 0.00050324615
000040 95 f8 d2 3b df 81 89 be d7 4e 1e be 58 0e 92 3d
       0.0064383247 -0.26856896 -0.15459763 0.07131642
000050 56 16 8e 3e fc 4f 80 be 63 c6 32 3e 99 fe 7e be
       0.27751416 -0.25061023 0.17458491 -0.24901809
000060 09 2a de 3b ba 07 9d 3d a7 d8 91 3e 47 43 a8 be
       0.0067799133 0.07667489 0.28485605 -0.3286383
000070 29 f3 84 be d2 a8 9c bc 32 3f e7 bc f0 4f ab bd
       -0.25966766 -0.019123469 -0.028228376 -0.08364856
000080 be e5 92 bd d2 37 7f 3d 54 5f c7 3e ce f8 b0 3d
       -0.07172726 0.062309094 0.38939917 0.08641206
000090 82 1c dc bb fe 70 00 3e af f9 49 be ee 01 86 be
       -0.0067172656 0.12543103 -0.19724153 -0.26173347
0000a0 e1 ea 05 bb 4f 1f 3c be d3 38 8b 3d 9e bc ca 3c
       -0.0020434188 -0.18371318 0.06797948 0.024748143
0000b0 65 db 56 be 73 e9 57 3d 1e e9 2f 3e 8c 37 a6 be
       -0.2098213 0.05271287 0.17178771 -0.32464254
0000c0 cf ac b0 3c 05 b7 77 bc 68 6d e7 be 1e 37 11 3d
       0.021566777 -0.015119319 -0.45200658 0.035452954
0000d0 94 ed 7f 3d 10 5c 39 bd 63 d4 49 bd ab 4b cc bb
       0.06248243 -0.045253813 -0.049274813 -0.0062346063
0000e0 b9 39 47 3d 2f b6 39 3d 53 c5 2a be 51 dc 77 bd
       0.048639033 0.04533976 -0.16676836 -0.060512844
0000f0 50 27 ba bc c8 0f 21 3d 8c c2 02 3d 24 b3 34 3e
       -0.022723824 0.03932169 0.031923816 0.17646462
000100 fe 17 87 be 9b b3 9c 3e 87 00 85 3e ae 6f 9f 3c
       -0.26385492 0.30605778 0.25976965 0.019462433
000110 c9 0b dd be 6d 94 8e 3e 0a 71 f9 3c 9e 27 34 be
       -0.43173054 0.27847615 0.030449409 -0.17593238
000120 21 34 17 3b 80 56 93 bd 73 30 3d be f5 00 e9 3d
       0.0023071843 -0.07194233 -0.18475513 0.11377136
000130 ef a8 bd be a1 7a cd 3d 30 f3 2f 3e a9 9d 98 3e
       -0.3704295 0.10033155 0.17182612 0.29807785
000140 f9 8b a2 be 68 5a 06 bd 98 24 f2 3e 7d ab bd bc
       -0.31747416 -0.032801062 0.47293544 -0.023153061
000150 ef b6 b6 bd 4b 81 dd bd ff 81 c4 3d 94 05 42 be
       -0.089216106 -0.10815676 0.09595107 -0.1894744
000160 c3 01 00 be b4 b7 a1 3c b4 a4 6c 3d ab 83 f6 bc
       -0.12500672 0.019740917 0.05777426 -0.030092081
000170 f7 3a 50 3e b9 76 46 bd cf 2e 79 3e 9e 0a 3f 3e
       0.20334993 -0.048453066 0.24334262 0.18656394
000180 09 c3 87 3e 7c 6d ce be 3d 31 02 3e 7c d6 71 3e
       0.26515988 -0.40317905 0.12714095 0.23616976
000190 ae 52 70 be c4 16 89 be fa 83 b7 bd 68 b7 40 3e
       -0.2346904 -0.2677518 -0.089607194 0.18819964
0001a0 cc 30 c2 be 68 eb 69 bd 10 61 dd 3d 6a ad 12 3e
       -0.37927854 -0.057109267 0.10809529 0.14323965
0001b0 00 00 80 3e 27 b6 24 be ec 00 00 3e ad 52 06 be
       0.25 -0.1608511 0.12500352 -0.13117476
0001c0 8d 1c b4 bd c0 d7 ae be 37 43 c3 bd e3 5d 80 3e
       -0.08794508 -0.3414898 -0.095343046 0.2507163
0001d0 29 0b 3c 3e fe 10 c2 bd 15 be 52 3e 8f 99 24 be
       0.18363632 -0.09475897 0.20580323 -0.16074203
0001e0 63 9d 19 bd a2 cd c0 bc 13 55 30 3e 73 53 13 be
       -0.03750361 -0.023535553 0.17219953 -0.14387302
0001f0 32 7a 84 3d 7a f1 fe 3d 61 d8 59 bd 16 65 a5 3d
       0.064686194 0.12448402 -0.05318487 0.08075921
000200 6a fa 49 be 30 b6 42 3e 22 10 4d 3d 0a cd ae 3d
       -0.19724432 0.19014812 0.050064214 0.08535202
000210 ce 2b e7 3d 2c 92 08 3e 93 6b 98 3d 00 00 80 3e
       0.11287652 0.1333701 0.07442393 0.25
000220 5b f5 d8 3e 00 00 00 3e 0f 6b 97 ba 07 de 78 3d
       0.4237469 0.125 -0.0011552292 0.060758617
000230 78 c9 12 be 71 6e 08 be 28 53 e9 3c c0 bf c4 bd
       -0.14334667 -0.1332338 0.028482035 -0.09606886
000240 1c a9 a9 bb 82 a6 82 be d5 1a f6 bd 04 80 00 3e
       -0.00517763 -0.2551766 -0.120168366 0.12548834
000250 86 4a 83 3e 1d d2 73 be 88 ba 32 3e 3c 5b 4a be
       0.25642794 -0.2381062 0.17453969 -0.19761366
000260 3c 71 21 bd fc 96 06 3e ad 99 6d 3e 09 3a ce be
       -0.03941463 0.13143533 0.23203154 -0.40278652
000270 99 f6 28 be 04 c7 77 3c 85 65 e3 bd 98 31 0b be
       -0.1650032 0.015123133 -0.11103348 -0.13593137
000280 71 13 25 b8 eb 00 41 3b 3a 93 cd 3e f6 b6 15 3d
       -3.935717e-05 0.002945001 0.40151387 0.03655144
000290 72 e8 1a 3d 7e 13 01 3e 03 48 7d be 1a 7a 23 be
       0.037819333 0.12605092 -0.24734502 -0.15964547
0002a0 3d ee 9e bd 67 82 c6 bd 9b c9 73 3d d2 2e 2f 3e
       -0.07760284 -0.09692841 0.059518438 0.17107704
0002b0 46 55 81 be 2b f9 be 3d 8c 3d 2d 3e 0a 73 b1 be
       -0.2526037 0.09324869 0.1691801 -0.3465808
0002c0 26 a7 d3 3a 39 76 b4 3d 70 0e b9 be 7a ef 69 3d
       0.0016147837 0.08811612 -0.36143827 0.05711315
0002d0 4c dc a2 bc 41 d4 20 be 3f df 34 bd a9 c4 a7 bd
       -0.019880436 -0.15705968 -0.044158217 -0.08191807
0002e0 85 88 b5 3d 98 e5 9c 3d 2e 0f 93 bd fb 05 61 be
       0.0886393 0.07660979 -0.0718063 -0.21974938
0002f0 bf 2f d1 3d b3 49 79 3d ec cb 3d 3d 08 2a 83 3e
       0.10214185 0.0608613 0.046337053 0.25618005
000300 69 e4 86 be 84 6d 3c 3e 25 f0 1a 3e 9d ba 0c 3e
       -0.26346138 0.18401152 0.1513067 0.13743062
000310 8d ca b2 be 4b 54 b0 3e 94 71 81 bd 8e 8f 0f be
       -0.3492016 0.3443931 -0.063204914 -0.14019606
000320 f7 74 f0 bd 1f 18 ee bd b9 78 6e be 5d fb be bc
       -0.11741059 -0.116256945 -0.2328824 -0.023313219
000330 10 4b 84 be a8 34 0c bd 76 5c 35 3d 62 4e 8c 3e
       -0.25838518 -0.034229904 0.04427763 0.2740355
000340 00 00 80 be f3 29 ef 3d fe 53 b1 3e d4 fc 31 3d
       -0.25 0.11677923 0.34634393 0.043454006
000350 71 dc 11 bd 2a 8c 41 bb 55 90 1e 3e 80 c6 54 be
       -0.03561062 -0.0029533007 0.15484746 -0.20778847
000360 ac 3b 5c bd 79 b8 a0 bc 99 5f f1 3d 35 55 89 bd
       -0.053767845 -0.019619213 0.11785812 -0.06705705
000370 38 66 1d 3e ee 2d 8d bd 8a a2 7a 3e bd 93 6b 3e
       0.15371025 -0.06893526 0.24476066 0.23005576
000380 e7 79 99 3e 59 b8 c1 be 33 37 f4 3d 6c 26 b5 3e
       0.29975817 -0.3783596 0.11924591 0.35380876
000390 6c 0b 55 be 92 42 99 be f0 fd 6d 3d a2 03 23 3e
       -0.20805138 -0.29933602 0.0581035 0.15919355
0003a0 89 07 b9 be 4f 30 47 bd 0c 4b 14 3e 8b 46 50 3d
       -0.3613856 -0.048630055 0.14481753 0.050848525
0003b0 20 10 84 3e 1b 1f 7b be d7 7e b7 3d d1 dc 5c bd
       0.25793552 -0.24523585 0.0895974 -0.053921524
0003c0 8d e6 0a 3d a8 e9 48 be 21 1d ff bd f7 00 80 3e
       0.033911277 -0.19620383 -0.12456728 0.25000736
0003d0 3d e5 3e 3e df f1 9b bd 06 23 83 3e 2b 94 53 be
       0.18642135 -0.076144926 0.25612658 -0.2066199
0003e0 e5 f2 2a be 6f 2e 2d be 75 f1 16 3e f7 34 34 bd
       -0.1669422 -0.16912244 0.14740546 -0.043995824
0003f0 c5 e8 f8 3d 1d af 12 3e 5f 53 ad bc c5 08 27 3e
       0.12153772 0.14324613 -0.021157918 0.16311939

pitch_linear.bias f4 [128]
000000 9b 42 c8 bf 70 92 d5 bf ae 4a ce bf b6 4e d3 bf
       -1.5645326 -1.6685314 -1.611654 -1.6508396
000010 a8 08 d7 bf b4 6d d8 bf d4 d1 d4 bf 1a fe cd bf
       -1.6799517 -1.6908479 -1.6626534 -1.6093171
000020 f6 0c d4 bf 64 73 cd bf 86 18 dc bf 2c e7 d8 bf
       -1.6566455 -1.605084 -1.7194984 -1.6945548
000030 00 ba ce bf 47 71 cf bf a9 67 cb bf e3 c1 cf bf
       -1.6150513 -1.6206445 -1.589101 -1.6231045
000040 95 9d ce bf 26 83 d3 bf 90 96 ce bf 6b ac d3 bf
       -1.614184 -1.6524398 -1.6139698 -1.6536993
000050 58 32 cd bf db 81 d2 bf ff c1 d1 bf b8 3f cd bf
       -1.6030989 -1.6445879 -1.6387328 -1.603507
000060 77 a3 d0 bf 83 f4 c8 bf fc fb ce bf 0b fd d3 bf
       -1.6299886 -1.5699619 -1.617065 -1.6561598
000070 05 73 ca bf 05 f8 b6 bf e2 a7 b0 bf 7a 9a 9f bf
       -1.5816351 -1.429444 -1.3801234 -1.2469018
000080 2d fd 91 bf 14 e5 81 bf 6e 79 7b bf 4c 21 6a bf
       -1.1405388 -1.0148034 -0.9823216 -0.91457057
000090 06 7c b3 be 4e a5 f6 be 01 25 c0 be 2c f2 a7 be
       -0.3505556 -0.48172992 -0.37528232 -0.3280195
0000a0 9e 76 3e be 3d a4 ce 3d 65 2e 75 bd 7d 44 f8 3e
       -0.18599936 0.1008992 -0.0598587 0.48489752
0000b0 d3 5a f2 3e 90 be 2f 3f ed 90 2d 3f 46 71 0c 3f
       0.47334918 0.6865015 0.67799264 0.5486034
0000c0 85 dc b5 3f 68 2d 81 3f 42 69 d2 3f 04 b9 bb 3f
       1.4207922 1.0091982 1.6438372 1.4665837
0000d0 c2 e6 d3 3f 95 54 ee 3f b0 e8 d9 3f 5e ef fb 3f
       1.6554797 1.8619562 1.7024136 1.9682424
0000e0 fb 37 fa 3f cb 8e 06 40 41 cc 04 40 ad 37 f4 3f
       1.9548334 2.1024654 2.0749667 1.9079491
0000f0 16 cc 0a 40 f2 f1 01 40 c1 d7 13 40 49 0c 07 40
       2.1687064 2.0303922 2.3100436 2.1101248
000100 76 53 0c 40 63 8c 0a 40 1d 9d 01 40 a5 5f 0f 40
       2.192594 2.1648185 2.0252144 2.2402127
000110 47 d8 00 40 b3 79 0c 40 67 a8 f9 3f b4 a7 f5 3f
       2.0132005 2.194928 1.9504517 1.9191804
000120 4d de fb 3f 92 1a f2 3f b9 0e ff 3f 58 7d dc 3f
       1.9677216 1.8914359 1.9926368 1.7225752
000130 eb 6e d1 3f 63 f5 d5 3f 1c de a7 3f 94 60 bc 3f
       1.6361974 1.6715511 1.3114657 1.4716973
000140 f4 47 88 3f 6f d4 81 3f eb 41 cb 3e d7 79 24 3e
       1.0646958 1.0142955 0.3969873 0.16062103
000150 49 8d 2e 3e 99 cc 27 be 8a ef 61 be 9a 73 db be
       0.17046084 -0.16386642 -0.22064033 -0.42861634
000160 4c 7b e1 be ec 68 09 bf dd d3 58 bf ff 00 70 bf
       -0.4403938 -0.53675723 -0.8469828 -0.9375152
000170 e0 d7 8b bf be 6e 98 bf 70 07 a0 bf 29 d8 b3 bf
       -1.0925255 -1.1908796 -1.250227 -1.4050342
000180 f1 de be bf 21 cb c1 bf d8 dd c6 bf 38 ad c9 bf
       -1.4911786 -1.5140115 -1.5536451 -1.5755987
000190 23 40 d0 bf 87 07 ce bf df 74 d3 bf 2b f7 cf bf
       -1.6269573 -1.6096047 -1.6520041 -1.6247305
0001a0 d0 fe d9 bf bb c8 d2 bf e2 be d0 bf 66 ce cf bf
       -1.7030888 -1.6467508 -1.6308253 -1.6234863
0001b0 1c 37 d9 bf 0e 2e d1 bf fd 65 cf bf b5 31 d0 bf
       -1.6969943 -1.634218 -1.6202999 -1.6265169
0001c0 01 51 d4 bf 7d 47 d2 bf 0b b2 d8 bf 2f 63 d9 bf
       -1.658722 -1.6428066 -1.6929334 -1.6983393
0001d0 99 38 db bf 03 59 ce bf 60 df cd bf 1b 5c ce bf
       -1.7126647 -1.6120914 -1.6083794 -1.6121858
0001e0 5b f0 d3 bf 8c fb d5 bf 6f a5 d9 bf 57 10 d9 bf
       -1.6557726 -1.6717391 -1.7003611 -1.6958112
0001f0 3f 1e ce bf 01 a8 d6 bf e8 06 d7 bf 96 02 cf bf
       -1.610298 -1.6770021 -1.6798983 -1.6172664

step_linear.weight f4 [1, 128]
000000 f8 0c c8 bc a4 4a f4 3b 6d 23 be bb 61 11 90 3c
       -0.024420246 0.007455187 -0.005802563 0.017586412
000010 54 2f 5f bb ad 11 87 ba 3b 9b ed 3b c5 96 23 bc
       -0.003405531 -0.001030495 0.007251171 -0.009984677
000020 5a 4f ba 3d ec cb 5e bc 90 34 5c 3b f8 41 00 3c
       0.09097166 -0.013598423 0.0033600666 0.007828228
000030 5b 22 15 3c 91 94 b8 bc 41 9b 28 bd 48 76 0f 3c
       0.009102429 -0.02253178 -0.041163687 0.008756228
000040 26 07 4c bc ef 82 e4 bc d7 48 82 3b 2b e5 de ba
       -0.012452876 -0.027894465 0.0039759683 -0.0017005553
000050 aa 40 d4 3b 90 e7 1f bc 32 0b dd bb 02 4b f6 3d
       0.006477435 -0.009759799 -0.0067457194 0.12026025
000060 a2 3a 48 3c 6d 47 9f bb 90 a7 3a bd 6c b9 12 be
       0.01222101 -0.0048608095 -0.045569956 -0.14328545
000070 af f8 66 bd 77 bc ae 3b 0d 4e ee bc d4 29 ac bc
       -0.056389507 0.0053325254 -0.029089952 -0.021016039
000080 e9 ed 22 bb a7 e5 75 bc a4 64 39 bc c3 a9 3c bc
       -0.0024861044 -0.015008367 -0.0113154985 -0.011515084
000090 59 af 0f bc 0e e5 41 3b da de 2d 3d 79 1c 06 bd
       -0.0087698335 0.002958599 0.042448856 -0.032741997
0000a0 09 8e 48 3c 07 d1 53 bc b5 15 f1 bb 49 ba 4f bc
       0.012240895 -0.012928254 -0.007357324 -0.012678691
0000b0 2a 26 81 bc 93 a5 9c 3d d3 73 54 bc 1d f2 62 bb
       -0.015765268 0.07648768 -0.012967068 -0.0034629174
0000c0 f7 1f 75 bd d8 f8 f3 bc 1e eb c3 bd a3 79 6f 3c
       -0.059844937 -0.029781744 -0.095663294 0.014616403
0000d0 b1 05 89 3c 09 12 65 3b 79 9a 2d 3a e7 ac 39 bb
       0.016726347 0.0034953377 0.00066224445 -0.0028331818
0000e0 4a 59 66 bb 2d e2 d8 3c 19 41 d2 bc ac d6 fb 3b
       -0.0035148435 0.026475037 -0.025665807 0.007685503
0000f0 db 14 96 3c 68 d5 ce ba d8 76 35 bc 00 15 2e 3b
       0.018320492 -0.0015780153 -0.011075698 0.002656281
000100 f6 ef 09 3c b5 ba e8 3d 6c f1 86 38 e1 8e 0d bc
       0.008419028 0.113637365 6.434586e-05 -0.008640022
000110 a3 41 b4 3c 5b 0e ef 3d 6d 7c 59 bb 67 5a 0b 3b
       0.022003954 0.1167266 -0.0033185736 0.00212636
000120 6b 00 28 bb 82 37 65 bc f7 a1 b1 bc d0 9c 57 3c
       -0.0025635015 -0.013990285 -0.021683676 0.013159946
000130 63 9e 75 3c d8 67 cc 3b a9 81 cf ba ef 9c 2a bd
       0.014991376 0.006237965 -0.0015831488 -0.04165357
000140 31 d1 83 3c 2e ce a2 bc 20 a8 ad 3e 6c 0f 5b 3b
       0.016090961 -0.019873705 0.33917332 0.003342594
000150 21 e0 d8 bc 34 ec 00 3c 22 8d 8d 3c 5b 01 0f 3c
       -0.02647406 0.007868815 0.017279211 0.0087283505
000160 4f 2e 91 bc 1d ba 99 bc e1 40 23 bd 21 5f f0 3b
       -0.017722277 -0.018765504 -0.039856795 0.007335559
000170 fd 21 ba 3d e7 27 e8 ba 2a 00 58 3b f0 98 fb 3c
       0.09088514 -0.0017712087 0.0032959082 0.030712575
000180 a5 7c 2a bc 69 9d 86 ba a5 50 4f 3c f7 3c 00 3c
       -0.010405694 -0.00102703 0.0126535045 0.007827035
000190 25 d1 de bc 6c 56 25 bd 60 9b 15 3b 36 01 a3 bb
       -0.027199337 -0.04036562 0.0022828206 -0.0049745096
0001a0 44 eb b4 3c 39 c8 d2 bc 06 c7 6c 3b dd e2 ab 3b
       0.02208484 -0.02573024 0.003612937 0.00524555
0001b0 3a 02 61 bd 8b 73 e3 bc 8f 09 bb ba 7c 87 80 bd
       -0.054933764 -0.027765056 -0.0014269816 -0.062758416
0001c0 b9 af cb bc 7f d1 37 be 38 69 42 bc 44 90 dd 3c
       -0.024864065 -0.1795101 -0.011865906 0.02704633
0001d0 5c 31 78 3c 22 7d d8 3c 09 27 09 3d c5 02 c0 bd
       0.015148487 0.026426855 0.033484492 -0.09375528
0001e0 31 44 14 3d ae 8d 01 3c e6 da bc 3b de 06 18 b9
       0.036197845 0.007907314 0.0057633994 -0.00014498408
0001f0 ff a5 9a bc f0 78 05 3d 85 2a 4e bb e8 26 77 3a
       -0.018877981 0.032586038 -0.003145845 0.00094281

duration_linear.weight f4 [1, 128]
000000 32 3b 87 bc 20 7a 78 3c e0 93 94 3c fd 85 89 3c
       -0.016507719 0.015165836 0.018136919 0.016787523
000010 2c 87 23 3c 52 93 f4 bd 01 51 0a 3d 1e 11 e0 bb
       0.009980958 -0.119421616 0.033768658 -0.006837978
000020 ab d4 8c 3e d6 bd 9a 3b c2 68 e0 3b c1 fd 0b 3d
       0.27506003 0.0047223372 0.0068484256 0.034177545
000030 05 d2 cb 3b 6d 6a df bd 76 ef 25 bb 2f 21 8f 3d
       0.0062201046 -0.10908971 -0.0025319732 0.06988751
000040 b5 14 bb 3c 45 bf 3c bd 61 05 45 bd bd c2 e3 3c
       0.022837022 -0.046080846 -0.048100833 0.02780282
000050 67 69 97 3d 90 50 b0 3d 83 aa 0a be 67 ec 31 3f
       0.07393151 0.08609116 -0.13541608 0.69501346
000060 48 8e 83 bb a1 b4 47 bc a7 18 2c 3e 01 36 f3 bc
       -0.004014764 -0.012189061 0.16806279 -0.029688837
000070 ee f9 31 bc 80 ef 5c bc 2f 55 18 3d e0 5c 7b 3c
       -0.010862811 -0.013484836 0.037190612 0.015341967
000080 2d 56 ee bc 3a f3 3b bc e2 40 22 3e 56 b3 e4 3c
       -0.029093826 -0.011471564 0.15845063 0.027917545
000090 69 c8 65 bd 72 c4 9f 3d eb b1 94 bd 91 ce af bd
       -0.05609933 0.07801141 -0.07260498 -0.08584321
0000a0 98 da 14 3d 14 f6 93 3d 61 59 8d bd 78 0d df bc
       0.03634128 0.0722467 -0.06901813 -0.027228102
0000b0 b4 4b be 3b d1 ea 1a bd 3e 22 da bb e4 4a 80 bd
       0.0058073644 -0.037821595 -0.006656914 -0.06264284
0000c0 68 d4 6f bd cb 46 00 3e af 54 a8 3d 04 4e c7 bc
       -0.058552176 0.12527005 0.08219277 -0.024329193
0000d0 16 a9 03 3d f0 c6 92 3b 56 e5 ee bc 2b c9 a5 bd
       0.032143675 0.0044792816 -0.02916209 -0.0809501
0000e0 a9 47 b2 3d 2a 10 10 bd 06 bf 00 3d fa 44 ec 3c
       0.08705074 -0.035171665 0.031432174 0.028841484
0000f0 79 ef a8 bc 92 9a d8 3c f3 b3 91 bc 9e ef a3 3d
       -0.020622002 0.026440892 -0.017786002 0.08004688
000100 18 d9 19 bc 6d 6d 08 3e e9 cf 59 3e c2 8c 97 3d
       -0.009390138 0.13322993 0.21270718 0.07399894
000110 f0 0b c4 ba 1b 57 20 3e 0f cc 94 3b c5 3f ef bd
       -0.0014957171 0.15658228 0.0045409272 -0.11682085
000120 1b 35 1a bd a3 4a 5f bd 5b 3a d8 bd 49 4a 0a 3c
       -0.0376483 -0.05451454 -0.105580054 0.0084405625
000130 0b 78 30 3d d0 37 17 3d 5b 30 cb 3c fa bd 85 3d
       0.043083232 0.03691846 0.024803331 0.06530376
000140 19 00 5a bc c7 3f f3 3c e8 c0 b8 3f 10 49 c7 3c
       -0.013305687 0.029693497 1.443387 0.024326831
000150 01 52 bc 3c b6 42 a1 3c 28 31 ac 3d c7 6d fc bd
       0.022988321 0.01968513 0.08407813 -0.12325626
000160 9b f1 21 bb 2c bc 26 3c c0 a5 82 bc 0d 42 09 bd
       -0.0024710658 0.0101767 -0.015948176 -0.033510257
000170 0e b9 34 3d 6f a4 ee bd ec 0c 85 bd ea e2 f5 3d
       0.044121794 -0.11652457 -0.06496605 0.12006171
000180 1f e4 5c bd cf 45 68 3b a4 b4 03 3d 75 89 1a bc
       -0.05392849 0.0035442 0.032154694 -0.009432186
000190 ec 7a 79 3c a1 28 bc bd 61 09 f3 bc 7f 99 2b bd
       0.015227061 -0.09187437 -0.029667558 -0.041894432
0001a0 bd b7 3a 3d 95 10 ca bd c0 ae 46 3d 94 f2 3f 3d
       0.045585383 -0.09866444 0.0485065 0.0468622
0001b0 2d c4 70 bd 15 50 82 bd 0d 37 c8 3d ba b2 5c 3e
       -0.058780838 -0.06362931 0.09776125 0.21552554
0001c0 3b 39 62 bd f6 36 d0 be 95 5f bd 3d ec 5d 1d be
       -0.05523036 -0.40666932 0.092467465 -0.1536786
0001d0 d1 19 58 bd c4 9d 80 be a1 b7 c1 bc 81 ee 07 3e
       -0.052758995 -0.25120366 -0.023647131 0.13274576
0001e0 83 01 e6 bd e6 4e 70 bd 7f d2 56 3d 35 5c 2f 3d
       -0.11230757 -0.058668993 0.05244684 0.042812545
0001f0 69 b8 04 3d 39 de a0 bc 9c d8 c8 3c e5 bf a3 3d
       0.03240243 -0.019637214 0.02451735 0.07995585
