torch/model20.pth (torch, 342035 bytes, 8 tensors)

lstm.weight_ih_l0 f4 [512, 3]
000000 a0 fe 08 bd c6 91 a1 3d 18 51 69 3d 5e 0b 95 3d
       -0.033445954 0.07889132 0.056962103 0.07277559
000010 7b 58 09 bd 97 f7 12 bd 66 5c d0 3c 56 56 53 bd
       -0.033531647 -0.03588065 0.025434684 -0.05159601
000020 7b 42 8d 3d a7 af 0b 3c 33 58 ad 3d 37 a2 97 3d
       0.06897446 0.0085257655 0.08464088 0.07403987
000030 c9 90 95 3d 8d 10 03 3d 2f c2 bc bd 7f ba 4a 3c
       0.07303006 0.031998206 -0.09216725 0.012373566
000040 fc c0 e7 bd f3 3a 80 3d 2c 43 9c 3d 98 1c 97 3d
       -0.11316106 0.06261244 0.076299995 0.07378501
000050 87 6d b8 bd a0 6a 89 3d f2 1c 18 3d 55 b6 03 be
       -0.09005266 0.0670979 0.03713698 -0.12862523
000060 dc f2 5e 3d d7 40 31 3c ee 98 2e 3d 11 1b 11 3c
       0.054430827 0.010818682 0.042626314 0.008856551
000070 06 82 71 ba 87 20 54 3c fd 07 1e 3d fc d8 82 bd
       -0.00092127954 0.012947208 0.038581837 -0.06389043
000080 3b 42 29 bb d0 2a c8 bb 19 b0 54 3d 3d e8 46 bd
       -0.002582683 -0.0061086193 0.051925752 -0.048561323
000090 34 5f 0c bc fe 91 88 3d fb 87 dc bd 76 17 79 bd
       -0.00856762 0.06668471 -0.10768124 -0.06081339
0000a0 1a 38 c3 bc 68 92 87 3c 08 e0 8e 38 1d 68 98 3d
       -0.023830462 0.016549304 6.812817e-05 0.07441733
0000b0 a1 b5 44 3d 41 18 a3 bd a4 c7 18 bb 90 fe 37 be
       0.048024777 -0.079636104 -0.0023312354 -0.17968202
0000c0 ba 17 7b 3d e4 8b 5f 3d 82 30 5d 3d 8a 53 73 3d
       0.061301924 0.05457677 0.05400134 0.05940584
0000d0 14 a1 fe 3d f3 dc 8e bd 86 25 03 bd 44 de 3a 3d
       0.12433067 -0.069757365 -0.032018207 0.045622125
0000e0 c4 2d 0f 3d a9 a8 51 3c 86 05 a0 3d 22 19 28 bd
       0.034955755 0.012796559 0.078135535 -0.041039594
0000f0 e9 32 7a bc 92 b3 a5 3d 20 5e a7 3d 5b ff ab bd
       -0.015270927 0.08090891 0.0817225 -0.083983146
000100 1b e1 0c 3d 0c 08 d4 3c 9a e8 80 bd ec 0d 0c bc
       0.034394365 0.025882743 -0.06294365 -0.008548241
000110 02 8c 08 3c f8 63 3d 3d 7d c2 1d 3e 5f 9c 01 be
       0.008334162 0.046237916 0.15406223 -0.12657307
000120 5e 29 9f 3d 30 e6 4f bd 66 b8 a9 3c e7 4e a3 3d
       0.07771562 -0.050756633 0.02071781 0.07974034
000130 1e 23 26 3d b0 4f 37 bc c4 0d 9c 3c 4a 9c c2 3d
       0.040560834 -0.011188433 0.019049533 0.09502466
000140 48 f9 21 3d de a4 b5 bd ae 28 16 3e 01 47 1e be
       0.039544374 -0.088693365 0.14663956 -0.15456773
000150 05 c4 d1 3c 56 27 ae 3d 79 3d d9 bc 4e 7b 02 3d
       0.025606165 0.085035965 -0.02651857 0.031855874
000160 71 27 b9 3d 08 bf 5d bd e7 73 73 3d 8c eb 1b 3d
       0.09040726 -0.05413726 0.059436705 0.038066432
000170 40 a4 01 3e f5 65 01 bd a2 75 36 3d d1 eb 82 3c
       0.12660313 -0.031591374 0.044545777 0.015981587
000180 e4 3d 89 ba 13 7b a9 3d a3 61 31 bc 8a ac b9 bd
       -0.0010470715 0.08275428 -0.010826501 -0.09066112
000190 bf ae 57 bd b2 ae 8e 39 c5 4c 9d bd 96 63 90 3d
       -0.052656885 0.0002721451 -0.07680658 0.070502445
0001a0 9d 4f b7 3d 82 84 1b bb f0 01 9b 3d 2d 8e a3 3d
       0.08950732 -0.0023730104 0.07568729 0.07986102
0001b0 9f fd bb bd f6 f7 90 3d 4b 00 68 3b 2e a6 89 bd
       -0.09179234 0.07078545 0.0035400565 -0.067211494
0001c0 2c 89 54 3d 94 56 2d bd d3 21 76 3d e2 48 05 bd
       0.05188863 -0.042318895 0.06009085 -0.03254021
0001d0 07 f6 14 3b 85 e0 d2 3c 80 a1 ad 3d d4 26 8c 3d
       0.0022729652 0.025741825 0.08478069 0.068433434
0001e0 4c d7 b8 bd 41 11 05 3d c9 0a 01 3e c5 93 77 bd
       -0.090254396 0.032487158 0.1260177 -0.06044366
0001f0 83 6e c2 3d 02 99 3b bd 2f c7 a5 3b dd 72 18 3d
       0.09493735 -0.045800216 0.005059145 0.037218917
000200 71 cb 5d bd 57 02 3c bd 90 d6 9a bd f7 76 74 bc
       -0.054149095 -0.04590067 -0.07560456 -0.014920942
000210 10 cf f0 bc 7d 87 01 3d 14 bd cd 3c 51 76 52 3d
       -0.02939561 0.031623352 0.025114574 0.051382367
000220 a5 0b 7a 3d 0d 12 97 3d a3 86 50 bd a7 1c 40 3c
       0.06104626 0.0737649 -0.05090965 0.011725581
000230 85 9d 84 bd a0 3e d1 bd a3 b7 aa 3d b7 a0 ac 3c
       -0.06475357 -0.10217023 0.08335807 0.021072729
000240 d0 c9 0a 3d 49 fb c7 3c 06 bb 75 bd 9b 97 85 bd
       0.03388387 0.024411814 -0.059992813 -0.06523057
000250 72 98 2b 3d e6 50 9c bc 9d 55 88 bc 1f ad f7 3c
       0.04189343 -0.019081544 -0.016642386 0.030233918
000260 1a 63 88 3b 43 66 ba bc 56 a3 82 bc cc f7 aa 3d
       0.0041622045 -0.02275384 -0.015947025 0.08348045
000270 c4 46 a9 bd 09 b0 80 3a 68 a2 a7 bd 0d af 66 bb
       -0.082654506 0.0009818088 -0.081852734 -0.0035199553
000280 e7 af 9c bd 6a 88 ec 3c 89 ef 52 bd ea d5 d1 3c
       -0.07650738 0.028873641 -0.05149797 0.025614697
000290 9e db ba 3d b1 ae 57 bd 06 58 9e bd 90 44 ca bb
       0.0912392 -0.052656833 -0.07731633 -0.006172724
0002a0 3b 31 0a 3d 1a 70 d1 3d d2 ce 05 3d 9c c8 02 bd
       0.033738356 0.1022646 0.032667942 -0.031929597
0002b0 a3 92 ac bd d4 8c 47 3d a9 81 4e bd cc c6 73 3d
       -0.08426406 0.04871829 -0.050416622 0.05951576
0002c0 6e 99 47 3d 8d bc 9b 3d 43 35 60 3d dd 1c 91 3d
       0.048730306 0.076043226 0.054738294 0.07085583
0002d0 9b a5 ac 3c f7 d2 65 3d 84 e2 80 3b fe a1 3f bc
       0.02107506 0.056109395 0.0039332528 -0.011696337
0002e0 9b a8 35 3d 0e 71 09 bd 5d a2 a3 3d 2e e4 47 3d
       0.044350248 -0.033555083 0.07989953 0.048801593
0002f0 6e f0 3b bd 14 98 74 3d 5a e7 1a bd c8 44 a2 3d
       -0.04588359 0.059715346 -0.03781829 0.07923275
000300 76 63 77 bd 07 95 85 3a a6 fe 30 3c 55 18 a0 bd
       -0.060397588 0.0010191508 0.0108029 -0.07817141
000310 21 55 87 3d e0 78 15 bd ea dd 3c 3d 1d 98 c8 3c
       0.06608034 -0.03649223 0.04611007 0.024486596
000320 0c e6 ee 3d dd 08 69 bd 0a 5d dc bc 0c 0b d1 3d
       0.11664972 -0.05689322 -0.026899833 0.10207185
000330 60 3e 00 3c ba a1 2c be 13 94 0a be 55 c8 87 3c
       0.007827371 -0.16858569 -0.13533048 0.016575018
000340 31 ea b5 3d 33 90 96 3c 5d a4 1c bd a0 17 10 bc
       0.08882559 0.018379306 -0.038242687 -0.008794695
000350 7a d8 02 3d e5 fe 81 bd 17 94 1f be bc db bc 3d
       0.03194473 -0.063474454 -0.15583836 0.092215985
000360 63 99 d3 bb dd 52 26 3d f9 17 ed bc 7b 4d 91 bd
       -0.006457494 0.04060637 -0.028942095 -0.07094856
000370 6a fa 09 bd b7 47 31 3c b5 6e 7d 3d b6 fd 43 3d
       -0.03368608 0.010820321 0.061873157 0.04784938
000380 af 1a 25 3d 57 bc 98 bc aa d3 91 39 6a a5 07 bc
       0.04030865 -0.018644495 0.00027814257 -0.008279184
000390 99 6e 75 3c 25 94 75 3d 63 41 85 3d 55 93 2c 3d
       0.014979982 0.059955735 0.06506612 0.042132694
0003a0 67 11 87 3c e4 31 5f 3d aa 2f 61 bd f0 21 53 3d
       0.01648779 0.05449094 -0.054977097 0.051546037
0003b0 02 db 89 3d 9b e2 be bd e4 84 96 bc 16 c7 b6 3d
       0.067312256 -0.09320565 -0.018373914 0.089246914
0003c0 f8 8b b5 bd e9 91 09 be 5b e0 c3 bc dd 5c 88 bd
       -0.088645875 -0.13434567 -0.023910692 -0.06658337
0003d0 85 e1 99 bc a8 9e 7d 3c c7 10 be be 0f cc 93 bc
       -0.018784294 0.015479721 -0.37122175 -0.018041639
0003e0 93 3b 2d bf c0 ba 8a 3b 77 86 a1 3d 2a 67 79 bd
       -0.6766903 0.004233688 0.07886975 -0.0608894
0003f0 36 e2 10 bd a0 06 b2 3a 8f 30 3a 3c 50 23 49 3d
       -0.03537198 0.0013582297 0.011364116 0.049105942

lstm.weight_hh_l0 f4 [512, 128]
000000 5c 8c d8 3a 01 85 a8 3d 82 eb 9f 3d 15 48 4d 3c
       0.0016521323 0.082284935 0.078085914 0.012529393
000010 f0 5d 79 bd 18 bd 81 bd 03 e5 98 3d 44 0e 90 bd
       -0.0608806 -0.06334895 0.074655555 -0.07033971
000020 d9 78 58 3b 54 61 e5 bc 8b 6f a9 3d e8 fd 07 bd
       0.0033031015 -0.028000511 0.08273228 -0.03320113
000030 e8 69 1c bc b5 62 1e 3d ae ad a0 bd 06 bf 21 3d
       -0.009546734 0.038668353 -0.07845627 0.039488815
000040 93 c7 88 3c 58 9c 92 3d 28 ca a4 bd 9a 18 94 3d
       0.016696727 0.071587265 -0.08046371 0.07231255
000050 c3 19 7b bd b5 b0 39 bd 5b ba 11 3d ac 6a d1 3c
       -0.061303865 -0.045334537 0.035578113 0.02556356
000060 8b c9 8e 3d 46 f4 ad 3d f9 b1 ef bc 1e 75 bd bd
       0.06972035 0.08493857 -0.029259669 -0.09250854
000070 1a 32 8e bd ae 9a b7 bd 7e 9d 86 3d 56 47 75 bd
       -0.0694315 -0.0896505 0.06573008 -0.059882484
000080 b2 dd 0a bb 00 93 02 bd 7b f7 66 bd 97 c4 97 bd
       -0.002118927 -0.03187847 -0.05638836 -0.074105434
000090 45 ce 26 bd 67 b4 40 bd 48 18 31 bd b5 65 90 3d
       -0.040724058 -0.047047045 -0.043236047 0.07050649
0000a0 ea 69 97 3d 5f 51 31 3d 39 1e 1e 3d 7a 31 22 bd
       0.073932484 0.043290492 0.03860304 -0.039597966
0000b0 25 24 7c 3c 1e eb f9 3c 5d c3 9e bd dc 36 62 bd
       0.015389477 0.03050762 -0.07752106 -0.0552281
0000c0 b5 ef 6c bc e7 95 9c bd c4 5c 53 3d 96 42 7b 3d
       -0.0144614475 -0.07645779 0.05160214 0.0613428
0000d0 98 84 59 3d 21 06 9c bd 4f 9a 42 bd 4a 1a 91 bd
       0.053104967 -0.076183565 -0.04751044 -0.07085092
0000e0 ef 10 2e 3d 76 41 92 bc 94 01 e8 3c e4 6b 46 bd
       0.042496618 -0.01785348 0.028321065 -0.048442736
0000f0 f1 84 65 3d 50 79 79 bc 34 a1 27 bd fb 76 34 3d
       0.056034986 -0.015226677 -0.04092522 0.04405878
000100 05 af 39 3c c9 b3 a1 bd f6 ce c1 3d 7c 80 99 3d
       0.011333232 -0.078956194 0.09463303 0.074952096
000110 a2 e3 83 3d 1f 63 c3 3d f4 ad 80 bd 95 85 91 3d
       0.06439902 0.0954039 -0.06283179 0.07105557
000120 c2 38 6c bc 24 24 7f 3d f9 43 aa bd 33 81 cb 3c
       -0.014417829 0.062290326 -0.08313746 0.02484188
000130 f4 c4 7b bd 78 0a 7c 3c f7 45 63 3d 26 a2 3f bd
       -0.061467126 0.015383355 0.055486646 -0.046785496
000140 a8 c3 a8 bd 44 70 49 3c 7f da d5 3c 59 a5 84 bc
       -0.082404435 0.012294833 0.026105164 -0.016192125
000150 e8 90 f2 3c b7 df d0 3c fd 2c 4f 3d e8 c4 30 bd
       0.029610112 0.0254973 0.050580014 -0.043156534
000160 dd 20 70 3d 6b 5f 21 bd ed 4f 9b bd f9 4d 16 bd
       0.05862509 -0.03939764 -0.07583604 -0.036695454
000170 56 5d a1 bd 99 e9 41 bc 3a 2d 80 3d 80 cd 25 bc
       -0.078791305 -0.011835479 0.06258626 -0.010119796
000180 82 a3 b3 3d ab 43 7d 3c bc e7 a2 bd f4 38 1c 3c
       0.08771421 0.015458028 -0.07954356 0.009535063
000190 39 2f 3d bd 72 6e 4e bd 08 67 8f bd 8b 0b b7 3c
       -0.046187613 -0.050398298 -0.070020735 0.022344371
0001a0 fa dd 33 bd ed 80 36 3d f8 61 67 bd 73 01 5b bc
       -0.043912865 0.044556547 -0.056489915 -0.013367045
0001b0 aa d2 86 3d de c2 f5 3c 5b a2 98 3c 01 57 39 bc
       0.0658315 0.030000146 0.018632105 -0.011312247
0001c0 d6 69 12 bd ca 69 79 3d ba 26 8b 3b cb 10 4c 3a
       -0.035745464 0.060891904 0.00424656 0.0007784485
0001d0 88 2d 90 3d 4a 5f 76 3d 31 29 92 bd a1 c4 a3 3d
       0.070399344 0.06014947 -0.07136763 0.07996488
0001e0 34 dc 13 3d 98 eb a2 bd 8c d3 4e bd 32 f0 af 3c
       0.036098674 -0.07955092 -0.050494716 0.021476839
0001f0 90 dd 3b 3d b0 ee 8e 3c 9e 62 ae bd 54 4e 78 bd
       0.045865595 0.0174478 -0.085149035 -0.060621575
000200 9f 98 30 bd ef 39 c5 3b 26 75 3a 3d e3 ca 0a bd
       -0.0431143 0.006018869 0.045521878 -0.033884894
000210 05 c9 a0 bd 30 16 8c bd 03 97 59 bd b1 8f 4b bd
       -0.078508414 -0.068401694 -0.05312253 -0.04969758
000220 8f 45 5c 3d 34 dd 60 bc bc f3 a7 bd d7 ea 4c 3d
       0.053777274 -0.013724614 -0.082007855 0.05002865
000230 bf 4c 8d bc 1a 40 03 3d e9 cc 23 bd dc 41 4b bd
       -0.01724851 0.032043554 -0.03999034 -0.049623355
000240 4d fe 8d 3d 48 70 b2 bd bf 95 91 bd 08 97 90 3d
       0.0693327 -0.08712822 -0.0710864 0.07060057
000250 fa b7 17 3d e7 26 cb 3c 58 b9 7a bd 75 d7 fa 3c
       0.037040688 0.024798824 -0.061211914 0.030620316
000260 50 e6 83 3d 02 19 9f 3d 60 71 11 3d ca 2f 66 bd
       0.06440413 0.07768442 0.035508513 -0.05619792
000270 c1 50 89 bd ca 90 6b bd 81 b2 95 bd 99 78 27 bd
       -0.06704856 -0.05751113 -0.073094375 -0.040886495
000280 d1 6e 11 bc 02 c1 39 3d d9 7f 80 3d d1 6d 67 3c
       -0.008876518 0.045350082 0.06274385 0.014125303
000290 15 e0 a5 3d 7b 3e fe ba 68 52 6e bd f4 08 87 3d
       0.08099381 -0.0019397283 -0.058184057 0.065935045
0002a0 0d 25 b3 3c 23 12 83 bc eb df ad bd 96 5b 80 bd
       0.021868253 -0.01599986 -0.084899746 -0.06267469
0002b0 a7 bc a4 bc 98 4c a9 3d f6 dc 96 3d ef 12 92 3d
       -0.020109488 0.08266562 0.07366364 0.071325175
0002c0 df d0 4c 3d 09 98 89 3d 65 f4 7c 3d cc b0 0c 3d
       0.050003882 0.067184515 0.06175651 0.034348294
0002d0 0a ca 5d 3d 95 c3 b7 bc 80 bb 0e 3d 60 f8 48 3c
       0.054147758 -0.022432128 0.034846783 0.012266248
0002e0 41 7c 2e 3c cc 36 77 3b f9 f9 7c 3d 6a df 69 3d
       0.010649742 0.003772187 0.06176183 0.05709783
0002f0 ab 3b 3e 3d 69 88 10 3d fa 4f 28 bd db a5 be bc
       0.046443623 0.03528634 -0.041091897 -0.023272445
000300 a3 f4 75 bd ec b7 3c 3d fb db 0d 3d e5 f3 b0 bd
       -0.060047757 0.04607384 0.034633618 -0.08640269
000310 19 8d 7d 3c 11 9c 98 3d f8 52 03 3c 57 ac d7 bc
       0.015475535 0.07451642 0.008015387 -0.026327295
000320 90 39 91 bd e6 c9 a8 bc 21 f7 9d 3c 70 bd 9f 3d
       -0.07091057 -0.020604085 0.01928288 0.07799804
000330 90 42 3c bb 74 af 4b bd 64 a6 ac bd 6a 56 36 bd
       -0.0028726198 -0.049727872 -0.08430174 -0.044516005
000340 6d f6 97 3d 2b 7e 73 3c 15 10 52 3d 16 c8 1f bc
       0.07420049 0.014861624 0.05128487 -0.009752294
000350 8d a2 43 bd 02 16 47 bd 4c fc f7 bc e1 97 f8 3c
       -0.047762442 -0.048604973 -0.030271672 0.030345859
000360 1d 50 0b 3d 70 2e 42 3d 8f ed 94 bd b6 84 6f 3d
       0.03401195 0.047407568 -0.07271873 0.058476172
000370 6b bf a9 3a 8d c7 ac 3d f5 62 e9 3c 44 58 8d bd
       0.0012950724 0.08436499 0.02848957 -0.06901601
000380 16 78 86 3d ea 21 88 bd f5 f5 8d 3d 3b 67 fa bc
       0.06565873 -0.066470936 0.06931678 -0.030566802
000390 8c 79 95 bd 45 e1 a3 3d f3 5c 01 3d 65 07 93 bd
       -0.07298574 0.08001951 0.031582784 -0.07179145
0003a0 bc 0a 82 bd 3a 49 62 bd bb f0 5c 3d 58 1b 3f bd
       -0.06349704 -0.055245616 0.053940516 -0.046656936
0003b0 c2 06 62 3d c5 e6 47 3d eb 02 80 3d 16 0d 60 bd
       0.055182226 0.048804063 0.062505566 -0.05469998
0003c0 6d 5b 46 3c c5 c9 5a 3d f6 8b 19 3c f7 04 65 bd
       0.012106759 0.05341508 0.009371748 -0.055912938
0003d0 d1 5b ee bc d6 a2 90 bd 1d 4c 8a 3c a9 cc 9b bd
       -0.029096516 -0.070623085 0.016881997 -0.07607395
0003e0 0b d8 04 bd 12 48 40 3d 1a 9a f4 3c a3 4a ea 3c
       -0.032432597 0.04694373 0.029858638 0.028600043
0003f0 77 44 48 bc a9 f5 a1 3b 73 fd 8e 3d af 7e 30 3c
       -0.012223355 0.004942615 0.06981935 0.010772391

lstm.bias_ih_l0 f4 [512]
000000 50 5a 47 bd f8 0d 00 bc ae 93 80 3d fc fa 9c bd
       -0.048670113 -0.00781583 0.06278168 -0.07665059
000010 74 53 b3 ba b2 db b2 3b 64 29 97 3c 19 bc 68 3d
       -0.0013681487 0.0054583186 0.018452354 0.05682001
000020 c2 e5 1b 3d a5 10 eb bd bd 29 f9 3c d6 b3 1c bd
       0.03806091 -0.11477784 0.03041541 -0.038257442
000030 0c fe 71 3d 93 10 9b bc 95 8b 8d 3d bd 6d 89 bd
       0.05908017 -0.018928802 0.06911389 -0.06710384
000040 7e 14 6e 3d a3 f0 0e 3d fb 60 80 bd f7 c3 c1 3a
       0.05812501 0.034897458 -0.062684976 0.0014783134
000050 21 13 27 3d 2e 31 a9 3c b1 1c 32 bd 83 39 b5 bd
       0.040789727 0.020653334 -0.043484394 -0.0884886
000060 cf a0 97 bd 84 71 a1 3d 53 df 74 bd 25 1d 6d bd
       -0.07403719 0.078829795 -0.05978329 -0.057889123
000070 33 81 82 3d e4 e4 87 3d f9 20 7e 3c 20 2f a1 bd
       0.06372299 0.06635454 0.015510791 -0.078703165
000080 97 4a 4d bd 87 cf 2f 3d 37 2e d5 bd bb 75 86 bd
       -0.050119963 0.042922523 -0.104092054 -0.06565424
000090 3b 4d 22 3d 2a 73 8d 3d ad b4 6f bc 05 b6 64 bd
       0.039624434 0.069067314 -0.014630479 -0.05583765
0000a0 96 57 38 bd 8e 75 ec bd 71 6b 41 3d ee 39 35 bc
       -0.045005403 -0.11545859 0.047221605 -0.011061175
0000b0 47 2e 07 3d de 23 95 bd 05 64 a5 bd c5 f5 6b bd
       0.033003118 -0.07282232 -0.08075718 -0.05760743
0000c0 91 d2 1f 3d 17 59 6b bd b1 a4 a4 bd 0f 45 cb bd
       0.03901917 -0.05745801 -0.08039225 -0.09925281
0000d0 12 44 26 3d 1b 94 29 bc ab 90 23 b9 91 20 3f 3d
       0.04059226 -0.0103502525 -0.00015598784 0.046661917
0000e0 a1 80 61 bd ca be 9b 3d 5f a3 91 3d 66 57 bf bc
       -0.05505431 0.076047495 0.07111239 -0.023357105
0000f0 8e 33 99 bd 6b 90 9a bd 48 ce 8c 3d 23 6b 7e bd
       -0.074805364 -0.07547077 0.068752825 -0.062113892
000100 1f b8 30 bd 0a 0a 8d bd 91 40 c8 3b 62 88 c1 bc
       -0.04314434 -0.068866804 0.0061112125 -0.023624603
000110 99 82 e5 bd 4b ff 0b bd 76 1a 80 bc 5d ee 0e be
       -0.1120655 -0.034179013 -0.015637618 -0.13958116
000120 68 8e 98 bc b1 2c a8 3d 92 7a af bd 91 69 87 3c
       -0.018622592 0.08211649 -0.085683 0.01652983
000130 4a b1 fc bc cf fe 16 3c e8 73 0a 3d 78 59 c9 3c
       -0.030846257 0.009216025 0.033801943 0.024578795
000140 1c 6f 0f 3d f6 c2 b4 bd d5 6d 00 bf 08 52 b6 bd
       0.03501807 -0.08826248 -0.5016759 -0.08902365
000150 3f b4 57 bd cc 22 42 3d ef 94 85 bd 1b 4d 09 be
       -0.05266213 0.047396466 -0.065225475 -0.1340832
000160 3c bd ac bd 18 85 7a bd d0 17 0d 3d 8e 27 06 bd
       -0.08434531 -0.061162084 0.034446537 -0.032752566
000170 d3 6a 8f bd e1 9d 42 bd 46 88 c0 bd a7 db f1 bc
       -0.07002797 -0.047513846 -0.09400992 -0.029523684
000180 25 63 41 bd 30 b9 a5 bc f7 52 0f 3d 70 dc 29 3d
       -0.047213692 -0.020229906 0.03499123 0.04146999
000190 ec c0 65 3d 3c e9 f0 bd 19 34 95 bd 96 09 ad 3c
       0.056092188 -0.11763236 -0.072853275 0.021122735
0001a0 0c 92 3e bc c0 88 73 bd 13 4d 3c bd e0 87 a9 bc
       -0.0116315 -0.059456587 -0.04597194 -0.020694673
0001b0 ee 1f 29 bd 20 3e bc bb 87 21 9e 3d 05 46 8d 3d
       -0.041290216 -0.0057447106 0.077212386 0.06898121
0001c0 09 59 03 3d 68 a0 d2 bd f4 25 f8 bc 43 d1 6e 3d
       0.032067332 -0.10284501 -0.030291535 0.058305036
0001d0 c8 32 1e 3d 07 b0 c3 bd a8 02 fa bc 45 6d 2a bd
       0.038622648 -0.09555059 -0.030518845 -0.041608114
0001e0 1b e4 ab bc ce e4 91 bd 93 e4 95 3b 9a 86 a6 3d
       -0.020982793 -0.07123719 0.0045743673 0.08131142
0001f0 f4 ec 83 bc 8a a6 1a bc 6c 1a f6 bc a0 01 60 3d
       -0.016104199 -0.00943912 -0.030041896 0.05468905
000200 de d2 3c 3d c5 c6 99 bd db b4 7e ba c3 fb 83 3d
       0.046099536 -0.075086154 -0.00097162806 0.06444504
000210 37 5f 47 bd 5f 08 ae 3b 16 02 4f bc 81 f8 c2 bc
       -0.04867479 0.0053110565 -0.012634775 -0.023800137
000220 af 8a a0 3c 55 34 47 3d 40 89 8e bd 6c 57 08 bd
       0.01959738 0.048633892 -0.06959772 -0.033286497
000230 65 12 c4 3d b1 9f 98 3d 23 55 9a 3d fc c9 28 bd
       0.09573821 0.07452334 0.0753577 -0.041208252
000240 a8 de c4 3b cb d1 8d 3d bd c1 95 bd 1a f7 93 bd
       0.006007988 0.069247805 -0.07312343 -0.07224865
000250 df 69 e3 3c af ab 19 3d e8 86 dc 3d 1a f1 e5 3d
       0.027760444 0.037517246 0.10767919 0.11227627
000260 c5 f4 ad 3d ff a4 82 3c a6 35 54 3e ed ba e4 3d
       0.08493952 0.015947817 0.2072359 0.11168466
000270 6a 29 93 3d d8 7a f4 3c 74 5c f4 3d 75 7b 31 bd
       0.071856335 0.029843733 0.119316965 -0.04333063
000280 70 e5 d0 3d a0 6e c4 3a ce b7 a0 3d cc f7 b6 bc
       0.10200012 0.0014986582 0.07847558 -0.022334956
000290 d0 75 32 bd 98 ad ad 3d ee 63 fb 3c ed e2 84 3c
       -0.043569386 0.08480376 0.030687299 0.016221488
0002a0 6e 95 af bc bb 1c 03 bd e8 41 c4 3c ad 9f ba 3b
       -0.021433558 -0.03200982 0.023957208 0.0056953044
0002b0 7c 43 8d bb e8 a6 74 3d fd b9 05 3e bf 7f 40 3d
       -0.0043110233 0.059729487 0.1305923 0.04699683
0002c0 2b 5a 4c bd b6 99 dd bc cf f5 f6 3d 04 4b 1c bd
       -0.04989068 -0.027050834 0.12058603 -0.038157478
0002d0 77 56 af 3d 16 b0 6a bc fa 0a a0 3d 17 c4 a8 3c
       0.08561414 -0.014324209 0.078145936 0.020601315
0002e0 68 25 ae 3d eb a7 cf 3c 1a c1 80 3d e7 c7 08 bd
       0.085032284 0.025348624 0.06286831 -0.033393767
0002f0 d9 d5 99 bd ad 2b 1c bd 0b af ae 3c aa b9 86 bc
       -0.07511491 -0.03812759 0.021323701 -0.016445953
000300 47 7c d1 3d ba a6 20 3e 6a 4e d5 3d 6f 5c 70 bd
       0.10228782 0.15688601 0.10415347 -0.0586819
000310 be c9 b7 3d 65 6a 0a 3e 17 e0 87 3d fc 2e 70 bd
       0.08974026 0.13517149 0.066345386 -0.058638558
000320 04 5a 94 bd 80 e7 e0 bb 76 82 00 3e 71 3d 23 3d
       -0.072437316 -0.0068635345 0.12549767 0.039853517
000330 e3 de 82 3d 9d 68 88 3d d0 79 24 bc 7e 9e 9e 3d
       0.063901685 0.066605784 -0.010038808 0.07745074
000340 2c 4b 8b 3d ff 94 8d bd fe 44 6c 3f 46 aa 37 bd
       0.06801447 -0.069131844 0.92292774 -0.04484012
000350 f5 e0 03 bc 48 5a 8f bd 77 51 00 bd 53 28 eb 3c
       -0.008049239 -0.06999642 -0.03132769 0.028705752
000360 21 e6 67 3d b6 6c 3f bc 46 c7 93 3d 7f 70 bd bc
       0.056615952 -0.011683634 0.07215743 -0.023124931
000370 36 8a 9c 3d 8d a5 51 3a 9d 52 0e bd 2b 05 75 bd
       0.07643549 0.0007997386 -0.034746755 -0.05981938
000380 4f 40 f0 3d 53 c8 48 3e e5 5d ae 3b 0c f9 bc 3d
       0.11731016 0.19607668 0.0053212517 0.092271894
000390 9f 9d 81 bd 42 23 85 3d 22 0e 34 ba a3 35 3d 3d
       -0.06328892 0.065008655 -0.0006868561 0.04619373
0003a0 e9 b7 88 3d cf aa ab 3d 29 5b a7 bd 74 43 96 3d
       0.06675703 0.083821885 -0.08171684 0.073370844
0003b0 be e7 f0 3d 91 0e 23 bd 07 1f 26 bd 55 68 ed 3d
       0.11762951 -0.039808813 -0.040556934 0.115921654
0003c0 51 dd 28 3c 08 64 4e 3e 47 23 19 3d 5e 62 f3 3c
       0.010306672 0.20155346 0.03738716 0.029709991
0003d0 c1 75 9e 3d fb 73 cc 3a f2 87 17 bb bd d2 16 3e
       0.077373035 0.001559853 -0.0023121801 0.14728828
0003e0 d9 06 5d 3e ce 6a 2f bc 65 ed 3c bd f5 f6 20 bd
       0.21584643 -0.010706617 -0.046124835 -0.039298017
0003f0 e2 cf 92 3d ac 92 11 3b 90 93 56 3d a7 23 36 bd
       0.07168557 0.0022212667 0.05238682 -0.044467594

lstm.bias_hh_l0 f4 [512]
000000 fa e3 55 3b 81 fe 83 3d 74 d8 8d 3d cc 1b 29 bc
       0.0032637105 0.06445027 0.06926051 -0.010321569
000010 64 57 76 3a 75 b7 d5 bd 6e 80 d2 3a 63 bb 3d 3d
       0.00093971775 -0.10435382 0.0016060004 0.046321284
000020 e1 be ef 3c 6e 8f 7f 3b 48 03 ac bd 41 7b 6a bd
       0.029265823 0.0038995403 -0.08399063 -0.05724645
000030 8c 96 4e 3d 0c 4f 82 3d 06 b7 b2 bd e8 b4 70 bd
       0.05043654 0.06362733 -0.08726315 -0.058766276
000040 9f 41 99 3d 7f 01 25 bd 20 47 af bc 6e 6d 52 3d
       0.07483219 -0.04028463 -0.02139622 0.05137389
000050 85 e5 37 3d b7 8f a3 bd b9 22 61 bd 2f 09 fc 3c
       0.04489662 -0.07986396 -0.054964755 0.030766098
000060 60 96 48 bd 0c d1 8a bc 5e d2 d9 bc 7a 10 9f bd
       -0.048971534 -0.016945384 -0.026589569 -0.077668145
000070 8d 8f 21 bd ca e6 49 3d fd 64 97 bd 4c 4f 3b 3d
       -0.03944354 0.049292363 -0.07392309 0.04572992
000080 3c 57 33 3d 08 a1 cc bd b4 d8 f0 bc 88 c7 ea bc
       0.043784365 -0.09991652 -0.029400207 -0.028659597
000090 83 5d 1f 3d 12 c1 57 bb 5b 12 27 bd e0 5e e7 bd
       0.03890754 -0.0032921475 -0.04078899 -0.11297393
0000a0 d8 7a 96 bd 4e 1d 97 3c 35 d7 c5 bb 48 39 90 bd
       -0.07347649 0.01844659 -0.0060376176 -0.070421755
0000b0 d2 64 b4 bd 37 5b 9b 3d 19 47 20 bd 80 7c a9 bd
       -0.088082924 0.07585757 -0.039130304 -0.082756996
0000c0 69 57 7f 3d f2 11 ce bd f8 f8 a0 3c 38 9b 6b bd
       0.06233922 -0.100620165 0.019649968 -0.057521075
0000d0 da 4a 83 bd 88 8b 95 bb e9 69 cf bd 3d 64 59 3d
       -0.06410761 -0.0045637526 -0.10127623 0.05307411
0000e0 f3 9a 79 bc 4c 1a 7c 3c 16 05 1f bd e5 9b 8f 3d
       -0.015234697 0.015387129 -0.03882321 0.070121564
0000f0 ea 08 7c ba 4c 03 25 3c b2 a8 08 bd 47 6a b5 bd
       -0.00096143654 0.010071587 -0.033364005 -0.088581614
000100 e7 c9 aa bd 20 97 1a be 61 1f 65 bc c3 0c 1e bd
       -0.08339291 -0.15096712 -0.013984532 -0.03858639
000110 2c 8a 5d bd cb 99 e4 bd c5 bc 36 3b ed 26 f6 3b
       -0.05408685 -0.11162146 0.0027883512 0.0075119645
000120 6c c1 61 3d 0a 70 94 bd 2f 10 29 3d 5a 62 46 3d
       0.055116102 -0.07247932 0.0412752 0.04843364
000130 b6 ed 5d ba 34 18 c3 bc 1a ea 15 b9 4f 0f 99 bd
       -0.00084659026 -0.023815252 -0.00014296957 -0.07473623
000140 4f 25 d5 bc bc ff a9 3b a2 d1 22 bf c3 f3 83 bd
       -0.026018767 0.0051879566 -0.63601124 -0.06442978
000150 5f ec 0d 3d 47 81 0b bc bc 34 57 3d 06 83 f5 bd
       0.03464925 -0.008514709 0.052540526 -0.11987881
000160 1d 0d 01 bd 87 84 35 bb f4 65 06 3d e6 9f 69 3c
       -0.031506646 -0.00276974 0.032812074 0.014259314
000170 c4 e1 c9 bd f8 b8 32 3d d1 f7 15 3d f2 f7 7f bd
       -0.098575145 0.04363343 0.03661329 -0.06249232
000180 8d 9a c8 bc ce 07 45 be ef dd 1f 3d ea f3 44 bd
       -0.024487758 -0.19241259 0.03903001 -0.048084177
000190 34 08 99 bd 9b 4e be bd 36 24 8e bd 17 1d 8b 3c
       -0.07472268 -0.092923366 -0.069405004 0.016981645
0001a0 f3 b5 4e 3c 0c f7 86 bd 21 00 92 3d 70 a9 24 3d
       0.012616622 -0.06590089 0.07128931 0.04020065
0001b0 90 4f a5 bd 7d 91 73 bd 2b 23 fe 3b 82 1d 81 bd
       -0.08071816 -0.05946492 0.007755657 -0.06304456
0001c0 e7 33 45 bc 8e 83 6a bd 8a 7c a4 bd 37 7d 39 3d
       -0.0120363 -0.057254367 -0.080315664 0.04528543
0001d0 12 73 85 3c e3 37 ce bd 1f 4a 84 3c fb 5f e7 3c
       0.016290221 -0.10069253 0.016148625 0.02824401
0001e0 67 f3 0e be 10 ae c6 bc a4 03 14 bd 48 c7 43 3d
       -0.13960038 -0.024252921 -0.036136284 0.04779747
0001f0 3c dd 3d 3d 82 3c 2f bd 2b 20 6e 3c d2 26 e7 3c
       0.046353564 -0.042782314 0.014534037 0.028216753
000200 ff e1 ff 3d b3 38 60 bd ee 2e d1 bc ac 01 89 bd
       0.12494277 -0.054741573 -0.025535073 -0.06689772
000210 e2 4e 8f 3d 19 ab 85 3d 3a 38 20 bb b8 5f 9e 3d
       0.069974676 0.06526775 -0.0024447576 0.07733101
000220 ec 38 0a 3d 91 6b 9e 3d 7b 06 fa 3b e9 84 34 3d
       0.03374569 0.077353604 0.007630167 0.044072066
000230 00 de 9c 3d 63 ce b6 3d f4 cd cc 3d 37 9a be 3d
       0.07659531 0.08926084 0.1000022 0.09306758
000240 52 c7 4c 3c 01 21 14 3e ad 4e a9 3d b2 6d f5 bc
       0.012498694 0.14465715 0.08266959 -0.029959533
000250 27 7d 28 bd 33 de 10 bd 57 23 44 3d c6 f5 48 3e
       -0.04113498 -0.035368156 0.047885265 0.19625005
000260 84 9d 4e 3d e6 1b 8b bd 8e 37 1e 3e c9 5f ea 3d
       0.050443187 -0.067924306 0.1545088 0.11444051
000270 55 f0 33 bc 54 a2 3d bd e6 f0 5e bc 7c 44 b0 3d
       -0.010982593 -0.046297386 -0.013607239 0.08606812
000280 ab df 70 3d 56 f4 45 3d b5 0a 1a 3e 37 5c f6 3d
       0.058807056 0.04832872 0.15043147 0.12029307
000290 5b d3 bf bc 84 22 7b 3c e9 ef 29 3c f6 8d 93 bc
       -0.023416212 0.015328053 0.01037214 -0.018012028
0002a0 06 44 92 3c df 04 5f 3d 50 f3 38 3d 4c e6 9c bc
       0.017854702 0.054448005 0.045153916 -0.019152783
0002b0 59 6b 33 3d 30 55 0c 3d a6 25 de 3d ca 48 2c 3d
       0.043803547 0.03426093 0.108470246 0.042061605
0002c0 05 45 ad bc d3 e1 0a 3d 6a dc 23 3e e3 9c 5d bd
       -0.021151075 0.03390677 0.1600205 -0.054104697
0002d0 34 6f 4d 3d 71 4b a8 3d 9f e2 2d bd 33 18 f6 bc
       0.05015488 0.08217514 -0.04245245 -0.030040836
0002e0 21 37 fa bc 22 14 6c bd 44 02 92 bd d3 cc a9 3c
       -0.030543866 -0.057636388 -0.071293384 0.02072755
0002f0 f2 2e 8c bc 6f de f5 3b 0e 45 94 3d 14 b3 f7 3c
       -0.017112229 0.007503323 0.07239734 0.030236758
000300 73 e1 a1 3d 1b ea 75 3c ae 52 0e 3d 93 a1 85 3d
       0.07904329 0.015009428 0.03474682 0.065249585
000310 18 35 f6 3d 19 fb 58 3e 1a dc 57 bd 8d d9 53 3d
       0.120218456 0.21189536 -0.05270014 0.051721144
000320 88 53 0b bd 1a ae 56 3d ec fb bd 3d ac 0c b8 ba
       -0.03401521 0.05241213 0.09276566 -0.0014041862
000330 44 f1 b5 ba d8 a0 0c bd 6f fc d8 3d 02 e7 62 bc
       -0.0013881107 -0.03433308 0.10595023 -0.013849022
000340 28 e0 d2 3d 6f d3 2b 3d 0b ed 6b 3f 5d 66 c7 ba
       0.10296661 0.041949686 0.92158574 -0.0015213002
000350 a6 46 0a bd 10 55 2f 3c 19 40 85 bd 72 de 3d bb
       -0.03375878 0.010701433 -0.06506366 -0.00289717
000360 7e fc 4c 3c 21 f1 8b 3c 89 98 8f 3d 38 6a aa 3b
       0.012511371 0.017082753 0.07011516 0.0052006505
000370 d5 9f cf 3d 77 8a 66 bd f6 ba 9a 3c ab 37 29 bd
       0.101379074 -0.056284394 0.018887978 -0.041312855
000380 4f f7 8d bb 9d 26 5e 3e d4 a7 65 bc 97 6d 90 3d
       -0.00433246 0.21694417 -0.014017064 0.070521526
000390 81 a3 a4 3d 6a ab c8 3d a8 37 9e bd 22 2b 8c 3b
       0.080389984 0.0979832 -0.07725459 0.004277603
0003a0 94 72 64 3c b6 66 87 bc 52 1a e7 3c e0 51 d8 bc
       0.013943333 -0.016528469 0.028210793 -0.026406229
0003b0 5f 94 88 3d 2b d0 9d 3d 1f da 37 3d c3 79 cb bb
       0.066689245 0.077057205 0.04488575 -0.0062095835
0003c0 9a db c4 3c df a2 7b 3e 8f 43 46 3d 08 81 c4 3c
       0.024030495 0.24573849 0.048404273 0.023987308
0003d0 0e ac dd bc 61 48 b0 3d 0a c7 de bb 9b 27 6e bc
       -0.027059581 0.08607555 -0.0067986296 -0.01453581
0003e0 30 c3 7e 3e 9e 9e 87 3d 6e 2d 70 bd 50 50 22 bd
       0.24879146 0.06622051 -0.058637075 -0.039627373
0003f0 9c c8 13 3d bd 9d 0d bd de e9 bf bc fb a5 0a bd
       0.036079988 -0.03457426 -0.023426946 -0.033849698

pitch_linear.weight f4 [128, 128]
000000 c7 37 29 be a2 51 9a 3d 6f 66 f1 3a c8 e6 3c 3d
       -0.16525184 0.075351015 0.0018417368 0.046118528
000010 49 75 21 3d 04 d5 3f 3e 4b 40 ba bc 59 74 3b 3e
       0.039418492 0.18733603 -0.022735735 0.18306102
000020 e4 b1 6d 3e 74 12 d3 3c f1 0e 2e bd 8f bb cc bc
       0.23212391 0.025765635 -0.042494718 -0.024991779
000030 c4 bb 1d be 3d aa 00 be 45 be 0d bc 05 8e f4 3a
       -0.15403658 -0.12564941 -0.008651321 0.0018658048
000040 ac ef 01 3d f8 37 51 be 40 bb fb bd 64 08 44 3d
       0.03172271 -0.20431507 -0.122915745 0.047859564
000050 75 80 58 3e 04 2e 4a be ed a7 82 3d 5b 9b 27 be
       0.21142752 -0.19744116 0.063796856 -0.16367857
000060 87 43 04 3d 80 c6 30 3d 17 67 53 3e 86 ec 44 be
       0.03229096 0.043158054 0.20644794 -0.19230852
000070 ea 6a 45 be fc b5 d0 b9 9e 1f 38 3c 88 c2 75 bd
       -0.19279066 -0.0003980844 0.011238007 -0.059999973
000080 ee 97 99 bd d5 4a 51 3d 22 fe 77 3e 30 6a ad 3d
       -0.074996814 0.051096756 0.24218038 0.08467519
000090 69 c6 44 3c 0b d6 96 3d 43 ea d1 bd e2 a3 3b be
       0.012010195 0.07365044 -0.1024976 -0.18324235
0000a0 f2 7f 3b 3c 5d 72 08 be 39 eb 5e 3c 1e 11 cd bc
       0.011444079 -0.13324876 0.013605886 -0.025032576
0000b0 6d f6 d2 bd fb 59 0c 3d c7 25 d2 3d e0 d8 53 be
       -0.10300908 0.0342655 0.10261112 -0.206882
0000c0 a9 87 64 3a 2b cd fa bc 01 be 95 be 3a b9 0b 3d
       0.00087177247 -0.03061541 -0.29246524 0.034112193
0000d0 58 32 76 3d c9 ff 56 3b 6a 20 69 3a 7b 79 dd 3c
       0.060106605 0.0032806268 0.00088930747 0.027035465
0000e0 1a a6 fd bb a4 15 1b 3d df 78 05 be 47 e7 75 3b
       -0.007740748 0.037862435 -0.1303439 0.0037521885
0000f0 96 30 4d bd b3 58 26 3d 30 69 a5 bc 5b e2 7d 3d
       -0.050095163 0.040611934 -0.020191759 0.061983448
000100 1b cc 39 be 72 3f 60 3e 16 5d 32 3e 29 e6 d4 bc
       -0.18144266 0.21899202 0.17418322 -0.025988655
000110 57 8e 86 be b3 cb 21 3e 8a f7 4c 3d 01 e9 f4 bd
       -0.26280472 0.15800361 0.05004076 -0.119585045
000120 bc 8a 05 3d c8 14 5a bd db 0e a8 bd fa 9c d8 3d
       0.03260301 -0.053242475 -0.082059585 0.10576816
000130 0e 16 64 be b9 fe b6 3d ff 48 fe 3d 1b 1a 48 3e
       -0.22274038 0.08935303 0.12416267 0.19541208
000140 9b 53 40 be 3e 1e 4e bd e3 37 75 3e 30 3f 41 bc
       -0.18781893 -0.05032181 0.239471 -0.01179485
000150 55 e3 a7 bd de 0e cd bd 23 2c 5c 3d 00 f8 fa bd
       -0.08197657 -0.10012601 0.05375303 -0.122543335
000160 76 1e a6 bd c0 c6 28 3d e4 fd 26 3c 82 b9 d0 3c
       -0.08111279 0.041205168 0.010192368 0.025479082
000170 53 3b 1d 3e 7b 10 6c bd 89 e8 ff 3d 88 cb b8 3d
       0.15354662 -0.057632904 0.124955244 0.090231955
000180 bb 31 4d 3e 99 c6 82 be 29 cc 42 3d 38 88 d6 3d
       0.20038502 -0.25542143 0.047557984 0.104752004
000190 cf e0 04 be 46 3f 16 be 18 27 b7 bd a8 76 13 3e
       -0.12976383 -0.14672574 -0.089430034 0.14400733
0001a0 3a a3 86 be 9a 03 68 bd 8c cd 9c 3d 08 82 ef 3d
       -0.26296407 -0.05664406 0.076563925 0.11694723
0001b0 7e ff 36 3e f2 15 ab bd 01 b4 ba 3d d2 a7 bc bd
       0.178709 -0.08353795 0.09116364 -0.09211697
0001c0 75 c4 8f bd 80 b8 63 be 82 ca 7e bd b4 9c 38 3e
       -0.07019893 -0.2223835 -0.062204845 0.18028527
0001d0 9a b0 e2 3d 1e 09 a1 bd 58 4d a9 3d a9 b8 b5 bd
       0.1106884 -0.07863067 0.08266705 -0.08873112
0001e0 91 30 db 3c d9 42 ce 3c 78 6a f5 3d 47 55 01 be
       0.026756557 0.02517836 0.11983198 -0.12630187
0001f0 bd b6 51 3d b3 af 3f 3d 47 fa 87 bd 13 f5 26 3d
       0.051199663 0.04679842 -0.066395335 0.040761065
000200 87 eb 9c bd fc 69 1a 3e 15 28 0c 3d 6d 87 0a 3d
       -0.07662111 0.15079492 0.034217913 0.03382056
000210 7d 75 db 3d 1c 26 5f 3d 20 ca 36 3d dd 0a fb 3d
       0.107157685 0.054479703 0.044626355 0.122579314
000220 06 ba 72 3e bc dc 8b 3d 74 86 cd 3c 71 ac 3b 3c
       0.23703775 0.06829211 0.025088526 0.011454687
000230 40 31 65 bd 6d e8 ed bd 4d 07 3e 3d a6 cc ca bd
       -0.05595517 -0.11616597 0.04639368 -0.09902315
000240 87 13 a0 3c 0a ab 3f be 20 e1 92 bd f5 18 df 3d
       0.019540561 -0.1871759 -0.071718454 0.10893432
000250 69 a3 4e 3e 49 cf 12 be c4 43 84 3d 9a 46 e8 bd
       0.20179524 -0.14336886 0.06458238 -0.11341591
000260 4f 50 4d bc 43 49 f4 3d bd c6 e2 3d 7a c1 88 be
       -0.012531354 0.11928036 0.110730626 -0.2671011
000270 03 f0 6e bd aa a5 0a 3d f3 7d 99 bd 9b 27 f4 bd
       -0.05833436 0.033849396 -0.07494726 -0.11921617
000280 51 b5 08 3b 86 20 86 bc 79 3d 83 3e 0b cd 17 3d
       0.0020860026 -0.01637293 0.25632837 0.03706078
000290 5c 28 5d 3d bf ba 9c 3d 43 4a 1e be be 20 54 bd
       0.053993568 0.076528065 -0.15458016 -0.051789038
0002a0 42 09 92 bd 87 9d 16 bd 16 e6 90 3b 31 0f 09 3e
       -0.07130672 -0.036771324 0.0044219596 0.13384701
0002b0 8f aa 46 be 88 0c a7 3d 4f 66 cc 3d 04 71 6a be
       -0.19401 0.08156687 0.09980451 -0.22894675
0002c0 b8 9e a0 bc 83 46 a2 3d 6b 7b 4a be 36 39 64 3d
       -0.019606933 0.07923605 -0.19773643 0.055718623
0002d0 b2 a2 e4 bc 4a be fe bd 75 a3 cf 3b dc a2 51 bd
       -0.02790961 -0.124386385 0.0063366243 -0.051180705
0002e0 f0 6f e8 3c 8b 9e 97 3d 13 1b bf bc 05 3a 2d be
       0.028373688 0.074032865 -0.02332834 -0.16916664
0002f0 6a 59 a5 3d 85 11 80 3d 81 a0 ad bb 19 24 3f 3e
       0.08073695 0.062533416 -0.0052986746 0.18666114
000300 0b 38 3a be c4 c2 7c 3d 43 b4 70 3d 0e 3e e6 3d
       -0.18185441 0.06170918 0.05876566 0.11242305
000310 38 49 35 be b7 f6 52 3e ff b6 55 bd f5 78 b7 bd
       -0.17703712 0.20601927 -0.05217647 -0.089586176
000320 ea 95 b4 bd 98 63 c4 bd 3e c4 07 be 64 f9 26 bd
       -0.08817656 -0.095893085 -0.13258454 -0.04076518
000330 94 b3 08 be 90 5d 62 bd be 10 1f bc 90 fe 35 3e
       -0.13349754 -0.05526501 -0.0097085815 0.17772889
000340 5f 1a 00 be 30 d4 da 3d de d5 eb 3d 17 25 49 3d
       -0.1251006 0.10685003 0.11515401 0.049107637
000350 06 b6 97 bc d7 96 55 3c 0a 58 03 3e 92 2d 11 be
       -0.018519413 0.013036451 0.12826553 -0.1417754
000360 75 44 a2 bb 77 68 1d 3b cb a4 8a 3d 3d 4b 3e bc
       -0.0049520084 0.0024018565 0.06769713 -0.011614618
000370 e7 ec d2 3d 9b f0 97 bd be b5 02 3e f3 30 0b 3e
       0.10299092 -0.07418939 0.12764642 0.13592891
000380 46 9e 61 3e 99 75 67 be 16 56 0a 3d 74 53 77 3e
       0.22033033 -0.22603454 0.033773504 0.24152929
000390 a7 b1 d6 bd 0b 4d 45 be ac e7 55 3d 16 3a ed 3d
       -0.10483103 -0.19267671 0.052222893 0.11583345
0003a0 f0 29 79 be e7 d9 46 bd 33 3d 05 3e 45 bc 4b 3c
       -0.24332404 -0.04854765 0.13011627 0.012435024
0003b0 b3 53 57 3e 0f 8f 29 be 02 0b 65 3d cd ad 4b ba
       0.21028022 -0.16558479 0.0559187 -0.0007769734
0003c0 88 a7 65 3d 27 4c 7d bd 89 5e e3 bd dd bc 22 3e
       0.056067973 -0.061840203 -0.111020155 0.15892358
0003d0 da 9d ea 3d 39 97 77 bd 58 48 4b 3e a5 3c 0b be
       0.11455889 -0.06044695 0.19851816 -0.13597353
0003e0 d7 2a ce bd 83 0d 0a be 97 79 ca 3d 4f 61 d3 bb
       -0.10066765 -0.13481717 0.09886473 -0.006450809
0003f0 02 74 e6 3d 9f 80 a2 3d bc dc 0e bd b0 4f 0e 3e
       0.112525955 0.07934689 -0.034878477 0.13897586

pitch_linear.bias f4 [128]
000000 d5 5b 32 bf f0 1b 4f bf ed ad 3e bf d1 48 49 bf
       -0.69671375 -0.80902004 -0.7448414 -0.78626734
000010 19 d8 55 bf b6 93 54 bf bc 7d 4e bf 33 90 40 bf
       -0.83532864 -0.8303789 -0.80660605 -0.7522003
000020 60 93 4b bf 26 05 3c bf b9 26 5d bf 07 ec 55 bf
       -0.7952175 -0.73445356 -0.8638721 -0.83563274
000030 2c f7 3d bf 61 29 42 bf 0d f2 38 bf 42 6d 40 bf
       -0.7420528 -0.7584439 -0.7224434 -0.75166714
000040 1b 2d 3c bf 4b cb 4d bf 76 ef 40 bf 0f 8f 4b bf
       -0.73506325 -0.80388325 -0.7536539 -0.79515165
000050 67 60 3c bf 9f ef 4a bf 20 d7 49 bf 32 e3 3d bf
       -0.735846 -0.7927188 -0.7884388 -0.741748
000060 d8 25 45 bf 36 64 3b bf 00 0f 46 bf 72 5e 4f bf
       -0.7701087 -0.73199785 -0.7736664 -0.8100349
000070 15 f8 42 bf ab 90 28 bf 30 f4 27 bf cc c7 1f bf
       -0.76159793 -0.65845746 -0.65606976 -0.6241424
000080 ff 1e 0f bf 5f d7 04 bf 59 84 e8 be 03 a5 d9 be
       -0.5590667 -0.5189113 -0.45413473 -0.42508706
000090 d8 d2 88 be 0f 61 91 be 95 dd 8c be fc 32 77 be
       -0.2672336 -0.28394362 -0.27512804 -0.24140543
0000a0 12 e0 15 be 94 1e 82 3d ae 87 a1 bd d4 10 8c 3e
       -0.14636257 0.063534886 -0.07887207 0.2735659
0000b0 cc 43 93 3e a0 ec de 3e ea 71 df 3e 3c 22 b1 3e
       0.28762662 0.43539906 0.43641597 0.3459643
0000c0 38 11 35 3f a2 83 0f 3f 52 5a 55 3f d7 98 3b 3f
       0.707294 0.5606023 0.8334094 0.7328009
0000d0 1c af 5e 3f 36 43 83 3f fe 3a 67 3f 47 3a 8b 3f
       0.86985946 1.0254886 0.9032439 1.087716
0000e0 b2 00 8e 3f b3 bc 9c 3f f7 9b 99 3f 28 46 89 3f
       1.1093962 1.2245086 1.2000722 1.0724535
0000f0 07 7c 9e 3f c7 40 91 3f dd 59 b1 3f f1 2f 9b 3f
       1.23816 1.1347893 1.3855549 1.2124006
000100 18 70 a6 3f c5 36 a2 3f 88 26 99 3f c1 43 a9 3f
       1.3002958 1.2672964 1.1964884 1.3223802
000110 15 5d 98 3f 60 7e a9 3f a0 22 91 3f 2b 5f 91 3f
       1.1903406 1.3241692 1.1338692 1.1357168
000120 f6 7e 94 3f 98 08 91 3f ef 12 9d 3f 05 34 79 3f
       1.1601245 1.1330748 1.2271403 0.97345
000130 ab 71 69 3f 6e 24 7f 3f c8 eb 47 3f 88 8c 5f 3f
       0.9118907 0.9966496 0.7809415 0.8732381
000140 2d fe 2e 3f 0c 0f 24 3f 61 12 c1 3e 45 fe af 3e
       0.6835659 0.6408546 0.37709334 0.3437368
000150 98 42 9c 3e 23 29 25 3e c6 e8 b8 3d 37 81 be bd
       0.30519557 0.16128974 0.09028773 -0.093019895
000160 0f 72 96 bd 1e 8c 3f be 36 76 c9 be b3 2b c0 be
       -0.07345974 -0.18705794 -0.39348 -0.3753334
000170 10 ee 02 bf 8e f2 02 bf d2 a7 0e bf 1b 70 25 bf
       -0.51144505 -0.5115136 -0.55724823 -0.64624184
000180 65 d7 2c bf 33 e7 38 bf df 6e 33 bf a3 ee 3f bf
       -0.67516166 -0.7222778 -0.7009105 -0.74973506
000190 5c 5b 45 bf 12 44 3b bf 7c 83 46 bf b2 be 3e bf
       -0.7709253 -0.7315074 -0.7754438 -0.7450973
0001a0 a0 bf 58 bf d1 4e 47 bf 7c b7 42 bf fb 20 43 bf
       -0.84667397 -0.7785464 -0.76061225 -0.762222
0001b0 50 b1 53 bf 10 fe 48 bf 6b ec 40 bf 46 6b 43 bf
       -0.8269243 -0.7851267 -0.75360745 -0.7633556
0001c0 c6 90 4e bf 4e 56 47 bf d3 64 5b bf 6a 30 5a bf
       -0.80689657 -0.77866066 -0.8570072 -0.85230124
0001d0 89 3c 5a bf 78 c7 3f bf 23 3c 3f bf ed 52 3f bf
       -0.8524862 -0.7491374 -0.74701136 -0.7473591
0001e0 d6 8f 4c bf f4 54 52 bf 00 e8 59 bf 0a ec 55 bf
       -0.79906976 -0.8216088 -0.8511963 -0.8356329
0001f0 d3 d0 3e bf 1b df 52 bf 83 c8 54 bf 9d c2 40 bf
       -0.7453739 -0.8237168 -0.83118457 -0.75296956

step_linear.weight f4 [1, 128]
000000 8a 44 85 bc 51 03 fc 3b af 74 a3 3a 08 a7 22 3c
       -0.016268034 0.007690825 0.0012470688 0.009927519
000010 1c e1 ad 3c ff 2f b0 bc 43 27 3e 39 10 87 88 3c
       0.021225505 -0.021507261 0.00018134438 0.016665965
000020 a5 51 c0 3d 00 65 72 bc 63 6a 78 bc e4 dc 69 3c
       0.093905725 -0.014794588 -0.015162083 0.014273856
000030 54 72 e4 bc 5a db fb 3b 5d 01 0b bd e5 e6 b4 3c
       -0.027886547 0.007686061 -0.033936847 0.022082755
000040 d3 bd 44 bb 62 03 00 bd 4b 02 95 bc 87 45 f6 3a
       -0.003002037 -0.031253226 -0.01818957 0.0018789031
000050 b5 2b df 3b d3 e3 d3 bc 90 70 a5 3b 1c b4 98 3d
       0.00681063 -0.025865471 0.005048819 0.07456228
000060 3e 0c 8d 3b 69 d3 d6 3a 43 0f e7 3d 65 8c bd bd
       0.004304438 0.001638991 0.11282208 -0.09255294
000070 f7 a7 3c bd 52 1d 84 3c dc 14 38 3c 70 4d a7 bc
       -0.04605862 0.016127262 0.011235442 -0.020422667
000080 04 cb 98 3b 24 8e cd bc a5 87 bc 3c 39 88 ae bc
       0.004662873 -0.025092192 0.0230139 -0.02130519
000090 d6 d3 46 bb 5a 99 4c 3b a6 9b 9f 3c a0 97 b1 bc
       -0.0030338666 0.0031219334 0.019483399 -0.021678746
0000a0 83 23 8f 3c 0c 30 cd 3a e9 70 20 3c 7a ed 76 3c
       0.017472988 0.0015654578 0.009792545 0.015071267
0000b0 8a 34 61 bc 9d 49 28 3d f6 0c 87 bb fb 72 cb bc
       -0.013745436 0.041085828 -0.004121418 -0.0248351
0000c0 16 f0 07 bb da 75 f0 ba 7b 1c 87 bc fb c8 79 bc
       -0.0020742468 -0.0018345669 -0.016493073 -0.015245671
0000d0 2c 7c cd 3b 94 24 a6 bc ab 85 bf bb db a0 42 bb
       0.006270906 -0.020281114 -0.005844792 -0.0029697928
0000e0 04 c7 da 3c 92 df 5e bb 71 f9 06 bd 23 6b 19 3c
       0.026706226 -0.003400777 -0.03295273 0.009363922
0000f0 25 04 65 bb b1 52 0e bc a1 0d 93 b9 cb 42 34 bc
       -0.0034945097 -0.008686707 -0.0002804818 -0.011002253
000100 6f 6e 10 3c ec 28 dd 3c 1e 3a c3 bc b4 cf 25 3c
       0.008815392 0.026997052 -0.023831423 0.010120321
000110 9d 14 94 3c 52 a1 fb 3c 68 f5 51 3b df 4d 19 bd
       0.018076235 0.030716572 0.0032037143 -0.03742778
000120 3b 07 10 3a 3d de b9 39 4f ee 87 bc 38 4e 27 bc
       0.00054942415 0.0003545153 -0.016593127 -0.01021152
000130 28 ba 33 3a 1a 72 5c 3c 90 78 57 3a 96 50 ea bb
       0.00068560475 0.013454938 0.00082195643 -0.00715072
000140 5d 98 42 bc dd 34 e8 bb b6 f0 6f 3e 32 0b 6e bc
       -0.011877147 -0.00708638 0.23431668 -0.014529036
000150 8d d8 c2 bc e6 f2 9e bb 23 4c 7b bb 98 68 da bc
       -0.0237849 -0.004850733 -0.0038344942 -0.026661202
000160 a8 e8 98 bc 8c c2 c7 bb bc 37 a8 bc a9 40 62 bc
       -0.018665627 -0.00609619 -0.020534389 -0.0138093615
000170 72 b1 79 3d 44 53 2c 3c 9f 92 56 3c c0 dc 9a 3c
       0.06096024 0.010517899 0.013096481 0.01890409
000180 8f 97 fe 3a 1f d5 35 3b 84 fd d1 3c b0 c1 47 3c
       0.001942383 0.0027745438 0.025633581 0.012192175
000190 8e 7d 39 bc 90 c0 dc bc f3 37 c4 3c dc b1 8f bc
       -0.0113214385 -0.02694729 0.02395246 -0.017540865
0001a0 3f d2 a4 bc 30 4b 73 bb 6a 0d 12 3b e2 68 25 3c
       -0.020119784 -0.0037123673 0.0022285827 0.010095807
0001b0 e8 71 ea bc a2 c9 c0 3b de 39 c7 3c c1 90 12 bd
       -0.028618768 0.0058834115 0.024319585 -0.03578258
0001c0 6e a4 99 bb 82 88 28 bd 30 60 a4 bc 30 e4 00 bd
       -0.004688791 -0.04114581 -0.020065397 -0.031467617
0001d0 fa 9b 3b 3c b6 c9 4a bb 89 b6 e7 3c b1 de c9 bc
       0.011450762 -0.0030942983 0.028285282 -0.02464232
0001e0 66 09 b6 bc 57 49 08 bc 98 10 1f bb 53 7a 25 3c
       -0.022221278 -0.008318267 -0.0024271365 0.010099965
0001f0 e2 59 be bb 71 7e 90 3c 36 98 78 bc a9 db 6c 3b
       -0.0058090547 0.017638417 -0.015173009 0.003614167

duration_linear.weight f4 [1, 128]
000000 c4 52 a9 bd da 25 68 3d 1a fc 07 3d 26 a8 1b 3d
       -0.082677394 0.056676723 0.033199407 0.038002156
000010 7e 30 84 bd 1f 51 82 3c 9c f0 2d 3e 51 b9 06 bd
       -0.06454562 0.015907822 0.16986316 -0.032891575
000020 7d 1a 22 bb f7 a9 c3 3d 5d 2b 6d 3c 2f c4 b9 3c
       -0.0024735027 0.095539026 0.014475671 0.022676555
000030 7e 93 e7 bb 06 c7 cd bd 93 3d fe 3c 7f 70 01 b9
       -0.007067143 -0.10047726 0.03103522 -0.00012344307
000040 e7 03 62 bc 58 43 98 bd 57 ab 1b bc a9 0e 06 3d
       -0.013794876 -0.0743472 -0.0095013 0.032728825
000050 00 d0 8c 3d 94 a0 88 3d 5d 0b 1e be 32 6a b5 3e
       0.0687561 0.06671253 -0.15434022 0.35432583
000060 7d 8a ac bc aa 71 83 bd f0 16 f1 3d de ac 16 bd
       -0.02106213 -0.06418164 0.11771953 -0.036785953
000070 8d dd 3b 3d 9f ad 52 bd 4a 19 4e 3b 2c 08 8d 3d
       0.045865584 -0.05143511 0.003144818 0.06886324
000080 a6 e0 b0 bd 8a 10 91 3d c1 65 dc 3d 89 5d 6e 3d
       -0.08636598 0.07083233 0.107615955 0.05819467
000090 43 56 6e bd 9b 98 72 3d 33 b0 f2 bd 8e c8 62 bd
       -0.058187734 0.059227567 -0.118500136 -0.055367045
0000a0 0f 7b 59 bd 92 7c c6 3c cf 00 d9 bd fe 05 50 bc
       -0.053095873 0.024229322 -0.10595857 -0.012696741
0000b0 1f b8 25 3d 21 b1 60 bd e2 ad 9b 3d ad 54 b7 bc
       0.040458795 -0.054856423 0.07601525 -0.022379244
0000c0 70 ec 0a be 17 61 fd 3d a6 ce 37 3d 91 e8 79 3d
       -0.13566756 0.12372034 0.04487481 0.06101281
0000d0 44 bc 35 3d e7 42 d8 3d 3e 8e d6 bd a6 8e ab bc
       0.044368997 0.105596356 -0.10476349 -0.020942044
0000e0 73 e9 b3 3d 63 3e b7 bd 46 77 bb 3d 8a 39 c5 bb
       0.08784761 -0.08947446 0.09153609 -0.006018822
0000f0 c6 5f 4d 3c 5f bb 2c 3d f2 1d d7 3c 5a d2 19 3e
       0.012535041 0.04217088 0.026259396 0.15021649
000100 4e 7d a0 3c f9 ae aa 3d 50 94 fb 3d fc 67 0d 3e
       0.019591 0.08334155 0.12284148 0.13809198
000110 92 88 22 bd b8 f4 21 3d 16 59 2a 3d cd 66 08 be
       -0.039681025 0.039540023 0.041588865 -0.13320465
000120 76 0a 19 bd d4 4b 80 bd d5 f4 64 bd f4 64 9a 3d
       -0.037363492 -0.06264463 -0.055897553 0.075387865
000130 b3 fe 9f bc 7b 84 a2 3c bc b1 c9 3b 42 dc 0c 3e
       -0.01953063 0.019838562 0.006155221 0.13755897
000140 fd fc 8f bd 8c f5 2c 3d 82 ef 26 3f 4d 56 97 3d
       -0.070306756 0.04222636 0.6520921 0.073895074
000150 7f 64 b8 3d c8 13 14 bc bf da 3d 3e 22 10 01 be
       0.09003543 -0.009037919 0.18540476 -0.1260381
000160 58 90 ae bc ec aa 2d 3d 71 b9 82 3d 91 9f ce bb
       -0.021309063 0.042399332 0.063830264 -0.006305643
000170 88 1c 50 3d c5 1a f2 bd 5b 25 64 bd c8 80 d0 3d
       0.05080846 -0.11821512 -0.055699687 0.10180813
000180 5b 1c e9 3c 43 41 af 3c 9b 3d 84 3b e1 bf 3d 3d
       0.028455904 0.021393424 0.0040356643 0.046325568
000190 00 cd 6d bb 33 66 ce bd 9d d5 0a bd 41 d6 f7 ba
       -0.003628552 -0.10078087 -0.033895124 -0.0018908457
0001a0 35 15 61 3d 42 e1 b0 bd 61 22 46 3d b1 a1 9a 3d
       0.054951865 -0.086367145 0.04837263 0.075503714
0001b0 b7 7d 52 3d a4 86 f4 bd c2 3a 91 3c cb 71 80 3e
       0.051389422 -0.11939743 0.017728213 0.25086817
0001c0 21 8a 8a bd 3d bf f8 bc aa b5 fb 3d 8a d7 33 bd
       -0.06764627 -0.030364627 0.12290509 -0.043906726
0001d0 1b f6 8e bd 89 46 91 bd 51 87 b1 3b 29 94 d2 3b
       -0.06980535 -0.07093532 0.0054177423 0.0064263535
0001e0 1b e3 ac be 28 ed 79 bd 51 f4 d1 3d d1 d3 27 3d
       -0.33767018 -0.061017185 0.10251678 0.04097349
0001f0 55 8e 45 3d 7d cd 53 3c 20 c6 df 3d 2d 91 b5 3d
       0.04823144 0.01292741 0.10926461 0.08865581
