torch/model70.pth (torch, 342035 bytes, 8 tensors)

lstm.weight_ih_l0 f4 [512, 3]
0	0xbd977292	-0.073948994
1	0x3d925465	0.07145003
2	0xb995bef4	-0.00028561766
3	0x3d9fcc99	0.07802696
4	0xbcf9da26	-0.03049953
5	0xbd227b19	-0.039668176
6	0x3cba94f7	0.02277611
7	0xbd671b0b	-0.056422275
8	0x3d80c720	0.0628798
9	0x3c8be27b	0.017075768
10	0x3da98c69	0.08278734
11	0x3dec5c51	0.115410455
12	0x3d9cefcf	0.07662927
13	0x3cbe7552	0.023249302
14	0xbda43253	-0.08017411
15	0x3d105be1	0.035243873
16	0xbde6973f	-0.11259317
17	0x3dc7eedb	0.09762355
18	0x3db01b34	0.085989386
19	0x3dbfe6f2	0.09370221
20	0xbdae840f	-0.08521282
21	0x3d713fd4	0.058898762
22	0x3ceb6df1	0.028738948
23	0xbe276acb	-0.16349332
24	0x3da33da4	0.079707414
25	0x3db031e1	0.08603264
26	0x3e0c2fb4	0.13690072
27	0x3c3ba13e	0.011452017
28	0xbd818384	-0.06323913
29	0x3c32c993	0.010912317
30	0x3d201ae7	0.039088156
31	0xbd92f68f	-0.071759336
32	0x3c66723f	0.014065324
33	0xbcd8f260	-0.02648276
34	0x3dbd4a8f	0.092427365
35	0xbd3a515b	-0.045487743
36	0xbce4b7a3	-0.027919596
37	0x3d3a94e2	0.045552142
38	0xbe5df078	-0.21673763
39	0xbd63b5cf	-0.055593308
40	0xbd760ba6	-0.060069703
41	0x3dc8bc07	0.09801488
42	0xbcfd305e	-0.030906852
43	0x3dd211c3	0.10257294
44	0x3e0d62e1	0.1380725
45	0xbd930e3c	-0.07180449
46	0x3d64d230	0.055864513
47	0xbe19be4e	-0.15014002
48	0x3d662d9c	0.05619584
49	0x3d7a3c9b	0.061092954
50	0x3d8d164d	0.06889019
51	0x3d3a4e15	0.04548462
52	0x3e46d5e7	0.19417535
53	0xbd094df4	-0.033521608
54	0xbd0aa03e	-0.033844225
55	0x3d7c2e01	0.06156731
56	0x3d3215cc	0.04347782
57	0x3c291671	0.010320292
58	0x3da4b446	0.08042197
59	0xbd281911	-0.04103953
60	0xbc189166	-0.009312009
61	0x3da04c59	0.07827062
62	0x3d856931	0.06514204
63	0xbdc31b6e	-0.09526716
64	0x3ca08de6	0.019598912
65	0xba09265b	-0.00052318507
66	0xbdaa270f	-0.08308231
67	0x3c7462b4	0.014916111
68	0xbd0f6342	-0.03500677
69	0xba9893ac	-0.0011640689
70	0x3ebd22f9	0.36940745
71	0xbf1fa466	-0.6236023
72	0x3d95bf5c	0.073118895
73	0xbcdf94a9	-0.027292566
74	0x3d534a32	0.05158443
75	0x3da7a443	0.08185627
76	0x3d43fd67	0.047849085
77	0x3c85539e	0.016275223
78	0xbd8aa920	-0.06770539
79	0x3e21f79d	0.15817113
80	0x3d9cd256	0.07657306
81	0xbe394d8c	-0.18095988
82	0x3e4b019b	0.19824831
83	0xbebbf03a	-0.36706716
84	0xbc8d417f	-0.017243145
85	0x3db809ca	0.08986242
86	0xbdf7d16b	-0.1210049
87	0x3d046a92	0.032328196
88	0x3dcd6005	0.1002808
89	0xbd81e3e4	-0.06342295
90	0x3d7643e6	0.060123347
91	0x3d88fd8c	0.06688985
92	0x3e5552de	0.20832393
93	0xbce2d949	-0.0276915
94	0x3ccd398a	0.02505185
95	0x3d2c327a	0.042040326
96	0xbc093d74	-0.008376468
97	0x3dbde30b	0.09271821
98	0x3c9317d7	0.017955704
99	0xbda748e6	-0.08168201
100	0xbd833e72	-0.06408395
101	0xbb1a7f39	-0.0023574366
102	0xbdb8a7ca	-0.09016378
103	0x3de8a4c6	0.11359553
104	0x3e10369a	0.14083329
105	0xbca1d2e4	-0.01975388
106	0x3d9f62eb	0.07782539
107	0x3de757fe	0.1129608
108	0xbdd28bc1	-0.10280562
109	0x3d9080c4	0.0705581
110	0xbc97c867	-0.018528176
111	0xbd9986c4	-0.07496408
112	0x3d490d9a	0.049085237
113	0xbd783c58	-0.060604423
114	0x3d61f2df	0.05516326
115	0xbd535977	-0.051598992
116	0x3c5c0da8	0.01343099
117	0xbc1af80e	-0.009458555
118	0x3e044034	0.12915117
119	0x3d7ff898	0.062492937
120	0xbde35c55	-0.11101595
121	0x3d703ed3	0.058653664
122	0x3e3f4e58	0.1868223
123	0xbd9c3733	-0.07627716
124	0x3db7d81f	0.08976769
125	0xbd8ec3ac	-0.06970915
126	0xbc9f2035	-0.019424537
127	0x3d004698	0.031317323
128	0xbce1eff8	-0.027580246
129	0xbd7ec27e	-0.0621972
130	0xbdb0aa3d	-0.086262204
131	0x3b743728	0.003726432
132	0xbd69b802	-0.05706025
133	0x3d429434	0.04750462
134	0xbb4eeea3	-0.0031575344
135	0x3d483b0d	0.04888444
136	0x3d3862c0	0.04501605
137	0x3dd9803f	0.10620164
138	0xbd7b0944	-0.061288133
139	0x3c887e44	0.01666177
140	0xbc9dc233	-0.01925764
141	0xbe2512ef	-0.16120504
142	0x3da4acad	0.08040748
143	0x3bfcfa9f	0.007720306
144	0x3cb42b5d	0.021993333
145	0xbb59c226	-0.0033227294
146	0xbd6f4695	-0.05841692
147	0xbd650061	-0.055908564
148	0x3d7ff1d6	0.062486492
149	0x3d799665	0.060934443
150	0xbd756cda	-0.059918262
151	0x3d62bb04	0.055354133
152	0x3cf33b52	0.029691372
153	0xbcdc2f2b	-0.02687796
154	0xbc9603ee	-0.01831242
155	0x3db4925b	0.088169776
156	0xbdab3adf	-0.08360838
157	0x3ce1312e	0.027489271
158	0xbda5cf71	-0.08096207
159	0xbbc22d76	-0.0059258295
160	0xbd9f6cc0	-0.07784414
161	0x3ce5fa1c	0.028073363
162	0xbd68c117	-0.05682477
163	0x3c0a845a	0.008454407
164	0x3e0cfe50	0.13768888
165	0xbd3984f1	-0.0452928
166	0xbdb96867	-0.09053116
167	0xbcba65c1	-0.022753598
168	0x3bbcbcdb	0.005759818
169	0x3df05eee	0.117368564
170	0x3d84a5aa	0.064769104
171	0xbca2959f	-0.019846736
172	0xbd5631da	-0.052293636
173	0x3dbdaa6a	0.092610195
174	0xbd7f10a8	-0.062271744
175	0x3d9d91d8	0.07693833
176	0x3d648d05	0.05579855
177	0x3da2075d	0.07911561
178	0x3d97d216	0.074131176
179	0x3da943dd	0.08264897
180	0x3cfccc73	0.030859208
181	0x3d3ba55b	0.045811992
182	0xbb5a6d21	-0.0033329206
183	0xbc3b5f80	-0.011436343
184	0x3d8e9160	0.06961322
185	0xbd09df9d	-0.03366052
186	0x3da8fc80	0.082512856
187	0x3dbbef71	0.09176529
188	0xbce7228f	-0.028214721
189	0x3ca39c6f	0.019972054
190	0xbce9c1bd	-0.028534764
191	0x3d189cf3	0.037259053
192	0xbd7bfa7a	-0.06151817
193	0xbc7c9396	-0.015416047
194	0x3c29cd15	0.010363837
195	0xbe095a87	-0.1341344
196	0x3dd7b20a	0.10532005
197	0x3a85a8ad	0.0010197364
198	0x3c2de11a	0.01061275
199	0x3dffe4cf	0.12494814
200	0x3e9b4a4e	0.30330127
201	0xbd846a76	-0.06465618
202	0xbd2eecba	-0.04270623
203	0x3dec0fed	0.11526475
204	0xbc3cab03	-0.011515382
205	0xbe766c7b	-0.2406482
206	0xbe68f992	-0.22751454
207	0xbd2cd37b	-0.04219387
208	0x3dbb3a58	0.091419876
209	0xbc60ded4	-0.013725001
210	0xbd26bffe	-0.04071044
211	0x3d44b8bc	0.04802774
212	0x3d8f11ec	0.0698584
213	0xbd4a808f	-0.04943901
214	0xbe00248f	-0.12513946
215	0x3e2ca17c	0.16858476
216	0xbbcbf10a	-0.0062238025
217	0x3d6e7bf3	0.058223676
218	0xbc895ae8	-0.01676698
219	0xbd9bc3a8	-0.07605678
220	0xbd1515ef	-0.03639787
221	0x3d1c15a7	0.038106587
222	0x3de591f3	0.11209478
223	0x3d64e38d	0.05588107
224	0x3c151f1c	0.009101655
225	0xbc8df821	-0.017330231
226	0x3ce8e14e	0.028427746
227	0xbce62917	-0.028095765
228	0x3bbe1736	0.005801107
229	0x3d965c68	0.07341844
230	0x3d6d3ef9	0.057921384
231	0x3d2a7387	0.04161408
232	0x3d30442e	0.04303377
233	0x3d55a448	0.052158624
234	0xbd8a6012	-0.06756605
235	0x3d8be2a1	0.068303354
236	0x3d0f468c	0.034979388
237	0xbe1b60af	-0.151736
238	0xbc0f87f2	-0.008760439
239	0x3e111be1	0.14170791
240	0xbdb82e2b	-0.08993181
241	0xbe26f9e3	-0.16306262
242	0xbd9257ba	-0.07145639
243	0xbd8e121f	-0.0693705
244	0x3cb692fa	0.02228688
245	0x3c42cfd8	0.011890374
246	0x3d3031fd	0.043016423
247	0x3e2d7cd1	0.16942145
248	0xbf19681c	-0.59924483
249	0x3b3a9e21	0.00284756
250	0x3dc15cb9	0.094415136
251	0xbd6dfd81	-0.05810309
252	0xbd5fa448	-0.05460003
253	0x3d930438	0.07178539
254	0x3d57177e	0.05251264
255	0x3d37336c	0.044726774

lstm.weight_hh_l0 f4 [512, 128]
0	0xbbd22dd4	-0.0064141545
1	0x3db27d72	0.08715333
2	0x3d9c02d4	0.07617727
3	0x3c975ea5	0.018477747
4	0xbd78a58e	-0.06070476
5	0xbd6b6e2b	-0.05747811
6	0x3d9795fd	0.07401655
7	0xbd6c58f6	-0.057702027
8	0x3c041cc7	0.008063502
9	0xbcbe8291	-0.023255618
10	0x3da1c72c	0.07899317
11	0xbcf6a6c8	-0.030108824
12	0xbcb717c8	-0.022350207
13	0x3d183902	0.037163742
14	0xbd9eb771	-0.077498324
15	0x3d1ec674	0.03876348
16	0x3c4ab4a2	0.012372168
17	0x3d80b68e	0.062848195
18	0xbdab1bf5	-0.08354942
19	0x3d9a4e03	0.07534411
20	0xbd59141d	-0.052997697
21	0xbd5dae39	-0.05412123
22	0x3d3de427	0.04636016
23	0xbb331e85	-0.0027331423
24	0x3d8cfc03	0.06884005
25	0x3db5bdf0	0.08874118
26	0xbc937b3b	-0.018003097
27	0xbdcd566c	-0.10026249
28	0xbda8ba35	-0.08238641
29	0xbdbe1f9e	-0.09283374
30	0x3d7b4100	0.061341286
31	0xbd81f5ae	-0.06345688
32	0xbad9950a	-0.0016600203
33	0xbcfee358	-0.031114265
34	0xbd3dbc33	-0.04632206
35	0xbd9a9cac	-0.07549414
36	0xbd288bda	-0.041148998
37	0xbd2801cc	-0.04101734
38	0xbd49cce2	-0.049267657
39	0x3d8c773a	0.06858678
40	0x3d9192c0	0.071080685
41	0x3d14cbc7	0.03632715
42	0x3d336836	0.043800555
43	0xbd125883	-0.035728943
44	0x3bd1d2fc	0.006403325
45	0x3d029d17	0.031888094
46	0xbd941431	-0.07230414
47	0xbd89a329	-0.067205735
48	0xbc51687a	-0.012781257
49	0xbd9a2e37	-0.07528346
50	0x3d0da4c2	0.034580953
51	0x3d77ced4	0.06049998
52	0x3d5dc779	0.05414531
53	0xbda53d38	-0.08068317
54	0xbd3c8b3f	-0.046031233
55	0xbd8fca16	-0.07020967
56	0x3d3366d7	0.043799248
57	0xbc4fda95	-0.012686391
58	0x3cbe3136	0.023216825
59	0xbd5e4530	-0.0542652
60	0x3d6bd3ea	0.057575144
61	0xbc5d872d	-0.013520998
62	0xbd15eb26	-0.03660121
63	0x3d60dc98	0.054897875
64	0x3bb3526a	0.005472471
65	0xbd92c3af	-0.0716623
66	0x3dc1ba9c	0.09459421
67	0x3d97af36	0.07406466
68	0x3d4b0aa7	0.049570706
69	0x3de55220	0.11197305
70	0xbd814a0e	-0.06312953
71	0x3d8e2dc4	0.06942323
72	0xbc9b99b3	-0.018994188
73	0x3d76911f	0.060196992
74	0xbdbb2456	-0.0913779
75	0x3cdfa540	0.027300477
76	0xbd9a1f49	-0.075254984
77	0x3c6639c8	0.014051862
78	0x3d759f98	0.059966654
79	0xbd2354e0	-0.039875865
80	0xbdc00c0b	-0.09377297
81	0x3c3333a4	0.010937605
82	0x3cb99b3c	0.02265703
83	0xbc85bee3	-0.016326373
84	0x3cccdd10	0.025007755
85	0x3cd95235	0.026528457
86	0x3d517c15	0.051143724
87	0xbd448c9f	-0.04798567
88	0x3d68f738	0.05687639
89	0xbd23fbd7	-0.040035095
90	0xbd9702a9	-0.07373554
91	0xbd291b2a	-0.04128567
92	0xbd9979ec	-0.07493958
93	0xbc395425	-0.0113115655
94	0x3d981f98	0.07427901
95	0xbae25e35	-0.0017270508
96	0x3dca4c28	0.09877807
97	0x3c3033ca	0.010754535
98	0xbd935ee5	-0.07195834
99	0x3cda1dca	0.026625533
100	0xbd6bcf07	-0.057570484
101	0xbd680a6d	-0.056650568
102	0xbd94c561	-0.072642095
103	0x3ce86dcd	0.02837267
104	0xbd728397	-0.059207525
105	0x3d31fa04	0.043451324
106	0xbd5bfdc0	-0.05370879
107	0xbc11a3b6	-0.008889129
108	0x3d968419	0.073494144
109	0x3cd16fe3	0.025566047
110	0x3c95fdd1	0.018309506
111	0xbc977877	-0.01849006
112	0xbd1d256a	-0.03836576
113	0x3d655840	0.055992365
114	0xb889ad82	-6.5649874e-05
115	0x3bfd2ed8	0.0077265315
116	0x3da5de56	0.08099048
117	0x3d83fa0e	0.064441785
118	0xbd8389a9	-0.06422741
119	0x3d92fb74	0.07176867
120	0x3d068a80	0.032846928
121	0xbda46685	-0.080273665
122	0xbd3732d1	-0.044726197
123	0x3c98f8b7	0.018673284
124	0x3d3e3c11	0.046444003
125	0x3ccd1dd5	0.02503864
126	0xbdaf6cbf	-0.085656635
127	0xbd7720b7	-0.060333934
128	0xbd2fe81e	-0.042945974
129	0x3bf97199	0.007612419
130	0x3d36d202	0.044633873
131	0xbd048e15	-0.032362062
132	0xbda04f30	-0.07827604
133	0xbd8b274e	-0.06794606
134	0xbd506bd0	-0.050884068
135	0xbd444c05	-0.04792406
136	0x3d623cfc	0.05523394
137	0xbc5b4003	-0.013381961
138	0xbda8e106	-0.08246045
139	0x3d4f7261	0.05064619
140	0xbc8f3935	-0.017483333
141	0x3cf6e527	0.030138565
142	0xbd1fea80	-0.039041996
143	0xbd50cf0d	-0.05097871
144	0x3d89c5bb	0.06727167
145	0xbdb9b65e	-0.09067987
146	0xbd91ecec	-0.071252674
147	0x3d8ee25c	0.069767684
148	0x3d20f6f4	0.039298013
149	0x3cc93406	0.02456094
150	0xbd7c9483	-0.06166507
151	0x3d180112	0.037110396
152	0x3d8355bb	0.06412836
153	0x3da1041a	0.078621104
154	0x3d0e1769	0.034690294
155	0xbd673a9f	-0.05645239
156	0xbd864811	-0.06556714
157	0xbd64b044	-0.055832162
158	0xbd9a79c0	-0.07542753
159	0xbd25995a	-0.04042945
160	0xbc0887e6	-0.008333182
161	0x3d3d214d	0.046174336
162	0x3d821fa6	0.06353693
163	0x3c80232e	0.015641775
164	0x3da3549f	0.079751246
165	0xbb2065c0	-0.002447471
166	0xbd70d3de	-0.058795802
167	0x3d876e36	0.06612818
168	0x3ca73b3e	0.020413991
169	0xbc7f18e8	-0.015569903
170	0xbdae615d	-0.08514664
171	0xbd8247ed	-0.06361375
172	0xbca634e9	-0.020288901
173	0x3dac7754	0.084211975
174	0x3d95fdc4	0.073237926
175	0x3d929ea4	0.071591645
176	0x3d4608eb	0.04834835
177	0x3d89309a	0.06698723
178	0x3d7b538e	0.06135898
179	0x3d0758e6	0.033043765
180	0x3d616a85	0.055033226
181	0xbcb91e18	-0.022597358
182	0x3d105e25	0.035246033
183	0x3c59e38e	0.013298882
184	0x3c216ba9	0.009852328
185	0x3b9a30b2	0.004705512
186	0x3d80cfa2	0.06289603
187	0x3d679da4	0.056546822
188	0x3d43ba6f	0.04778522
189	0x3d0f8c24	0.035045758
190	0xbd1c6d53	-0.038190197
191	0xbcb42b5f	-0.021993337
192	0xbd74df9d	-0.059783567
193	0x3d3c851a	0.046025373
194	0x3d0bfa3c	0.03417419
195	0xbdb0a25b	-0.08624717
196	0x3c72393a	0.014784152
197	0x3d984ff3	0.07437124
198	0x3baff803	0.0053701415
199	0xbcd9e4f9	-0.02659844
200	0xbd92f5e2	-0.07175805
201	0xbcb12d99	-0.021628188
202	0x3c62b3ea	0.01383684
203	0x3d9faf83	0.07797148
204	0xbbb0dd17	-0.0053974497
205	0xbd48840b	-0.04895405
206	0xbdaf31fd	-0.085544564
207	0xbd37620d	-0.044771243
208	0x3d920f67	0.07131844
209	0x3c6efdaa	0.014586845
210	0x3d69dbc3	0.057094347
211	0xbc3304f5	-0.010926475
212	0xbd435376	-0.047687016
213	0xbd4337a4	-0.047660485
214	0xbcf4b05c	-0.029869251
215	0x3cf3d37a	0.029763926
216	0x3d0e3723	0.03472055
217	0x3d44d019	0.04805002
218	0xbd9397ba	-0.07206674
219	0x3d703e32	0.058653064
220	0x3b2d54a9	0.0026448166
221	0x3da8f4b7	0.08249801
222	0x3ced003e	0.02893078
223	0xbd8d0216	-0.068851635
224	0x3d86c37f	0.06580257
225	0xbd94e362	-0.07269932
226	0x3d8f7fa8	0.0700677
227	0xbcd4ba7a	-0.025967825
228	0xbd97ddb9	-0.07415337
229	0x3da49e52	0.0803801
230	0x3d0000c4	0.03125073
231	0xbd92c2f8	-0.071660936
232	0xbd863c43	-0.06554463
233	0xbd646e46	-0.055769227
234	0x3d60f4aa	0.05492083
235	0xbd300d73	-0.042981576
236	0x3d6239b8	0.055230826
237	0x3d4cbad3	0.049982857
238	0x3d83a64b	0.06428202
239	0xbd5af741	-0.053458456
240	0x3c1b0ccf	0.009463503
241	0x3d593c49	0.053036008
242	0x3c109172	0.008823739
243	0xbd65d11d	-0.05610763
244	0xbceb27fe	-0.028705593
245	0xbd8d35ce	-0.06895028
246	0x3c8c36ae	0.017115917
247	0xbd9f8d5a	-0.077906325
248	0xbd23f805	-0.04003145
249	0x3d42bdd9	0.047544334
250	0x3d00e0b4	0.031464294
251	0x3ceaba43	0.02865327
252	0xbc66de6a	-0.014091114
253	0x3bcdf02f	0.0062847356
254	0x3d90fa02	0.07078935
255	0x3c363e65	0.011123274

lstm.bias_ih_l0 f4 [512]
0	0xbe04c318	-0.12965047
1	0xbaa7357d	-0.001275703
2	0x3d804f12	0.062650815
3	0xbd908c42	-0.07058002
4	0x3bb5e335	0.005550767
5	0x3c8f5cec	0.017500363
6	0x3cff3dca	0.031157393
7	0x3cf099ac	0.029370151
8	0xbd79ffd9	-0.06103501
9	0xbdfe1d91	-0.12407983
10	0x3cd45e4b	0.025923869
11	0xbda74d62	-0.081690565
12	0x3d5a8a94	0.053354815
13	0xbd50d511	-0.050984446
14	0xbc5e3602	-0.013562681
15	0xbd85b32f	-0.06528317
16	0x3d27b3df	0.040943023
17	0x3d6c58af	0.057701763
18	0xbd59308e	-0.05302482
19	0xbaad8564	-0.0013238606
20	0x3d26675d	0.04062592
21	0x3bfcf920	0.0077201277
22	0xbd81f227	-0.06345015
23	0xbea16b14	-0.31527007
24	0xbdab5894	-0.08366504
25	0x3da91b53	0.08257165
26	0xbe548fa2	-0.20757917
27	0xbe2a948f	-0.16658233
28	0xbd25b00a	-0.040451087
29	0x3d904036	0.07043497
30	0xbcfa39d0	-0.030545145
31	0xbd8aab70	-0.0677098
32	0xbd818bda	-0.06325503
33	0x3d5797d9	0.052635048
34	0xbe376353	-0.17908983
35	0xbe082627	-0.13295804
36	0x3bc93e3f	0.0061414535
37	0x3d7f699f	0.062356587
38	0xbd342d9b	-0.043988805
39	0xbdfd4fb4	-0.12368718
40	0xbdfe15d3	-0.124065064
41	0xbe119a89	-0.14219107
42	0xbc0177ef	-0.00790213
43	0xbd1adb9e	-0.0378071
44	0x3b808ee9	0.003923286
45	0xbdf38f28	-0.11892539
46	0xbe016bab	-0.12638728
47	0xbe00e00c	-0.12585467
48	0x3c305a90	0.010763779
49	0xbd536ca4	-0.05161728
50	0xbe3e85dd	-0.18605752
51	0xbdce956d	-0.100870945
52	0x3d0d6c41	0.034527067
53	0xbc4a0d34	-0.012332249
54	0xbc250da7	-0.010074056
55	0x3d8b6b9c	0.06807634
56	0xbddf30a8	-0.10897952
57	0x3dc3eab9	0.09566254
58	0x3d90b280	0.07065296
59	0xbccb541a	-0.024820376
60	0xbd831865	-0.06401137
61	0xbd977ba8	-0.073966324
62	0x3d9be88b	0.076127134
63	0xbe11bf9b	-0.14233248
64	0xbd02dd18	-0.031949133
65	0xbe18c8fc	-0.1492042
66	0xbd9e7f63	-0.07739141
67	0xbd06a2fa	-0.03287027
68	0xbe216b5b	-0.15763609
69	0xbdff0fc0	-0.12454176
70	0xbcee9889	-0.029125469
71	0xbe419510	-0.18904519
72	0xbcf710ea	-0.030159432
73	0x3d835c2d	0.064140655
74	0xbd328b1d	-0.0435897
75	0x3c7d5284	0.015461568
76	0xbd9f9692	-0.07792391
77	0x3c160ad2	0.009157853
78	0x3bf0c31b	0.007347477
79	0xbd37531d	-0.044756997
80	0x3c71089e	0.014711527
81	0xbdd6c557	-0.10486858
82	0xbf65299c	-0.89516616
83	0xbdb5352d	-0.08848033
84	0xbd9f3afc	-0.07774922
85	0x3cd5e670	0.026110858
86	0xbdcdb080	-0.1004343
87	0xbe33754d	-0.17525215
88	0xbddf2263	-0.108952306
89	0xbdf07b53	-0.11742272
90	0x3cda9676	0.026683073
91	0xbe0d7a0e	-0.13816091
92	0xbdfdca99	-0.12392158
93	0xbddf2f15	-0.10897652
94	0xbddbd4e8	-0.10733968
95	0xbdaa99b6	-0.08330099
96	0xbd9de9e0	-0.07710624
97	0x3dc77650	0.09739363
98	0x3ca4fd1f	0.020140229
99	0x3d500d77	0.05079409
100	0x3d6e25a9	0.058141384
101	0xbe852b6c	-0.2600969
102	0xbdd1013f	-0.10205316
103	0x3c5edd63	0.013602587
104	0xbd07c27c	-0.03314446
105	0xbd74c123	-0.059754502
106	0xbd3c428d	-0.045961905
107	0xbc80ea65	-0.015736768
108	0xbdba1e39	-0.09087796
109	0xbcb9bd65	-0.022673318
110	0x3d968e70	0.073513865
111	0xbd71f3b0	-0.05907029
112	0x3d0e1501	0.034688
113	0xbeff82c2	-0.49904448
114	0xbd761063	-0.06007422
115	0xbd478656	-0.048712097
116	0x3c803e4e	0.01565471
117	0xbe138cdb	-0.14409201
118	0xbda0d248	-0.07852608
119	0xbe1641da	-0.14673558
120	0xbdef650e	-0.116891965
121	0xbde46e28	-0.11153823
122	0xbba021dc	-0.004886849
123	0x3dad4270	0.084599376
124	0xbc8da8d1	-0.017292412
125	0xbcbba8c0	-0.022907615
126	0xbd1a2ada	-0.037638523
127	0x3d74f027	0.05979934
128	0x3d086702	0.03330136
129	0xbd68887c	-0.056770787
130	0x3b3aa434	0.002847922
131	0x3d9d19e3	0.07670953
132	0xbd308ae3	-0.043101203
133	0x3d0bb477	0.03410765
134	0x3bf41f03	0.007449986
135	0xbc43e744	-0.0119569935
136	0x3d92df37	0.07171481
137	0x3d3cf811	0.046135012
138	0xbd89d18c	-0.06729421
139	0xbcf970b5	-0.03044925
140	0x3dfd4c2f	0.123680465
141	0x3d8def0b	0.069303595
142	0x3da6341e	0.08115409
143	0xbd04827d	-0.032351006
144	0x394e1f6c	0.00019657396
145	0x3e12c50d	0.14332981
146	0xbd60d7d9	-0.05489335
147	0xbd91896c	-0.07106289
148	0x3d121ed5	0.035673935
149	0x3d4ee7ae	0.050513916
150	0x3e068480	0.13136482
151	0x3ea51e01	0.32249454
152	0x3db9a01d	0.09063742
153	0x3ca6b768	0.020351127
154	0x3e8edd92	0.2790342
155	0x3e5d2f2f	0.2160003
156	0x3da0d7f8	0.07853693
157	0x3d3b538f	0.045733985
158	0x3dd0d3e4	0.10196665
159	0xbcb4dc01	-0.022077562
160	0x3de130ed	0.1099566
161	0x3c8c1510	0.017099887
162	0x3d88bba4	0.066764146
163	0xbd289956	-0.041161858
164	0xbd5c6f08	-0.053816825
165	0x3db5593d	0.088549115
166	0x3cd58606	0.026064884
167	0xbaf8b117	-0.0018973675
168	0xbc98f5ab	-0.018671831
169	0xbcb597b9	-0.022167074
170	0x3cb766c2	0.022387866
171	0x3c1722e2	0.009224625
172	0xba3fdd5b	-0.00073190563
173	0x3d9f6feb	0.077850185
174	0x3e130bc2	0.14359954
175	0x3d7598db	0.059960227
176	0xbd61ed0d	-0.05515771
177	0xbc8f04d4	-0.017458357
178	0x3e5475b9	0.20748033
179	0xbd0aab5c	-0.033854827
180	0x3dac9971	0.08427704
181	0xbadd6ec2	-0.001689397
182	0x3dad72fb	0.084691964
183	0x3d624f9d	0.055251706
184	0x3d937b64	0.07201269
185	0x3d853523	0.06504276
186	0x3dab19bf	0.0835452
187	0xbd17a676	-0.037023984
188	0xbd8aaf23	-0.06771686
189	0xbce41c12	-0.027845416
190	0x3d2107c9	0.039314065
191	0xbd30a00b	-0.04312138
192	0x3e0e8d05	0.13920982
193	0x3e308233	0.17237167
194	0x3e42320f	0.18964408
195	0xbd715af2	-0.058924623
196	0x3e042bf4	0.12907392
197	0x3e289a59	0.16465129
198	0x3d846249	0.06464059
199	0xbd6b0013	-0.057373118
200	0xbd81b41a	-0.0633318
201	0xbbe91b3e	-0.007113843
202	0x3e4558f1	0.1927221
203	0x3d80626c	0.062687725
204	0x3d817e98	0.06322974
205	0x3d94e25e	0.072697386
206	0x376e68ff	1.4210352e-05
207	0x3d602261	0.054720286
208	0x3df0332c	0.1172851
209	0xbd93b010	-0.07211316
210	0x3fc3f1f6	1.5308216
211	0xbd14a96e	-0.036294393
212	0xbc2a060a	-0.010377416
213	0xbd9eb74a	-0.07749803
214	0xbd44ed25	-0.04807772
215	0x3c921262	0.017831031
216	0x3d6d6538	0.057957858
217	0xbc653dde	-0.013991801
218	0x3db50576	0.08838932
219	0xbd03cd42	-0.03217817
220	0x3dd1cb93	0.10243907
221	0xbab2364c	-0.0013596504
222	0xbca47899	-0.020077037
223	0xbd99004b	-0.07470759
224	0x3e118391	0.14210345
225	0x3e6a8ad4	0.22904521
226	0x3bbd46de	0.0057762703
227	0x3df47e01	0.11938096
228	0xbd413903	-0.04717351
229	0x3e2346a3	0.15944915
230	0xbbe2e48a	-0.0069242166
231	0x3d334a2d	0.04377191
232	0x3dda489f	0.106583826
233	0x3da83c8c	0.082146734
234	0xbda6e1c3	-0.081485294
235	0x3dc55baa	0.09636624
236	0x3e3b03b8	0.18263137
237	0xbc9ee853	-0.01939789
238	0xbd11f56d	-0.035634447
239	0x3e070deb	0.13188903
240	0x3d0a9b70	0.033839643
241	0x3ecd5a3c	0.40107906
242	0x3d2b23da	0.041782238
243	0x3df3506f	0.11880576
244	0x3da86e9e	0.082242236
245	0x3d0e3332	0.034716792
246	0xbbf765ec	-0.007549992
247	0x3e33c2bb	0.17554753
248	0x3ed70458	0.41995502
249	0xbcd7cfe3	-0.026344245
250	0xbd41eb58	-0.047343582
251	0xbd09fb35	-0.033686835
252	0x3dbbd400	0.09171295
253	0xbba1f280	-0.0049422383
254	0x3d5ae7de	0.053443782
255	0x39b1453c	0.00033811654

lstm.bias_hh_l0 f4 [512]
0	0xbd9f2c89	-0.07772166
1	0x3d916151	0.0709864
2	0x3d8d93d8	0.069129646
3	0xbb8b0a8e	-0.0042432016
4	0x3c00c0db	0.00785848
5	0xbdbd0c11	-0.09230817
6	0x3c6a8a38	0.0143151805
7	0x3c9a96a3	0.018870657
8	0xbd8f037e	-0.06983088
9	0xbbb12910	-0.0054065064
10	0xbdb536f2	-0.088483706
11	0xbdce2f38	-0.100676
12	0x3d372314	0.044711187
13	0x3d015172	0.031571813
14	0xbe2e0169	-0.16992725
15	0xbd693d69	-0.05694333
16	0x3d6c24e5	0.057652373
17	0xbc8f3ddc	-0.017485552
18	0xbc4065da	-0.011743033
19	0x3d46f737	0.048575606
20	0x3d3739c1	0.044732813
21	0xbdbe102c	-0.09280428
22	0xbd9977d5	-0.07493559
23	0xbe48bc01	-0.19602968
24	0xbd6fff76	-0.058593236
25	0xbc585fb3	-0.01320641
26	0xbe32920b	-0.17438523
27	0xbe3ed6d8	-0.18636644
28	0xbe13101b	-0.14361612
29	0x3d5a9696	0.053366266
30	0xbdf5b57c	-0.11997506
31	0x3d6859db	0.056726318
32	0x3cfb2504	0.030657299
33	0xbdb8bd19	-0.090204425
34	0xbdd5c6f1	-0.10438336
35	0xbdc48bb6	-0.0959696
36	0x3bb1babf	0.005423873
37	0xbc23c687	-0.009996063
38	0xbd8fa903	-0.07014658
39	0xbe392e32	-0.18084028
40	0xbe1c3464	-0.1525436
41	0xbc07d23b	-0.008289869
42	0xbd7a839c	-0.06116067
43	0xbdc70532	-0.09717788
44	0xbdeff87a	-0.11717315
45	0x3cf3be29	0.029753761
46	0xbdad98f2	-0.08476438
47	0xbe1aa39a	-0.15101472
48	0x3d0b9b75	0.034083802
49	0xbdc21c3f	-0.09478044
50	0xbdb02caf	-0.08602273
51	0xbd723e64	-0.05914153
52	0xbd8fb6ca	-0.07017286
53	0xbbd681a7	-0.0065462175
54	0xbde3bbcd	-0.111198045
55	0x3d988d05	0.07448772
56	0xbd8da527	-0.06916266
57	0x3d0f5ef3	0.03500266
58	0xbd20d93d	-0.039269675
59	0x3d8c9c0c	0.06865701
60	0x3c212180	0.009834647
61	0x3c3da421	0.011574776
62	0xbcd4e9ba	-0.025990356
63	0xbe2cd9b5	-0.16879924
64	0xbd93e1f3	-0.07220831
65	0xbe6cd61c	-0.23128551
66	0xbdc7a59f	-0.097483866
67	0xbd43ec1e	-0.0478326
68	0xbdcc16d9	-0.09965295
69	0xbe4ed7d1	-0.20199515
70	0xbc2f49c2	-0.010698738
71	0xbd2bd0c5	-0.041947145
72	0x3d327fe9	0.043579016
73	0xbdb9408e	-0.09045516
74	0x3daabb48	0.08336502
75	0x3d4202c0	0.047365904
76	0xbd445132	-0.047928996
77	0xbcc39203	-0.023873335
78	0xbcd9e1b7	-0.026596887
79	0xbe1388c1	-0.14407636
80	0xbd3dc007	-0.04632571
81	0xbc3b0c0a	-0.011416445
82	0xbf83c738	-1.0295172
83	0xbd82d6e8	-0.06388646
84	0x3c1cb5eb	0.009564857
85	0xbcf41fc8	-0.02980031
86	0x3c8e0265	0.017335126
87	0xbe24eb00	-0.1610527
88	0xbd65d71b	-0.056113344
89	0xbd71c2bf	-0.059023615
90	0x3ccd2ee2	0.02504677
91	0xbdbaa76d	-0.09113965
92	0xbe1c1c6e	-0.1524522
93	0xbc920a85	-0.017827282
94	0x3cbebf1c	0.023284487
95	0xbdee20e7	-0.116273694
96	0xbd5eb326	-0.054370068
97	0xbd9924ad	-0.074776985
98	0x3cc6152a	0.024180014
99	0xbd1ec2e3	-0.038760077
100	0xbd94d8eb	-0.07267936
101	0xbe7106d0	-0.23537755
102	0xbdc9f15c	-0.09860489
103	0x3c1b03e1	0.009461374
104	0xbc11bfc3	-0.008895817
105	0xbd878e84	-0.066189796
106	0x3d92061d	0.07130072
107	0x3d38fa22	0.04516042
108	0xbe057130	-0.13031459
109	0xbd9c755e	-0.076395735
110	0x3b84ff35	0.0040587434
111	0xbe43ae74	-0.19109517
112	0xbc1a34da	-0.009412015
113	0xbee82c02	-0.45346075
114	0xbde17ec0	-0.11010504
115	0xbd7cda7f	-0.06173181
116	0xbbdaaa88	-0.006673161
117	0xbe18d083	-0.14923291
118	0xbd028049	-0.031860624
119	0xbd9d7aa5	-0.07689408
120	0xbe7128b1	-0.23550679
121	0xbd842e68	-0.06454164
122	0xbd3ac535	-0.045598228
123	0x3d514635	0.051092345
124	0x3d390101	0.045166973
125	0xbd666879	-0.056251977
126	0x3be34c2a	0.0069365697
127	0x3d0882cb	0.03332786
128	0x3de5a8d9	0.11213846
129	0xbd153277	-0.03642508
130	0xbcb1e6f3	-0.02171657
131	0xbd5fc7e9	-0.05463401
132	0x3d9abbf4	0.075553805
133	0x3dc0a572	0.09406556
134	0x3c908145	0.017639766
135	0x3db6a2f1	0.08917797
136	0x3dafd6c3	0.085858844
137	0x3d9949fc	0.074848145
138	0x3c22b386	0.009930497
139	0x3d402834	0.04691334
140	0x3dd617ca	0.10453756
141	0x3dac1dbd	0.084041096
142	0x3dd8acef	0.105798595
143	0x3dd0c0ae	0.10193001
144	0x3bdb1b66	0.0066866158
145	0x3e5ff9b5	0.218726
146	0x3dcea388	0.10089785
147	0xbcebaee7	-0.028769923
148	0xbd080f23	-0.03321756
149	0xbcb748d3	-0.022373592
150	0x3d928f7a	0.07156272
151	0x3ed01c0f	0.40646407
152	0x3d65f9fd	0.05614661
153	0xbd8216c5	-0.06351999
154	0x3e67b828	0.22628844
155	0x3e6001cf	0.2187569
156	0xbb8d3a37	-0.0043099183
157	0xbcf91944	-0.030407555
158	0xbcfd9faf	-0.030959932
159	0x3ddbc788	0.10731417
160	0x3d88bb00	0.066762924
161	0x3d82ed21	0.06392885
162	0x3e0e0cc9	0.13872065
163	0x3dcfd376	0.10147755
164	0xbd09e16d	-0.03366225
165	0x3c9c4dd5	0.019080082
166	0x3bbc5b62	0.0057481984
167	0xbd13fb9c	-0.036128625
168	0x3ca8e3c9	0.020616429
169	0x3d83ab34	0.06429139
170	0x3d3286d5	0.043585617
171	0xbc7ff86a	-0.015623191
172	0x3d421227	0.047380593
173	0x3d569544	0.052388445
174	0x3df8c8ff	0.12147712
175	0x3d6161e6	0.055025004
176	0xbcd870d0	-0.02642098
177	0x3d322c5b	0.043499332
178	0x3e7cd70b	0.24691407
179	0xbd4bfd3b	-0.049802046
180	0x3d47f2d7	0.048815574
181	0x3dc228c3	0.09480431
182	0xbd130c52	-0.03590042
183	0x3b96fbd1	0.0046076556
184	0xbd327713	-0.04357059
185	0xbc92fd22	-0.017942969
186	0xbd4f5021	-0.050613526
187	0x3c8c1714	0.017100848
188	0xbc1f2ea3	-0.009715709
189	0x3c91b448	0.01778616
190	0x3db92054	0.09039369
191	0x3b694a83	0.003559739
192	0x3ded7ddd	0.11596272
193	0x3cf9c932	0.030491445
194	0x3df63a04	0.12022784
195	0x3d852235	0.06500665
196	0x3e236450	0.15956235
197	0x3e772b0d	0.24137516
198	0xbd5ecc21	-0.05439389
199	0x3d590876	0.052986585
200	0xbccc0083	-0.024902588
201	0x3d55a6f5	0.052161176
202	0x3e23d221	0.15998127
203	0x3caf821c	0.021424346
204	0xbb06cf7b	-0.0020570445
205	0xbce766ee	-0.028247323
206	0x3ded9068	0.11599809
207	0xbd15d2dd	-0.036578048
208	0x3e1be22f	0.15223001
209	0x3d1f93dc	0.03895937
210	0x3fc3c5f8	1.529479
211	0x3be626b9	0.007023659
212	0xbd13ce1b	-0.03608523
213	0x3b5196fa	0.0031980858
214	0xbda789de	-0.08180593
215	0xbc619d9e	-0.013770489
216	0x3c62fe46	0.013854569
217	0x3c720e1f	0.014773875
218	0x3db0d6b9	0.08634705
219	0xbb7c64c1	-0.0038512202
220	0x3e027047	0.12738143
221	0xbd6f63a5	-0.058444638
222	0x3d097615	0.033559877
223	0xbd663104	-0.05619909
224	0x3ca7a7c4	0.02046574
225	0x3e7fe698	0.24990308
226	0xbc5e357c	-0.013562556
227	0x3dc7f28c	0.09763059
228	0x3dc5a464	0.09650496
229	0x3e450d26	0.19243297
230	0xbdaafbef	-0.08348834
231	0x3af37710	0.0018574912
232	0x3d5c3ff9	0.053771947
233	0xbc952396	-0.018205445
234	0x3ce8f927	0.028439118
235	0xbb5f64ad	-0.0034087107
236	0x3e06da9d	0.13169332
237	0x3dc7a05d	0.09747384
238	0x3d4c03b9	0.049808238
239	0x3c1ffcab	0.009764831
240	0x3d42d03b	0.047561865
241	0x3ee3f938	0.44526076
242	0x3d584422	0.05279935
243	0x3de7974f	0.11308157
244	0xbcb5c5ff	-0.022189138
245	0x3df42f3f	0.11923074
246	0xbc4531f4	-0.0120358355
247	0x3c60e237	0.013725809
248	0x3ee7e283	0.45290002
249	0x3d4f3055	0.050583202
250	0xbd752b61	-0.059855822
251	0xbd0b5490	-0.034016192
252	0x3d65d40a	0.05611042
253	0xbd2af3f0	-0.041736543
254	0xbcb743b9	-0.02237116
255	0x3c33856c	0.010957103

pitch_linear.weight f4 [128, 128]
0	0xbe8082e4	-0.25099862
1	0x3df29501	0.118448265
2	0x3c54b55f	0.012982695
3	0x3db4c2f5	0.088262476
4	0x3d4b9747	0.049704816
5	0x3e8029e6	0.25031966
6	0x3b34a3d3	0.0027563467
7	0x3e87686b	0.26446852
8	0x3ec05d5d	0.3757123
9	0x3d8e07f2	0.06935109
10	0xbd81aee5	-0.063321866
11	0x3c571428	0.013127364
12	0xbe6fcf84	-0.23419005
13	0xbe14a65e	-0.14516589
14	0xbcb5a479	-0.022173153
15	0xbaccf68e	-0.0015637444
16	0x3c3b662e	0.011437936
17	0xbe86a885	-0.26300445
18	0xbe17b967	-0.14816819
19	0x3d8c0934	0.06837693
20	0x3e8d841c	0.27639854
21	0xbe8063b9	-0.25076082
22	0x3e163321	0.14667942
23	0xbe73e590	-0.2381804
24	0x3c571777	0.013128153
25	0x3d8ec7f2	0.0697173
26	0x3e8ccfe9	0.27502373
27	0xbe9caab0	-0.30598974
28	0xbe8249a2	-0.25446802
29	0xbc70a099	-0.014686727
30	0xbc94c78e	-0.018161561
31	0xbd9564f9	-0.0729465
32	0xbd98e051	-0.0746466
33	0x3d80000a	0.062500075
34	0x3ebbeee2	0.3670569
35	0x3db1019c	0.08642885
36	0xbb0f8ec6	-0.0021905168
37	0x3de8a9da	0.113605216
38	0xbe363daa	-0.1779696
39	0xbe81a2e7	-0.25319597
40	0x3a3fe05b	0.00073195033
41	0xbe331024	-0.17486626
42	0x3d5e90dd	0.05433737
43	0x3c3fe659	0.011712634
44	0xbe3beb4b	-0.18351476
45	0x3d4200ab	0.04736392
46	0x3e25cf8d	0.16192456
47	0xbe9e2de4	-0.30894387
48	0x3c767a36	0.015043786
49	0xbc900ccb	-0.017584225
50	0xbedbfa1f	-0.42964265
51	0x3d0ef3ed	0.034900595
52	0x3d80f461	0.062966116
53	0xbcfac613	-0.030612027
54	0xbd17a156	-0.037019096
55	0x3bc37e51	0.005965986
56	0x3d0ed94e	0.034875207
57	0x3d31efb2	0.043441482
58	0xbe22d553	-0.15901689
59	0xbd38151e	-0.044942014
60	0xbcec5df2	-0.02885339
61	0x3d2721eb	0.04080383
62	0x3cacdc9e	0.021101292
63	0x3e1aae2b	0.15105502
64	0xbe803656	-0.25041455
65	0x3e99a7f6	0.30010957
66	0x3e7ee30d	0.248913
67	0x3c10cfd7	0.008838615
68	0xbecefdfa	-0.40428144
69	0x3e85b883	0.26117334
70	0x3d0f2def	0.034955915
71	0xbe325542	-0.17415336
72	0x3bf95698	0.0076091997
73	0xbd8d7083	-0.069062255
74	0xbe2820c1	-0.16418745
75	0x3deb16bd	0.11478946
76	0xbeb82a53	-0.3596979
77	0x3dce192e	0.100633964
78	0x3e238d6b	0.15971915
79	0x3e91248c	0.28348196
80	0xbea26350	-0.31716394
81	0xbd1887e3	-0.037238967
82	0x3ecd3447	0.40078947
83	0xbca4fb72	-0.02013943
84	0xbdb8e118	-0.09027308
85	0xbddc422a	-0.10754807
86	0x3db7882d	0.0896152
87	0xbe394de7	-0.18096124
88	0xbdfc4bb7	-0.12319129
89	0x3ccf41c9	0.025299923
90	0x3d4da0d2	0.0502022
91	0xbc87aafa	-0.01656102
92	0x3e4f865c	0.20266098
93	0xbd54d34c	-0.05195932
94	0x3e597e4d	0.21239586
95	0x3e2ad194	0.1668151
96	0x3e87fa58	0.26558185
97	0xbec2e128	-0.38062406
98	0x3de326ae	0.11091362
99	0x3e5234a5	0.20527895
100	0xbe596afe	-0.2123222
101	0xbe7e2a73	-0.2482088
102	0xbdb844fe	-0.08997534
103	0x3e3a9a45	0.18222912
104	0xbec23c16	-0.37936467
105	0xbd6cc50f	-0.057805117
106	0x3dd8b6dc	0.10581753
107	0x3e11f988	0.14255345
108	0x3e800000	0.25
109	0xbe11b5bf	-0.14229487
110	0x3df52878	0.119706094
111	0xbe01d6b7	-0.12679563
112	0xbdb4ad33	-0.08822098
113	0xbea3e003	-0.32006845
114	0xbdbee77e	-0.093214974
115	0x3e8027eb	0.25030455
116	0x3e38c0e3	0.1804233
117	0xbdb42e9e	-0.08797954
118	0x3e2f6fb0	0.17132449
119	0xbe1cdd1b	-0.1531872
120	0xbcd196f9	-0.025584685
121	0xbc32cbc4	-0.010912839
122	0x3e2e7834	0.17038041
123	0xbe0fec8e	-0.14055082
124	0x3d7b18f1	0.061303083
125	0x3dd1fd67	0.10253411
126	0xbd5d6c9b	-0.054058652
127	0x3d9c2d25	0.07625798
128	0xbe2bcab6	-0.16776547
129	0x3e40ba72	0.18821123
130	0x3d395c75	0.04525419
131	0x3d9c43eb	0.07630142
132	0x3de3495f	0.11097979
133	0x3ded9885	0.116013564
134	0x3d9003d1	0.07031978
135	0x3e606b7b	0.21916
136	0x3ec24464	0.37942803
137	0x3de59a64	0.11211088
138	0x3b42513c	0.002965047
139	0x3d4b90da	0.049698688
140	0xbe027315	-0.12739213
141	0xbe073f40	-0.13207722
142	0x3d03cf40	0.03218007
143	0xbdca66fc	-0.09882924
144	0xb9da71ee	-0.00041665084
145	0xbe804731	-0.25054315
146	0xbddbb5bf	-0.10728025
147	0x3e004e03	0.12529759
148	0x3e831eec	0.2560953
149	0xbe653a44	-0.22385508
150	0x3e16bf39	0.14721383
151	0xbe3fc44e	-0.18727228
152	0xbd022f22	-0.03178323
153	0x3e047fc3	0.12939362
154	0x3e4edee9	0.20202221
155	0xbec31d74	-0.38108408
156	0xbe0cf327	-0.1376463
157	0x3c9faec7	0.01949252
158	0xbdd86329	-0.10565788
159	0xbe02a2e2	-0.12757447
160	0xbae7c232	-0.0017681776
161	0x3965ac12	0.00021903243
162	0x3ec2a8a9	0.38019302
163	0x3d1ad80b	0.03780369
164	0x3d231092	0.039810725
165	0x3dee4d92	0.11635889
166	0xbe6a51d0	-0.22882771
167	0xbe06b4a8	-0.13154852
168	0xbd9c8932	-0.076433554
169	0xbda762d9	-0.081731506
170	0x3d3aa9c1	0.045572046
171	0x3e29dbe1	0.16587783
172	0xbe8069f7	-0.25080845
173	0x3db81ddf	0.089900725
174	0x3e231b35	0.15928347
175	0xbea9d37c	-0.33169162
176	0xbba56b78	-0.0050482117
177	0x3db51cc8	0.0884338
178	0xbeaddb08	-0.3395617
179	0x3d6751dc	0.05647455
180	0xbcab7f4e	-0.020934727
181	0xbe1925de	-0.14955851
182	0xbd030285	-0.031984825
183	0xbd8f5fa7	-0.07000666
184	0x3d968d62	0.073511854
185	0x3d9bc701	0.07606316
186	0xbd6f1723	-0.058371674
187	0xbe5d94a5	-0.21638735
188	0x3dd147e1	0.10218788
189	0x3d7f089b	0.062264066
190	0x3d12f722	0.035880215
191	0x3e81a85c	0.2532376
192	0xbe803d5e	-0.2504682
193	0x3e1b08ac	0.15140027
194	0x3e038e41	0.12847234
195	0x3e0cb5ee	0.13741276
196	0xbea53150	-0.32264185
197	0x3ea8266f	0.32841823
198	0xbd800bc5	-0.06252245
199	0xbe0d915d	-0.13824983
200	0xbdecd8fc	-0.11564824
201	0xbde8f588	-0.11374956
202	0xbe59fc9a	-0.21287766
203	0xbcd899a5	-0.02644045
204	0xbe7d4395	-0.24732812
205	0xbd1b9cc0	-0.037991285
206	0x3cec56f9	0.028850066
207	0x3e853569	0.2601731
208	0xbe6de33f	-0.23231219
209	0x3dea7d61	0.114496954
210	0x3e8da211	0.2766271
211	0x3d338bae	0.04383438
212	0xbd05b2e7	-0.032641318
213	0x39ed562b	0.00045268363
214	0x3e1dbd78	0.15404308
215	0xbe4c7a23	-0.19968466
216	0xbd31748e	-0.043324046
217	0xbc64a40f	-0.01395513
218	0x3ddfe8fe	0.109331116
219	0xbd5d0507	-0.053959873
220	0x3e1ca7ab	0.15298335
221	0xbd934a48	-0.071919024
222	0x3e5bcc8a	0.21464744
223	0x3e580102	0.21094134
224	0x3e99ac50	0.30014277
225	0xbeb65575	-0.35612074
226	0x3dc7b45d	0.097511984
227	0x3eb330f6	0.34998292
228	0xbe3eb603	-0.1862412
229	0xbe90291d	-0.28156367
230	0x3d65f5e2	0.056142695
231	0x3e1d38b4	0.15353662
232	0xbeb9341c	-0.3617257
233	0xbd4abb77	-0.049495187
234	0x3e142e05	0.1447068
235	0x3d3759ab	0.04476325
236	0x3e84c102	0.25928503
237	0xbe685c71	-0.22691514
238	0x3dad14c9	0.0845123
239	0xbd23bf1f	-0.03997719
240	0x3d1b204e	0.037872605
241	0xbe1fc228	-0.15601408
242	0xbe00812f	-0.1254928
243	0x3e6f879d	0.23391576
244	0x3e3c8e8d	0.18413754
245	0xbd8e6dd8	-0.06954545
246	0x3e833443	0.2562581
247	0xbe4ba182	-0.19885829
248	0xbe1f2878	-0.15542781
249	0xbe297f08	-0.16552365
250	0x3e15f654	0.14644748
251	0xbd08e514	-0.03342159
252	0x3df30c76	0.11867611
253	0x3e090e67	0.133844
254	0xbcbe5949	-0.023235934
255	0x3e27350d	0.16328831

pitch_linear.bias f4 [128]
0	0xbfa8723d	-1.3159863
1	0xbfb6b70f	-1.4274615
2	0xbfaed096	-1.3657405
3	0xbfb44182	-1.4082491
4	0xbfb90c59	-1.4456893
5	0xbfb9e514	-1.4523034
6	0xbfb644cd	-1.4239746
7	0xbfaf195b	-1.3679613
8	0xbfb4fee9	-1.4140292
9	0xbfae21cd	-1.3604065
10	0xbfbdb3a8	-1.4820452
11	0xbfb9d37a	-1.4517663
12	0xbfaf3a83	-1.3689731
13	0xbfb0c8f3	-1.3811325
14	0xbfac09cc	-1.344049
15	0xbfb08294	-1.3789849
16	0xbfaea9a4	-1.364552
17	0xbfb54c8b	-1.4163984
18	0xbfaf8034	-1.3711
19	0xbfb50763	-1.4142879
20	0xbfadf390	-1.3589954
21	0xbfb3e17b	-1.4053186
22	0xbfb3736a	-1.4019597
23	0xbfae117a	-1.3599083
24	0xbfb16c6c	-1.3861213
25	0xbfa9c360	-1.3262749
26	0xbfb01f4c	-1.3759551
27	0xbfb3d972	-1.4050734
28	0xbfab6c07	-1.3392342
29	0xbf96a2ac	-1.1768394
30	0xbf92ce12	-1.1469138
31	0xbf8934be	-1.0719221
32	0xbf7d7fb9	-0.99023014
33	0xbf66a093	-0.90088767
34	0xbf59a5a7	-0.8501839
35	0xbf4ba0dc	-0.79542327
36	0xbecf5aac	-0.40498865
37	0xbef2fe03	-0.4745942
38	0xbed5958c	-0.41715658
39	0xbebb32c0	-0.36562157
40	0xbe6562ac	-0.22400922
41	0x3d9288e3	0.07155015
42	0xbddfd751	-0.1092974
43	0x3ef7be60	0.48387432
44	0x3ee09c19	0.43869093
45	0x3f2d831a	0.6777817
46	0x3f299eac	0.6625774
47	0x3f0c4fd8	0.5480933
48	0x3f9aebb7	1.2103184
49	0x3f6d401c	0.9267595
50	0x3fb096b6	1.3795993
51	0x3fa2efe4	1.2729459
52	0x3fb4357d	1.4078823
53	0x3fce3be9	1.6112033
54	0x3fba06e0	1.4533348
55	0x3fd9ca9b	1.7014955
56	0x3fdbc18d	1.7168442
57	0x3fe98880	1.8244781
58	0x3fe723db	1.8057817
59	0x3fd620ff	1.672882
60	0x3fee1721	1.8600808
61	0x3fe15a7e	1.7605741
62	0x40004c4d	2.004657
63	0x3fe9432f	1.8223628
64	0x3ff3041c	1.8985629
65	0x3fef43df	1.8692588
66	0x3fe53c32	1.7908995
67	0x3ff7c03a	1.9355538
68	0x3fe2c813	1.7717308
69	0x3ff42188	1.9072733
70	0x3fdb6518	1.7140226
71	0x3fd93718	1.6969938
72	0x3fdc2514	1.7198815
73	0x3fd77fff	1.6835936
74	0x3fe1fc74	1.7655168
75	0x3fc173de	1.5113485
76	0x3fb88459	1.4415389
77	0x3fbe53ce	1.4869325
78	0x3f990543	1.1954731
79	0x3fa82488	1.3136148
80	0x3f81b4f1	1.0133344
81	0x3f79c96e	0.9757298
82	0x3f015dff	0.5053405
83	0x3ead34bf	0.33829305
84	0x3ea8bc61	0.32956222
85	0x3bd7ec99	0.006589484
86	0xbd5cc26e	-0.05389636
87	0xbe8f5d21	-0.2800074
88	0xbe997156	-0.2996928
89	0xbee7ad3e	-0.4524936
90	0xbf47025c	-0.77737975
91	0xbf52232f	-0.82084936
92	0xbf7689f9	-0.9630428
93	0xbf836525	-1.0265242
94	0xbf89375f	-1.0720023
95	0xbf94edca	-1.1635067
96	0xbf9baced	-1.2162148
97	0xbfa01f54	-1.250956
98	0xbfa294f5	-1.2701708
99	0xbfa5974c	-1.2936797
100	0xbfabf139	-1.343299
101	0xbfabd403	-1.3424076
102	0xbfb25725	-1.3932844
103	0xbfaf6886	-1.3703773
104	0xbfbb573e	-1.4635999
105	0xbfb3a3a4	-1.4034314
106	0xbfb16592	-1.3859122
107	0xbfb0def4	-1.381804
108	0xbfb9930b	-1.4497999
109	0xbfb33abe	-1.4002302
110	0xbfb075f6	-1.3785999
111	0xbfb0e3ae	-1.3819482
112	0xbfb6025b	-1.4219469
113	0xbfb2ed5e	-1.3978689
114	0xbfbb4939	-1.4631721
115	0xbfbbb8f6	-1.4665821
116	0xbfbca46f	-1.4737681
117	0xbfaf175e	-1.3679006
118	0xbfaeee5a	-1.3666489
119	0xbfaf6966	-1.370404
120	0xbfb51a92	-1.4148734
121	0xbfb7cbde	-1.435909
122	0xbfbb9976	-1.4656208
123	0xbfba2190	-1.4541492
124	0xbfaeb500	-1.3648987
125	0xbfb87e81	-1.4413606
126	0xbfb8da2b	-1.444158
127	0xbfafd8cd	-1.3738037

step_linear.weight f4 [1, 128]
0	0xbc76ed46	-0.015071219
1	0x3c25f8cc	0.010130119
2	0xba6edf1b	-0.0009112225
3	0x3cc8d9d0	0.024517924
4	0x3ba0bba6	0.004905182
5	0xbb9d8755	-0.0048073926
6	0x3be2e2cc	0.006924009
7	0x3c1b2135	0.009468366
8	0x3dec4b00	0.115377426
9	0xbc6e43f7	-0.014542571
10	0xbbecd2f2	-0.007227295
11	0x3c4dc24d	0.012558532
12	0xbc4dbefb	-0.01255774
13	0xbc5a4124	-0.013321195
14	0xbd2b2b3b	-0.041789275
15	0xbbe30ab9	-0.0069287685
16	0xbca3291c	-0.019917063
17	0xbc9a08ab	-0.018802961
18	0x3c10c6d2	0.008836465
19	0xbaf7c7a6	-0.0018904104
20	0x3bbcb701	0.0057591205
21	0xbc7ae424	-0.015313182
22	0x3c4fcadb	0.012682642
23	0x3e105fe6	0.14099082
24	0x3c46b7d4	0.012128789
25	0x3bfdbaeb	0.0077432296
26	0x3c663282	0.014050128
27	0xbd9ebe4e	-0.077511415
28	0xbd73a0ce	-0.059479527
29	0x3b9ebd69	0.004844357
30	0xbcb6096e	-0.022221293
31	0xbcbff86e	-0.02343389
32	0x3b8ae297	0.0042384374
33	0xbc18e4d3	-0.0093319
34	0x3c8f1075	0.017463902
35	0xbbcf49f4	-0.0063259546
36	0xbc50e609	-0.012750157
37	0x3c074ef2	0.008258568
38	0x3cef02aa	0.029176075
39	0xbca56a11	-0.020192178
40	0x3cae92bf	0.021310208
41	0xbc87b3db	-0.016565254
42	0x3ada0413	0.0016633294
43	0xbb298ed3	-0.0025872483
44	0xbcc05300	-0.023477077
45	0x3d890d9e	0.066920504
46	0xbb16cba1	-0.0023009556
47	0xbcdf6188	-0.027268186
48	0xbd08116a	-0.033219732
49	0xbcb1f26e	-0.021722045
50	0xbd8de213	-0.06927886
51	0xba02d92e	-0.0004991469
52	0x3b111711	0.0022138993
53	0xbc0c85f0	-0.008576855
54	0x3b87dbf9	0.004146096
55	0xba81dc08	-0.0009907493
56	0x38a84b24	8.02486e-05
57	0x3c0ebad2	0.008711534
58	0xbd13de0b	-0.03610043
59	0x3c01705a	0.007900322
60	0x3c89f0d1	0.016838463
61	0x3959a78b	0.00020757147
62	0xbc89c9f0	-0.016819924
63	0xbc914821	-0.017734589
64	0xbc06d9a0	-0.008230597
65	0x3da0a1f0	0.07843387
66	0xbab38c4c	-0.0013698428
67	0xbc768367	-0.015045977
68	0xbad0704c	-0.0015902608
69	0x3da64659	0.081188865
70	0xbb306e4b	-0.0026921208
71	0xba21f2b8	-0.00061778305
72	0x3a1794e2	0.0005782378
73	0xbace85b2	-0.0015756397
74	0xbc476821	-0.012170822
75	0x3b31959d	0.0027097233
76	0xbc16cf8e	-0.009204758
77	0x3c37bdc8	0.011214681
78	0xba82893b	-0.0009959111
79	0xbc965bdd	-0.01835435
80	0xbc869162	-0.016426746
81	0xbc128390	-0.0089425
82	0x3e8f5c1e	0.27999967
83	0xba855552	-0.0010172522
84	0xbcafbee4	-0.021453328
85	0x3b8e0d38	0.004335072
86	0x3a34bd6a	0.000689468
87	0x3b3463f4	0.0027525397
88	0xbc82d32a	-0.015969831
89	0xbc525141	-0.012836755
90	0xbc8356ab	-0.016032537
91	0x3c037e8c	0.008025777
92	0x3d3b397b	0.045709115
93	0x3b8718a5	0.004122811
94	0x3c91e895	0.017811099
95	0x3c39373c	0.011304673
96	0xbb6a4225	-0.0035744992
97	0x3c1a2b4d	0.009409738
98	0x3cb3f721	0.021968426
99	0x3c9681e3	0.018372482
100	0xbcf49f0d	-0.029860998
101	0xbd047514	-0.032338217
102	0x3c2ad687	0.010427124
103	0xbb83aee0	-0.0040186495
104	0xbc19649b	-0.009362365
105	0xbc8757b6	-0.016521316
106	0xba99c42a	-0.0011731435
107	0x3a1ec69b	0.0006056816
108	0xbce8a246	-0.02839769
109	0xbc846a70	-0.016164035
110	0x3bb40a3b	0.0054943836
111	0xbd4a3110	-0.049363196
112	0xbb86477f	-0.0040978785
113	0xbe12eff9	-0.14349355
114	0xbc49d844	-0.012319628
115	0xba28ef7f	-0.0006444379
116	0x3ccec529	0.025240498
117	0x3b59d7f3	0.0033240288
118	0x3d26f887	0.040764358
119	0xbcedaf9f	-0.029014407
120	0x3ca0d20e	0.019631412
121	0x3b23ea42	0.0025011455
122	0xba68a583	-0.0008874761
123	0x3bbb49ae	0.0057155704
124	0xbb2d1ca8	-0.0026414786
125	0x3cae09da	0.021244932
126	0xbbab45b7	-0.0052268165
127	0x3b71a7b7	0.0036873647

duration_linear.weight f4 [1, 128]
0	0xbd24c05c	-0.04022251
1	0x3b2727e3	0.0025505952
2	0x3ca8655e	0.020556148
3	0x3b92f109	0.0044843
4	0xbb30bbe7	-0.0026967467
5	0xbdc737e3	-0.097274564
6	0x3dc34708	0.095350325
7	0xbc21794b	-0.009855579
8	0x3e6e7ee6	0.23290595
9	0x3ca5e5de	0.02025121
10	0x3b3305a7	0.0027316601
11	0x3d1b2b42	0.03788305
12	0x3be71190	0.007051654
13	0xbdd16b46	-0.10225539
14	0x3cd48009	0.025939958
15	0x3da68fc5	0.081328906
16	0x3d23f72f	0.040030655
17	0xbd345ae3	-0.04403199
18	0xbd22f3bd	-0.03978323
19	0x3cf05e0b	0.029341718
20	0x3d4c6845	0.049904127
21	0x3da3a9d4	0.079913765
22	0xbe264417	-0.16236912
23	0x3f19d1fc	0.60086036
24	0xbbd49893	-0.006487915
25	0xbd2ab9d4	-0.041681126
26	0x3e4bf81f	0.1991887
27	0xbda508f6	-0.0805835
28	0x3cc2173a	0.023692716
29	0xbbe390f8	-0.006944772
30	0x3d32cb91	0.043651167
31	0x3c8155cf	0.015787987
32	0xbd1e5863	-0.03865851
33	0x3c594e27	0.013263262
34	0x3e28a506	0.16469201
35	0x3d2e0588	0.042485744
36	0xbd827758	-0.06370419
37	0x3d45749f	0.04820692
38	0xbd90e781	-0.07075406
39	0xbdc53322	-0.096288934
40	0x3c6ed4d6	0.014577111
41	0x3d82ee8a	0.06393154
42	0xbd890f5d	-0.066923834
43	0xbd12d7b5	-0.035850246
44	0x3cbbfef5	0.022948721
45	0xbd34991d	-0.044091333
46	0xbb323e4e	-0.002719778
47	0xbd0e7210	-0.034776747
48	0xbdc8e624	-0.09809521
49	0x3dd175a1	0.10227514
50	0x3dc114dc	0.09427807
51	0x3c2fb8cd	0.010725212
52	0x3d369b89	0.044581924
53	0x3d3212ed	0.04347508
54	0xbd5cb9be	-0.053888075
55	0xbd070f54	-0.032973602
56	0x3dbc9f61	0.092100866
57	0xbd40e3e8	-0.04709235
58	0x3d38e27f	0.04513788
59	0x3d1d59d9	0.038415764
60	0xbc545dcb	-0.012961815
61	0x3c515b4c	0.0127781145
62	0xbc92b41d	-0.01790815
63	0x3db79bbc	0.08965251
64	0x3d58cd67	0.052930262
65	0x3de00d0a	0.10939987
66	0x3e49bd18	0.1970104
67	0x3db9486d	0.09047017
68	0x3b0b1c43	0.0021226562
69	0x3db61357	0.088904075
70	0x3c73c972	0.014879571
71	0xbe0a5123	-0.13507514
72	0xbd09cd9d	-0.033643354
73	0xbd75773a	-0.059928156
74	0xbd75b4a6	-0.059986733
75	0x3cfad915	0.03062109
76	0x3a2d5ab0	0.000661294
77	0x3d0d1b96	0.034450136
78	0x3b9848d9	0.004647356
79	0x3df885f0	0.121349216
80	0xbcb71dac	-0.022353016
81	0x3c1da391	0.009621517
82	0x3fa899df	1.3171958
83	0x3d0b7b49	0.03405312
84	0x3d435ecc	0.047697827
85	0x3b5890c1	0.0033045264
86	0x3e01ac28	0.12663329
87	0xbe08b420	-0.13349962
88	0xba010a18	-0.00049224636
89	0x3d2d75b3	0.042348575
90	0x3b9bb8c7	0.004752252
91	0xbd1056c2	-0.03523899
92	0x3cff2c1a	0.031148959
93	0xbe011e16	-0.12609133
94	0xbdb5141f	-0.088417284
95	0x3df6214b	0.12018069
96	0xbd2e3fc6	-0.042541288
97	0xbc21c5e5	-0.009873842
98	0x3c58a05b	0.0132218255
99	0xbd645d85	-0.05575325
100	0x3d0a6e0e	0.033796363
101	0xbde3e41a	-0.11127491
102	0xbc3d3793	-0.011548894
103	0xbd1c9625	-0.038229126
104	0x3da6a286	0.08136468
105	0xbdd34fd4	-0.103179604
106	0x3d212da9	0.039350186
107	0x3d425e11	0.04745299
108	0xbd68a17c	-0.05679463
109	0xbd737466	-0.059437178
110	0x3da80f94	0.08206096
111	0x3e5aeb6a	0.21378866
112	0xbd8ca125	-0.068666734
113	0xbea61d1e	-0.3244409
114	0x3dc3a12c	0.095522255
115	0xbe017b72	-0.12644747
116	0xbd9db813	-0.07701125
117	0xbe458e64	-0.19292599
118	0xbc89b28b	-0.016808769
119	0x3dd08798	0.101821125
120	0xbe6e2ead	-0.23259993
121	0xbda50456	-0.08057468
122	0x3d61cd83	0.055127632
123	0x3d48467b	0.04889534
124	0x3d208f81	0.039199356
125	0xbcf48017	-0.029846234
126	0x3d1be38d	0.038058806
127	0x3d903ed3	0.07043233
