torch/model10.pth (torch, 342035 bytes, 8 tensors)

lstm.weight_ih_l0 f4 [512, 3]
000000 7b 77 dc bc 8d 44 47 3d e7 fb 3c 3d d4 ec 95 3d
       -0.026912441 0.04864936 0.04613867 0.07320562
000010 58 2b 36 bd 1f 72 11 bd 1a f3 d2 3c 20 b9 4d bd
       -0.04447493 -0.035509225 0.025750685 -0.050225377
000020 5c bd 8d 3d e8 63 15 3c 13 68 a5 3d 00 89 8b 3d
       0.06920883 0.009118058 0.08076491 0.0681324
000030 f5 ed 94 3d 86 7a fb 3c c2 49 c6 bd f3 ef 88 3c
       0.07271949 0.030698072 -0.09682037 0.01671598
000040 d9 ea e8 bd 17 8e 7a 3d 99 f6 9f 3d a4 c8 8f 3d
       -0.11372919 0.061170664 0.07810707 0.07020691
000050 e1 41 b8 bd 40 d0 8a 3d 5d 17 05 3d e8 d4 ec bd
       -0.089969404 0.06778002 0.032492984 -0.11564046
000060 e4 31 7b 3d 96 1d 5d 3b 2c 1f 3a bd c1 08 15 3c
       0.061326876 0.0033739558 -0.045439884 0.009096325
000070 fc 77 16 3c 87 f3 11 ba 2b 2d 19 3d fe d3 6c bd
       0.00918388 -0.00055675994 0.03739659 -0.05781936
000080 6d 95 7d bc da d6 0f bb e2 dc 38 3d 72 a8 65 bd
       -0.01547752 -0.002194813 0.045132525 -0.056068845
000090 e4 d1 6f bb a1 0c 42 3d 25 50 9b bd dd 17 53 bd
       -0.003659361 0.047375325 -0.07583646 -0.05153643
0000a0 d0 ca 37 bd 5f 66 a9 b9 aa d5 2f 3c a3 55 b8 3d
       -0.04487115 -0.00032310464 0.010732094 0.09000709
0000b0 13 79 8c 3c 30 ae 9f bd cc be 5d bc f8 5a 47 be
       0.017147576 -0.077968955 -0.013534259 -0.19468296
0000c0 8c 11 85 3d 72 58 19 3d 3f 06 55 3d 61 b2 84 3d
       0.064974874 0.037437864 0.05200791 0.064793356
0000d0 f3 01 d9 3d 7a 47 9c bd 83 56 f8 bc bc 30 29 3d
       0.10596075 -0.076308206 -0.03031469 0.041306242
0000e0 2c e9 16 3d d7 dd 54 3c 4d 32 9c 3d e2 fe 29 bd
       0.036843464 0.012992344 0.076267816 -0.04150284
0000f0 db 7f 79 bc 0e eb 98 3d 77 76 a8 3d bf f5 aa bd
       -0.015228237 0.07466708 0.082257204 -0.083476536
000100 d7 ec b3 3c b2 ed 0e 3d 05 ce 7d bd 87 84 96 bc
       0.02196352 0.034894653 -0.061964054 -0.01837374
000110 25 f8 f2 3c 51 d9 50 3d d3 70 00 3e 3e a0 64 bd
       0.02965934 0.0509885 0.12543039 -0.05581688
000120 76 ce a1 3d 12 34 6a bd f2 e8 18 3c fa f9 a5 3d
       0.079007074 -0.057178564 0.009332882 0.0810432
000130 f7 a5 eb 3c 92 2e 94 bc 11 18 23 3d 91 b8 d1 3d
       0.028765662 -0.018088613 0.039817873 0.102402814
000140 c6 03 24 3d 8d a6 93 bd ee 94 dc 3d 1a 80 cb bd
       0.04004266 -0.072095014 0.107705936 -0.09936543
000150 bb f4 1c 3d fb 60 8c 3d cd 32 71 bc c0 34 02 3d
       0.03831933 0.06854435 -0.0147215845 0.031788588
000160 85 ec aa 3d f6 7d 56 bd 0b a9 90 3d 8e a6 4e 3c
       0.08345894 -0.05236622 0.070634924 0.012612952
000170 62 18 ce 3d 42 9c ff bc dd e0 42 3d 03 eb 63 3c
       0.100632444 -0.03120244 0.047577728 0.013911012
000180 33 20 94 3b d6 7f a6 3d ed 93 e1 bc 06 22 b8 bd
       0.00452044 0.081298515 -0.027536357 -0.089908645
000190 51 e3 4c bd 63 7b c1 b9 45 4e 91 bd 7d b9 b8 3c
       -0.050021473 -0.0003690376 -0.07095007 0.022549385
0001a0 48 3e 0b 3d 69 6c 2f 3c 8d 25 a5 3d 49 47 8a 3d
       0.033994943 0.010706999 0.08063803 0.06751878
0001b0 e6 76 b4 bd 8e e8 77 3d 30 e0 3d bc 99 d8 87 bd
       -0.088117406 0.060524516 -0.011589095 -0.066331096
0001c0 bf 21 2a 3d cb c4 1c bd b8 1f 80 3d eb a5 b7 bc
       0.04153609 -0.038273614 0.0625605 -0.022417983
0001d0 45 56 7b bc 35 2d 01 3d f7 01 76 3d 1b e7 52 3d
       -0.0153403925 0.031537253 0.060060468 0.05148993
0001e0 f6 da a9 bd a7 ea a8 3c b1 19 c4 3d aa d2 66 bd
       -0.082937166 0.020619703 0.09575213 -0.05635325
0001f0 26 45 c0 3d f3 82 05 bd bf 3a 6b 3c 86 b9 27 3d
       0.09388189 -0.032595586 0.014357268 0.040948413
000200 c7 cd 43 bd 50 91 26 bd 2c 16 92 bd 44 12 54 bc
       -0.047803666 -0.040665925 -0.07133135 -0.012943808
000210 6d 5a c9 bc c7 ff 81 3c 5c c4 20 3d 22 cf 6b 3d
       -0.024579251 0.015869034 0.039249763 0.057570584
000220 53 15 8c 3d 74 98 60 3d ed 54 46 bd ff 69 fc 3b
       0.06840005 0.05483289 -0.048420835 0.0077030654
000230 3a d9 81 bd e0 ab b7 bd 77 4d 7d 3d e1 f1 04 3d
       -0.06340261 -0.089683294 0.061841454 0.032457236
000240 71 95 24 3d 9b 54 cb 3c bd 44 89 bd 28 4d 86 bd
       0.04018158 0.024820616 -0.06702564 -0.06557685
000250 05 36 12 3d 13 b6 b2 bc ad 25 08 bc 4f 4e a9 3c
       0.03569605 -0.021815335 -0.008309764 0.020667223
000260 30 ca 7a 3c 02 0d b9 bc 65 c7 00 bd e5 d9 a3 3d
       0.015306994 -0.02258921 -0.031440157 0.080005445
000270 f3 f1 a7 bd 0e 96 75 bc bd 9e a7 bd 66 5c 83 bb
       -0.08200445 -0.014989389 -0.08184574 -0.0040088175
000280 7f 1e a3 bd dd 09 cb 3c 88 0e 4d bd ed d2 e6 3c
       -0.07964801 0.024784977 -0.050062686 0.02817675
000290 f0 d1 93 3d bb 09 57 bd fb bf 8f bd 6d 5c 68 bb
       0.07217777 -0.052499514 -0.07019039 -0.003545548
0002a0 ee 97 38 3d c5 dc ab 3d 23 42 1c 3c e4 33 11 bd
       0.045066766 0.08391718 0.009537253 -0.035449877
0002b0 c1 38 b1 bd 8f 4e 11 3d 4a 57 3d bd 2f 43 50 3d
       -0.08653403 0.03547531 -0.046225823 0.05084532
0002c0 79 f6 4f 3d 97 ed 9b 3d 9e 55 68 3d ae 04 75 3d
       0.050772164 0.07613676 0.056722276 0.059818916
0002d0 d1 b7 a3 3c 49 33 66 3d 8b 69 3e 3a 39 2c 35 bc
       0.019985111 0.056201253 0.0007263652 -0.011057907
0002e0 90 36 ec 3c 59 72 f6 bc 73 c0 a3 3d ca 83 c0 3c
       0.028834611 -0.030083822 0.07995691 0.023500342
0002f0 d5 cf 3e bd db 90 8c 3d 7b 88 77 bd fd 37 a1 3d
       -0.046584923 0.068635665 -0.060432892 0.07872007
000300 8b 13 75 bd 3d 0e b0 3b 88 66 c3 3c e7 6a 7e bd
       -0.05983309 0.005372791 0.023852602 -0.06211367
000310 0d e5 6c 3d ca 98 5d bd 60 39 45 3d c3 8d 57 3a
       0.057835627 -0.05410079 0.04815042 0.0008222723
000320 49 26 62 3d 86 b5 5a bd 49 16 13 bd 8f 9d b2 3d
       0.055212293 -0.05339577 -0.035909925 0.08721458
000330 2a 3b 3b 3c 1d 26 18 be 0c c8 c6 bd cc 82 16 3d
       0.01142768 -0.14858289 -0.09706125 0.03674583
000340 81 b5 a8 3d e8 41 0e 3d ea 8d 0d bd 84 28 00 bd
       0.08237744 0.03473082 -0.034559168 -0.03128864
000350 fb 93 9f 3c 87 96 68 bd be 93 11 be cc 93 64 3d
       0.019479742 -0.05678418 -0.14216515 0.055805013
000360 c0 73 00 bc b2 42 04 3d 89 90 e4 bc 07 77 8c bd
       -0.007840097 0.032290168 -0.027900951 -0.0685864
000370 a9 32 30 bd 47 9d 1c bc ed 1e 71 3d 10 32 cc 3c
       -0.043017063 -0.009558982 0.058867384 0.024926215
000380 60 dd a3 3c 4c 44 9b bc cf ab 65 bc 95 8c 8f bb
       0.02000302 -0.018953465 -0.014018013 -0.0043807724
000390 fb ee 98 3c b3 2f 5d 3d c7 a7 02 3d c1 e8 2f 3d
       0.018668642 0.054000568 0.031898286 0.04294658
0003a0 c4 6a 0f 3c d3 d7 57 3d 78 bf 4c bd 59 c4 46 3d
       0.008753482 0.05269606 -0.049987286 0.048527095
0003b0 28 66 9a 3d 4e e5 a8 bd 49 0b 0d bd 16 83 7d 3d
       0.07539016 -0.082468614 -0.03443459 0.06189259
0003c0 e5 e8 b5 bd 8a 14 05 be 21 39 85 bc a9 65 88 bd
       -0.08882312 -0.12996116 -0.016262593 -0.06660015
0003d0 84 8f 04 bd 2d 78 1f 3b 8e 93 5e be 23 d9 cc bd
       -0.03236343 0.0024333105 -0.21735975 -0.10002353
0003e0 df 19 02 bf 63 38 a1 3b 7b 04 86 3d 97 47 76 bd
       -0.50820726 0.004920052 0.06543823 -0.060126867
0003f0 e6 22 cb bc ca 14 a8 bc 24 20 87 3c 47 74 54 3d
       -0.024796914 -0.020517725 0.016494818 0.051868703

lstm.weight_hh_l0 f4 [512, 128]
000000 40 8a 03 3c 94 8b a6 3d 42 89 9e 3d 2a 5f 41 3c
       0.008028567 0.08132091 0.077410236 0.011802474
000010 b8 68 7c bd ae f1 88 bd 80 c8 9a 3d 5d bf 9a bd
       -0.061623305 -0.06686722 0.075577736 -0.07556031
000020 05 ad fd ba 88 fe f6 bc 3c ca ab 3d 72 07 10 bd
       -0.0019353932 -0.030150667 0.083881825 -0.03516335
000030 67 7d 68 bb b7 6e 1a 3d a7 a5 9b bd 15 1e 1c 3d
       -0.0035475136 0.037703242 -0.07599955 0.038114626
000040 84 9f 80 3c 55 aa 95 3d a8 82 a2 bd 15 58 8e 3d
       0.015701063 0.07307879 -0.07935077 0.06950394
000050 d9 b2 86 bd 9b e3 25 bd be 57 f6 3c 31 0d 06 3d
       -0.06577081 -0.040500265 0.030071136 0.032727424
000060 49 5f 90 3d 19 1b ad 3d 6f 7b 29 bd ce e6 a8 bd
       0.07049424 0.08452434 -0.04137748 -0.082471475
000070 cb 85 7d bd b4 70 b2 bd b9 2e 87 3d 1e b8 6d bd
       -0.061895173 -0.08712903 0.066007085 -0.058036916
000080 c6 7a ce b9 c2 3b 04 bd 5f b2 82 bd e4 0b 93 bd
       -0.00039382855 -0.032283552 -0.06381678 -0.07180002
000090 7a f6 2d bd ac 0d 4e bd 15 12 28 bd 1e fa 99 3d
       -0.042471386 -0.050306007 -0.04103287 0.07518409
0000a0 81 11 96 3d 66 91 43 3d aa 54 11 3d b9 49 2a bd
       0.07327557 0.047746085 0.035481133 -0.041574214
0000b0 51 f3 a4 3c 53 02 01 3d e7 02 a3 bd e0 8c 42 bd
       0.020135554 0.031496357 -0.07959538 -0.04749763
0000c0 d1 35 84 bc a6 fc 9e bd cc 75 69 3d b9 4f 78 3d
       -0.016138943 -0.077630326 0.056997105 0.060622904
0000d0 e3 fb 59 3d d9 b4 97 bd 76 3e 3c bd 27 23 8e bd
       0.053218734 -0.07407541 -0.045958005 -0.069402985
0000e0 89 47 1c 3d c6 35 9a bc 5f f1 fe 3c 11 20 3a bd
       0.03815416 -0.01882447 0.031120954 -0.045440737
0000f0 e9 53 66 3d 20 20 8a bc 80 3b 27 bd 0c 02 22 3d
       0.056232367 -0.016861022 -0.040828228 0.039552733
000100 f5 c7 6d 3c b8 5d ac bd 6f a4 ba 3d d9 03 98 3d
       0.0145130055 -0.08416313 0.091133945 0.07422609
000110 02 b4 92 3d 9b 5c b0 3d fb 6b 83 bd 4c 76 92 3d
       0.0716324 0.08611413 -0.0641708 0.071514696
000120 36 4a 4f bc ca ea 7c 3d 3c 80 a8 bd f3 b1 be 3c
       -0.012651971 0.06174735 -0.08227584 0.023278212
000130 ab 8f 63 bd f5 82 73 3c 1e 75 54 3d cf dc 51 bd
       -0.055556934 0.014862766 0.051869504 -0.05123597
000140 62 db 9f bd 48 eb 35 3c dd e9 ef 3c ba 8b 91 bc
       -0.07805516 0.011103459 0.02928632 -0.017766822
000150 c7 6e 01 3d 4f e7 d8 3c 80 1e 4a 3d 30 e8 28 bd
       0.031599786 0.026477484 0.049345493 -0.041237056
000160 f2 51 76 3d 35 ea 16 bd 78 6e 9c bd 26 81 0f bd
       0.060136743 -0.03684445 -0.07638258 -0.035035275
000170 50 1e a2 bd 03 18 66 bc 0a d6 6a 3d 37 9f 7f bc
       -0.07915938 -0.014043811 0.05733303 -0.015601925
000180 aa 46 ab 3d a5 90 91 3c 8d 2b aa bd 72 0c ab 3b
       0.083630875 0.017769167 -0.08309088 0.0052199895
000190 4b cd 2b bd 25 d9 2a bd 76 d2 8f bd 1e 76 a6 3c
       -0.04194383 -0.04171099 -0.07022564 0.020319995
0001a0 e2 9d 20 bd b9 2e 34 3d bb d3 67 bd e7 94 51 bc
       -0.03921307 0.04398987 -0.056598406 -0.012791849
0001b0 9d 66 82 3d ee 27 0a 3d 14 e1 9a 3c 4e a2 e9 bb
       0.06367228 0.033729486 0.018906154 -0.007129944
0001c0 e6 83 1e bd 4e 33 7d 3d 9c 46 cc 3b 54 8a d1 ba
       -0.038700007 0.061816506 0.006234003 -0.001598666
0001d0 ac e5 86 3d 79 c7 76 3d 39 2e 9d bd 29 ea a9 3d
       0.06586775 0.060248826 -0.07674832 0.08296616
0001e0 9e af 11 3d ec e0 9c bd dd 6f 52 bd 84 4b bb 3c
       0.035567872 -0.07660088 -0.051376212 0.022863157
0001f0 51 0d 31 3d 50 2a 84 3c 53 e3 ac bd 16 38 82 bd
       0.04322559 0.016133457 -0.08441796 -0.06358354
000200 de 93 30 bd 54 a7 cc 3b e9 0e 3a 3d 0f 39 0b bd
       -0.043109767 0.006245533 0.045424376 -0.033989962
000210 76 45 a0 bd bc f5 8b bd 8d a8 58 bd d6 9a 48 bd
       -0.078257486 -0.068339795 -0.052895118 -0.048975788
000220 d6 cf 5d 3d 7a 83 5e bc c4 8c a8 bd 09 aa 4e 3d
       0.054153286 -0.013581151 -0.08229974 0.050455127
000230 8f a3 8d bc 60 12 04 3d 73 64 26 bd 2e 1c 4c bd
       -0.017289905 0.032244086 -0.04062314 -0.04983156
000240 47 91 8e 3d a4 cf b2 bd 56 8a 92 bd 02 af 90 3d
       0.06961303 -0.087310106 -0.07155292 0.0706463
000250 83 bc 18 3d 04 7a c8 3c 7d 58 79 bd 8b cc f1 3c
       0.037289154 0.024472244 -0.060875405 0.029516479
000260 3f 82 83 3d 91 e1 9e 3d 6c 60 11 3d 69 8b 66 bd
       0.06421327 0.07757867 0.035492346 -0.056285296
000270 28 de 8a bd f7 9d 6b bd 6b 3d 94 bd d4 52 26 bd
       -0.06780654 -0.057523694 -0.07238277 -0.040606335
000280 31 ca 16 bc b8 43 3a 3d c3 76 81 3d b5 85 5d 3c
       -0.00920348 0.045474738 0.0632148 0.013520648
000290 0f b5 a6 3d d1 c3 cc ba 0a 19 70 bd 6c e9 86 3d
       0.08140003 -0.0015622323 -0.05861763 0.065874904
0002a0 eb 52 b7 3c 72 c8 83 bc 53 a0 ac bd 20 2e 7e bd
       0.022378406 -0.01608679 -0.08429017 -0.062055707
0002b0 e8 0d a8 bc 15 31 a8 3d ab 96 98 3d 86 6b 91 3d
       -0.020514444 0.08212487 0.07450613 0.071005866
0002c0 bb ce 4e 3d a3 1c 8b 3d 16 8d 79 3d 5b a6 0b 3d
       0.050490122 0.067925714 0.060925566 0.034094196
0002d0 44 18 5d 3d 31 c8 ba bc dc a6 0d 3d 1e eb 44 3c
       0.05397822 -0.022800537 0.034582958 0.012018947
0002e0 be ef 37 3c c9 80 79 3b 29 df 7d 3d fe 5c 68 3d
       0.011226593 0.0038071147 0.0619804 0.05672931
0002f0 c8 c0 3e 3d 93 1c 11 3d 68 8e 27 bd 6a 2d c1 bc
       0.04657057 0.03542764 -0.040907294 -0.023581225
000300 6f 03 78 bd 9e 6f 3e 3d 82 c8 0d 3d 3d 2d b0 bd
       -0.06055015 0.046493165 0.034615047 -0.086023785
000310 fd e2 71 3c a8 7b 99 3d cf 49 05 3c fb 59 dc bc
       0.014763591 0.07494289 0.008135273 -0.026898375
000320 e0 e9 91 bd 9e c8 a6 bc e0 6d 9a 3c 6c d4 9f 3d
       -0.07124686 -0.020359334 0.01885122 0.07804188
000330 fc e4 57 bb 24 32 4a bd da d0 ab bd a5 b5 34 bd
       -0.0032942882 -0.049364224 -0.08389445 -0.044118542
000340 c5 9c 96 3d 42 41 7c 3c f8 dd 5f 3d 6b 58 22 bc
       0.0735412 0.015396418 0.054655045 -0.009908776
000350 4a c4 46 bd 69 0d 49 bd f5 00 f9 bc cf ec f6 3c
       -0.04852704 -0.049085055 -0.030395964 0.030142216
000360 17 be 09 3d 62 76 3f 3d 16 fc 93 bd 54 48 6d 3d
       0.03362855 0.046743758 -0.07225816 0.057930306
000370 ca 06 db 3a f4 6a ae 3d aa 54 ea 3c b2 80 8d bd
       0.0016710397 0.085164934 0.028604824 -0.06909312
000380 c9 de 87 3d 3a 0c 8b bd c0 93 8e 3d ec f1 f8 bc
       0.0663429 -0.067894414 0.06961775 -0.030388795
000390 43 0d 96 bd 60 61 a4 3d f6 bb 02 3d 13 ac 92 bd
       -0.07326748 0.08026385 0.031917535 -0.07161727
0003a0 b2 93 83 bd bd 41 62 bd f1 e4 5d 3d 5e b5 3e bd
       -0.06424655 -0.055238474 0.054173414 -0.046559684
0003b0 e0 13 66 3d 5d 5d 46 3d 86 43 7f 3d 5d ae 63 bd
       0.056171298 0.048428882 0.062320255 -0.055586208
0003c0 b4 61 40 3c da 36 55 3d d6 cd 12 3c 69 e4 5f bd
       0.011742044 0.052054264 0.008960208 -0.05466119
0003d0 d2 59 ea bc cf 06 90 bd 0c be 8c 3c b0 d8 9d bd
       -0.028607283 -0.07032549 0.017180465 -0.077073455
0003e0 7a 86 07 bd 8c 27 41 3d 76 19 f5 3c b9 17 e9 3c
       -0.03308723 0.047156855 0.029919367 0.028453695
0003f0 33 e0 4f bc 85 51 a8 3b 32 f4 8e 3d 8a 9c 39 3c
       -0.012687731 0.005136671 0.0698017 0.011328826

lstm.bias_ih_l0 f4 [512]
000000 66 cb bc bc 63 b5 0f bc 14 f5 82 3d 98 7b 8b bd
       -0.023046207 -0.008771273 0.06394401 -0.06810683
000010 b6 e2 1c bb f8 ea b8 3c 77 a1 a2 3c 9d e4 88 3d
       -0.0023938841 0.02257298 0.019852383 0.066842295
000020 1f ee 98 3d 5d 72 d4 bd f4 ca e9 3c ed f0 ff bc
       0.07467293 -0.103733756 0.028539158 -0.031242812
000030 8d f7 98 3d 1e 97 87 3b 28 5f b5 3d 07 75 65 bd
       0.074690916 0.0041378876 0.0885604 -0.05601981
000040 fc 0f 8b 3d 51 2f 45 3d b9 0e 81 bd 24 13 58 3b
       0.06790158 0.048140828 -0.06301636 0.0032970393
000050 f5 d7 48 3d a5 17 f4 3c d3 d2 1f bd f2 5c 51 bd
       0.049034078 0.02979643 -0.039019417 -0.05111403
000060 1d 82 90 bd 18 22 ac 3d f8 d3 92 bc c7 e0 bc bc
       -0.07056067 0.0840494 -0.01792334 -0.023056401
000070 00 65 bc 3d 85 13 8b 3d dc f5 20 3d 84 7b a0 bd
       0.09198952 0.067908324 0.03929697 -0.07836059
000080 14 fd 21 bd 9d 5a 43 3d 63 3a 96 bd 30 b0 1e bd
       -0.039547995 0.047693837 -0.07335355 -0.038742244
000090 31 7a 4d 3d c3 1f 95 3d 18 80 fb 3a 28 54 07 bd
       0.05016536 0.07281449 0.0019187955 -0.033039242
0000a0 90 c2 df bc b1 5c d5 bd 43 f7 81 3d 16 87 9f bb
       -0.027314454 -0.1041807 0.063459896 -0.0048683984
0000b0 16 7b 2a 3d 05 db 68 bd 2e 00 7f bd ec 22 eb bc
       0.04162129 -0.0568495 -0.06225603 -0.028703175
0000c0 72 9b 5d 3d b5 77 5f bd 6e de 45 bd 43 7d cb bd
       0.054103322 -0.05455752 -0.04830783 -0.09936001
0000d0 6e 39 2e 3d 50 ee 62 bc 69 8d 26 3c 59 db 39 3d
       0.042535238 -0.013850763 0.010165551 0.0453752
0000e0 24 8a 14 bd d7 76 8e 3d 7f 1e a3 3d 88 ea a0 bc
       -0.036264554 0.06956261 0.07964801 -0.019643083
0000f0 d2 0d 99 bd 9e fc 95 bd 8e df 8a 3d d1 05 00 bd
       -0.07473339 -0.073235735 0.06780921 -0.031255547
000100 76 2a 0e bd 51 ae 04 bd 40 35 eb 3c f8 84 79 bc
       -0.034708463 -0.032392804 0.028711915 -0.015229456
000110 9f d6 b2 bd 6d d5 3c 3c 2e be f5 bb 7f ea ec bd
       -0.08732342 0.011525494 -0.007499478 -0.11568164
000120 0f 4b 9b bc c7 7c b3 3d 8f 52 94 bd 53 1d 8f 3c
       -0.01895669 0.08764034 -0.07242309 0.017470038
000130 62 80 78 bb 9b 97 29 3c 47 b6 38 3d d0 a2 62 3d
       -0.003791832 0.010351087 0.04509571 0.05533105
000140 8d 25 5d 3d 08 68 b1 bd 9e 68 25 be cd 0c b4 bd
       0.05399089 -0.086624205 -0.1615319 -0.08791504
000150 04 a2 19 bd 0d 46 5d 3d e1 0f 5d bd fe 65 da bd
       -0.037508026 0.054021884 -0.05397022 -0.10663985
000160 15 c7 8f bd bf 18 54 bd 24 b3 21 3d 15 4a 28 bc
       -0.07020394 -0.051781412 0.039477482 -0.010271569
000170 4b 92 26 bd d9 fa 04 bd 99 ca aa bd 6b f6 0c bb
       -0.04066686 -0.03246579 -0.08339424 -0.0021509181
000180 a8 d7 74 bc 46 08 69 3b 08 ad 33 3d 97 5b 86 3d
       -0.014943995 0.003555791 0.043866187 0.06560438
000190 f1 76 82 3d e1 02 8f bd 6b c5 81 bd 6d 84 dd 3c
       0.063703425 -0.06982971 -0.063364826 0.027040685
0001a0 12 cf 53 3c 4d 99 6d bd 5e b6 31 bd ad ad 1d bc
       0.012927787 -0.058007527 -0.04338681 -0.009623927
0001b0 b1 93 ac bc 6e 8b 85 3c af cf a1 3d e9 43 ca 3d
       -0.021066519 0.016301837 0.079009406 0.09876234
0001c0 0e 57 fb 3c a0 fc 6a bd 94 bd e1 bc 00 f6 9b 3d
       0.03068116 -0.05736983 -0.027556218 0.0761528
0001d0 eb 30 28 3d 53 a2 c1 bd 0c 5c 3f bc 98 c1 9c bc
       0.041062277 -0.09454789 -0.0116796605 -0.019135281
0001e0 f0 71 a7 3c ba ef 5a bd 9c 8f 6d 3c 74 50 a9 3d
       0.020440072 -0.053451277 0.014499571 0.08267298
0001f0 d4 dd 4f bc 91 1f 99 bb ea 04 e0 bc 8d ab 4f 3d
       -0.012687165 -0.0046729525 -0.027346093 0.050700713
000200 89 c6 2d 3d 3d 82 9d bd a6 32 76 ba b8 ad 88 3d
       0.042425666 -0.076908566 -0.00093917025 0.06673759
000210 e6 39 4b bd d7 fa 64 3c 84 42 89 bc b2 bb fd bc
       -0.049615763 0.0139758205 -0.01675535 -0.03097329
000220 3b 68 e2 3b f6 13 57 3d 01 89 97 bd ed a2 1f bd
       0.006909398 0.05250927 -0.07399178 -0.038973738
000230 06 62 c9 3d 1e 50 9c 3d 55 51 91 3d d8 49 3e bd
       0.098331496 0.07632469 0.07095591 -0.04645714
000240 fb 63 c8 3b 92 ea 85 3d df 97 9b bd 03 b5 93 bd
       0.006115434 0.06538881 -0.075973265 -0.072122596
000250 49 7a f2 3c ef 8d 1a 3d b9 6f c4 3d 74 13 99 3d
       0.029599326 0.037733015 0.09591622 0.074744135
000260 91 fb a9 3d 02 4b 8b 3c 28 54 35 3e 68 44 ae 3d
       0.082999356 0.01700354 0.17707884 0.08509141
000270 fd 47 79 3d fa 87 d6 3c 8e 60 f2 3d da f1 33 bd
       0.06085967 0.026187886 0.118348226 -0.04393182
000280 de 48 d0 3d c8 2a 64 3b 7e 78 91 3d 48 8f bd bc
       0.10170148 0.0034815539 0.0710306 -0.02313961
000290 67 ad 36 bd f1 e0 aa 3d 40 36 02 3d 30 56 96 3c
       -0.044598963 0.083436854 0.031790018 0.018351644
0002a0 28 dd d3 bc f4 ba 07 bd 6f 13 a7 3c 1f 8d 84 3a
       -0.025862291 -0.033137277 0.020395009 0.0010112858
0002b0 f8 62 01 bc 65 6f 4d 3d cf e1 01 3e de 58 21 3d
       -0.007897131 0.050155062 0.12683795 0.03939139
0002c0 ec e3 45 bd 52 87 04 bd 9c ff c8 3d 01 7d 1f bd
       -0.048313066 -0.032355614 0.098143786 -0.038937572
0002d0 c4 e2 ad 3d 53 f5 ac bc 28 c6 a1 3d d6 de 92 3c
       0.08490518 -0.021113073 0.078991234 0.017928522
0002e0 c6 ea b3 3d 29 a5 46 3c e1 6d 8e 3d df 79 08 bd
       0.08785014 0.012124338 0.069545515 -0.03331935
0002f0 bd 5e 9d bd a1 45 21 bd e2 50 97 3c 9f 30 29 bc
       -0.076840855 -0.039373044 0.018471185 -0.010326534
000300 62 d4 cb 3d 3f eb 19 3e 4d 5f c5 3d da bb 6e bd
       0.09952618 0.15031146 0.09637318 -0.058284618
000310 e2 6d 9e 3d c5 c9 05 3e 37 99 85 3d 87 ae 84 bd
       0.07735802 0.1306525 0.06523364 -0.06478601
000320 a6 7a 9b bd 2f 11 be bb 0c 39 f1 3d f7 22 16 3d
       -0.07591753 -0.0058003883 0.11778459 0.03665444
000330 f0 e6 7e 3d 31 ed 85 3d 3b a9 7c bc 3c bf ad 3d
       0.062231958 0.06539381 -0.015421207 0.08483741
000340 91 77 84 3d 62 02 91 bd 65 9d f3 3e 9f 92 41 bd
       0.06468118 -0.070805326 0.4758102 -0.04725897
000350 e6 e6 00 bc c3 83 93 bd 1f a6 dc bc e1 13 dd 3c
       -0.0078675505 -0.07202866 -0.026934681 0.026987018
000360 1f ad 71 3d 6e cf 9d bc 28 03 8c 3d 29 8b 11 bd
       0.05900299 -0.01926395 0.068365395 -0.035533104
000370 7f bf 86 3d f8 89 33 bb 85 b1 15 bd 50 8a 5a bd
       0.06579494 -0.0027395468 -0.03654625 -0.05335456
000380 71 7d e8 3d 65 28 47 3e 0e a2 c4 3b d7 66 c2 3d
       0.11352051 0.19449003 0.0060007637 0.094922714
000390 a4 7b 83 bd cf c2 67 3d a3 f6 c4 ba c2 0b 4a 3d
       -0.06420067 0.05658227 -0.0015027117 0.04932762
0003a0 03 73 88 3d 34 be a9 3d 3c 5f a6 bd b1 e7 9c 3d
       0.06662562 0.082882315 -0.08123633 0.07661379
0003b0 0d 0b de 3d 12 b1 1c bd 6a a4 29 bd 77 8b cc 3d
       0.108419515 -0.038254805 -0.041416563 0.09987538
0003c0 dc c6 9a 3a 59 53 18 3e e5 0e ff 3c 6d 5f 16 3c
       0.0011808532 0.14875545 0.031135032 0.009178025
0003d0 28 11 96 3d b3 74 54 bc 88 21 39 3a 54 b3 08 3e
       0.07327491 -0.012967276 0.00070621865 0.13349658
0003e0 8b 1d f5 3d b8 b2 00 bc 74 c9 34 bd 58 c7 1e bd
       0.119685255 -0.00785511 -0.044137433 -0.038764328
0003f0 a5 d5 86 3d a8 26 f1 3a 60 f2 56 3d 6d b2 74 bd
       0.06583718 0.0018398361 0.05247724 -0.059740473

lstm.bias_hh_l0 f4 [512]
000000 3b a5 ec 3c c4 07 82 3d da 39 90 3d e9 91 e8 ba
       0.028887382 0.063491374 0.07042284 -0.001774368
000010 b5 6b b4 b8 72 a7 b2 bd e9 fe 44 3b 99 c9 66 3d
       -8.603131e-05 -0.08723344 0.0030059165 0.056344602
000020 69 eb 86 3d a8 d9 74 3c a6 dd af bd 05 c0 4d bd
       0.0658787 0.014944471 -0.08587198 -0.050231952
000030 4d 43 87 3d 59 8c b1 3d 73 e3 8a bd db 53 43 bd
       0.066046335 0.08669347 -0.06781664 -0.047687393
000040 8e 47 ad 3d 46 84 dd bc ab fc b1 bc bc df 59 3d
       0.084609136 -0.027040612 -0.021726927 0.053191885
000050 59 aa 59 3d 1f d7 90 bd db d8 4e bd 74 8d 8b 3d
       0.05314097 -0.07072281 -0.05049978 0.068140894
000060 ff 5c 3a bd 16 11 40 bc f5 37 7a 3c b6 75 2f bd
       -0.045498844 -0.011722824 0.01527213 -0.042836867
000070 0c 1e 37 bc e8 40 50 3d 65 5b 4d bd eb b2 3c 3d
       -0.011176597 0.05084315 -0.05013599 0.046069067
000080 bf a4 5e 3d fa db c2 bd 13 54 af 3a ff f7 e4 ba
       0.054356333 -0.095146134 0.0013376496 -0.0017468928
000090 79 8a 4a 3d 09 5f f0 39 ef 90 c6 bc 09 ae b8 bd
       0.049448464 0.00045847174 -0.024239032 -0.090175696
0000a0 f9 7d 64 bd 80 83 f3 3c aa 1a 27 3c b0 8a 83 bd
       -0.0557842 0.02972579 0.010199228 -0.06422937
0000b0 6e bf a2 bd 5d 12 bc 3d 14 fd a8 bc 29 93 5c bd
       -0.079466686 0.0918319 -0.02062849 -0.05385128
0000c0 51 91 9e 3d 00 22 c8 bd f7 e4 53 3d 2c 0c 6c bd
       0.07742561 -0.0977211 0.05173203 -0.057628796
0000d0 0a 9e 7e bd 79 22 04 bc 10 49 ba bd 05 1f 54 3d
       -0.062162437 -0.00806486 -0.09095967 0.051787395
0000e0 95 dd 68 3b ee da 11 3c ff 23 f8 bc 23 37 97 3d
       0.0035532464 0.008902295 -0.030290602 0.07383563
0000f0 cf bc 68 ba b6 a1 49 3c be 87 0c bd 92 6f 6c bd
       -0.00088782323 0.012306621 -0.03430914 -0.05772359
000100 b7 83 99 bd 03 79 ea bd cf 2b 0d 3c 3a 55 f7 bc
       -0.07495826 -0.114488624 0.008616402 -0.030192006
000110 cc 66 f0 bc a2 01 87 bd 7a 06 33 3c 5f a6 00 3d
       -0.029345892 -0.06592108 0.010926837 0.031408664
000120 8a 62 60 3d f4 1f 89 bd 0b 5c 5f 3d 09 3e 4a 3d
       0.054781474 -0.06695548 0.05453114 0.049375568
000130 26 b2 d6 3c 30 cb b9 bc 7a b3 36 3c cd 2a 34 bd
       0.026207995 -0.022679895 0.011151189 -0.04398613
000140 cb d1 e6 bb 90 a8 df 3b 67 7c 97 be 88 ae 81 bd
       -0.0070440522 0.006825514 -0.295871 -0.06332117
000150 9a fe 4b 3d 6b 7a f7 ba 40 a8 82 3d 78 50 bd bd
       0.049803354 -0.0018881088 0.063797474 -0.09243864
000160 52 44 8e bc 25 ae d8 3b 48 01 1b 3d 09 7c 16 3d
       -0.017366562 0.0066125565 0.03784302 0.036739383
000170 aa c0 8d bd 00 5c 70 3d d6 72 41 3d c2 da 0f bd
       -0.069215134 0.058681488 0.047228657 -0.035120733
000180 49 08 ff 3b 30 ae 2c be 00 38 44 3d 73 34 c4 bc
       0.00778297 -0.16863322 0.04790497 -0.023950791
000190 4f 70 89 bd 3e cf 38 bd 50 6c 75 bd ee 97 bb 3c
       -0.06710874 -0.045119517 -0.059917748 0.022899594
0001a0 0f 46 18 3d 79 fe 83 bd e9 4d 97 3d 2a 02 52 3d
       0.037176188 -0.06445021 0.07387907 0.051271595
0001b0 27 c8 77 bd 29 44 19 bd c6 82 1c 3c 6d 40 08 bd
       -0.060493615 -0.03741852 0.009552663 -0.033264566
0001c0 aa ef 5b bc d5 08 41 bc d9 e3 9e bd 66 4c 81 3d
       -0.01342384 -0.011781891 -0.07758302 0.063134
0001d0 f0 6e 99 3c 2f 2a cc bd cb 4e 0f 3d 70 bc 4f 3d
       0.018729657 -0.099689834 0.034987252 0.050716817
0001e0 f5 0f c9 bd 7e e9 d3 bb 67 bb d6 bc 51 59 49 3d
       -0.09817497 -0.0064670434 -0.026212407 0.049157444
0001f0 47 dd 4b 3d df b6 1b bd ee 26 8d 3c a5 78 c6 3c
       0.049771573 -0.038016196 0.017230477 0.02422745
000200 18 5e f8 3d ca af 67 bd f4 e7 d0 bc b7 4f 84 bd
       0.12127322 -0.05656413 -0.025501229 -0.06460517
000210 79 60 8d 3d 39 67 97 3d 81 23 d7 bb 30 ae 8f 3d
       0.06903166 0.07392735 -0.0065655117 0.070156455
000220 bd 7f ac 3c 21 5b a6 3d e6 ef 53 3b 68 39 1d 3d
       0.021057004 0.0812285 0.0032339036 0.038384825
000230 a1 2d a2 3d d0 7e ba 3d 26 ca c3 3d d8 d8 b3 3d
       0.07918859 0.09106219 0.09560041 0.08781594
000240 e9 89 4e 3c 0e 30 10 3e 8b 78 a3 3d 83 69 f4 bc
       0.0126061225 0.14080831 0.07981976 -0.029835468
000250 f8 f3 20 bd f3 fb 0f bd fd f1 13 3d cb 87 22 3e
       -0.039295167 -0.035152387 0.03611945 0.15872113
000260 50 a8 46 3d 4f f3 88 bd d5 ab fe 3d 44 e9 b3 3d
       0.04850036 -0.066870324 0.12435118 0.08784726
000270 82 0c b4 bc 3c 9a 4c bd d1 d3 6e bc 32 08 af 3d
       -0.02197862 -0.049951777 -0.014576868 0.08546485
000280 22 a8 6f 3d 98 14 4e 3d 88 6b 12 3e 4f b5 f4 3d
       0.058509953 0.05031261 0.14298832 0.11948644
000290 a0 46 c8 bc 9e b0 64 3c bf 00 3c 3c ca 1a 82 bc
       -0.02444774 0.013958124 0.011474787 -0.015881915
0002a0 9a f8 5b 3c a6 66 5a 3d 30 5d 2a 3d f7 44 c3 bc
       0.01342597 0.05332055 0.041592777 -0.023836596
0002b0 dd bb 24 3d de 3c ca 3c e0 74 d6 3d e9 21 0d 3d
       0.040218223 0.024687227 0.10471511 0.034456167
0002c0 ed 55 a0 bc 6d 4d ea 3c 78 df 0c 3e e0 ce 60 bd
       -0.019572223 0.028601373 0.13757122 -0.05488479
0002d0 f1 84 4a 3d 29 62 9a 3d 14 68 2a bd ff fe 05 bd
       0.04944319 0.07538254 -0.041603163 -0.032713886
0002e0 09 1d e3 bc 93 1f 91 bd 99 55 84 bd 01 6a aa 3c
       -0.027723806 -0.070861004 -0.06461639 0.0208025
0002f0 ce 50 9a bc 6f 12 cd 3b 04 6d 8e 3d 12 ea 14 3d
       -0.018837359 0.006258301 0.06954387 0.03635604
000300 8e 39 9c 3d 4e 23 0a 3c cf e8 dc 3c 52 72 86 3d
       0.07628165 0.008431269 0.02696648 0.065647736
000310 3c d9 dc 3d 79 5a 54 3e 3e 69 5c bd 91 ac 3a 3d
       0.10783622 0.20737638 -0.053811304 0.04557473
000320 ca 97 19 bd b9 08 5b 3d bf 30 ae 3d 0a df 96 bb
       -0.037498273 0.053475115 0.08505391 -0.004604225
000330 98 69 48 bb dd 95 11 bd 05 f9 cd 3d c3 d8 d3 bb
       -0.0030580517 -0.03554331 0.10057262 -0.006465049
000340 8d 0c cc 3d af fc 24 3d 8e ed f2 3e 61 09 81 bb
       0.09963331 0.04028004 0.47446865 -0.0039378856
000350 63 86 09 bd dc fe 0d 3c a6 7f 78 bd ba 3f 97 bb
       -0.033575427 0.00866672 -0.06066861 -0.004615751
000360 bc 1b 74 3c 2f b2 1b 3c 6b d4 87 3d 35 2b ec bb
       0.0148991905 0.0095029315 0.066323124 -0.007207299
000370 1e d5 b9 3d 95 0a 75 bd 22 fd 8b 3c d0 bc 0e bd
       0.09073852 -0.059824545 0.017088477 -0.034848034
000380 46 1e 05 bc af 86 5c 3e b0 87 5a bc 62 db 95 3d
       -0.0081248935 0.21535753 -0.0133380145 0.073172346
000390 7c c5 a2 3d df 6a b7 3d e6 e1 9f bd 30 cd f2 3b
       0.079478234 0.08955931 -0.078067586 0.007409714
0003a0 52 55 62 3c ce 1a 8f bc 3b 08 eb 3c e9 bb bd bc
       0.013814287 -0.017468836 0.028690448 -0.023160892
0003b0 52 72 6b 3d 83 00 a1 3d bc 54 34 3d 8d 4a b6 bc
       0.05748207 0.07861426 0.04402612 -0.022252345
0003c0 bc 32 74 3c 30 92 45 3e 9f a7 2c 3d 9a 6f 62 3b
       0.014904674 0.19294047 0.042152043 0.0034551383
0003d0 e4 3f ff bc 63 87 92 3d 7f c0 77 bb 2e 10 e8 bc
       -0.031158395 0.07154729 -0.0037803946 -0.028328028
0003e0 0a 4c 1c 3e 3f 74 8d 3d 7d 09 68 bd b3 20 20 bd
       0.15263382 0.06906938 -0.056649674 -0.039093684
0003f0 10 ac f7 3c c7 2e 0f bd 85 2f bf bc c1 34 49 bd
       0.030233413 -0.03495672 -0.023338089 -0.049122576

pitch_linear.weight f4 [128, 128]
000000 f6 7e f8 bd c1 89 5e 3d 7d 54 8f bb 00 65 cb 3c
       -0.12133591 0.05433059 -0.0043740855 0.024828434
000010 8e 1b 09 3d d7 1b 1c 3e 9a d4 15 bd 3f e6 09 3e
       0.033473544 0.15244995 -0.036579706 0.13466738
000020 6a 78 2c 3e a8 21 9a 3b 65 8c 01 bd 2d 30 32 bd
       0.1684281 0.004703719 -0.03162803 -0.043502975
000030 14 4e eb bd 95 10 e1 bd 41 0c fa ba 90 d4 8c 3b
       -0.114895016 -0.10989491 -0.0019077138 0.0042978004
000040 15 ed 2c 3d 48 25 26 be 62 55 d9 bd 5d 45 0e 3d
       0.042218287 -0.16225159 -0.106119886 0.03473412
000050 ed f2 2d 3e 63 a9 24 be 4c 11 cc 3c 84 2f fc bd
       0.169872 -0.16080241 0.024910592 -0.123137504
000060 cf ff 29 3d 3f 70 eb 3c 7e f8 23 3e 53 51 0c be
       0.041503724 0.028740047 0.16012761 -0.13702898
000070 7e 7d 1e be 0c 75 11 3c f2 ef d5 3c 51 4d 52 bd
       -0.15477559 0.008878004 0.026115391 -0.051343266
000080 da 47 97 bd 7e 51 2e 3d 42 76 3c 3e 71 de aa 3d
       -0.073867515 0.042558186 0.18404487 0.083432086
000090 fc 0f 99 3c 03 67 5a 3d b3 31 8d bd bd a8 12 be
       0.01868438 0.053320896 -0.06894245 -0.14322181
0000a0 76 89 8b 3c 76 5e e6 bd 72 47 b7 bb 6f 4a 34 bd
       0.01703332 -0.11248486 -0.0055932337 -0.044016298
0000b0 65 25 86 bd 77 74 ea 3c 23 d6 99 3d 50 ea 1e be
       -0.06550101 0.028619988 0.075115465 -0.1551907
0000c0 01 52 9b bb 3a 0a 22 bd 4c e9 6a be 8e 11 0c 3d
       -0.0047400002 -0.039560534 -0.22940558 0.03419643
0000d0 46 d0 65 3d 4a 24 a6 3c a5 a6 a5 3c 7f 75 1d 3d
       0.05610683 0.020280976 0.020221064 0.03844213
0000e0 e6 c1 e8 bc 07 1c 0c 3d 0e cf e2 bd 6f d7 e8 3c
       -0.02841277 0.034206416 -0.11074649 0.02842304
0000f0 e0 aa 77 bd 5e a6 1a 3d fd f2 22 bd 4f b3 9e 3c
       -0.060465693 0.037756316 -0.039782513 0.01937261
000100 4c 51 16 be 04 19 34 3e 7d ec 0e 3e b0 35 35 bd
       -0.1467945 0.17587668 0.139574 -0.044240654
000110 1a 49 49 be d1 70 d1 3d 8d 17 64 3d 9e 9c c1 bd
       -0.19656792 0.10226596 0.055686522 -0.094537005
000120 aa 13 3d 3d cd 97 30 bd 71 9f 33 bd 28 31 c6 3d
       0.04616133 -0.04311352 -0.043853227 0.096773446
000130 d5 8b 26 be b2 3b a8 3d fe 53 d5 3d 45 00 16 3e
       -0.16264279 0.08214511 0.10416411 0.1464854
000140 a7 3e 08 be fd 77 6c bd 96 11 36 3e d5 69 09 bc
       -0.1330515 -0.057731617 0.17780146 -0.008387049
000150 e5 ea 9a bd 63 b8 be bd 0d ec 15 3d 3a b8 c1 bd
       -0.07564334 -0.09312513 0.03660207 -0.094589666
000160 27 78 79 bd d7 3e 4c 3d f3 95 17 bc 3a 7b 37 3d
       -0.0609056 0.049864616 -0.009252059 0.044795252
000170 0b 49 05 3e fb b2 7b bd 01 91 a8 3d f6 ba 5d 3d
       0.13016145 -0.061449986 0.08230782 0.054133378
000180 19 e8 1f 3e 37 29 4b be e0 77 70 3c 1c 7f 5a 3d
       0.15615882 -0.19839941 0.014677018 0.053343877
000190 94 7f ba bd 96 b9 c2 bd 1c 2f b8 bd 50 ac fd 3d
       -0.09106365 -0.09508054 -0.089933604 0.123863816
0001a0 ff e5 56 be 2d 28 60 bd 1d 2c 7f 3d d3 42 cd 3d
       -0.20986174 -0.054725815 0.06229793 0.10022511
0001b0 f6 cb 10 3e ef f1 56 bd 8d ce a3 3d 29 1e 97 bd
       0.14140305 -0.05247682 0.07998381 -0.073787995
0001c0 06 b6 80 bd 8b 75 36 be 06 ff 45 bd 70 9e 16 3e
       -0.06284718 -0.17818277 -0.048338912 0.14708877
0001d0 82 32 a3 3d 4a 70 95 bd 76 12 26 3d e2 50 73 bd
       0.07968618 -0.07296808 0.04054495 -0.059403308
0001e0 05 56 37 3d 49 12 32 3d ca 41 c1 3d 63 42 e5 bd
       0.04475977 0.04347447 0.094363764 -0.11194303
0001f0 b0 9e 34 3d 3d b4 94 3c 68 74 95 bd ac b7 b4 3c
       0.04409665 0.01815235 -0.07297593 0.022060238
000200 21 1f 03 bd 14 43 05 3e 14 b6 e5 3c 91 89 4a 3c
       -0.03201211 0.1301387 0.028040923 0.0123619
000210 22 cc cc 3d 59 e4 9f 3c 77 53 fb 3c 2c 60 97 3d
       0.09999873 0.019518064 0.030679448 0.0739139
000220 df 9f 30 3e 57 a7 41 3d 03 26 14 3d 02 b3 f0 bb
       0.17248486 0.04727873 0.036169063 -0.007345558
000230 63 17 85 bc 2c a1 cd bd 56 aa 5a 3d ef 44 c5 bd
       -0.016246503 -0.10040507 0.0533851 -0.09632289
000240 63 50 f6 3c d3 34 14 be a7 5d 60 bd 12 74 c4 3d
       0.030067628 -0.14473276 -0.054776814 0.09592451
000250 25 94 23 3e a8 3a da bd 79 ba ce 3c c4 79 94 bd
       0.15974481 -0.10655719 0.025235401 -0.072497874
000260 6b a1 48 bb 27 e4 d5 3d d8 e7 82 3d 5d 51 59 be
       -0.003061379 0.10443907 0.06391877 -0.21222444
000270 41 a7 a0 bc 6f 2b 31 3d d6 2f 76 bd dc f4 e1 bd
       -0.019611003 0.043254312 -0.060104214 -0.11033031
000280 75 0d 8c 3b 20 e7 cd bc 87 60 49 3e da b0 12 3d
       0.004274065 -0.025134623 0.19665729 0.03581319
000290 23 6f 78 3d 2c 66 65 3d 04 37 f7 bd a2 06 33 bc
       0.060652863 0.05600564 -0.1207104 -0.010926874
0002a0 99 2f 86 bd de 06 6b bc 88 40 78 bc 84 dc ec 3d
       -0.06552047 -0.014344899 -0.015152104 0.115654975
0002b0 d4 53 20 be af 94 9b 3d a7 ff 92 3d ba e9 34 be
       -0.15656978 0.075967185 0.07177668 -0.17667285
0002c0 37 55 d0 bc bd 0b 90 3d 01 c4 0a be 24 9e 64 3d
       -0.025431259 0.07033489 -0.13551332 0.055814877
0002d0 2a 45 02 bd d7 03 db bd d0 ad d4 3c 96 c1 22 bd
       -0.03180424 -0.10694092 0.025961787 -0.0397354
0002e0 09 ce f2 3b 39 69 92 3d c1 2d 63 bb 12 ba 13 be
       0.007409815 0.07148976 -0.0034664723 -0.14426449
0002f0 8a af 90 3d 1d c1 78 3d da 7d cd bc 8d 67 13 3e
       0.070647314 0.060731042 -0.025084425 0.1439497
000300 01 59 16 be 19 6b 92 3c bb 0b c1 3c 80 d9 c0 3d
       -0.1468239 0.017873334 0.023565164 0.09416485
000310 c2 fb e4 bd f7 49 19 3e ed ac 3e bd 9b 5c 83 bd
       -0.111808315 0.14969622 -0.046551634 -0.064141475
000320 7f 94 98 bd 8b 04 b0 bd da 75 c1 bd 9b 04 4d bd
       -0.074501984 -0.085946165 -0.094463065 -0.05005322
000330 ed 2a 95 bd ad 10 81 bd 10 df f6 bc 2c 3e 03 3e
       -0.07283578 -0.06302009 -0.030135661 0.12816685
000340 b5 19 8e bd 73 86 cb 3d 56 0a 57 3d db 2a 57 3d
       -0.06938497 0.099377535 0.05250009 0.052531105
000350 85 07 50 bc 6f 5f a6 3c 54 68 e3 3d e4 45 e5 bd
       -0.012697105 0.020309178 0.111038834 -0.11194971
000360 91 a3 80 3c 5d 27 38 3c d9 7c 45 3d 94 02 05 3c
       0.015702995 0.011239854 0.048214767 0.00811829
000370 e1 c4 a1 3d c6 03 a0 bd e9 40 ad 3d c3 48 cb 3d
       0.0789888 -0.0781322 0.08459646 0.099259876
000380 ae a1 33 3e b8 e9 2c be 39 68 fd 39 74 a5 41 3e
       0.17542145 -0.16886032 0.00048333572 0.18910772
000390 5e 77 86 bd f3 0b 10 be 7d cf 4f 3d a3 16 c2 3d
       -0.06565736 -0.14067058 0.050734986 0.09476974
0003a0 c4 65 41 be 29 18 3f bd 81 80 eb 3d 7a 7d 8b bb
       -0.18886477 -0.0466539 0.114991195 -0.0042569013
0003b0 cc 63 30 3e ca 44 08 be 47 b7 35 3d 0d 06 92 3c
       0.1722557 -0.13307491 0.04436424 0.01782515
0003c0 11 24 83 3d 07 65 8c bc 78 58 c6 bd cb 25 00 3e
       0.064033635 -0.017138017 -0.09684843 0.12514417
0003d0 8d 61 aa 3d 12 49 61 bd 05 cc 1f 3e 51 11 d7 bd
       0.083193876 -0.055001326 0.15605171 -0.1050135
0003e0 b3 cf a8 bd 6c 77 f1 bd da c6 95 3d 8f ff ed 3b
       -0.082427405 -0.11790356 0.073133186 0.007263131
0003f0 f0 69 d6 3d 29 ee 4e 3d 2f 97 27 bd 81 98 f8 3d
       0.10469425 0.050520096 -0.040915664 0.12138463

pitch_linear.bias f4 [128]
000000 fd 80 f2 be da a6 15 bf 6d 40 05 bf d6 32 10 bf
       -0.47364035 -0.5845772 -0.5205143 -0.5632757
000010 06 b1 1d bf 10 ca 19 bf a8 8c 14 bf 8a 80 07 bf
       -0.6159824 -0.6007395 -0.58027124 -0.5293051
000020 68 2a 13 bf 9f 9f 00 bf 67 2e 23 bf cf a6 1c bf
       -0.5748658 -0.5024356 -0.6374268 -0.6119203
000030 b0 53 02 bf ed a9 07 bf 8a 2f fd be f0 ba 04 bf
       -0.50908947 -0.5299366 -0.49450332 -0.51847744
000040 eb 68 01 bf d2 e0 15 bf 70 61 06 bf 72 1d 12 bf
       -0.5055072 -0.58546174 -0.5249243 -0.5707618
000050 d9 4d 02 bf 9e e3 11 bf 85 08 10 bf 57 57 04 bf
       -0.50900036 -0.5698794 -0.56263 -0.5169577
000060 71 e6 09 bf 8b 18 03 bf 1c ca 0b bf c0 cb 15 bf
       -0.5386725 -0.51209325 -0.5460527 -0.5851402
000070 7b 7c 0d bf e6 2c e5 be 84 db e7 be 5e 8b dc be
       -0.5526807 -0.44760817 -0.45284665 -0.4307508
000080 20 f0 c3 be b5 dc b5 be 14 ae 92 be 8d 5d 88 be
       -0.38269138 -0.3551995 -0.28648436 -0.26633874
000090 a5 a4 3b be e5 0a 3d be 3e 32 40 be b1 a1 24 be
       -0.18324526 -0.18461187 -0.18769166 -0.16077305
0000a0 6b b5 ae bd 40 79 9a 3d 0c 60 34 bd 25 5e 36 3e
       -0.085306965 0.07542658 -0.04403691 0.17809351
0000b0 d1 b5 5f 3e 32 3b a9 3e 38 f8 a7 3e 3d 23 79 3e
       0.21846701 0.33052975 0.32806563 0.24329849
0000c0 86 f0 05 3f ed 37 d2 3e 07 84 1d 3f 22 3f 05 3f
       0.52320135 0.41058293 0.6152958 0.5204946
0000d0 fd b7 25 3f 69 d1 4a 3f 39 3c 2d 3f 2d ee 55 3f
       0.6473387 0.79225785 0.6767002 0.8356655
0000e0 a8 b8 5c 3f 0b b9 7a 3f f6 3b 73 3f 56 0b 53 3f
       0.86219263 0.97938603 0.9501337 0.8243917
0000f0 2c b0 79 3f 85 81 5e 3f a2 1d 90 3f 86 0d 74 3f
       0.9753444 0.8691638 1.1259043 0.95333135
000100 cf 1a 85 3f f4 34 81 3f 1b bd 72 3f de 7e 88 3f
       1.0398806 1.0094285 0.948198 1.0663717
000110 32 bf 71 3f d0 21 89 3f b9 7f 63 3f 58 80 66 3f
       0.94432366 1.0713444 0.88866764 0.9003959
000120 4d 97 6a 3f 01 96 66 3f c1 ad 7f 3f 0c ee 3e 3f
       0.91637117 0.9007264 0.998745 0.7458198
000130 b7 2c 32 3f 65 36 4a 3f ca da 18 3f 01 6b 2e 3f
       0.6959948 0.7898925 0.59708846 0.68132025
000140 a1 d3 06 3f 83 8e f4 3e bd 0f 8b 3e e1 df 8b 3e
       0.5266667 0.47764978 0.27160445 0.27319244
000150 a1 7d 6b 3e 7b 00 2a 3e 6e 13 a6 3d 51 89 82 bd
       0.22997142 0.16601746 0.08109175 -0.06373847
000160 bd 73 82 bc 77 25 ac bd 06 38 7b be ad c6 57 be
       -0.015924329 -0.08405583 -0.2453309 -0.21071883
000170 35 48 b0 be d7 0b a0 be be 9a b5 be c7 fa e2 be
       -0.3443009 -0.31259033 -0.3546962 -0.44331953
000180 8d 80 ec be 2d 0a 01 bf 9d 7b f7 be a0 20 0a bf
       -0.46191826 -0.5040615 -0.48336497 -0.5395603
000190 be 6e 0f bf ea a8 00 bf b9 8d 0d bf 90 e3 03 bf
       -0.56028354 -0.5025774 -0.55294377 -0.5151911
0001a0 3b 96 1f bf a6 b8 0b bf 0d a8 07 bf ad c4 09 bf
       -0.6233861 -0.54578626 -0.529908 -0.5381573
0001b0 2d 29 1b bf d8 8a 0d bf 5b 21 06 bf fb 34 0a bf
       -0.60609704 -0.55289984 -0.52394646 -0.5398709
0001c0 e2 8f 15 bf 10 53 0e bf 8c c4 22 bf b2 f5 1f bf
       -0.5842267 -0.55595493 -0.63581157 -0.62484276
0001d0 c1 7b 21 bf d5 f7 05 bf c2 55 05 bf 9b a5 03 bf
       -0.6307946 -0.52331287 -0.5208398 -0.5142457
0001e0 05 b9 13 bf f9 f6 19 bf 27 65 20 bf ea 16 1c bf
       -0.5770419 -0.60142475 -0.62654346 -0.60972464
0001f0 a1 ba 04 bf 8d 44 19 bf cd ad 1b bf 31 48 06 bf
       -0.51847273 -0.59870225 -0.60812074 -0.52453905

step_linear.weight f4 [1, 128]
000000 26 88 c1 bc da f8 93 3b 15 47 4e 3b 81 9c f8 ba
       -0.023624491 0.0045157494 0.0031475474 -0.001896754
000010 80 a1 92 3c 5f a8 58 bc 56 48 44 bc 4c aa 41 3c
       0.017899275 -0.013223737 -0.011980137 0.011820387
000020 53 f0 c4 3d b2 c3 0e bc 68 19 86 bb fe 32 87 3c
       0.09616151 -0.00871365 -0.004092384 0.016503807
000030 20 21 70 bc 67 04 86 3c 64 02 c3 bc 9a 04 f5 3c
       -0.014656335 0.016359521 -0.02380485 0.02990942
000040 ab 87 ff 3b 50 ae ff bc bf 43 ab bc 16 f7 a0 3a
       0.0077981553 -0.031211048 -0.020906327 0.0012280669
000050 b0 ae 92 3b bc 8f b3 bc 51 16 98 3b 5a 01 e4 3c
       0.004476391 -0.021919124 0.004641332 0.027832676
000060 1b 78 91 3b 79 69 19 bc 68 ab 9f 3d 90 b5 d9 bd
       0.0044393665 -0.009363526 0.07796365 -0.106303334
000070 f3 38 0b bd 84 dd 89 3c bc dd a4 3c a8 d6 ee bb
       -0.033989858 0.01682926 0.020125262 -0.0072887726
000080 86 35 62 b9 c4 b6 e3 bc 36 5d db 3c 4e 8a c8 bc
       -0.00021572979 -0.02779711 0.026777845 -0.024480011
000090 c2 1e 41 3c ca 06 85 3b 45 e9 08 3c cc 57 da bc
       0.011787118 0.004059647 0.008356397 -0.026653193
0000a0 2a 26 94 3c f3 4e 3d 3c cf c0 2b 3c 6f 20 d1 3c
       0.018084604 0.0115544675 0.010482981 0.02552816
0000b0 e2 85 7c bc d2 0d d2 3c 1e 67 c2 bb 63 20 bd bc
       -0.0154127795 0.025641356 -0.0059327027 -0.023086732
0000c0 3a f4 a5 bb 37 6a 9e 3b f7 2e 91 bc c1 c3 4d bc
       -0.0050645145 0.004834439 -0.01772259 -0.012558878
0000d0 34 fd 15 3c c9 6a 9f bc 1f 37 1d bb 93 54 74 b9
       0.009154607 -0.019460099 -0.0023989154 -0.0002330116
0000e0 16 bc 07 3d b7 08 c4 ba 13 20 91 bc f4 08 26 3c
       0.033138357 -0.001495621 -0.01771549 0.0101339705
0000f0 d8 12 4a bc 29 ab 37 bc e2 73 5f 3b 66 f4 2a 3b
       -0.012333594 -0.011210241 0.003409617 0.0026085614
000100 37 61 fc 3b 7e 4b 1f 3d 1e 04 54 3c 1f e9 ee 3c
       0.0077020186 0.038890354 0.012940435 0.029163895
000110 ba a2 e9 3a fb 9a f9 3c 77 e5 3d 3c 43 f8 e3 bc
       0.0017824986 0.030469408 0.011590353 -0.027828341
000120 89 9b 20 3c ab 00 59 bb 28 8f dd ba 69 21 73 bc
       0.0098027075 -0.003311197 -0.0016903626 -0.014839509
000130 58 44 0f 3a 25 a7 42 3c 35 20 40 38 22 5f 0a 3c
       0.0005465201 0.011880671 4.5806362e-05 0.008445533
000140 40 5b 39 bc 84 d3 b8 bb 34 6f 18 3e a4 6d 66 bc
       -0.01131326 -0.005640449 0.1488617 -0.014064226
000150 89 cb de bc 76 82 45 bc 94 36 8b 39 86 85 36 bd
       -0.027196663 -0.01205503 0.0002655281 -0.04456093
000160 26 30 3c bc 81 f4 17 bc fa 10 cb bc 24 ec 30 bc
       -0.011486089 -0.009274603 -0.024788368 -0.010798488
000170 54 0f 3b 3d 1d 2a 62 3c 93 50 de 3b 43 a4 09 3d
       0.045668915 0.013803986 0.0067845075 0.033603918
000180 3e 50 0b 3c f0 aa e0 3c 25 28 8f 3c da 42 5a 3d
       0.008503018 0.02742526 0.017475197 0.05328641
000190 19 74 3a bc 69 bc f7 bc 33 2b fb 3c f1 16 e4 bc
       -0.011380219 -0.030241208 0.030660247 -0.02784297
0001a0 1d b1 b0 bc 9b 29 85 3b ba 73 b3 3b bb 6d da 3a
       -0.02156883 0.0040637976 0.005476442 0.0016664782
0001b0 70 84 b9 bc ef 9f 1a 3b 46 64 99 3c 7e fd c5 bc
       -0.022646159 0.0023593863 0.018724572 -0.024168726
0001c0 85 01 45 bc 83 a8 5c bc c4 11 69 bc 2d 08 36 bd
       -0.012024288 -0.013467911 -0.014225427 -0.04444139
0001d0 7f 47 b7 bb 3a 12 2a bc 93 bc ba 3c 7d 27 7d bc
       -0.00559324 -0.010380322 0.022794997 -0.015451309
0001e0 0d c5 4c bc 86 72 a9 bc fc 55 9d 3b d2 26 3f 3c
       -0.012498152 -0.020684492 0.00480151 0.01166697
0001f0 4a 6b 4e bc 01 2a c2 3c 04 7b bd bb cb 67 18 3c
       -0.012598822 0.02370167 -0.005782487 0.00930209

duration_linear.weight f4 [1, 128]
000000 5f 78 aa bd 26 b4 a2 3d 4b 41 d4 3c 88 db 93 3d
       -0.0832374 0.07944517 0.02591004 0.07219607
000010 3c cc 96 bd c4 24 5a 3d 00 de 35 3e 38 7d b8 bb
       -0.07363173 0.05325772 0.17760468 -0.0056301616
000020 3c f4 bb bd 3f 79 cd 3d e6 a2 54 3c a0 71 ca 3c
       -0.091774434 0.100328915 0.012978291 0.024712384
000030 5b e3 58 bd 14 74 bb bd e6 52 3d 3d b3 31 01 bd
       -0.052951198 -0.091529995 0.046221636 -0.031541537
000040 37 90 f0 bc f1 ec b0 bd 4e e0 da 3b 4b b2 5a 3d
       -0.029365642 -0.08638943 0.0066795712 0.05339269
000050 30 e4 bd 3d 88 18 71 3d 7a ff ff bd 5b cf 80 3e
       0.09272039 0.058861285 -0.124999 0.251582
000060 22 62 1e bd 49 75 3a bd 96 9d c1 3d dc c7 a8 ba
       -0.038667805 -0.045522008 0.09453885 -0.0012876946
000070 fa 0e 90 3d d0 ee a7 bd af 53 e2 bc 59 77 5c 3d
       0.070341066 -0.08199847 -0.027627794 0.053824756
000080 fd 2c ad bd 6c fb b6 3d c1 45 a6 3d a1 98 94 3d
       -0.084558465 0.08934674 0.08118773 0.07255674
000090 5a a1 3a bd a5 41 94 3d 6c a5 f8 bd f2 3a c2 bc
       -0.045564033 0.07239083 -0.12140927 -0.023709748
0000a0 c5 94 89 bd 42 4b 5e bc a0 31 d9 bd 94 ba f2 bc
       -0.06717829 -0.013567748 -0.10605168 -0.029629983
0000b0 15 22 de 3c 26 71 4f bd b5 3a c0 3d a1 22 9f bb
       0.027115861 -0.050645016 0.093861975 -0.004856423
0000c0 1e 38 01 be a3 99 06 3e 0f c7 72 3c 96 87 75 3d
       -0.12619063 0.13144545 0.014817967 0.059943758
0000d0 e5 1e 06 3d 76 0e b9 3d c3 c1 ab bd ba f6 c1 bc
       0.032744307 0.09035961 -0.083865665 -0.023677219
0000e0 61 62 0a 3d f8 7f 7b bd 92 60 a6 3d 43 f1 46 bc
       0.033785228 -0.061401337 0.08123888 -0.012142482
0000f0 36 09 f0 3c 60 b9 4b 3d d7 fa a9 3c 18 2f 07 3e
       0.029301267 0.049737334 0.020749493 0.13201559
000100 7f d5 a0 3b e2 1e 89 3d 74 ce 9c 3d b8 e1 c6 3d
       0.004908263 0.066953436 0.07656565 0.09711021
000110 b7 79 62 bd e7 ff 6b 3d 00 27 56 3d ef fb b3 bd
       -0.055291858 0.057617094 0.052283287 -0.08788287
000120 02 9c 8a bd 78 56 72 bd 59 10 85 bd 78 83 e0 3d
       -0.067680374 -0.059164494 -0.06497259 0.10962576
000130 30 b1 f2 bc 1a c4 61 b8 75 03 07 3c 17 21 d5 3d
       -0.029625505 -5.3826814e-05 0.00824057 0.10406702
000140 0e 88 c0 bd db e8 5e 3d a3 d8 5f 3e bb 33 aa 3d
       -0.0940095 0.054421287 0.21859984 0.08310648
000150 2c 20 b8 3d ad 6c c0 3c d4 4a 20 3e ce fe e4 bd
       0.08990511 0.02348932 0.15653545 -0.11181413
000160 a5 a8 be 3b ce cb 02 3d 4b 9c 6e 3d b3 cc f8 3b
       0.005818444 0.031932645 0.05825452 0.0075927614
000170 6d eb 14 3d 59 11 ec bd 6f da 0f bc 1e 81 c2 3d
       0.036357332 -0.11526746 -0.008780106 0.094972834
000180 55 0f f7 3c 0b 59 6d bc 15 6b 0c 3c 63 31 c2 3d
       0.030158678 -0.0144865615 0.008570452 0.09482076
000190 9f bb 3e bc ae 50 ab bd 3c 1d 78 bd f7 66 1a 3d
       -0.011641412 -0.08364998 -0.060574755 0.03769585
0001a0 cc 33 fe 3c e9 f7 a2 bd 2c 3c 77 3d 22 23 95 3d
       0.031030558 -0.07957441 0.06036012 0.07282092
0001b0 3b 63 9a 3d d5 b4 e7 bd e6 61 88 3b 21 05 77 3e
       0.07538458 -0.11313788 0.004162061 0.2412305
0001c0 dc 34 a4 bc c9 3e 76 ba 59 29 c5 3d da f1 d9 bb
       -0.020044737 -0.0009393511 0.09627027 -0.0066511454
0001d0 8d d8 06 bd 19 80 20 bd 34 ba 65 bc 61 97 40 3c
       -0.032921363 -0.039184663 -0.014021445 0.011754842
0001e0 60 75 9e be 89 81 1a bd 1b 31 e8 3d e6 08 4c 3d
       -0.30948925 -0.03772119 0.11337491 0.049813174
0001f0 25 6b 87 3d 39 72 09 3c cf 68 e3 3d b5 c5 89 3d
       0.06612233 0.008389049 0.11103975 0.06727163
