torch/model30.pth (torch, 342035 bytes, 8 tensors)

lstm.weight_ih_l0 f4 [512, 3]
000000 80 83 1f bd 07 95 c0 3d 78 18 81 3d 2e b8 97 3d
       -0.038943768 0.09403425 0.06303495 0.07408176
000010 83 41 03 bd 74 5d 14 bd 79 98 cf 3c 2c ad 57 bd
       -0.0320449 -0.036221936 0.02534126 -0.052655384
000020 8d 46 8b 3d fb 9b 2d 3c 01 8a b0 3d 6b c3 a3 3d
       0.06800566 0.010596271 0.08620072 0.079962574
000030 47 81 96 3d b5 4e 05 3d 1f 69 b7 bd 44 da 47 3c
       0.073488764 0.032545764 -0.08955597 0.012198035
000040 a2 c6 e9 bd 75 1c 9f 3d d1 e2 a1 3d c3 bc 9d 3d
       -0.11414839 0.077690996 0.0790459 0.07702019
000050 e7 25 c1 bd 5f 48 7f 3d 43 86 0f 3d 21 15 09 be
       -0.094310574 0.062324878 0.03504015 -0.13386966
000060 4a cc 5e 3d 6e 85 fe 3c 0c 5e a4 3d 00 47 25 3c
       0.054394044 0.031069484 0.080257505 0.0100877285
000070 3a 7f 8f bc 82 50 90 3c 66 28 21 3d 24 20 8a bd
       -0.017516721 0.017616514 0.039345168 -0.067444116
000080 56 a3 0a 3c be 11 4a bc 8a 92 73 3d a4 e5 4b bd
       0.008461794 -0.012333332 0.059465922 -0.04977955
000090 2c 63 77 bc 56 b8 8b 3d 03 6b 02 be 5c d6 84 bd
       -0.015099328 0.06822269 -0.12736134 -0.06486198
0000a0 e9 27 1f bc 72 37 f9 3c a9 6f 26 bc 32 96 93 3d
       -0.009714105 0.030421946 -0.010158458 0.07206382
0000b0 41 ac 9f 3d 5f 88 9f bd 06 0f ea 3c ac 68 32 be
       0.07796527 -0.077896826 0.028571617 -0.17422742
0000c0 af 0a 72 3d 5b 3e 82 3d 7e c4 5e 3d 9f 20 65 3d
       0.05909222 0.063595496 0.05438661 0.055939313
0000d0 c7 df 09 3e 1f 1c 98 bd 2b 50 0b bd 7e ad 45 3d
       0.1346427 -0.07427239 -0.034012 0.04826116
0000e0 77 69 02 3d 3b f1 46 3c b0 31 a2 3d 80 ae 27 bd
       0.03183886 0.012142475 0.079196334 -0.0409379
0000f0 ca 93 6a bc 33 91 ab 3d 84 63 9d 3d 08 de b0 bd
       -0.014317462 0.08377304 0.07684997 -0.08636099
000100 4a cc 10 3d 02 51 c2 3c 3d a3 89 bd 12 ab 0b 38
       0.035351075 0.023720268 -0.06720588 3.3299504e-05
000110 d8 f0 28 bc c8 fb 31 3d 6b eb 44 3e 34 25 86 be
       -0.010311328 0.043453008 0.1923043 -0.2620026
000120 9c 01 9c 3d 81 c3 37 bd ba 87 d7 3c b0 d3 a1 3d
       0.076174945 -0.04486418 0.026309837 0.07901704
000130 2c bb 3d 3d 42 c9 7d bb c6 0c 1f bb e0 0c be 3d
       0.04632108 -0.0038724695 -0.0024269088 0.092797995
000140 0d ea 81 3d 65 18 d7 bd e8 e7 3f 3e 50 d8 5c be
       0.0634347 -0.105027 0.18740809 -0.21566892
000150 a5 28 55 3c 16 30 c5 3d 62 e0 31 bd 2e ae 03 3d
       0.013010179 0.09628312 -0.04342688 0.032148533
000160 99 a7 c5 3d ab 2b 68 bd bd f7 59 3d cc 99 49 3d
       0.09651107 -0.05668227 0.053214777 0.049218938
000170 8e 64 12 3e ab c8 02 bd ee ce 24 3d f1 18 88 3c
       0.14296171 -0.031929653 0.040236406 0.016613455
000180 25 e5 a1 bb ac 92 ad 3d 46 99 9b bb bd 33 b8 bd
       -0.0049406462 0.08475241 -0.004748496 -0.08994243
000190 79 3c 5d bd 49 0b 08 38 dc 55 a0 bd fd 57 c3 3d
       -0.05401275 3.2435437e-05 -0.078288764 0.09538267
0001a0 a8 26 01 3e cf b3 3a bc 62 3d 9f 3d 6b 9e ac 3d
       0.12612402 -0.011395409 0.0777538 0.08428653
0001b0 16 2a c1 bd 0e 70 9b 3d 30 a7 26 3c 42 d7 8b bd
       -0.094318554 0.07589732 0.010171697 -0.068281665
0001c0 39 f4 63 3d 7e 01 2d bd 93 f6 6d 3d a6 c3 1d bd
       0.05565283 -0.04223775 0.05809648 -0.038516663
0001d0 69 02 45 3b 68 b1 9b 3c e6 61 d2 3d 28 ce 9a 3d
       0.003006125 0.019005492 0.10272579 0.075588524
0001e0 a5 cd c5 bd d4 29 31 3d 48 8f 19 3e 7f 3f 83 bd
       -0.09658364 0.04325278 0.14996064 -0.06408595
0001f0 1e ab c3 3d 6a a7 6e bd 1c eb 75 bb 11 f9 20 3d
       0.095541224 -0.058265127 -0.003752417 0.03930003
000200 52 d2 4f bd d0 80 53 bd d6 24 a5 bd a2 4f 4f bc
       -0.050737686 -0.051636517 -0.080636665 -0.012653263
000210 34 9a 13 bd 13 85 24 3d d1 34 89 3c 98 86 46 3d
       -0.03603573 0.040165972 0.016748818 0.048468202
000220 54 a6 6e 3d 06 90 bc 3d 68 d1 5a bd 30 71 23 3c
       0.05826409 0.09207158 -0.05342236 0.0099757165
000230 e6 a5 58 bd 4c 6f ef bd d4 be b8 3d 5f ec 83 ba
       -0.052892588 -0.1169115 0.090207726 -0.0010064951
000240 96 f8 f3 3c a3 37 b3 3c 82 9f 76 bd 29 05 82 bd
       0.029781621 0.021877116 -0.060210712 -0.063486405
000250 c5 62 44 3d 78 29 12 3c 4d be dc bc 2a 3d 39 3d
       0.047945756 0.00892102 -0.026946211 0.045224346
000260 00 37 6b 3c 58 a1 be bc b9 ca 4d bc 41 fd b3 3d
       0.014356375 -0.023270294 -0.01256054 0.08788539
000270 b6 b2 aa bd 7f 98 3f 3c aa 16 a6 bd 1d 12 8f bb
       -0.08334868 0.011694073 -0.081097916 -0.004366173
000280 e5 a7 9e bd 7c bb 05 3d 58 6b 57 bd be 5b b0 3c
       -0.07746867 0.032649502 -0.052592605 0.021528121
000290 e4 98 da 3d 34 b4 58 bd c0 09 a5 bd 17 78 2c bc
       0.10673693 -0.05290623 -0.080585 -0.0105266785
0002a0 6a cf bf 3c c6 ff e5 3d 17 4e 23 3d 6b f5 ea bc
       0.023414332 0.112304255 0.039869394 -0.028681478
0002b0 b6 82 a9 bd ab f9 73 3d fb 94 5b bd 4d 7c 82 3d
       -0.08276884 0.059564274 -0.053608876 0.06371365
0002c0 43 6b 3b 3d e3 a5 9c 3d b5 36 63 3d 9d 5f 9d 3d
       0.04575659 0.07648828 0.055472095 0.076842524
0002d0 16 94 bc 3c 06 14 66 3d 27 b7 53 3b 4b 23 4a bc
       0.023019832 0.05617144 0.0032305212 -0.012337516
0002e0 21 59 58 3d c6 a5 0a bd 4a e1 a2 3d 5d ab 78 3d
       0.052819375 -0.0338495 0.07953127 0.0607103
0002f0 1d 66 35 bd 17 7e 4b 3d 78 c8 ee bc 4f b2 86 3d
       -0.044286836 0.049680796 -0.029148325 0.065769784
000300 78 f1 7d bd 0f cf d1 ba dd d1 d4 3b c6 51 bb bd
       -0.06199786 -0.0016007143 0.006494744 -0.091464564
000310 ce af 99 3d a1 49 f8 bc 4c a0 3a 3d 2a 08 5e 3d
       0.07504235 -0.030308546 0.045563027 0.054207005
000320 c3 8c 48 3e 20 0b 72 bd be 98 db bc 89 9b e3 3d
       0.19584946 -0.05909264 -0.026806232 0.1111365
000330 52 7b 43 3b 7d b2 38 be 7f 6a 14 be f4 0d b2 b9
       0.0029828143 -0.18036838 -0.1449375 -0.00033961202
000340 a4 e4 c2 3d 99 a4 ed bb 26 0b 26 bd 3c 1c 20 3c
       0.09516266 -0.0072522876 -0.040537976 0.009772357
000350 7e 97 2c 3d 9c 61 83 bd 58 f3 20 be fc aa fd 3d
       0.04213666 -0.06415102 -0.15717828 0.12386128
000360 a0 2a a0 bb 79 20 36 3d 88 6a 9d bc 7c 13 95 bd
       -0.004887894 0.044464562 -0.019215837 -0.07279107
000370 16 e5 e7 bc 27 c1 d0 3c 90 13 89 3d 63 c2 74 3d
       -0.028307479 0.025482727 0.066931844 0.059755694
000380 ec 03 1e 3d 5d dd 94 bc 61 ae 0d 3c 80 f7 bb bb
       0.03857796 -0.01817196 0.008647532 -0.0057362914
000390 c2 26 47 3c de 47 85 3d e8 59 8d 3d c7 80 27 3d
       0.012155237 0.06507848 0.06901914 0.040894296
0003a0 80 0b bf 3c 1b 91 5f 3d 01 6b 71 bd 0f 11 61 3d
       0.023320913 0.054581743 -0.058939938 0.05494791
0003b0 f3 42 62 3d 99 d9 d3 bd 46 ef 8a bb 02 ac d7 3d
       0.05523963 -0.10344238 -0.0042399494 0.10530855
0003c0 ee 65 b6 bd 42 79 10 be 63 9f ff bc 67 d6 88 bd
       -0.0890616 -0.14108756 -0.031203931 -0.06681519
0003d0 04 d8 b3 bb a6 f8 dd 3c 4c 3d aa be f8 af 8b 3d
       -0.0054883976 0.027096104 -0.3324989 0.06820673
0003e0 7c 69 30 bf 54 17 6a 3b d0 d3 af 3d ec 5d 74 bd
       -0.68910956 0.003571947 0.08585322 -0.059659883
0003f0 6c 9b 33 bd 1c f7 f1 3c 59 55 3f 3c 84 83 3f 3d
       -0.043849394 0.029536776 0.011678063 0.046756282

lstm.weight_hh_l0 f4 [512, 128]
000000 6a 84 06 bb af 8f a9 3d 37 ae a0 3d 11 d1 59 3c
       -0.0020525702 0.082793586 0.07845729 0.013294474
000010 97 64 79 bd 19 0a 7a bd 97 7f 95 3d c9 46 89 bd
       -0.060886946 -0.061044786 0.072997265 -0.06702954
000020 ae d0 03 3c e8 4f d7 bc fc da a8 3d 30 2e 03 bd
       0.008045359 -0.02628322 0.08244893 -0.03202647
000030 b5 1c 5a bc 9d a4 1f 3d 55 62 a3 bd d8 f7 22 3d
       -0.013312508 0.038975347 -0.0797774 0.039787143
000040 85 49 87 3c 55 03 90 3d 68 6f a6 bd 36 57 97 3d
       0.016514549 0.070318855 -0.08126718 0.07389681
000050 47 d9 70 bd 35 73 45 bd a1 b9 21 3d 80 31 a0 3c
       -0.05880096 -0.048205573 0.03948367 0.019554853
000060 29 8d 8d 3d 16 e7 af 3d e7 46 cc bc c5 a7 c6 bd
       0.0691169 0.08588998 -0.024936153 -0.09699968
000070 ca d7 96 bd 07 bd ba bd 6f 1c 86 3d bc da 79 bd
       -0.07365377 -0.09118085 0.06548392 -0.060999617
000080 54 b4 14 bb 98 01 02 bd 82 f1 52 bd 42 d6 9a bd
       -0.0022690492 -0.0317398 -0.05149985 -0.07560398
000090 28 b9 24 bd 4a fd 37 bd c5 1a 3b bd a1 35 8b 3d
       -0.04021564 -0.04491929 -0.045679826 0.06797338
0000a0 29 cd 98 3d 38 c3 26 3d 16 ab 28 3d 6c b7 1a bd
       0.07461006 0.04071352 0.041178785 -0.03777258
0000b0 21 58 45 3c 33 2f f6 3c bc 39 9a bd 2f fa 74 bd
       0.012044937 0.030051803 -0.07530543 -0.059808906
0000c0 db f7 55 bc 2a 35 9b bd 23 ca 3c 3d a8 1c 7c 3d
       -0.013059582 -0.075784996 0.04609121 0.061550766
0000d0 76 c0 58 3d 57 b0 9e bd c0 e6 44 bd cb 67 91 bd
       0.05291792 -0.07748478 -0.048071623 -0.07099875
0000e0 bb 3f 33 3d 5f 13 8d bc 43 65 d4 3c d4 fa 4e bd
       0.04376195 -0.01722115 0.025927192 -0.050532177
0000f0 52 1d 65 3d 04 1c 6f bc e5 23 27 bd 5e cd 3f 3d
       0.055936165 -0.014594082 -0.040805716 0.046826713
000100 01 1d 0a 3c d2 94 9a bd c0 0e c6 3d d3 e1 99 3d
       0.008429767 -0.075479165 0.09670782 0.07513776
000110 64 4a 72 3d 1d 1b cd 3d 1e 39 7e bd 8e 17 8f 3d
       0.059152976 0.10014937 -0.06206619 0.069869146
000120 42 7d 74 bc d9 8c 7f 3d d0 c8 ac bd 80 9c d2 3c
       -0.014922442 0.062390182 -0.084367394 0.02570939
000130 6a 08 87 bd 22 c0 7c 3c b6 64 6a 3d 22 50 33 bd
       -0.06593402 0.015426667 0.05722495 -0.043777592
000140 d3 19 af bd c0 47 4e 3c 25 87 dd 3c ad 00 80 bc
       -0.085498475 0.012590349 0.027041981 -0.015625322
000150 ec 95 e7 3c 8f 53 ca 3c ad 24 51 3d 2c 9a 39 bd
       0.02826973 0.024698047 0.051060367 -0.045313045
000160 af 27 6a 3d 82 ca 25 bd 6e 01 99 bd 32 aa 20 bd
       0.05716675 -0.04047633 -0.07470976 -0.03922481
000170 1a e7 9d bd 5b 7d 28 bc e2 f2 87 3d 14 db eb bb
       -0.07710095 -0.010283793 0.06638123 -0.007197747
000180 d3 10 bc 3d 3a 05 6e 3c b5 b3 9d bd 80 c1 53 3c
       0.091828965 0.014527613 -0.07700292 0.012924552
000190 b4 bd 48 bd 68 fd 5e bd 96 f1 8e bd 36 8e c9 3c
       -0.04900904 -0.054440886 -0.069796726 0.024603944
0001a0 2d ba 46 bd fa 80 38 3d 09 90 64 bd 4a 29 65 bc
       -0.048517395 0.045044877 -0.055801425 -0.013986895
0001b0 80 d6 8c 3d 34 24 e0 3c 5b e1 97 3c bd 98 65 bc
       0.0687685 0.027361013 0.018540075 -0.014013466
0001c0 d1 41 0e bd 95 72 6d 3d 45 cc 58 3b 5b ba 56 3b
       -0.034730736 0.057970602 0.0033080739 0.0032764885
0001d0 c9 28 96 3d 75 ef 72 3d 06 4e 8c bd 65 97 a0 3d
       0.07331998 0.059310395 -0.06850819 0.07841376
0001e0 5d 2a 13 3d 57 ca a5 bd dd 50 4b bd 16 7f a6 3c
       0.035929073 -0.08095234 -0.049637664 0.020324271
0001f0 d1 a3 40 3d 53 88 9b 3c b2 c8 af bd d9 cb 74 bd
       0.047031227 0.018985903 -0.085832015 -0.059764717
000200 5f 83 2e bd 57 f1 b1 3b 11 e5 39 3d 4d f7 0b bd
       -0.042605754 0.0054303813 0.04538447 -0.03417139
000210 bc 66 a1 bd b5 86 8d bd b1 f6 5b bd 97 d3 4f bd
       -0.07880923 -0.06910459 -0.05370206 -0.050738897
000220 b5 95 59 3d bb bc 66 bc 13 06 a7 bd 02 98 4a 3d
       0.053121287 -0.014083083 -0.081554554 0.049461372
000230 73 f5 86 bc 6c d3 03 3d 8b 70 22 bd 68 a4 4b bd
       -0.016474461 0.03218405 -0.03965811 -0.049717337
000240 0b b8 8d 3d a7 ae b0 bd 6a 92 90 bd 16 02 90 3d
       0.06919869 -0.08627062 -0.07059176 0.07031648
000250 14 db 14 3d cd df d1 3c 43 bf 7d bd 6f 13 03 3d
       0.03634174 0.025619412 -0.06194998 0.032000955
000260 ea 42 84 3d 73 a8 9e 3d b3 23 0f 3d f7 a7 63 bd
       0.06458075 0.07746973 0.034946155 -0.055580106
000270 13 95 87 bd 0f 12 6b bd 8f 99 95 bd 7a 4d 27 bd
       -0.066202305 -0.05739027 -0.073046796 -0.04084537
000280 5e 42 0e bc 82 f0 38 3d 2f 22 7e 3d 47 bc 69 3c
       -0.008682815 0.04515124 0.06204432 0.01426608
000290 6f 83 a5 3d 87 1f 24 bb 5e 7f 6b bd 79 2e 88 3d
       0.080817096 -0.0025043206 -0.057494514 0.06649489
0002a0 1e c6 b0 3c 8b e9 7f bc 79 f2 ae bd ef 8e 81 bd
       0.021578845 -0.015619646 -0.08542342 -0.063260905
0002b0 bc ec 9e bc 05 29 aa 3d 34 fc 94 3d 6e ce 93 3d
       -0.019399993 0.08308605 0.072746664 0.07217108
0002c0 26 16 4b 3d b4 58 88 3d 0a 3e 81 3d f7 38 0d 3d
       0.04958167 0.06657544 0.06310661 0.034478154
0002d0 55 23 5e 3d eb 3b b3 bc 4b 76 10 3d 75 fa 50 3c
       0.054232914 -0.021879157 0.035269063 0.012755026
0002e0 fd 86 25 3c 5c ea 74 3b 80 14 7e 3d 32 68 6b 3d
       0.0101029845 0.0037371134 0.06203127 0.057472415
0002f0 6f 61 3d 3d 35 47 10 3d 79 74 29 bd 36 1e c2 bc
       0.046235498 0.03522416 -0.041370843 -0.023696046
000300 80 8f 72 bd f8 04 39 3d b1 d9 0c 3d ff ed b1 bd
       -0.059218884 0.045170754 0.034387294 -0.08687972
000310 c8 bd 89 3c 26 a3 96 3d 10 e5 03 3c 2d 23 d4 bc
       0.016814128 0.07355337 0.008050218 -0.02589568
000320 4e 33 90 bd 63 3a a8 bc 6b e2 a1 3c 35 1f 9f 3d
       -0.070410356 -0.020535653 0.019761285 0.07769624
000330 22 b4 00 bb 96 fa 4c bd b7 e9 ad bd 10 d4 39 bd
       -0.0019638618 -0.050043665 -0.08491843 -0.045368254
000340 8c ae 9a 3d 2c 0f 6b 3c 2a cc 48 3d a2 e4 1d bc
       0.075528234 0.014346879 0.04902283 -0.00963703
000350 ec 7c 42 bd a6 b4 45 bd bc c6 f8 bc cc 1c fb 3c
       -0.047482416 -0.048267983 -0.030368201 0.03065338
000360 f7 bb 0c 3d a7 83 44 3d 14 08 96 bd 80 a1 71 3d
       0.034358945 0.047977116 -0.073257595 0.05899191
000370 d2 8a 85 3a 88 a6 ab 3d ee a9 e3 3c c6 32 8e bd
       0.0010188466 0.08381373 0.02779099 -0.06943278
000380 27 bc 84 3d 19 82 85 bd a6 c2 8c 3d d5 a8 00 bd
       0.064812 -0.06518955 0.06873064 -0.03141101
000390 a8 44 94 bd b3 50 a5 3d 69 16 01 3d dd 84 93 bd
       -0.07239658 0.08072033 0.031515513 -0.07203076
0003a0 c7 bb 7f bd 96 e8 61 bd 99 9e 5b 3d d6 fe 40 bd
       -0.062434938 -0.05515345 0.053618047 -0.04711803
0003b0 c5 29 5d 3d b9 d5 4a 3d 94 10 80 3d b8 17 5d bd
       0.053994913 0.049520228 0.06253162 -0.053977698
0003c0 ea 73 4b 3c 3e 96 60 3d 4e fa 20 3c e3 86 6b bd
       0.012417773 0.054830782 0.009825302 -0.057501685
0003d0 97 00 f5 bc 9a 4b 91 bd ee 6f 83 3c 03 7a 99 bd
       -0.029907508 -0.07094498 0.016044583 -0.07493975
0003e0 86 b5 04 bd ab c3 40 3d b8 b5 f1 3c 51 b0 ec 3c
       -0.032399677 0.047061604 0.029505596 0.028892668
0003f0 7d 6f 47 bc 1b 0b 96 3b 77 e8 8e 3d 50 e3 24 3c
       -0.012172577 0.0045789606 0.06977933 0.010063961

lstm.bias_ih_l0 f4 [512]
000000 d3 38 89 bd c6 a1 6c bb 61 5c 80 3d 9f 6e a1 bd
       -0.067002915 -0.0036107167 0.0626762 -0.078824274
000010 71 3a 57 39 03 59 12 3b 26 d2 c6 3c 8c 22 43 3d
       0.00020525769 0.0022330887 0.024270128 0.04764037
000020 11 64 4f 3c 64 f5 f4 bd 08 b5 01 3d 54 63 43 bd
       0.012658135 -0.11960867 0.031666785 -0.04770215
000030 9e 81 52 3d 9d 70 0e bd f6 c8 44 3d b0 65 8f bd
       0.051393144 -0.034775365 0.048043214 -0.07001817
000040 e1 3d 50 3d 82 1b 08 3d 83 a7 80 bd 80 78 87 39
       0.050840262 0.03322936 -0.0628195 0.00025838986
000050 a6 6d 1e 3d 84 7d 88 3c aa b4 47 bd ea dc 02 be
       0.038678788 0.016661413 -0.04875628 -0.12779585
000060 ba 73 9e bd f1 54 9d 3d c4 6e c2 bd 71 b0 a9 bd
       -0.07736917 0.07682217 -0.09493783 -0.08285607
000070 26 74 12 3d e3 c1 87 3d 36 95 8a bb 27 28 a2 bd
       0.0357553 0.06628778 -0.004229213 -0.07917815
000080 ac 0f 6e bd 65 5f 2c 3d 45 bf 00 be ad 48 b8 bd
       -0.058120415 0.042083163 -0.12572964 -0.08998237
000090 12 61 f7 3c 2e 58 8a 3d 85 ec cc bc e7 ea 96 bd
       0.030197654 0.067551 -0.025015125 -0.07369023
0000a0 24 13 83 bd c4 b9 fa bd 1c a8 01 3d a2 46 9e bc
       -0.06400135 -0.12242463 0.031654462 -0.01932079
0000b0 57 53 d4 3c 67 2a b1 bd 43 a3 c1 bd 22 46 a3 bd
       0.025918646 -0.08650666 -0.09454968 -0.07972361
0000c0 e6 66 e4 3c e3 da 67 bd ff 08 d3 bd 7d d9 ca bd
       0.027881097 -0.05660523 -0.1030445 -0.09904764
0000d0 88 37 1c 3d e4 0f 21 bc 4d a2 a3 bb 6f e3 44 3d
       0.038138896 -0.009830449 -0.004993713 0.04806846
0000e0 5a b9 94 bd 9a f8 a6 3d f0 c7 8b 3d b3 5a cf bc
       -0.072619155 0.08152886 0.068252444 -0.025311803
0000f0 22 40 96 bd f3 f8 9d bd f9 bb 8d 3d 30 1c b4 bd
       -0.07336451 -0.07713499 0.069206186 -0.08794439
000100 e8 56 3e bd df fc b9 bd ea 6f 48 bc b5 f1 e1 bc
       -0.0464696 -0.090814345 -0.012233714 -0.027581075
000110 fb 4f 02 be ca 9f 81 bd ad 8b b5 bc 3c c4 1e be
       -0.12725823 -0.063293055 -0.02216133 -0.15504545
000120 f3 39 90 bc 13 c9 9c 3d 15 b3 b5 bd 30 b0 89 3c
       -0.017605757 0.07655539 -0.08872048 0.016807646
000130 d2 25 3c bd 47 6d fd 3b a5 39 cb 3c 3f ae 6b 3b
       -0.045934506 0.007733974 0.02480776 0.0035962013
000140 bb 07 02 3d ed 3a ba bd 9c ab 22 bf fc 86 b7 bd
       0.031745654 -0.090932705 -0.63543105 -0.08961293
000150 e1 ea 83 bd 63 b0 23 3d 83 99 98 bd 00 22 18 be
       -0.06441284 0.039963137 -0.07451155 -0.1485672
000160 ee 0c c1 bd 16 ee 96 bd 7d 46 02 3d 5b 31 76 bd
       -0.09426294 -0.0736963 0.031805504 -0.060105663
000170 23 2d ba bd 05 23 82 bd 78 70 cd bd 84 57 3b bd
       -0.090906404 -0.06354336 -0.10031217 -0.04573776
000180 29 25 7c bd 76 e2 fd ba 24 d3 f1 3c 64 9a 1b 3d
       -0.061558876 -0.0019369859 0.029519625 0.037989035
000190 21 bb 54 3d 85 ba 1c be 37 47 a8 bd 44 e0 9e 3c
       0.051936273 -0.15305527 -0.08216708 0.019394048
0001a0 08 d0 9c bc 07 cb 74 bd 93 c5 3e bd b8 af a1 bc
       -0.019142166 -0.059763934 -0.04657514 -0.01973711
0001b0 24 5f 54 bd c8 f9 6f bc cc 7a 9b 3d 7d 5a 0d 3d
       -0.051848546 -0.014646955 0.07591781 0.034510124
0001c0 c8 b3 02 3d 89 74 2c be 39 c9 12 bd f5 b5 11 3d
       0.031909734 -0.1684133 -0.035836432 0.03557392
0001d0 d6 41 14 3d ed fe c1 bd ab 18 2e bd a8 5c 82 bd
       0.0361956 -0.09472451 -0.042503994 -0.06365329
0001e0 ab e3 80 bd 65 aa a8 bd 2b 94 af b9 c6 fb a4 3d
       -0.06293424 -0.08235625 -0.00033488995 0.080558345
0001f0 e3 ae 97 bc 14 e7 63 bc 6a 62 04 bd 2b e7 67 3d
       -0.01851601 -0.013910074 -0.032320417 0.056616943
000200 df c5 41 3d bc 74 8d bd c3 be 51 b9 66 d4 84 3d
       0.047307845 -0.06907031 -0.00020002857 0.06485824
000210 13 3a 44 bd 7a 71 c5 3b e9 dc 6a bb d4 1f a1 bc
       -0.047906946 0.0060254904 -0.003583724 -0.019668497
000220 51 3b d9 3c 76 11 3e 3d fc ce 87 bd fd 90 f1 bc
       0.026517542 0.04640337 -0.06631276 -0.029488081
000230 09 00 c2 3d 6c ba 8f 3d b7 9c 9b 3d 17 7f 1a bd
       0.09472663 0.07017979 0.0759825 -0.03771886
000240 4c ad 8c 3b c1 6c 98 3d e7 9b 91 bd 41 3f 94 bd
       0.0042931195 0.07442618 -0.07109814 -0.07238627
000250 fc 5c eb 3c f1 3e 26 3d 6d 61 e8 3d c9 a3 1f 3e
       0.028730862 0.04058737 0.113467075 0.15589823
000260 21 4c b0 3d f4 9a 77 3c 72 30 64 3e b0 4d 0c 3e
       0.086082704 0.015112627 0.22284105 0.1370151
000270 ce 5c 9a 3d c9 29 08 3d a1 5b e9 3d 05 68 2e bd
       0.07537232 0.033242974 0.1139443 -0.04257967
000280 67 d4 d0 3d 3f d1 27 3b 8c df a1 3d 2d bf ef bc
       0.101967625 0.0025606898 0.07903966 -0.029265964
000290 fd 26 36 bd cc 54 b1 3d 12 98 e6 3c 82 66 36 3c
       -0.044470776 0.08658752 0.028148685 0.011132838
0002a0 c9 37 9c bc e6 7e f2 bc 33 87 cd 3c 1d a7 e1 3b
       -0.01906957 -0.029601526 0.025088882 0.0068863765
0002b0 82 71 0d bb 6d db 8d 3d f7 c3 09 3e 2b b6 46 3d
       -0.0021582549 0.06926618 0.13453661 0.048513573
0002c0 8a 36 4e bd 38 9c c4 bc c2 7f 13 3e a7 d3 15 bd
       -0.05034498 -0.024000272 0.14404204 -0.0365788
0002d0 e1 ab ae 3d d1 74 23 bc 93 3e a3 3d 17 e4 c5 3c
       0.08528877 -0.009976582 0.079709195 0.024156613
0002e0 05 36 a8 3d bb 65 18 3d 9a 95 84 3d 5f 23 0f bd
       0.082134284 0.037206393 0.06473847 -0.034945842
0002f0 7c b8 94 bd 5e 1e 19 bd 1b 35 bf 3c e1 73 c5 bc
       -0.0726175 -0.037382476 0.023340752 -0.024103107
000300 b3 fc d5 3d b8 fb 23 3e f6 fe f6 3d d9 e1 6f bd
       0.10448589 0.16013992 0.12060349 -0.058564994
000310 af 6e cc 3d 52 e3 0f 3e 87 7f 82 3d a4 c1 57 bd
       0.09982049 0.1405156 0.0637198 -0.052674904
000320 d9 0f 87 bd a0 a2 e6 bb c3 ed 06 3e ea cc 37 3d
       -0.065948196 -0.0070384294 0.13176636 0.044873156
000330 d8 2c 81 3d f3 e4 88 3d ab 60 ef bb db 94 8b 3d
       0.063073814 0.066842936 -0.007305225 0.06815501
000340 53 9d ac 3d 6d 10 8a bd e4 2f 93 3f 1e 90 31 bd
       0.08428445 -0.06741414 1.149899 -0.04335033
000350 dc 04 2e bc 30 cf 90 bd 36 98 0f bd 56 f4 db 3c
       -0.010621276 -0.07070768 -0.03505727 0.026849907
000360 d4 62 5e 3d 41 65 f8 bb 7e 52 9e 3d 31 c2 9d bc
       0.05429347 -0.00758043 0.07730578 -0.019257637
000370 a0 d3 ac 3d db b9 ea 3a 9c b7 05 bd 0c ad 84 bd
       0.08438802 0.0017908172 -0.032645807 -0.064783186
000380 e4 9a f7 3d bd ed 64 3e 09 53 9b 3b d1 40 c3 3d
       0.1209009 0.22356315 0.004740123 0.09533847
000390 2e ca 7f bd 36 24 9e 3d 59 57 e1 ba 71 70 39 3d
       -0.062448673 0.077217504 -0.0017192169 0.045273248
0003a0 26 6c 9c 3d 42 48 ab 3d 0b 48 a8 bd 00 05 a0 3d
       0.07637815 0.083633915 -0.08216866 0.07813454
0003b0 3a 1a 06 3e b5 a2 1c bd 08 e2 23 bd 69 6c fb 3d
       0.13095942 -0.038241107 -0.040010482 0.12276537
0003c0 0f 34 84 3c e4 32 7f 3e 8f 0a 2c 3d 74 9f 50 3d
       0.016138105 0.24921757 0.042002257 0.050933316
0003d0 cf 33 aa 3d 44 e9 9c 3c 60 7c 7c bb 98 de 2a 3e
       0.08310663 0.019154198 -0.0038526282 0.16686475
0003e0 0c 7e 8e 3e 2c ab 60 bc 9d 4c 40 bd c0 4c 23 bd
       0.2783054 -0.013712686 -0.046948064 -0.039868116
0003f0 69 75 9c 3d 6a 83 c5 b8 5a 89 58 3d 1a 2d fd bc
       0.07639582 -9.41817e-05 0.052865364 -0.030905295

lstm.bias_hh_l0 f4 [512]
000000 24 e5 76 bc 94 9a 8c 3d 27 a1 8d 3d 4a ba 4c bc
       -0.01506928 0.06865421 0.06915503 -0.012495587
000010 6a b2 24 3b 94 52 dc bd 3f 41 f3 3b d6 21 18 3d
       0.0025130757 -0.10757938 0.0074235494 0.037141643
000020 ae 26 7d 3b 56 dd 74 ba fb 73 a9 bd d6 94 88 bd
       0.0038627791 -0.0009340843 -0.08274075 -0.06669013
000030 1e 1a 2f 3d e6 b5 43 3d a8 dc dd bd fb a1 7c bd
       0.042749517 0.047780894 -0.108331025 -0.061677914
000040 9f 57 8a 3d a0 d6 2b bd 5c 6d b0 bc f4 70 4d 3d
       0.06754994 -0.04195273 -0.021536522 0.05015655
000050 0a 40 2f 3d 4a bd ab bd b2 ba 76 bd 37 ea 0b bc
       0.04278568 -0.083857134 -0.06023664 -0.008539728
000060 ea 3a 56 bd 27 43 9b bc 02 e7 7c bd c5 32 d2 bd
       -0.05230228 -0.01895292 -0.061743744 -0.1026359
000070 d2 0d 8a bd 84 a0 49 3d 82 d3 bf bd b3 61 39 3d
       -0.06740917 0.049225345 -0.09366514 0.04525919
000080 27 92 12 3d a4 58 ce bd 2b 0c 51 bd e9 09 59 bd
       0.035783913 -0.100755006 -0.051036995 -0.052987967
000090 8a 81 f1 3c dd 91 9d bb d7 99 51 bd 8c f9 05 be
       0.029480714 -0.004808648 -0.051172104 -0.13083476
0000a0 dd 61 bd bd f6 0c 3c 3c de ff b0 bc 7a 24 a1 bd
       -0.092471816 0.0114776995 -0.021606382 -0.078682855
0000b0 76 e8 c2 bd c5 a8 7e 3d d2 c9 58 bd d2 c7 d6 bd
       -0.09516995 0.06217267 -0.052926846 -0.104873314
0000c0 60 b8 51 3d 32 52 cc bd 74 aa 44 bb d9 c1 6a bd
       0.051201224 -0.09976615 -0.0030008825 -0.057313774
0000d0 af 50 88 bd cc 84 84 bb 8a 51 d9 bd 1b 27 5f 3d
       -0.06656014 -0.004044151 -0.106112555 0.054480653
0000e0 d6 56 06 bd 17 f3 aa 3c 82 b5 2a bd b4 9a 8b 3d
       -0.032797657 0.020867867 -0.041677006 0.06816617
0000f0 00 8a fa 39 a6 af 09 3c 3a ca 06 bd 93 50 ea bd
       0.00047786534 0.008403694 -0.032907702 -0.114411496
000100 81 9b b1 bd b4 0e 31 be 9c 6b 04 bd d2 40 2e bd
       -0.08672238 -0.17290765 -0.032329187 -0.042542286
000110 a8 e0 8d bd f3 1d 10 be 95 b0 74 bb a4 4d 02 bc
       -0.069276154 -0.14073925 -0.0037336696 -0.007953081
000120 ca ea 65 3d a8 d3 9f bd 44 9b 1c 3d 5c 87 47 3d
       0.056132115 -0.07804042 0.03823401 0.048713073
000130 52 89 82 bc 70 3d cf bc f0 b6 15 bc d2 08 c4 bd
       -0.01593462 -0.02529785 -0.009137854 -0.09571995
000140 73 f1 ef bc e3 2d 25 3b 51 0f 45 bf b7 28 85 bd
       -0.029289937 0.0025204353 -0.76976496 -0.06501906
000150 b6 90 bb 3c 77 a3 82 bc d6 24 31 3d b3 97 09 be
       0.022896152 -0.015947087 0.04324802 -0.13436775
000160 c7 ad 29 bd 4e ba 7a bc 30 27 f7 3c 4b 88 56 bc
       -0.041425493 -0.015303208 0.030170053 -0.013094018
000170 14 a4 f4 bd f8 21 e2 3c 71 4c f8 3c 44 30 a1 bd
       -0.11945358 0.027604088 0.030309888 -0.07870534
000180 60 0f 1f bd 3b 4a 32 be 81 75 09 3d f6 35 53 bd
       -0.038833022 -0.17411129 0.033559326 -0.051565133
000190 2d 8a a1 bd 80 6c 03 be 54 37 a1 bd ca e7 79 3c
       -0.07887683 -0.12834358 -0.07871881 0.015253017
0001a0 e3 51 a7 3b 3e 97 87 bd ad c5 90 3d ad 95 28 3d
       0.005106197 -0.06620644 0.07068954 0.041158367
0001b0 07 ef ba bd e0 05 8c bd 98 d2 d3 3b 4a b7 c7 bd
       -0.09127622 -0.06837058 0.0064643137 -0.097517565
0001c0 85 c2 47 bc b9 8c fb bd ec d8 af bd 49 c4 b8 3c
       -0.012192373 -0.122827 -0.085862964 0.022554534
0001d0 a6 27 63 3c c9 86 cc bd aa 73 88 3b 00 2c cb 3b
       0.013864433 -0.09986646 0.004164179 0.0062003136
0001e0 3d e8 39 be 82 de 10 bd da 1d 28 bd bc b2 40 3d
       -0.18154998 -0.03536845 -0.041044094 0.047045454
0001f0 66 fd 33 3d 64 8d 41 bd 4f cd 48 3c 00 ef f6 3c
       0.04394283 -0.04725398 0.012255981 0.030143261
000200 81 2d 01 3e b9 90 47 bd 7b dc ca bc 09 29 88 bd
       0.12615015 -0.048722003 -0.024763336 -0.06648452
000210 2e e2 90 3d c5 20 87 3d ed 79 d8 3b ff d7 a6 3d
       0.0707439 0.06598047 0.0066063316 0.08146667
000220 ae 8f 26 3d 54 d9 99 3d 18 d2 32 3c 2e 13 44 3d
       0.040664367 0.07512155 0.010914348 0.047869854
000230 a4 cb 9a 3d 1e e9 ad 3d 88 15 ce 3d 4d c0 c5 3d
       0.075583726 0.08491729 0.100627005 0.09655819
000240 da ae 30 3c a1 6b 19 3e 83 74 ad 3d 63 8e f6 bc
       0.010783875 0.14982463 0.084694885 -0.030097192
000250 8a 81 24 bd f1 4a 04 bd 25 d3 5b 3d d1 a0 75 3e
       -0.0401626 -0.032298032 0.05366816 0.23987128
000260 57 4b 53 3d 5d d0 8c bd 5a 32 2e 3e 50 20 0f 3e
       0.05158552 -0.0687568 0.17011395 0.1397717
000270 7b 9d f4 bb 34 b5 2f bd cb 7d 9b bc 2a ce b1 3d
       -0.007465062 -0.04289742 -0.018980881 0.08681901
000280 82 bd 70 3d 11 4e 4a 3d 95 9f 1a 3e fa 2b e8 3d
       0.05877448 0.049390856 0.15099938 0.11336513
000290 89 33 c7 bc e8 32 8c 3c a4 59 00 3c 07 3d bd bc
       -0.024316566 0.017114118 0.007833872 -0.02310039
0002a0 ab a1 a5 3c 05 e3 68 3d ee 97 3d 3d b3 23 93 bc
       0.02021869 0.056857128 0.04628747 -0.017961359
0002b0 42 3c 3c 3d 6e 63 33 3d 95 38 e6 3d 36 7f 32 3d
       0.045955904 0.043795995 0.11241261 0.04357835
0002c0 91 fd b0 bc 84 61 17 3d 14 e1 3b 3e 86 25 57 bd
       -0.021605285 0.036958233 0.18347579 -0.05252602
0002d0 7d 1d 4c 3d 3b 32 b1 3d ed 79 27 bd 33 f8 d8 bc
       0.04983281 0.08652159 -0.04088776 -0.026485538
0002e0 56 fc 08 bd f9 81 3b bd a4 2c 8e bd cc 16 9d 3c
       -0.03344377 -0.04577825 -0.06942108 0.01917591
0002f0 dc 76 6f bc 0e 26 07 3c f8 65 98 3d ed f8 b8 3c
       -0.014615741 0.008248819 0.07441324 0.022579635
000300 df 61 a6 3d b4 a5 95 3c 22 b4 51 3d 8a db 85 3d
       0.08124136 0.01826749 0.05119718 0.065360144
000310 8c 6d 05 3e 06 74 5e 3e 25 9c 62 bd e5 46 6c 3d
       0.1303007 0.21723947 -0.055324692 0.057684798
000320 f8 80 e1 bc d7 f5 55 3d dc d0 ca 3d 6d c8 6c 3b
       -0.027527317 0.052236404 0.09903118 0.0036130205
000330 5f 0e 11 bb fe a6 0b bd 2f 95 de 3d d9 9a bd bc
       -0.002213381 -0.034094803 0.10868298 -0.023145126
000340 4f 32 f4 3d 31 d5 32 3d e6 03 93 3f b7 39 09 b8
       0.11923658 0.043660346 1.1485565 -3.2717096e-05
000350 cb ce 14 bd ea b9 23 3c b5 e2 8c bd 43 c1 9b bb
       -0.036330026 0.009993056 -0.068791784 -0.004753263
000360 c3 f0 26 3c d3 8e ad 3c c1 23 9a 3d a6 90 14 3c
       0.010189238 0.021186268 0.07526351 0.00906769
000370 3f e9 df 3d 0d 7a 62 bd b7 f2 ab 3c 54 8c 3d bd
       0.1093316 -0.055292178 0.020989759 -0.046276405
000380 d1 4f 41 ba 07 4c 7a 3e a2 2d 6f bc 5c b5 96 3d
       -0.00073742593 0.24443065 -0.014598282 0.0735881
000390 e9 5b a6 3d 5e ac e1 3d f7 54 a0 bd 12 02 5c 3b
       0.08122999 0.110192046 -0.07828706 0.003357057
0003a0 3b 0e c1 3c 28 f2 88 bc 4e 62 e3 3c de 40 b1 bc
       0.023566356 -0.016717032 0.027756836 -0.021637376
0003b0 39 e5 a3 3d cc 04 a1 3d 1e 17 3a 3d 90 53 26 3a
       0.08002705 0.07862243 0.045432203 0.0006344849
0003c0 24 a0 f4 3c 43 38 96 3e d7 2a 59 3d 94 2d 39 3d
       0.029861517 0.293398 0.05301937 0.045209482
0003d0 6f b3 ae bc cc 50 d4 3d 73 a1 08 bc 2e 49 a5 3b
       -0.021325795 0.10366973 -0.008339274 0.005044124
0003e0 37 5c 9f 3e 8e 76 81 3d a6 8c 73 bd 1b a6 24 bd
       0.31125042 0.06321441 -0.059460305 -0.040197473
0003f0 8f 13 27 3d cd 19 17 bd a7 fe bb bc 54 2f a6 bc
       0.040790137 -0.03688984 -0.022948576 -0.02028624

pitch_linear.weight f4 [128, 128]
000000 98 8f 46 be a3 15 b6 3d 0c 47 b7 3b 00 36 72 3d
       -0.19390714 0.088908456 0.0055931862 0.05913353
000010 24 7f 31 3d e3 6f 53 3e 6a 7c 68 bc d4 23 5a 3e
       0.04333414 0.2064815 -0.014189819 0.2130273
000020 64 9e 89 3e b4 23 1e 3d d0 05 4c bd ed e9 58 bc
       0.26878655 0.038608268 -0.04981023 -0.013239366
000030 e8 21 36 be 45 11 0d be e1 3f 55 bc 8a 73 3f 3a
       -0.17786372 -0.13776119 -0.013015718 0.00073032884
000040 5e 2e ce 3c 1c 81 6d be d9 9b 0c be 55 30 64 3d
       0.025168594 -0.23193783 -0.13731326 0.055710156
000050 ee de 74 3e a6 a9 60 be ef b4 b4 3d 67 12 3f be
       0.23913166 -0.21939716 0.08823573 -0.18659364
000060 6e fe d7 3c 36 8b 54 3d 32 28 70 3e 46 0e 68 be
       0.026366439 0.051890574 0.23452833 -0.22661695
000070 e0 9b 5e be 87 bb b5 bb b5 32 0b 3b 9c 79 86 bd
       -0.21739149 -0.0055460366 0.002123994 -0.06566164
000080 4b b5 99 bd 0c 30 67 3d 9a e8 8c 3e d1 bb ae 3d
       -0.07505282 0.056442305 0.2752121 0.08531917
000090 38 7e fd 3b 12 e7 b0 3d 71 8b fc bd 72 89 56 be
       0.0077359937 0.08637823 -0.12331284 -0.20950869
0000a0 c1 b3 03 3c bb 76 17 be 13 d4 d7 3c 20 c3 59 bc
       0.008038462 -0.14791386 0.026346242 -0.01329115
0000b0 97 60 01 be 28 7b 1b 3d 11 a6 f4 3d ea 62 74 be
       -0.12634502 0.037959248 0.11945737 -0.23865858
0000c0 08 59 a1 3b 87 03 d1 bc 13 ea a6 be 84 14 0c 3d
       0.0049239434 -0.025514377 -0.3260046 0.034199253
0000d0 00 0f 80 3d 95 a8 ec bb 10 76 38 bc 9d 34 a4 3c
       0.06252861 -0.007222245 -0.011258617 0.02004462
0000e0 70 60 b8 3b eb eb 22 3d 66 aa 14 be db 0c 40 bc
       0.0056267306 0.03977577 -0.14518127 -0.011721815
0000f0 0e 6b 30 bd 06 2c 28 3d cc a8 f0 bb 52 fa b4 3d
       -0.043070845 0.04105761 -0.007344341 0.08836807
000100 55 ad 4f be b2 fb 7c 3e 9b 36 49 3e 54 24 6e bc
       -0.20280965 0.24705389 0.19649737 -0.0145350285
000110 3c 68 99 be 17 71 44 3e fa ee 3c 3d 5b 41 0a be
       -0.29962337 0.19183765 0.046126343 -0.13501494
000120 9f 56 c9 3c 2d 73 74 bd a7 f8 d9 bd d9 ae e6 3d
       0.024577437 -0.059680153 -0.1064313 0.11263818
000130 66 a5 84 be 03 50 c4 3d fd 2d 0e 3e a2 58 67 3e
       -0.2590744 0.095855735 0.1388473 0.22592404
000140 61 77 62 be 09 61 3d bd 78 86 93 3e 4e 5c 65 bc
       -0.22115852 -0.046235118 0.2881353 -0.013999058
000150 9f 7c b2 bd 73 0f d8 bd e0 8a 83 3d 7c 5d 0d be
       -0.08715176 -0.10549822 0.06422973 -0.13805193
000160 ba 65 c1 bd fd 27 14 3d 37 61 b8 3c 90 33 4d 3c
       -0.09443231 0.03617095 0.022507293 0.0125245005
000170 78 60 2b 3e 5c b1 62 bd b1 d0 1b 3e d8 c9 e5 3d
       0.16736019 -0.055344924 0.15216328 0.11220139
000180 99 96 6a 3e d1 5e 92 be 61 88 8b 3d d4 f3 0b 3e
       0.22909011 -0.28587964 0.068131216 0.13667232
000190 16 bf 1d be 8f 19 37 be c3 42 b7 bd a0 38 22 3e
       -0.15404925 -0.17880844 -0.08948281 0.15841913
0001a0 69 9e 95 be 8f 84 6a bd 7f c5 ab 3d 05 f3 02 3e
       -0.2922242 -0.057255324 0.08387279 0.12788017
0001b0 c0 81 50 3e a0 16 d1 bd d2 ae c9 3d 74 27 d5 bd
       0.20361996 -0.102093935 0.098477975 -0.10407916
0001c0 42 61 9d bd 44 d7 7f be 6e bf 8f bd 0e ae 4f 3e
       -0.07684566 -0.24984461 -0.07018934 0.2028124
0001d0 a2 74 04 3e 62 0a a8 bd ad 52 de 3d c9 a1 db bd
       0.12935117 -0.08205105 0.10855613 -0.107242174
0001e0 92 24 2d 3c 12 26 60 3c 2b 89 0a 3e 72 f6 0d be
       0.010567801 0.013680952 0.13528888 -0.13863543
0001f0 7e 47 63 3d f6 92 84 3d 3a 19 80 bd fe ab 55 3d
       0.055488102 0.06473343 -0.062548116 0.052165978
000200 d1 17 d5 bd b3 6d 29 3e a2 ad 1b 3d 43 9b 3f 3d
       -0.10404933 0.16545753 0.038007386 0.04677893
000210 3a 1f e1 3d 4e 6e 99 3d 66 61 59 3d 94 6f 1c 3e
       0.10992284 0.07491742 0.053071402 0.15276939
000220 b9 a5 8b 3e d4 93 a8 3d e9 73 94 3c 37 d4 be 3c
       0.27274874 0.08231321 0.018121677 0.023294551
000230 0e 7f a3 bd f2 6a 00 be 71 6a 2c 3d 45 6e cb bd
       -0.07983218 -0.12540796 0.042093698 -0.099331416
000240 86 9b 55 3c b3 fb 5b be f6 b7 a6 bd e3 60 ee 3d
       0.013037568 -0.21482734 -0.081405565 0.116395734
000250 93 17 6b 3e ee 5f 29 be bd 5d b6 3d 4d 4b 0b be
       0.22958212 -0.165405 0.08904598 -0.13602944
000260 ac c4 97 bc 39 8d 02 3e 4a 42 0d 3e d1 2e 99 be
       -0.018526398 0.12749185 0.13794819 -0.2991853
000270 6e 8f a9 bd 81 63 eb 3c 42 74 ab bd 49 21 00 be
       -0.0827931 0.02873397 -0.08371784 -0.12512697
000280 27 51 47 3a 76 f3 33 bc f8 90 93 3e 21 5e 19 3d
       0.000760334 -0.010983339 0.2882154 0.037443284
000290 b8 55 4c 3d 30 e2 b6 3d 0b aa 32 be b3 ad 9d bd
       0.049886435 0.089298606 -0.17447679 -0.07699146
0002a0 59 c5 96 bd 62 f4 4d bd 61 9d 8d 3c c7 a7 17 3e
       -0.0736186 -0.05028189 0.017286958 0.14810096
0002b0 c5 1b 5f be 4b 68 ad 3d ae 2e ef 3d 6a 59 85 be
       -0.21787937 0.08467158 0.11678825 -0.2604478
0002c0 e9 e6 7c bc 6e 89 af 3d ce 95 71 be 31 7e 64 3d
       -0.015435913 0.085711345 -0.23592302 0.055784408
0002d0 5e f1 d1 bc 41 12 0e be b8 2c c0 bb 07 38 6f bd
       -0.025627788 -0.13874151 -0.005864706 -0.05840304
0002e0 2c ef 2a 3d b9 a2 99 3d 89 f9 0e bd e6 0b 3c be
       0.041732 0.0750174 -0.034905944 -0.18363914
0002f0 b5 3a b4 3d 9b fe 7f 3d 91 a6 f7 3b 88 b5 5a 3e
       0.0880026 0.06249867 0.007557698 0.21358311
000300 a6 27 50 be 3a 9e b4 3d 0a 68 a6 3d ba a3 fe 3d
       -0.20327625 0.08819242 0.081253126 0.12433572
000310 58 a2 5e be 83 8d 75 3e cf 76 65 bd 03 7d d7 bd
       -0.21741617 0.23979764 -0.056021508 -0.10521891
000320 df e3 c3 bd 04 a9 d3 bd 28 8e 22 be 13 f5 13 bd
       -0.09564947 -0.103349715 -0.15874541 -0.036122393
000330 90 6b 2e be ed 29 50 bd a4 a0 2c 3b 9a 2a 55 3e
       -0.1703322 -0.050821234 0.0026340866 0.20817032
000340 a7 64 22 be 87 2f e6 3d ea 9e 24 3e 9b 91 3c 3d
       -0.15858708 0.11239534 0.16076246 0.046037298
000350 bc e3 b8 bc d6 4c 0f 3c 25 08 12 3e e5 83 20 be
       -0.02256953 0.008746346 0.1426092 -0.15675314
000360 67 5a 90 bc 8f ac 3b bb d3 a4 a5 3d db 90 ca bc
       -0.017621232 -0.0028636788 0.08088078 -0.024727276
000370 26 32 f1 3d d8 eb 94 bd 99 99 1e 3e bf d3 20 3e
       0.11777143 -0.07271546 0.1548828 0.15705775
000380 42 04 7f 3e 56 e3 85 be 7c 3b 5f 3d 5f 44 8b 3e
       0.24903968 -0.26150006 0.054500088 0.272006
000390 1a 24 03 be f0 00 66 be d2 4a 5c 3d c2 50 05 3e
       -0.1280674 -0.22461295 0.05378229 0.13019088
0003a0 a8 aa 8c be 1a 2a 49 bd 5b 63 13 3e 05 a0 ba 3c
       -0.2747395 -0.049112417 0.1439337 0.022781381
0003b0 57 f6 70 3e bc 6a 3a be 87 a9 81 3d 5f dd 51 bc
       0.23531471 -0.18204778 0.06331163 -0.012809127
0003c0 f8 45 4d 3d c5 1b b8 bd 7a c4 f3 bd b2 11 3a 3e
       0.050115556 -0.089896716 -0.11902709 0.18170813
0003d0 8c e4 07 3e b8 0a 82 bd c5 a5 67 3e 96 3f 1c be
       0.13270777 -0.06349701 0.2262183 -0.15258631
0003e0 5f 65 ef bd ea b8 18 be 00 30 ea 3d 9a 3a 76 bc
       -0.11689257 -0.14914289 0.114349365 -0.01502862
0003f0 1f 83 ed 3d 61 03 c7 3d 39 60 00 bd 94 20 1d 3e
       0.11597275 0.09717441 -0.031341765 0.15344459

pitch_linear.bias f4 [128]
000000 be 1a 59 bf 9b b8 75 bf e3 3e 65 bf d1 9b 6f bf
       -0.8480643 -0.9598481 -0.8954908 -0.9359713
000010 b7 9b 7b bf d7 ae 7b bf cb 51 75 bf ea fc 66 bf
       -0.98284477 -0.9831366 -0.9582793 -0.90229666
000020 6a cc 71 bf fc a5 63 bf c6 cb 81 bf aa 52 7c bf
       -0.94452536 -0.8892515 -1.0140312 -0.98563635
000030 4b a1 65 bf 4c 51 69 bf c0 08 60 bf f3 15 68 bf
       -0.8969924 -0.91139674 -0.8751335 -0.9065849
000040 fb 6a 63 bf d5 91 73 bf 3e db 67 bf b7 fd 71 bf
       -0.88835114 -0.951444 -0.9056891 -0.94527763
000050 dc 54 63 bf 35 28 71 bf 77 63 70 bf 62 95 64 bf
       -0.8880136 -0.94201976 -0.9390177 -0.8929044
000060 75 ae 6c bf e9 b1 61 bf 4a 4e 6d bf e0 06 76 bf
       -0.924537 -0.88162094 -0.92697585 -0.9610424
000070 ae 41 68 bf 53 6b 4d bf 6e 6d 4b bf 5b 8b 41 bf
       -0.9072522 -0.8024189 -0.7946385 -0.75603265
000080 cb b3 2e bf cc aa 21 bf c5 ea 11 bf d4 bc 08 bf
       -0.6824309 -0.6315124 -0.56998855 -0.5341313
000090 33 cf a4 be b2 3c b3 be 07 d8 a9 be f8 ec 95 be
       -0.3218933 -0.35007244 -0.33172628 -0.29282355
0000a0 b6 87 3c be a4 40 64 3d 07 e1 cc bd 11 f4 a9 3e
       -0.18411145 0.05572571 -0.10003858 0.3319402
0000b0 a1 da a7 3e 4c 5d 00 3f 77 e7 00 3f 7a 81 d0 3e
       0.32783988 0.5014236 0.5035319 0.40723783
0000c0 f8 5f 56 3f 3e 9c 29 3f d0 85 7b 3f 4e f8 60 3f
       0.83740187 0.6625403 0.98251057 0.8787888
0000d0 df b5 82 3f 52 76 96 3f 6b 74 87 3f be 0b a2 3f
       1.0211753 1.1754858 1.0582403 1.2659833
0000e0 6a b4 a2 3f b3 3a b3 3f 9e 84 b0 3f ed 10 9f 3f
       1.2711308 1.4002289 1.3790472 1.242704
0000f0 84 bb b4 3f 26 11 a9 3f 3d d0 c6 3f b1 4c b2 3f
       1.4119725 1.3208358 1.5532299 1.3929654
000100 e5 63 bc 3f a4 bc b7 3f 48 5f af 3f 8f c8 be 3f
       1.4717985 1.4354444 1.3700953 1.4904956
000110 a9 a5 ae 3f 36 e2 be 3f a7 47 a7 3f cb 79 a6 3f
       1.3644305 1.4912784 1.3068742 1.3005918
000120 73 79 a9 3f 1f 79 a4 3f b0 95 b1 3f 23 16 8f 3f
       1.3240188 1.2849463 1.3873806 1.117863
000130 ea ca 87 3f 15 44 90 3f 3a 43 67 3f c9 88 80 3f
       1.06088 1.1270777 0.90336955 1.0041744
000140 d8 a7 49 3f b4 79 3f 3f 42 11 e0 3e 1d 63 c0 3e
       0.78771734 0.7479508 0.43763167 0.37575617
000150 6e 5b af 3e e9 fb 12 3e a6 df a1 3d 0a 0f 01 be
       0.34249443 0.14353909 0.07903986 -0.12603393
000160 b8 1c fd bd a8 91 85 be c6 d7 ff be 22 c7 fc be
       -0.12358993 -0.2608769 -0.4996931 -0.49370676
000170 98 c8 21 bf 74 5c 26 bf 6c 07 33 bf 1c 44 4a bf
       -0.63196707 -0.6498482 -0.699332 -0.79010177
000180 a8 c8 52 bf 06 32 5f bf 5e 49 5a bf 8c 80 65 bf
       -0.8233743 -0.87185705 -0.852682 -0.8964927
000190 2a b3 6b bf 75 2e 63 bf 09 57 6d bf 64 5a 66 bf
       -0.9207026 -0.8874276 -0.9271093 -0.89981675
0001a0 38 00 7f bf 44 c3 6e bf 30 03 6a bf a9 cd 69 bf
       -0.9960971 -0.932667 -0.91411114 -0.9132944
0001b0 fd cc 79 bf 76 52 70 bf 11 44 68 bf 21 f8 69 bf
       -0.9757841 -0.93875825 -0.9072886 -0.9139424
0001c0 e5 cc 74 bf 20 eb 6d bf 37 a3 80 bf 72 5f 80 bf
       -0.95625144 -0.929369 -1.0049809 -1.0029128
0001d0 d3 1c 80 bf 8b 63 66 bf 04 1e 66 bf 46 ff 66 bf
       -1.0008796 -0.8999564 -0.8988955 -0.90233266
0001e0 82 d8 72 bf 1d 36 78 bf 24 26 80 bf 5f 9e 7c bf
       -0.94861615 -0.9695757 -1.001164 -0.98679155
0001f0 f0 0f 66 bf 80 63 79 bf 0d 13 7b bf 2b f3 67 bf
       -0.8986807 -0.9741745 -0.98075944 -0.9060542

step_linear.weight f4 [1, 128]
000000 98 c2 57 bc 18 3c 3a 3c 81 dc 10 3b 01 5e a0 3c
       -0.013168953 0.0113668665 0.0022104087 0.019576075
000010 cf c7 a1 3c c6 78 c9 bc d2 ae ab 3b ac a3 7b 3c
       0.019748596 -0.024593722 0.005239346 0.015358847
000020 db 59 d9 3d bb 20 6c bc a3 78 75 bc 72 7d 53 3c
       0.10612842 -0.0144121 -0.014982375 0.012908326
000030 5b 82 fc bc 13 8a f0 b9 75 fb 2c bd 61 b3 6d 3c
       -0.030823877 -0.0004587924 -0.042231996 0.014508099
000040 52 f1 51 bc d3 1d 27 bd 68 e9 32 bc 8e 68 55 b9
       -0.012813883 -0.040799927 -0.010919906 -0.00020352213
000050 69 9b 04 3c e5 be dc bc 79 a6 1d 3c b1 14 f2 3d
       0.008093693 -0.026946494 0.00962221 0.11820353
000060 14 9e 0d 3c ec 9a f7 3b 1d c8 d3 3d 1f 41 b4 bd
       0.008643646 0.00755631 0.10340903 -0.08801483
000070 41 c5 79 bd 64 06 67 3c 54 a3 f8 39 0c 80 b6 bc
       -0.06097913 0.014100645 0.00047423935 -0.022277854
000080 b8 0d da 3b cc 56 ad bc cb bf 9c 3c f0 28 a7 bc
       0.0066544674 -0.021159552 0.019134423 -0.020405263
000090 fb b6 3c bc 3b 1c 16 3b c4 1b bc 3c 1f 07 c3 bc
       -0.011518235 0.002290501 0.022962458 -0.023807107
0000a0 b8 65 9f 3c da ef e1 bb e2 03 06 3c 1a 4a f5 3b
       0.019457683 -0.0068950476 0.008179637 0.0074856402
0000b0 d8 b9 4f bc 46 74 65 3d 5c 4f bd bb 19 25 ed bc
       -0.012678586 0.05601909 -0.0057772826 -0.028948354
0000c0 88 a4 1b bc a9 5a 1c bc 2b 47 ba bc 61 0b 6b bc
       -0.0094996765 -0.009543099 -0.022739014 -0.014345975
0000d0 a0 9e 89 3b 6e 7b af bc 3e 68 33 bb e9 ac b1 bb
       0.004199818 -0.02142116 -0.0027375366 -0.005422224
0000e0 f3 c5 a8 3c 88 aa 80 bb fd 94 29 bd 4f 72 3e 3c
       0.020602202 -0.003926579 -0.041401852 0.011623933
0000f0 d8 f9 4d 3b 50 ec 04 bc 52 24 25 bb 9e 9d 6e bc
       0.0031429436 -0.008112982 -0.002519865 -0.014563946
000100 a8 ac 40 3b 22 42 0a 3d 22 fc 1e bd f1 a9 46 3a
       0.0029399786 0.033754475 -0.03881467 0.0007578424
000110 17 d0 b4 3c 77 85 39 3d e3 21 b5 ba 77 6b 0a bd
       0.022071881 0.045293298 -0.0013819303 -0.033793893
000120 8a c3 b0 3a cf be cd ba 43 60 b3 bc a2 71 d8 bb
       0.001348601 -0.0015697124 -0.021896487 -0.006605343
000130 65 7e 8b bb 0e c2 61 3c ac 1a 1f bb a0 46 48 bc
       -0.0042570108 0.013779176 -0.0024277372 -0.01222387
000140 9d 66 78 bc 55 7e 15 bc 8a 9d 70 3e 6d f8 46 bc
       -0.015161184 -0.009124358 0.23497596 -0.01214419
000150 26 e4 ba bc 9d ad f7 ba f5 5c 3e ba 0f 88 8b bc
       -0.022813868 -0.0018896345 -0.00072617765 -0.017032651
000160 7b 4d 8f bc 78 a4 ce bb 48 58 9e bc cb 95 5b bc
       -0.017493 -0.0063062273 -0.019329205 -0.013402413
000170 97 ac 73 3d 2e 83 cd 3b 75 a7 99 3c 49 39 89 3c
       0.059490766 0.0062717414 0.018756608 0.016750949
000180 76 39 8d bb c6 35 de ba de 8f e4 3c 61 ff 56 3c
       -0.0043098284 -0.0016953282 0.027900632 0.0131224105
000190 cf c9 59 bc bb fb ba bc ec 46 98 3c a4 d1 5a bc
       -0.013292744 -0.022825113 0.018588506 -0.013355646
0001a0 d4 9a 8e bc 12 65 13 bc e8 b5 00 3b 6a e1 70 3c
       -0.017407812 -0.008996265 0.0019639675 0.01470218
0001b0 40 d4 0e bd 1a d1 5b 3b d1 05 b8 3c 73 a5 52 bd
       -0.034870386 0.0033541382 0.022463711 -0.051427316
0001c0 7a 45 81 bb ee 4b 9b bd 1e 17 7b bc d7 70 b4 bc
       -0.00394505 -0.07582842 -0.015325336 -0.022026462
0001d0 4c 44 9f 3c 17 d6 66 bb 5a c0 0b 3d b9 00 96 bc
       0.019441746 -0.0035222822 0.034118988 -0.018310891
0001e0 87 9f 84 bc ef 44 d1 bb ba 8e a1 39 ec 8d 05 3c
       -0.01618935 -0.0063863914 0.00030814653 0.008151513
0001f0 89 ad 93 38 bf f0 7c 3c ca 97 54 bc 19 aa 9e 3a
       7.04183e-05 0.015438258 -0.012975642 0.0012105136

duration_linear.weight f4 [1, 128]
000000 88 53 a7 bd a4 ae f2 3c aa 8f 1f 3d e5 11 7b 3c
       -0.08170229 0.02962429 0.038955368 0.015324091
000010 f0 09 4d bd 94 c1 a6 bc 46 d7 1c 3e 28 5b 1a bd
       -0.050058305 -0.020355977 0.15316495 -0.03768459
000020 37 03 35 3d 3e ec a3 3d 25 cd 91 3c 91 93 a4 3c
       0.04419252 0.08004044 0.017798016 0.020089896
000030 10 08 21 3b 3c f0 b0 bd 8f 1f fc 3c 19 79 f0 3c
       0.0024571456 -0.08639571 0.030776767 0.029354619
000040 a3 3a 59 3c b1 84 54 bd 63 97 98 bc e3 b3 fe 3c
       0.013258609 -0.051884357 -0.018626874 0.031091636
000050 9d 03 79 3d 8f 05 a1 3d e1 1e 27 be 3e eb cb 3e
       0.06079446 0.07862388 -0.16320373 0.39827913
000060 bc b3 75 bc 3d a3 7c bd cc d1 2c 3e fd a0 8e bd
       -0.014996465 -0.061679114 0.16876906 -0.069643
000070 63 d5 4a 3d 2a 27 e0 bc 36 f4 f4 3c a0 41 61 3d
       0.049519908 -0.027362425 0.029901605 0.054994226
000080 17 b8 9b bd cc 5d 48 3d 1c f6 03 3e dc a6 51 3d
       -0.07603472 0.048917577 0.12886852 0.05118452
000090 8c b2 8a bd 41 37 4e 3d 76 66 ce bd bc c2 9f bd
       -0.06772336 0.050345663 -0.100781366 -0.078008145
0000a0 a6 89 2e bd 82 9f 2a 3d 57 b0 c1 bd 6a 02 ad bc
       -0.04261174 0.041656025 -0.09457462 -0.021119315
0000b0 4c 73 37 3d d5 25 73 bd 21 41 5c 3d 76 09 cc bc
       0.04478769 -0.05936225 0.05377305 -0.024906855
0000c0 24 ee ed bd 32 79 d5 3d fe e4 c3 3d 50 07 73 3d
       -0.11617687 0.10423507 0.09565161 0.059333146
0000d0 2f 0f 40 3d 6e 29 d2 3d 52 08 d5 bd 62 c3 9c bc
       0.04688948 0.10261808 -0.104019776 -0.019136135
0000e0 3d e2 d6 3d 1b de b2 bd b8 23 ad 3d 82 ee b5 3a
       0.1049237 -0.087337695 0.084540784 0.0013880285
0000f0 9f 59 a3 ba 7b 38 f8 3c 22 9f 92 3c 38 81 17 3e
       -0.0012462622 0.03030037 0.017898146 0.14795387
000100 37 81 02 3d af 4c 9b 3d 6a 90 23 3e 08 b1 10 3e
       0.03186151 0.075829856 0.15973058 0.14130032
000110 65 11 e1 bc 1a f1 d9 3c 93 2f 23 3d ad 51 28 be
       -0.027474115 0.026604224 0.039840292 -0.16437407
000120 10 68 d5 bc 59 4c 7e bd 71 aa 34 bd 58 41 5c 3d
       -0.026050597 -0.06208453 -0.044107858 0.053773254
000130 72 20 16 bb 06 8d ad 3c cc 06 02 3c c8 96 1d 3e
       -0.0022907523 0.02118541 0.007936191 0.1538955
000140 5b 05 44 bd 95 73 92 3c d7 5b 6a 3f 7c 92 8a 3d
       -0.04785667 0.01787738 0.91546386 0.06766221
000150 16 ce bb 3d 30 b3 b0 bb 5e 16 44 3e 16 d0 0e be
       0.09170167 -0.0053924546 0.19149157 -0.13946566
000160 d8 5e e7 bc 3a 2b 75 3d 55 53 5e 3d 88 32 7b bc
       -0.028243467 0.059855677 0.05427869 -0.015331872
000170 b3 5a 7f 3d fc 7a 08 be 00 b4 a5 bd 6e cf e7 3d
       0.062342357 -0.13328165 -0.08090973 0.11318861
000180 ed 35 e5 3a e1 86 fd 3c ef 61 80 3b e3 95 2e bc
       0.0017487385 0.030948104 0.0039179246 -0.010655853
000190 36 10 6e 3c 8e 4c f8 bd 26 a5 62 bc d1 8b a7 bc
       0.014530232 -0.12123977 -0.01383332 -0.020452412
0001a0 ff 57 99 3d e4 92 b3 bd 3a 4a 12 3d 7a 67 80 3d
       0.07487487 -0.087682515 0.03571532 0.062697366
0001b0 5d 16 b1 3b f1 c8 d8 bd aa 5c 00 3d b4 0f 81 3e
       0.0054042772 -0.105852015 0.03133837 0.25207293
0001c0 0c ae 9b bd 9e 98 c5 bd d0 cd fe 3d c1 88 93 bd
       -0.07601556 -0.0964825 0.12441599 -0.07203818
0001d0 41 d9 b8 bd 97 f8 bf bd a6 61 73 ba b8 ed 03 3d
       -0.09025813 -0.093735866 -0.0009284265 0.03220913
0001e0 ee e0 b8 be 19 2b a8 bd 30 fa b8 3d ff 32 19 3d
       -0.36109108 -0.08211345 0.090320945 0.03740215
0001f0 1d 77 4a 3d 7c 1c 36 bb 26 8b b8 3d 84 c6 a8 3d
       0.04943 -0.0027787974 0.090109155 0.08240989
