torch/model50.pth (torch, 342035 bytes, 8 tensors)

lstm.weight_ih_l0 f4 [512, 3]
000000 c0 17 64 bd e3 c5 ab 3d f5 94 02 3d a0 a2 9d 3d
       -0.055686712 0.08387353 0.031880338 0.07697034
000010 3a 67 13 bd ff cf 17 bd 3f 63 cb 3c 28 bc 62 bd
       -0.035987116 -0.037063595 0.024827598 -0.05535522
000020 a6 04 86 3d 28 2e 73 3c 76 8e aa 3d 03 2d c1 3d
       0.06543855 0.0148425475 0.083279535 0.094324134
000030 ad 83 98 3d ac 8b d9 3c e8 37 ae bd df e0 a7 3c
       0.0744699 0.026555859 -0.08506757 0.02049297
000040 5c 10 fa bd b6 fc c7 3d 6f 83 ae 3d da a8 9f 3d
       -0.122101516 0.09764998 0.08521163 0.07795878
000050 09 cd b4 bd 2d c8 69 3d d3 01 f9 3c 1f 21 1b be
       -0.0882817 0.057075668 0.030396378 -0.15149353
000060 a6 29 87 3d 37 62 89 3d 2b 42 e7 3d 5b 77 2d 3c
       0.06599741 0.06708186 0.112919174 0.010587539
000070 be df 37 bd 9f 47 85 3c bb a5 22 3d 3e 73 92 bd
       -0.04489111 0.016269503 0.039708834 -0.07150887
000080 79 81 54 3c bc 49 b2 bc 2c c5 9f 3d dc 61 61 bd
       0.012970322 -0.021763675 0.078012794 -0.055024967
000090 bb a2 d9 bc b2 a2 66 3d 33 f1 2d be 4f 43 7b bd
       -0.026566854 0.056307502 -0.16986541 -0.061343487
0000a0 7e c5 c4 bc e4 49 7f 3d 7f 5f c5 bc f8 a1 b4 3d
       -0.024019953 0.062326327 -0.024093388 0.088199556
0000b0 05 f0 f7 3d 94 fb 94 bd 93 62 56 3d 02 a7 2a be
       0.12106327 -0.07274547 0.0523401 -0.16665271
0000c0 ac 32 6b 3d 7a 9c 84 3d 2b 0c 69 3d 29 4a 4f 3d
       0.05742137 0.06475158 0.05689637 0.050607834
0000d0 9f 77 16 3e 89 15 35 bd 6a 63 11 bd e2 8b 57 3d
       0.1469407 -0.04420999 -0.0354952 0.052623637
0000e0 60 89 0e 3d f2 a9 37 3c 0b cf a4 3d 5d ae 22 bd
       0.03479898 0.011209952 0.08047303 -0.039717067
0000f0 ce a1 3b bc f8 37 a8 3d 0a 15 88 3d d3 2f be bd
       -0.011452151 0.082138 0.06644638 -0.092864655
000100 a8 0c e1 3c 1e 40 47 3c bc 8d 9c bd e2 3f 02 3c
       0.027471855 0.012161283 -0.07644221 0.007949801
000110 e4 e2 ea bc ff c2 08 3d 4d be 94 3e c7 ad f2 be
       -0.028672643 0.033389088 0.29051438 -0.47398207
000120 62 2e 98 3d 1d c1 11 bd 84 8a 1b 3d 42 fc a1 3d
       0.07430722 -0.035584558 0.037973896 0.079094425
000130 e7 2b 3c 3d 10 0d d1 3b 3e c4 1e bd f6 ad ef 3d
       0.045940306 0.006379731 -0.03876137 0.11703102
000140 8c c3 a7 3d a4 83 10 be b2 30 56 3e 08 a0 a1 be
       0.081915945 -0.14112717 0.20917013 -0.31567407
000150 80 d2 67 bb 1e e5 bb 3d 59 ca a1 bd d3 58 06 3d
       -0.003537327 0.0917456 -0.07899923 0.032799553
000160 09 57 ce 3d f2 f1 77 bd cb 30 61 3d ac f5 77 3d
       0.100751944 -0.06053347 0.054978173 0.060537025
000170 a2 4d 33 3e 02 6a 03 bd f2 04 05 3d 1f 43 eb 3c
       0.17510083 -0.03208352 0.03247542 0.02871853
000180 6d 96 15 bc 7c a4 b5 3d 65 75 62 ba a0 67 b1 bd
       -0.009130103 0.088692635 -0.0008638709 -0.08662343
000190 0b ba 6c bd 90 88 a7 b8 d9 eb a4 bd 1f 97 e1 3d
       -0.057794612 -7.988617e-05 -0.08052797 0.11015152
0001a0 9c a0 11 3e d7 54 8d bc ca 09 9f 3d 32 eb cf 3d
       0.14221424 -0.017252369 0.07765539 0.10152282
0001b0 d2 6b ca bd 6c a1 97 3d 66 88 79 bb 16 ac 92 bd
       -0.09883846 0.07403836 -0.0038075685 -0.07161729
0001c0 cb 01 5f 3d 88 37 40 bd d3 2b 65 3d 13 7c 38 bd
       0.05444507 -0.04692796 0.055949997 -0.0450402
0001d0 e4 4e 8d 3b 52 c0 9d 3b ec 7b f6 3d e5 37 9e 3d
       0.004312383 0.004814186 0.12035355 0.07725505
0001e0 65 93 d9 bd 59 48 63 3d 75 9a 34 3e ef ec 90 bd
       -0.106238164 0.055488918 0.17637046 -0.070764415
0001f0 8c ff bd 3d 82 3e 8b bd 84 dc 5f bc 88 de 24 3d
       0.09277257 -0.06799032 -0.013663415 0.040251285
000200 b3 b0 1b bd ef ea 6e bd 8a 19 ad bd 64 6d a0 bb
       -0.03801031 -0.05832952 -0.08452137 -0.004895853
000210 3b f7 3e bd d5 1b 3c 3d 1b 0a 88 3b a4 c0 3b 3d
       -0.046622496 0.04592498 0.0041515953 0.045838013
000220 e3 3e 66 3d 33 d4 c8 3d 04 05 6e bd 18 44 89 3c
       0.056212317 0.09806099 -0.058110252 0.016756102
000230 9f 82 d5 bc 8c ef 10 be bc c0 a9 3d 39 98 6c bc
       -0.026063262 -0.1415388 0.08288714 -0.01444059
000240 87 6c d3 3c 0f 7a 29 3c 54 56 88 bd b2 3e 77 bd
       0.025808586 0.010344042 -0.06657091 -0.060362525
000250 6e 1e 7b 3d 64 e8 5c 3d 56 60 40 bd a0 08 8c 3d
       0.061308317 0.053932562 -0.046966873 0.068375826
000260 c6 6b 31 3d 54 cb ce bc f8 a4 86 bc 83 1e ba 3d
       0.04331567 -0.025243439 -0.016436085 0.09087851
000270 c9 a9 ab bd 1f 3d b6 3c db 96 a4 bd 64 a6 cf bb
       -0.08381993 0.022245942 -0.08036586 -0.006336974
000280 f1 3b a3 bd 9d 8c ea 3c 70 6d 62 bd ec c6 98 3c
       -0.07970417 0.028631503 -0.05528015 0.01864954
000290 2c 00 fe 3d 75 91 58 bd 5c 6b b4 bd c7 c3 96 bc
       0.124023765 -0.052873094 -0.0880954 -0.0184039
0002a0 5b da 45 3c 7a db ec 3d b1 df 54 3d c2 0d b9 bc
       0.012075986 0.11565299 0.05197114 -0.022589568
0002b0 77 78 83 bd 80 93 ab 3d f3 23 6f bd ec 3c 8d 3d
       -0.06419461 0.08377743 -0.058383893 0.068963856
0002c0 84 10 3a 3d 66 be a0 3d 93 bd 7a 3d cb b2 a4 3d
       0.045425907 0.078488156 0.06121595 0.080419146
0002d0 8d b4 e3 3c d4 32 55 3d 8f be e4 ba 2f 3f 48 bc
       0.027796054 0.052050427 -0.001745181 -0.012222095
0002e0 e5 c8 80 3d 51 ba 0d bd 45 0c a5 3d 71 69 9a 3d
       0.062883176 -0.034601513 0.08058981 0.075396426
0002f0 7a 38 1d bd c4 f9 fd 3c 08 9f 04 bd 2d 74 5d 3d
       -0.03838394 0.031002887 -0.032378227 0.054065872
000300 c9 bb 87 bd 55 f9 23 bc e7 25 08 3c 2c ca e9 bd
       -0.06627614 -0.010008176 0.008309818 -0.11415514
000310 ea a8 c1 3d 4a 9e b6 bc 64 44 fe 3c 05 db c4 3d
       0.09456046 -0.022292275 0.03103847 0.09612087
000320 8d 67 8c 3e 56 5b 80 bd 10 54 08 bd 8e cf ec 3d
       0.27422753 -0.06267421 -0.033283293 0.115630254
000330 4c 73 da bb 54 a8 5b be 9b fb 3c be d0 ab c5 bc
       -0.0066665765 -0.21450931 -0.18455355 -0.024129778
000340 cf 77 bc 3d 7f 93 d0 bc 88 06 28 bd 00 a0 05 3d
       0.09202539 -0.025460957 -0.041021854 0.03262329
000350 f4 2a 6b 3d 88 2f 69 bd 11 d2 0a be e3 9d 21 3e
       0.05741401 -0.056930095 -0.13556696 0.15782885
000360 de e0 6c bb 83 aa 57 3d 90 3e 4a bc 9f 1a 9a bd
       -0.0036144773 0.052652847 -0.012344018 -0.07524609
000370 6d 11 e7 bc 68 c8 10 3d 5e bd ae 3d 4b cd 70 3d
       -0.028206551 0.035347372 0.08532213 0.058789533
000380 ac 07 ba 3c 03 66 8c bc e8 62 a8 3c 5b 68 1a bc
       0.022708736 -0.017138487 0.020554975 -0.009424294
000390 fb 9d 05 3c b2 7d 8c 3d 53 bf 62 3d 02 e7 22 3d
       0.008155341 0.06859912 0.055358242 0.039771087
0003a0 45 98 0e 3d 8c 60 57 3d 25 95 82 bd 87 f7 77 3d
       0.034813184 0.05258231 -0.06376103 0.060538795
0003b0 cb 2b 1c 3d c7 a3 00 be 16 c6 ee 38 2c 50 f9 3d
       0.0381277 -0.12562476 0.00011385621 0.12173495
0003c0 9c 46 bc bd b1 a8 1c be 1e 21 54 bd 09 e0 8b bd
       -0.09193155 -0.15298726 -0.051789396 -0.06829841
0003d0 e8 c7 84 3c d0 82 cc 3c f5 e7 0e be 8c 89 01 3e
       0.016208604 0.02496472 -0.13955672 0.12650126
0003e0 ae c2 23 bf bb 4e 33 3b 3c 93 bc 3d 99 d4 71 bd
       -0.6396893 0.002736016 0.0920777 -0.05904064
0003f0 fe b1 57 bd 19 09 69 3d fe c5 01 3d 1a e0 38 3d
       -0.05265998 0.05689344 0.03168296 0.045135595

lstm.weight_hh_l0 f4 [512, 128]
000000 8e 74 a4 bb 69 6e af 3d 79 ca 9e 3d 5c a4 7f 3c
       -0.005018777 0.08565981 0.07753462 0.015603151
000010 e5 63 76 bd 2c f7 6b bd 87 69 95 3d 49 50 7b bd
       -0.06015386 -0.05760877 0.07295518 -0.061355863
000020 ec c9 1a 3c 59 34 c8 bc fa 3f a5 3d 91 cb f8 bc
       0.009447556 -0.024439024 0.08068843 -0.030370506
000030 58 ed 99 bc a8 5f 1b 3d fd 1b a2 bd f3 c9 24 3d
       -0.018789932 0.03793302 -0.079154946 0.040231656
000040 34 ae 70 3c a8 5f 87 3d 7c ae aa bd 3a 19 9a 3d
       0.014689971 0.06610042 -0.083340615 0.07524343
000050 86 48 62 bd 5f 0e 55 bd d7 d6 35 3d 33 cb a4 3b
       -0.055244945 -0.05201566 0.04439434 0.005029106
000060 2e 88 8c 3d 26 ab b4 3d 2a bb a8 bc 19 ba cb bd
       0.06861912 0.088217065 -0.02059706 -0.09947605
000070 c6 ad a2 bd 39 36 bd bd 22 f3 80 3d 19 2f 81 bd
       -0.07943301 -0.09238858 0.06296374 -0.06307811
000080 c2 2e b2 ba 6f ba 01 bd e4 de 42 bd f9 a1 9b bd
       -0.0013594257 -0.031671938 -0.047575846 -0.07599253
000090 38 c1 24 bd 92 fd 2b bd 4e 6b 46 bd 5f 67 8a 3d
       -0.04022333 -0.04198987 -0.048442177 0.06757998
0000a0 67 d7 96 3d 44 0b 19 3d 21 ad 32 3d 27 b4 11 bd
       0.073653035 0.03736426 0.04362214 -0.035572197
0000b0 9c b0 00 3c c9 dc f8 3c 89 f1 94 bd da 6b 85 bd
       0.007854607 0.030378716 -0.07272632 -0.06514712
0000c0 71 64 46 bc 1d 7b 99 bd 4b e9 1b 3d 4d 0d 79 3d
       -0.012108908 -0.07494185 0.038064282 0.0608037
0000d0 9e b4 59 3d 39 96 a4 bd 03 67 3f bd c0 73 92 bd
       0.053150766 -0.08036465 -0.0467291 -0.07150984
0000e0 0e d8 33 3d 40 bd 68 bc 9d 9b c2 3c 19 00 59 bd
       0.043907218 -0.014205277 0.023755843 -0.05297861
0000f0 61 dc 68 3d b0 fb 66 bc dd 02 1f bd 39 4a 4f 3d
       0.056850795 -0.014098093 -0.03882109 0.050607894
000100 77 a5 ac 3b b3 03 94 bd a5 a5 c4 3d 82 e4 98 3d
       0.0052687484 -0.07227268 0.09601907 0.074654594
000110 00 76 57 3d 31 84 dc 3d 2a 26 80 bd 83 dc 8e 3d
       0.052602768 0.10767401 -0.06257279 0.06975653
000120 aa 57 8d bc 8d 7d 7b 3d 8b 3e b4 bd a2 af dc 3c
       -0.017253716 0.06139903 -0.088009916 0.026939217
000130 8e 5d 93 bd 4c 74 6d 3c 73 44 74 3d df a7 27 bd
       -0.071955785 0.014493059 0.05963559 -0.04093158
000140 dc 85 b9 bd fe 4b 4c 3c a9 a4 d1 3c b2 15 84 bc
       -0.09058735 0.01246929 0.025591211 -0.016123626
000150 c4 f5 d7 3c 87 a7 cf 3c 24 35 4e 3d 42 a7 40 bd
       0.026362307 0.025348438 0.050343648 -0.04703451
000160 45 20 69 3d 46 95 28 bd a3 ee 97 bd 2e bd 28 bd
       0.05691554 -0.041157983 -0.07418563 -0.04119604
000170 cf a4 9b bd 92 86 16 bc 70 e8 92 3d 8d eb 83 bb
       -0.07599794 -0.0091873575 0.0717324 -0.0040258826
000180 72 22 c5 3d 02 d8 52 3c 1b 27 97 bd ac d3 a7 3c
       0.096257105 0.012868883 -0.07380506 0.020486675
000190 40 60 5b bd 8d c6 67 bd 65 62 91 bd 29 98 e1 3c
       -0.053558588 -0.056585837 -0.070988454 0.027538376
0001a0 17 7e 62 bd 79 87 36 3d c6 80 5e bd 32 c3 41 bc
       -0.05529603 0.04456279 -0.054322027 -0.011826323
0001b0 00 93 94 3d fe 30 d0 3c 80 c6 91 3c 49 f1 92 bc
       0.072546005 0.025413986 0.017794847 -0.01793732
0001c0 11 6c 14 bd e5 8c 61 3d 0f 76 85 3a 20 98 f4 3b
       -0.036235873 0.055066008 0.0010182279 0.007464424
0001d0 04 fa 9f 3d ae 2f 80 3d 53 8d 86 bd cc f3 97 3d
       0.078113586 0.06259094 -0.06569924 0.074195474
0001e0 3e d4 18 3d 5d 51 a5 bd f1 9f 40 bd d6 d7 9b 3c
       0.037311785 -0.080721594 -0.047027532 0.019023817
0001f0 98 96 3e 3d c6 2a b9 3c 37 a7 b0 bd b2 5a 75 bd
       0.046530336 0.022603404 -0.08625644 -0.059900947
000200 46 51 2e bd db 08 be 3b cb db 38 3d 23 38 0a bd
       -0.042557977 0.0057993955 0.045131486 -0.033744942
000210 95 3e a1 bd ab d4 8d bd 3c 28 59 bd ca bc 4d bd
       -0.07873265 -0.06925329 -0.053016886 -0.05022887
000220 63 6f 5c 3d 23 6e 65 bc a7 37 a7 bd 63 8e 4b 3d
       0.053817164 -0.014003309 -0.08164912 0.049696337
000230 65 67 87 bc 47 c2 01 3d e5 25 22 bd f4 a8 4d bd
       -0.016528795 0.031679418 -0.03958692 -0.050209954
000240 15 7f 8c 3d c8 a3 b2 bd 87 b7 90 bd 90 92 8f 3d
       0.068601765 -0.08722645 -0.07066255 0.070103765
000250 08 4c 17 3d d4 10 d2 3c 09 da 7e bd 01 8a 0d 3d
       0.036937743 0.02564279 -0.062219653 0.03455544
000260 58 f0 83 3d f3 0f 9f 3d c5 66 0d 3d 91 b2 63 bd
       0.06442326 0.07766714 0.034521837 -0.055590216
000270 84 01 86 bd 7a fb 68 bd 8f e0 96 bd e2 4c 26 bd
       -0.06543258 -0.05688045 -0.0736705 -0.040600665
000280 1c 08 0a bc bd 2a 3a 3d e8 88 7f 3d ac 35 70 3c
       -0.008424785 0.045450915 0.062386423 0.014661234
000290 a8 9b a4 3d ba c3 29 bb 3f 7d 6c bd 1d 25 88 3d
       0.080375016 -0.0025904016 -0.05773663 0.06647704
0002a0 0b 22 af 3c 7f 0a 7c bc e6 e5 ae bd ff 11 82 bd
       0.021378538 -0.015383362 -0.085399434 -0.06351089
0002b0 83 2f 9f bc 3f d2 aa 3d 4c 2a 95 3d cb 59 94 3d
       -0.019431835 0.083408825 0.07283458 0.07243689
0002c0 49 5c 49 3d 36 ea 88 3d 3f 1e 81 3d c5 82 0b 3d
       0.049160276 0.06685297 0.06304597 0.03406026
0002d0 12 d7 5e 3d af 36 b3 bc 7a f4 10 3d e0 cd 55 3c
       0.054404326 -0.021876661 0.0353894 0.013049573
0002e0 99 cc 1f 3c cd c9 7d 3b 52 58 7f 3d b9 c8 6a 3d
       0.00975337 0.003872502 0.06234009 0.05732033
0002f0 bf dc 3e 3d c2 e3 0f 3d 78 50 26 bd d3 49 c0 bc
       0.04659724 0.035129316 -0.040604085 -0.023472702
000300 d0 8d 72 bd c8 04 39 3d 37 2c 0d 3d a2 db b1 bd
       -0.059217274 0.045170575 0.034465995 -0.0868447
000310 4e 75 87 3c 90 d3 95 3d 94 05 ee 3b 06 d6 d6 bc
       0.016535427 0.07315743 0.0072638486 -0.026225101
000320 56 c0 90 bd a9 44 aa bc 57 d4 95 3c 95 40 9f 3d
       -0.07067935 -0.020784693 0.018289728 0.0777599
000330 f3 6f 37 bb 8e 8b 4b bd d3 d2 ae bd 0b 2c 3a bd
       -0.002799031 -0.049693637 -0.08536305 -0.04545216
000340 c3 df 98 3d d8 d7 6b 3c 44 ae 52 3d 58 28 24 bc
       0.07464554 0.014394723 0.051435724 -0.010019384
000350 25 7c 42 bd 26 e7 44 bd 54 ff f7 bc b8 ae f8 3c
       -0.047481675 -0.048072003 -0.030273117 0.03035675
000360 6b 17 0d 3d c9 5a 45 3d f8 3b 95 bd 3b b0 70 3d
       0.03444616 0.048182283 -0.07286829 0.058761816
000370 83 af d8 3a cb 8b aa 3d 97 36 e4 3c 47 35 8e bd
       0.0016531799 0.08327445 0.027858062 -0.069437556
000380 13 06 85 3d f1 8d 89 bd 64 24 8d 3d c5 46 f6 bc
       0.06495299 -0.06716526 0.068917066 -0.030063042
000390 87 c2 94 bd e8 93 a5 3d cd 3d 01 3d b1 6a 93 bd
       -0.07263666 0.080848515 0.03155308 -0.07198084
0003a0 f2 03 81 bd ea 3b 62 bd 54 04 5d 3d 6d e4 3c bd
       -0.06299581 -0.05523292 0.053959206 -0.04611628
0003b0 45 33 5e 3d 94 d5 4b 3d 54 44 81 3d 64 b6 5a bd
       0.054248113 0.04976423 0.06311861 -0.053396598
0003c0 15 ca 3e 3c ea 33 5e 3d 7b 3b 1e 3c 9c 73 6a bd
       0.01164486 0.054248728 0.009657736 -0.05723916
0003d0 5e ef f3 bc d8 7f 90 bd 9d 5f 83 3c 98 6f 9b bd
       -0.029777225 -0.07055634 0.016036803 -0.07589644
0003e0 4e d7 0e bd cd 58 41 3d c9 d3 f4 3c a7 24 ed 3c
       -0.0348733 0.047203828 0.029886143 0.028948141
0003f0 81 c9 50 bc 9d f3 a1 3b 65 81 8f 3d 5f 43 29 3c
       -0.012743355 0.004942371 0.07007102 0.010331004

lstm.bias_ih_l0 f4 [512]
000000 31 f2 d2 bd c1 4a 84 3a b3 83 81 3d ee 5e 9d bd
       -0.103001006 0.0010093079 0.06323948 -0.07684122
000010 9c bd 22 3b 9f 92 ba 3b e6 98 05 3d 27 67 0e 3d
       0.0024832254 0.005693748 0.03261652 0.034766342
000020 16 37 e2 bc 9c 89 fc bd 09 23 ee 3c 9d fa 87 bd
       -0.027614158 -0.123309344 0.02906944 -0.066395976
000030 ad e0 3e 3d 8b da 40 bd ba 4f 44 3c 07 12 8b bd
       0.046600986 -0.04708342 0.011981899 -0.06790548
000040 b2 6a 36 3d 43 6d 4b 3d c4 6f 77 bd 64 e3 1a ba
       0.044535346 0.049664747 -0.060409322 -0.00059085176
000050 da d2 23 3d 72 36 37 3c 19 f4 6b bd 47 0c 5a be
       0.039996006 0.011182414 -0.057605837 -0.21293746
000060 71 56 a6 bd 2b 13 9e 3d 02 61 1d be 12 bd 04 be
       -0.08121956 0.077185 -0.15369037 -0.1296275
000070 16 bf 1b bc 18 0e 8d 3d 46 a5 b2 bc a8 56 9e bd
       -0.009506008 0.06887454 -0.021807324 -0.07731372
000080 58 8c 86 bd f1 eb 39 3d 7e c5 1f be da 16 f1 bd
       -0.06569737 0.045391027 -0.15602681 -0.11771937
000090 df 64 81 3c 1a 86 83 3d f1 64 16 bd c5 32 ce bd
       0.01579517 0.06422062 -0.03671736 -0.10068277
0000a0 6f 4e cb bd 21 b2 08 be 4e a5 17 3c 2d 97 fd bc
       -0.099270694 -0.13349201 0.00925572 -0.030955875
0000b0 7d 7f 62 3c 35 84 d9 bd b7 86 e7 bd 80 08 dd bd
       0.013824341 -0.106209196 -0.11304992 -0.10792637
0000c0 44 73 87 3c 8b 69 64 bd 07 1f 15 be e5 27 cc bd
       0.016534455 -0.055764716 -0.14562617 -0.09968547
0000d0 cc 5e 0f 3d 87 d9 59 bc fd 0d 2b bc 77 fa 54 3d
       0.035002515 -0.0132964915 -0.010440347 0.051996674
0000e0 02 e1 c3 bd b8 6d bb 3d f5 87 8f 3d 2e 30 d1 bc
       -0.09564401 0.091517866 0.070083536 -0.02553567
0000f0 26 7e 8b bd d6 02 9e bd 0f e8 95 3d 32 8e fc bd
       -0.0681117 -0.07715385 0.07319652 -0.12331809
000100 dd ab 40 bd a5 43 f9 bd 63 26 46 bd 4b 28 00 bd
       -0.0470389 -0.12171105 -0.048376452 -0.031288426
000110 ed ac 18 be 5b 19 cd bd 27 62 d6 bc 09 5c 34 be
       -0.14909716 -0.10014602 -0.02616985 -0.17613234
000120 b0 7f b8 bc 26 db 8c 3d 68 3b 92 bd 46 18 88 3c
       -0.022521824 0.06877737 -0.07140237 0.016613137
000130 67 19 82 bd 75 ec d2 3b 80 98 63 3c 82 b7 b9 bc
       -0.06352501 0.0064368793 0.013891339 -0.022670511
000140 96 f0 c2 3c 27 55 cb bd fc 50 4b bf 44 98 b6 bd
       0.023796361 -0.09928351 -0.7942045 -0.08915761
000150 63 c0 99 bd 62 12 fa 3c b0 6d b9 bd 09 9d 28 be
       -0.07507398 0.030526344 -0.09054124 -0.16466154
000160 5a 66 d5 bd 9c af ca bd 97 82 d1 3c 3e 28 d3 bd
       -0.10419913 -0.09896776 0.025574965 -0.1031041
000170 56 a2 ea bd 79 25 bb bd 69 2e db bd 14 c1 8b bd
       -0.114567444 -0.09138007 -0.107022114 -0.06823936
000180 ab 03 94 bd 4b 4c 18 3d 6c 81 bc 3c aa 17 3b 3d
       -0.07227262 0.037182134 0.023010932 0.045676865
000190 6c d9 4f 3d 2e 9f 53 be c8 bc be bd f0 83 7c 3c
       0.05074446 -0.20666191 -0.09313351 0.015412316
0001a0 d4 9c d7 bc b2 ee 74 bd 88 52 3d bd b9 e5 2b bc
       -0.026319899 -0.05979795 -0.046221286 -0.010491782
0001b0 01 31 92 bd 1a 79 a9 bc c8 0e 96 3d c8 41 b5 bc
       -0.07138253 -0.020687629 0.07327038 -0.022126094
0001c0 7d 92 10 3d 80 09 ab be e8 37 48 bd f8 aa 5b bc
       0.035295952 -0.33405685 -0.04888144 -0.013407461
0001d0 74 09 d4 3c 41 ee e0 bd 43 98 7c bd 46 93 db bd
       0.025883414 -0.10982943 -0.061668646 -0.107214496
0001e0 b9 78 c6 bd d4 4e cb bd f9 85 4a bb b3 1e a7 3d
       -0.09690995 -0.09927145 -0.0030902608 0.08160152
0001f0 5f 0b 99 bc 9a bb a2 bc 9c 95 10 bd 96 7f 6e 3d
       -0.01868218 -0.019864846 -0.03529893 0.058227144
000200 0b e5 21 3d 9e bc 76 bd ca c7 dc 3a 6b 46 8a 3d
       0.039525073 -0.060238473 0.001684421 0.067517124
000210 5b 0e 40 bd 4b 81 7d 3c 17 6e c3 3b 49 04 88 bc
       -0.04688869 0.01547272 0.0059640515 -0.016603606
000220 58 2b 34 3d 0f ac 37 3d f1 01 88 bd 22 d9 eb bc
       0.04398665 0.044841822 -0.06640995 -0.02879006
000230 bd c3 d1 3d 61 f3 83 3d 90 c5 9a 3d 32 f6 02 bd
       0.10242412 0.06442905 0.07557213 -0.03197307
000240 7b c1 c8 3a 3d 6f d2 3d bb fe 86 bd cc f8 92 bd
       0.0015316451 0.10275123 -0.06591555 -0.071763605
000250 ac f7 06 3d 30 f7 3a 3d 64 5b fa 3d 4c 6a 79 3e
       0.032951042 0.045645893 0.12224463 0.24356955
000260 79 3a b4 3d 9f 37 72 3c e5 e5 86 3e 8c 58 37 3e
       0.08800215 0.014783769 0.2634727 0.17904872
000270 9f 65 9c 3d 47 0a 28 3d 28 00 d7 3d af 21 17 bd
       0.0763657 0.041025426 0.10498077 -0.036897358
000280 c9 bc d3 3d 9b 20 11 3c 72 f4 93 3d a5 56 1a bd
       0.10338742 0.008857871 0.072243586 -0.037680287
000290 dd 12 4b bd 73 4c b2 3d 8d 84 d4 3c 01 e2 87 3b
       -0.049578536 0.08705988 0.025942111 0.004146815
0002a0 c6 13 9f bc de 2b cd bc 36 c1 c4 3c c2 01 e8 3b
       -0.019418608 -0.025045332 0.024017911 0.0070802877
0002b0 2c 46 9c ba e5 2e 97 3d 70 5f 0e 3e 5f 3f 5a 3d
       -0.0011922768 0.07381991 0.13903594 0.05328309
0002c0 c7 d7 60 bd ec 43 b4 bc 94 98 38 3e d8 24 0e bd
       -0.05489328 -0.022005044 0.18026954 -0.034703106
0002d0 03 4e ac 3d b7 f9 01 bc 64 3a a7 3d 81 2d 03 3d
       0.08413317 -0.007933072 0.08165434 0.032025818
0002e0 fa 9a 9c 3d 30 d2 61 3d 9d e5 9a 3d 46 5b 16 bd
       0.07646747 0.05513209 0.075633265 -0.03670814
0002f0 ba 77 8c bd dd a0 0a bd 0b d8 00 3d 35 90 12 bd
       -0.068587735 -0.033844817 0.031456035 -0.035782058
000300 b4 73 e6 3d 21 9a 29 3e 2f 47 1c 3e 62 eb 6e bd
       0.11252537 0.16562702 0.1526153 -0.058329947
000310 b4 9d e5 3d 98 9e 1c 3e 64 c7 81 3d f2 bd 54 bd
       0.1121172 0.15294874 0.06336859 -0.05193896
000320 bf fb 80 bd 7a 8f f1 bb 47 e4 1f 3e 02 27 5e 3d
       -0.06298017 -0.00737184 0.15614425 0.05423642
000330 59 eb 80 3d e7 ef 8a 3d cc c3 84 bb c2 25 76 3d
       0.06294889 0.06784039 -0.004051661 0.060094602
000340 36 e6 d6 3d 32 c7 8e bd 0d 19 b4 3f 7c 08 22 bd
       0.10493128 -0.06971587 1.4070145 -0.039558873
000350 d5 69 4a bc d0 86 98 bd 30 dc 2f bd 36 d3 b5 3c
       -0.012354334 -0.074475884 -0.042934597 0.02219544
000360 f2 b1 5d 3d ce 89 21 bc 0b 6f a2 3d 05 8e bf bc
       0.05412478 -0.009859515 0.07931336 -0.02338315
000370 03 cb c0 3d 0d 77 b4 ba 72 85 e9 bc 54 49 92 bd
       0.094137214 -0.001376839 -0.028506014 -0.071428925
000380 39 78 05 3e f6 1e 70 3e fe 13 86 3b 57 d5 d6 3d
       0.13034143 0.2344931 0.0040917387 0.1048991
000390 47 3c 70 bd 18 70 f4 3d 38 a6 70 bb da 6a 2f 3d
       -0.058651235 0.11935443 -0.0036720168 0.04282651
0003a0 48 56 be 3d bb cd a7 3d ed 68 a7 bd d6 7f c1 3d
       0.092938006 0.08193537 -0.0817431 0.09448211
0003b0 dd 55 1f 3e 47 1b f9 bc 58 39 1f bd 1e 80 ff 3d
       0.15560098 -0.030408515 -0.038873047 0.12475608
0003c0 36 78 ea 3c a2 91 a7 3e 40 6f 2e 3d 4b 13 a5 3d
       0.028621774 0.32728297 0.042586565 0.080603205
0003d0 aa 47 aa 3d c7 37 12 3d 75 e0 ce bb 58 b2 3a 3e
       0.0831445 0.035697725 -0.0063133785 0.18232095
0003e0 bf c2 bb 3e d0 94 ab bc bc ed 3d bd 39 f3 1d bd
       0.36672017 -0.020944983 -0.0463693 -0.038562033
0003f0 be 0b b1 3d 61 63 81 bb 76 70 5b 3d 72 e7 4d bc
       0.08644818 -0.0039486145 0.053574048 -0.012567388

lstm.bias_hh_l0 f4 [512]
000000 57 2c 51 bd b6 0f 96 3d 79 c8 8e 3d c8 2b 2c bc
       -0.051067676 0.073272154 0.06971831 -0.010508485
000010 d4 fe 9c 3b 73 3b d5 bd 6a 32 81 3c 5c c7 c6 3c
       0.00479112 -0.1041173 0.01577111 0.024264984
000020 7e 20 15 bd 69 dc 97 bb b0 c5 ae bd 73 dc ae bd
       -0.03640794 -0.0046344292 -0.085338 -0.08538141
000030 2d 79 1b 3d f8 4b 11 3d e3 db 13 be 01 fe 73 bd
       0.03795736 0.03547284 -0.14439349 -0.05956841
000040 b8 db 7a 3d 4e 0f d1 bc 27 b0 9c bc bc f7 49 3d
       0.061244696 -0.025519993 -0.019126965 0.049308524
000050 3e a5 34 3d c3 f7 b6 bd 37 7e 8d bd da d9 bf bd
       0.0441029 -0.089339755 -0.06908839 -0.09367724
000060 f0 fc 65 bd dc 49 98 bc 77 c6 f6 bd 5b ff 18 be
       -0.056149423 -0.018589906 -0.12049573 -0.1494116
000070 e7 c1 e6 bd 51 38 54 3d ef d2 e3 bd 27 ff 40 3d
       -0.11267453 0.05181152 -0.11124217 0.047118332
000080 9e 1b e7 3c c8 91 c7 bd 98 8f a6 bd ef 52 a5 bd
       0.028211411 -0.097446024 -0.08132857 -0.08072459
000090 07 09 77 3c 22 4c 05 bc 17 c4 80 bd d8 9f 21 be
       0.015077836 -0.008135827 -0.06287401 -0.15783632
0000a0 b1 ce 02 be ab 20 d8 39 55 3d 34 bd 8b fb b8 bd
       -0.12774159 0.0004122307 -0.044003803 -0.09032353
0000b0 e4 ae db bd c1 ee 2d 3d ed 49 92 bd cf 46 08 be
       -0.10726717 0.04246402 -0.071430065 -0.13308261
0000c0 3a 3d 23 3d 39 9b ca bd 71 b9 3a bd 3a 65 6d bd
       0.039853312 -0.098928876 -0.045587007 -0.057957865
0000d0 dc be 8e bd 3a 16 f6 bb 37 79 e4 bd 23 3e 6f 3d
       -0.06969997 -0.007509974 -0.111559324 0.058408868
0000e0 13 ab 64 bd 00 c9 fc 3c 60 32 23 bd 77 25 8b 3d
       -0.05582721 0.030857563 -0.039842963 0.06794255
0000f0 ef d2 bb 3b 7c 67 09 3c 5f e7 ec bc f4 61 19 be
       0.0057319324 0.008386489 -0.02891892 -0.14978772
000100 4b c7 b2 bd 1f af 50 be 8b 39 8c bd 56 71 3d bd
       -0.08729418 -0.20379303 -0.06846913 -0.046250664
000110 86 9e ba bd 18 dd 35 be 4a b2 fd bb a2 d5 ed bc
       -0.09112267 -0.17760122 -0.007742201 -0.029032532
000120 e8 c6 51 3d 95 c1 af bd b2 8c 63 3d aa ba 46 3d
       0.051215082 -0.08581845 0.0555541 0.04851786
000130 b4 52 09 bd cf dd d9 bc 3d 48 a4 bc c8 d3 f9 bd
       -0.033526137 -0.026595024 -0.020053977 -0.12198597
000140 84 89 18 bd 49 f3 be bb b1 b4 6d bf ff 39 84 bd
       -0.03724052 -0.0058273417 -0.9285384 -0.064563744
000150 3b 82 48 3c d6 f3 cf bc b1 fd de 3c bc 12 1a be
       0.012238081 -0.025384825 0.027220579 -0.15046209
000160 fb 5f 52 bd 50 2d 26 bd 03 1b c4 3c e2 bd 65 bd
       -0.051361065 -0.040570557 0.023938661 -0.05608929
000170 a6 89 12 be 75 9e 72 b9 75 5c c1 3c 45 48 cf bd
       -0.14310321 -0.00023137948 0.023603657 -0.10121206
000180 de ed 4a bd 80 3c 0a be 77 99 dd 3c b0 b8 33 bd
       -0.049543254 -0.13499641 0.027050717 -0.043877304
000190 c3 ff a3 bd 29 51 3a be e5 ac b7 bd 6e aa 38 3c
       -0.08007767 -0.18195023 -0.08968524 0.011271102
0001a0 f0 c4 07 bb a2 a8 87 bd 86 7f 91 3d 95 75 4e 3d
       -0.002071675 -0.06623961 0.07104401 0.050405104
0001b0 67 f1 e2 bd 25 64 98 bd cd 2c 7a 3b 47 d9 1d be
       -0.110812 -0.07440976 0.0038173676 -0.15414916
0001c0 47 3e 10 bc ce b2 93 be e5 8f ca bd 09 7d d8 bc
       -0.008803911 -0.28847355 -0.09890727 -0.026426809
0001d0 1c f4 68 3b 1d 76 eb bd 95 c6 75 bc fb 0c 19 bd
       0.003554589 -0.11497138 -0.015000959 -0.037365895
0001e0 32 b1 5c be 88 21 56 bd 56 68 33 bd 48 f9 44 3d
       -0.2155197 -0.05227807 -0.043800674 0.048089296
0001f0 c4 4e 33 3d 10 f1 59 bd 40 f9 17 3c 3a 12 02 3d
       0.04377629 -0.05320841 0.009275734 0.031755663
000200 9a 68 f2 3d 99 66 23 bd 62 6d bb bc 04 b7 82 bd
       0.118363574 -0.039892767 -0.022879306 -0.06382564
000210 3e fa 92 3d 9f 79 9a 3d cd 55 84 3c 2f 1e ad 3d
       0.07176636 0.07542729 0.016154194 0.08453023
000220 0a 1e 6e 3d 54 a7 96 3d 0d 2d 31 3c e0 f1 46 3d
       0.058134116 0.07356134 0.010813964 0.048570514
000230 58 8f aa 3d 13 22 a2 3d 61 3e cd 3d 99 84 d1 3d
       0.08328122 0.079166554 0.100216635 0.10230369
000240 8e 6e 03 3c ce 6b 36 3e af 11 b8 3d 87 75 f1 bc
       0.008021964 0.17814562 0.08987748 -0.029474987
000250 4c 36 13 bd 3f 24 df bc c6 c0 7f 3d 2a b3 a7 3e
       -0.035940453 -0.027238963 0.062439702 0.3275388
000260 da 28 5b 3d 70 7d 8d bd 32 cd 57 3e 2c 2b 3a 3e
       0.053505756 -0.06908691 0.2107437 0.18180531
000270 5f 31 d4 bb b6 d4 0f bd 0e e6 e4 bc 7b 70 bd 3d
       -0.006475612 -0.035114966 -0.02794173 0.092499696
000280 42 8e 76 3d 1f 1a 64 3d fd a9 13 3e 9e f2 d6 3d
       0.06019426 0.055688974 0.14420314 0.10495494
000290 96 09 f1 bc a0 15 90 3c 00 5d b8 3b 72 74 f6 bc
       -0.029423516 0.017588437 0.005626321 -0.030084822
0002a0 ae c5 a2 3c d8 8c 7b 3d 59 36 39 3d 0b 8f 91 bc
       0.019869652 0.061413616 0.045217846 -0.017768404
0002b0 6d 30 40 3d ea 0e 46 3d c9 6e ef 3d 6a 08 46 3d
       0.046921182 0.048354067 0.116910525 0.048347868
0002c0 5c 3f d6 bc 4f 8d 1f 3d e6 f9 60 3e b7 76 4f bd
       -0.026153259 0.03895312 0.21970329 -0.050650325
0002d0 3c 5d 47 3d 3a 62 b5 3d 81 7c 1f bd fd 81 98 bc
       0.0486729 0.08856626 -0.038937096 -0.01861667
0002e0 87 37 20 bd c0 2d e4 bc e8 bb 6f bd c5 a6 8e 3c
       -0.039115455 -0.027853847 -0.05852881 0.017413506
0002f0 22 6e 2d bc 8d 19 41 3c d5 06 a9 3d 27 96 32 3c
       -0.01058534 0.011785877 0.08253256 0.010900057
000300 e0 d8 b6 3d b7 89 c2 3c 00 67 aa 3d cf 59 86 3d
       0.089280844 0.023747308 0.08320427 0.065600984
000310 55 07 12 3e 4c 2f 6b 3e 23 04 64 bd 97 4a 6f 3d
       0.1426061 0.22967261 -0.055668008 0.058420744
000320 8f 2b c9 bc 70 96 54 3d 0b bb fc 3d e2 97 54 3c
       -0.024556903 0.05190128 0.12340363 0.012975665
000330 d4 34 19 bb bd 97 07 bd 3f 3d e5 3d c3 9e ff bc
       -0.0023377435 -0.033103693 0.111933224 -0.031203633
000340 71 3d 0f 3e 78 66 29 3d 0f ed b3 3f d9 45 76 3b
       0.13988282 0.041357487 1.405672 0.0037578254
000350 7f e7 1b bd 37 c9 cb 3b 35 03 9d bd 51 1e 1a bc
       -0.03806257 0.006219055 -0.07666627 -0.009406642
000360 df 25 24 3c ec e3 9a 3c 4e 40 9e 3d 29 fe a1 3b
       0.010018795 0.01890751 0.07727109 0.0049436283
000370 a2 e0 f3 3d b6 73 6f bd a3 dd cd 3c 4b c1 58 bd
       0.1190808 -0.05845996 0.025130099 -0.052918714
000380 25 94 0e 3c 05 bf 82 3e 6f cd 79 bc e2 49 aa 3d
       0.008702313 0.2553636 -0.015246733 0.08314873
000390 e1 22 ae 3d fb fd 1b 3e 2a 55 a4 bd 96 0e 6f 3a
       0.085027464 0.15233605 -0.08024056 0.00091193
0003a0 0a 5c 24 3d cc e1 96 bc 56 e0 e6 3c 25 60 ad bb
       0.040126838 -0.018418215 0.028183144 -0.0052910023
0003b0 e1 5b d6 3d c8 12 b1 3d ce bf 3e 3d ff 33 2c 3b
       0.10466743 0.0864616 0.046569638 0.002627611
0003c0 3e 70 2d 3d 9e 30 be 3e 88 8f 5b 3d 2b 5a 99 3d
       0.04234337 0.37146467 0.05360368 0.07487901
0003d0 a5 62 ae bc 10 35 f6 3d 83 f3 30 bc c0 e6 a7 3c
       -0.021287272 0.120218396 -0.010800245 0.020495772
0003e0 ea a0 cc 3e 1d 4f 65 3d c5 2d 71 bd 94 4c 1f bd
       0.39966518 0.05598365 -0.05888154 -0.03889139
0003f0 bd 40 50 3d 3b e3 26 bd 3d 2f b6 bc 88 63 ff ba
       0.05084299 -0.040744048 -0.022239322 -0.0019484619

pitch_linear.weight f4 [128, 128]
000000 1c 10 69 be 1f 87 d5 3d 74 37 28 3c 2e db 9a 3d
       -0.22760051 0.10426163 0.010267127 0.075613365
000010 21 1d 47 3d 42 45 72 3e bd 61 56 bb bc f5 80 3e
       0.048611764 0.23659232 -0.0032712065 0.2518748
000020 80 82 a7 3e b9 30 64 3d 2b f3 6f bd 7b 8e 26 3b
       0.3271675 0.055710528 -0.058581512 0.0025414515
000030 95 5d 55 be 3b ab 13 be ef c9 98 bc 9b 8d 20 ba
       -0.2083648 -0.14420788 -0.018650977 -0.00061246165
000040 25 40 88 3c 07 cd 85 be 78 27 17 be 1a 5a 86 3d
       0.016632149 -0.26132986 -0.1476115 0.06560154
000050 b5 d8 8c 3e 42 49 7f be 2b 11 f6 3d 26 d1 5f be
       0.27509084 -0.2493029 0.12014993 -0.21857128
000060 4e 74 96 3c f2 b6 81 3d 6d 3e 88 3e c0 52 90 be
       0.018366005 0.06333722 0.26610127 -0.28188133
000070 b7 02 7f be 64 db 3b bc ed ad 28 bc 14 6f 90 bd
       -0.2490338 -0.011465881 -0.010295373 -0.070524365
000080 4e 53 99 bd 00 00 80 3d 4b c9 aa 3e e3 5f b0 3d
       -0.07486592 0.0625 0.333567 0.08612039
000090 35 9a d6 3a 3d 5f cf 3d 4e dc 1b be e0 ab 76 be
       0.0016372862 0.10125587 -0.15220758 -0.24089003
0000a0 de 97 5e 3b 32 a9 2e be b7 75 30 3d ef b5 e4 3a
       0.0033965032 -0.1705673 0.04308101 0.001744924
0000b0 1c 13 20 be da 6e 33 3d d4 0a 17 3e a8 e9 95 be
       -0.1563229 0.04380689 0.14750224 -0.29279828
0000c0 de 67 2e 3c a9 67 a6 bc c7 ad c4 be c9 7e 0d 3d
       0.010644881 -0.0203131 -0.38413832 0.03454474
0000d0 4e ee 80 3d 73 f2 ac bc b3 0e df bc 1b 75 36 3c
       0.06295453 -0.021111703 -0.027228689 0.011136319
0000e0 ec f1 bf 3c 89 e1 2b 3d 98 85 20 be 94 4f 01 bd
       0.023430787 0.041963134 -0.15675962 -0.031570032
0000f0 d3 90 10 bd e8 cb 27 3d 7a 89 22 3c 1c d2 fa 3d
       -0.035294365 0.040965945 0.009920472 0.122471064
000100 31 84 6d be 00 2d 96 3e f3 18 69 3e fa 57 b0 b8
       -0.23194958 0.29331207 0.22763424 -8.408721e-05
000110 18 57 b7 be 10 d2 71 3e 58 59 21 3d 80 d7 26 be
       -0.35808635 0.23615289 0.039391845 -0.16293144
000120 da 02 69 3c 71 52 8a bd 92 c1 0e be d2 fe ea 3d
       0.014221871 -0.06754006 -0.13941029 0.11474384
000130 fc 68 a2 be b9 75 ce 3d 84 8f 1f 3e f8 23 8a 3e
       -0.31720722 0.100810476 0.1558209 0.26980567
000140 44 a1 8e be 8a 2b 25 bd 78 19 b1 3e 3e fe 8c bc
       -0.2785741 -0.040324725 0.34589744 -0.017211076
000150 6d 12 b9 bd 4c 74 db bd 52 91 a2 3d 40 14 2b be
       -0.090367176 -0.10715541 0.07937874 -0.16706944
000160 f8 ff df bd 6d 2b f2 3c 1b 69 1e 3d fb 31 9d bb
       -0.10937494 0.029561723 0.038674455 -0.004797218
000170 76 2d 47 3e 96 c1 5a bd de 22 3c 3e eb b0 12 3e
       0.19450936 -0.053407274 0.18372676 0.14325301
000180 ca f3 86 3e cc e7 ae be 60 fe c3 3d 92 fb 34 3e
       0.2635787 -0.34161222 0.095700026 0.17674091
000190 72 7b 3c be 15 d1 5e be ff 36 b8 bd d3 f2 38 3e
       -0.18406466 -0.21759446 -0.08994865 0.1806138
0001a0 8d 6e b3 be 78 9b 6c bd 87 0a c9 3d b2 71 10 3e
       -0.3504528 -0.057765454 0.09816461 0.14105871
0001b0 71 7f 6d 3e 78 6b 01 be a2 1a e6 3d 9a cb f4 bd
       0.23193146 -0.12638652 0.112355486 -0.119528964
0001c0 4e 30 b1 bd 2b eb 98 be ac a2 ab bd 4f d9 6c 3e
       -0.086517915 -0.2986692 -0.083806366 0.23129772
0001d0 2b 05 22 3e 25 64 ae bd f3 a7 11 3e 7a 0d 0a be
       0.15822284 -0.08515195 0.14224224 -0.13481703
0001e0 ff 3a 49 bc 40 dc ac ba ee 13 28 3e 3a c8 0f be
       -0.012282132 -0.0013188198 0.16413853 -0.14041224
0001f0 9d bd 74 3d bf b2 b3 3d 33 f0 65 bd f1 b6 88 3d
       0.05975114 0.087743275 -0.056137275 0.06675518
000200 4f c0 0e be 40 9b 3f 3e 98 ca 2f 3d 93 58 82 3d
       -0.13940547 0.18711567 0.042917818 0.063645504
000210 f5 f0 e2 3d 7c 49 cd 3d 56 b5 83 3d 06 e6 42 3e
       0.11081115 0.10023782 0.064310715 0.1903306
000220 c7 7b a9 3e ef ab c7 3d ae 8e 10 3c aa 0a 20 3d
       0.33102247 0.097495906 0.00882308 0.03907267
000230 1d 7b e1 bd 59 85 06 be 2f 04 13 3d 82 f2 ca bd
       -0.1100981 -0.13136806 0.03589266 -0.09909536
000240 3b b2 98 3b da 38 7b be 49 c1 c4 bd f7 25 00 3e
       0.0046599186 -0.24533406 -0.09607179 0.12514482
000250 1c d3 82 3e af d7 47 be 57 32 f7 3d 36 b5 2b be
       0.2555169 -0.1951587 0.120701484 -0.16768345
000260 49 40 d9 bc 56 90 04 3e 0b 01 31 3e 0c a5 b6 be
       -0.026519911 0.12945685 0.17285554 -0.35672796
000270 9b bf ea bd a8 ba bb 3c 41 b6 c9 bd d5 97 01 be
       -0.11462327 0.022916153 -0.09849215 -0.12655576
000280 e2 13 41 ba 9f f4 8a bb ea 5c b1 3e 01 70 1b 3d
       -0.00073653285 -0.004240587 0.346412 0.037948612
000290 81 7b 30 3d a9 19 d5 3d b3 24 50 be 84 d1 e0 bd
       0.043086533 0.10405285 -0.203265 -0.10977462
0002a0 05 ef 9a bd 5d 01 8b bd 54 28 0c 3d 12 f4 27 3e
       -0.075651206 -0.067873694 0.034218147 0.16401699
0002b0 27 96 7d be aa c9 b4 3d 35 33 14 3e d7 69 a1 be
       -0.2476431 0.08827527 0.14472659 -0.31526062
0002c0 2a 3d 1d bc e3 83 b5 3d ca a5 96 be cd d3 65 3d
       -0.009597102 0.08863046 -0.29423362 0.056110192
0002d0 55 86 b9 bc ca 3a 18 be 3a 45 b2 bc 85 72 88 bd
       -0.022647062 -0.14866176 -0.021761525 -0.06662468
0002e0 40 86 73 3d bd 56 9b 3d 9b f0 49 bd 6b 81 58 be
       0.059454203 0.075849034 -0.049301725 -0.21143119
0002f0 b8 99 cd 3d 52 a5 7f 3d b6 f8 c9 3c 3c db 7b 3e
       0.10039085 0.06241352 0.024654727 0.2459535
000300 1c fa 6d be 0e aa fb 3d 0e 90 e1 3d 45 ba 0c 3e
       -0.2323994 0.12288295 0.110138044 0.13742931
000310 ca 76 8d be bd e5 98 3e a2 03 80 bd 40 c2 01 be
       -0.2762969 0.29862776 -0.06250693 -0.12671757
000320 fe 18 df bd 6d 46 e6 bd fe a7 40 be c6 20 f5 bc
       -0.10893439 -0.112439014 -0.18814084 -0.029922854
000330 77 72 5f be 27 c4 34 bd 75 4d 96 3c e2 33 7b 3e
       -0.21821009 -0.044132378 0.018347481 0.2453151
000340 28 8d 50 be ac 40 ea 3d a0 78 65 3e 0a 3b 33 3d
       -0.20366347 0.114381164 0.22409296 0.043757476
000350 7b 2a e9 bc 50 1e 73 3b 45 b8 1c 3e d7 27 3e be
       -0.02846264 0.0037096925 0.15304668 -0.18569885
000360 cc ff 09 bd c1 98 1a bc f0 5a c4 3d ab 4c 2c bd
       -0.033691213 -0.009435833 0.095876575 -0.042065304
000370 c7 dd 13 3e 01 1c 94 bd 41 94 3e 3e 6d e6 3f 3e
       0.1444007 -0.07231904 0.18611242 0.18740244
000380 3b aa 98 3e 2b 5c a2 be 6d d1 a8 3d 57 cf a8 3e
       0.29817376 -0.31710944 0.0824307 0.32970688
000390 ea a2 21 be bd f4 87 be c6 df 61 3d e8 b0 1b 3e
       -0.15784803 -0.26553908 0.055145048 0.15204203
0003a0 06 75 aa be d1 ec 4a bd 3c 4e 14 3e de 53 15 3d
       -0.33292407 -0.049542252 0.14482969 0.036456935
0003b0 1c 4f 84 3e c8 fe 57 be 28 02 9e 3d 1e 1a ed bc
       0.25841606 -0.21093285 0.07715255 -0.028943118
0003c0 f2 e1 30 3d 76 1d 02 be e5 ab 00 be e4 5f 57 3e
       0.04318423 -0.12706551 -0.12565573 0.21032673
0003d0 9d 6b 25 3e d9 6b 88 bd 4f ef 81 3e 41 bc 38 be
       0.16154332 -0.06661195 0.2537789 -0.18040563
0003e0 27 44 10 be a0 3a 27 be ac 50 10 3e 9c bb d4 bc
       -0.14088498 -0.16330957 0.14093274 -0.025968365
0003f0 62 15 f1 3d 4d 7a f5 3d 45 f3 d8 bc fe 21 27 3e
       0.117716566 0.11986218 -0.026483187 0.1632156

pitch_linear.bias f4 [128]
000000 f0 b2 8c bf 18 34 9b bf eb 08 93 bf 28 21 98 bf
       -1.0992107 -1.2125273 -1.1487097 -1.1885118
000010 26 0b 9e bf 69 2e 9e bf aa f2 9a bf 04 f3 93 bf
       -1.2347152 -1.2357913 -1.2105305 -1.1558537
000020 67 41 99 bf 7d 80 92 bf c5 fd a1 bf 31 6b 9e bf
       -1.1973084 -1.1445462 -1.2655569 -1.2376462
000030 71 73 93 bf 1d 40 95 bf 23 83 90 bf d0 a1 94 bf
       -1.1519605 -1.1660191 -1.129002 -1.1611881
000040 70 47 92 bf 94 31 9a bf 2d 77 94 bf ad 7a 99 bf
       -1.1428051 -1.204638 -1.159887 -1.1990563
000050 76 3f 92 bf 28 cc 98 bf 77 25 98 bf bf 70 92 bf
       -1.1425617 -1.1937304 -1.1886433 -1.1440657
000060 c1 4e 95 bf df b4 8e bf e1 bb 94 bf 45 36 98 bf
       -1.1664659 -1.1148947 -1.1619836 -1.1891562
000070 8a e5 90 bf 15 ca 80 bf c1 1e 7e bf ee 9a 72 bf
       -1.132005 -1.006167 -0.99265677 -0.94767654
000080 55 6c 5c bf c7 fb 4a bf a0 c0 3c bf b4 cb 30 bf
       -0.861028 -0.7929043 -0.7373142 -0.69060826
000090 d5 fc c6 be c7 79 df be dd fa cc be e4 1b b5 be
       -0.3886477 -0.43647596 -0.40035143 -0.3537284
0000a0 3a 87 65 be ed 4e 53 3d 4f f0 f6 bd 53 92 d3 3e
       -0.22414866 0.05158894 -0.12057554 0.41322574
0000b0 77 e7 c4 3e 2d a0 18 3f f5 80 17 3f 30 aa fa 3e
       0.38457844 0.5961941 0.5918115 0.48957968
0000c0 85 73 84 3f 11 83 4f 3f 2c 16 98 3f 62 e5 8c 3f
       1.0347754 0.81059366 1.1881766 1.1007502
0000d0 47 7d 9d 3f c6 7c b5 3f e9 2d a4 3f 4a 90 c1 3f
       1.2303857 1.4178703 1.2826511 1.5122159
0000e0 8d 95 c3 3f c5 01 d2 3f ac c4 cf 3f be cf be 3f
       1.5280014 1.640679 1.6231894 1.4907148
0000f0 f0 18 d4 3f c6 52 c9 3f 06 a7 e5 3f 3f a0 d1 3f
       1.657011 1.5728385 1.7941597 1.6377028
000100 76 c3 da 3f f7 1d d6 3f 87 c3 ce 3f 0a a6 dd 3f
       1.70909 1.6727895 1.615342 1.7316296
000110 66 bb cc 3f 99 a7 dc 3f 15 84 c5 3f 30 14 c4 3f
       1.599469 1.7238647 1.5430933 1.5318661
000120 fe 65 c6 3f 46 ac c2 3f 9f 7a cd 3f 70 a0 ac 3f
       1.5499876 1.5208824 1.6053046 1.3486462
000130 f2 9f a4 3f f5 2c ab 3f 23 87 8a 3f fb 2d 97 3f
       1.2861311 1.3373095 1.082249 1.1810907
000140 7e 44 6e 3f da f8 64 3f 00 4f 01 3f f6 fb c8 3e
       0.9307326 0.8944222 0.5051117 0.3925473
000150 1e 7a bd 3e 30 cc bf 3d e2 8d 0e 3d 7a 83 44 be
       0.3700723 0.093651175 0.03480328 -0.1919078
000160 ed 39 58 be 59 20 bd be 44 04 29 bf c7 11 2c bf
       -0.21115847 -0.36938742 -0.66022134 -0.67214626
000170 f7 e2 50 bf ed 7c 5b bf 62 46 69 bf 33 ba 80 bf
       -0.8159632 -0.85737497 -0.9112302 -1.0056823
000180 46 d4 84 bf 5e 4c 8a bf 53 e4 88 bf fa 46 8d bf
       -1.0377281 -1.0804555 -1.0694679 -1.1037285
000190 d5 5c 91 bf 5b 76 8f bf c2 c9 95 bf 43 f8 92 bf
       -1.1356455 -1.1207994 -1.1702197 -1.1482013
0001a0 d2 41 9f bf 8b 96 97 bf 21 6f 95 bf 64 5a 95 bf
       -1.2441962 -1.1842817 -1.1674539 -1.166821
0001b0 13 fe 9c bf 84 be 98 bf db b1 94 bf 62 74 95 bf
       -1.2265037 -1.1933141 -1.1616777 -1.1676142
0001c0 f3 ca 9a bf cb 50 97 bf ad d0 a0 bf 9c 8c a0 bf
       -1.2093185 -1.1821531 -1.2563683 -1.254291
0001d0 5d 58 a0 bf 31 b8 93 bf ce 97 93 bf 78 17 94 bf
       -1.2526966 -1.1540586 -1.1530702 -1.1569662
0001e0 7e d0 99 bf b7 62 9c bf b6 48 a0 bf b6 7f 9e bf
       -1.2016752 -1.2217625 -1.252219 -1.2382724
0001f0 3e 8a 93 bf 58 fa 9c bf a0 d1 9d bf eb 82 94 bf
       -1.1526563 -1.2263899 -1.2329597 -1.1602453

step_linear.weight f4 [1, 128]
000000 95 66 22 bc 92 00 1d 3c 3d b7 03 3b 12 43 e4 3c
       -0.009912153 0.0095826555 0.0020098232 0.027864013
000010 a4 2b 29 3c 69 00 9b bc 5b c8 1d b8 98 fa 4a 3c
       0.010325346 -0.018921094 -3.7618312e-05 0.012388848
000020 61 df ef 3d 45 88 74 bc bb 1b d9 bb 39 34 53 3c
       0.11712528 -0.014925067 -0.00662562 0.012890869
000030 fa a4 bb bc 99 87 fd bb 2f 91 46 bd b9 49 51 ba
       -0.022905815 -0.0077371118 -0.0484783 -0.0007983703
000040 49 f0 98 bc b1 76 03 bd e5 f5 38 3b bb 08 f7 ba
       -0.018669264 -0.032095615 0.0028222736 -0.0018847206
000050 6d a3 e6 3b c5 35 91 bc 12 bf 4b 3c bf e5 0d 3e
       0.007038525 -0.017725835 0.012435691 0.13857172
000060 bf 75 5c 3c 6e da 12 3c 40 9d 4b 3d aa 84 a2 bd
       0.013455807 0.0089632105 0.049710512 -0.0793546
000070 08 6d 74 bd 7a 96 c4 3b 39 a0 5d bc 8f 5e a2 bc
       -0.059674293 0.0059993835 -0.01352697 -0.01982048
000080 d9 c0 f4 3b f9 c3 74 bc 7d e1 b8 3c 5b 93 5a bc
       0.0074692783 -0.014939302 0.022568459 -0.013340796
000090 50 27 85 bc a9 d6 a7 3b 6f 7f dc 3c dd 9f b7 bc
       -0.016254097 0.005122025 0.026916234 -0.022415096
0000a0 24 46 ad 3c 18 1b 31 bc 49 b2 83 3b fc 5c ec 3a
       0.02115161 -0.010809682 0.004019056 0.0018033083
0000b0 71 b4 84 bc d7 e1 84 3d 1f 2e d0 bb 9e 42 02 bd
       -0.016199322 0.06488388 -0.0063531543 -0.031801812
0000c0 44 65 b7 bc 67 6b 82 bc 6e 6c 52 bd 2c 0b c9 bb
       -0.022387154 -0.015920354 -0.051372938 -0.006135365
0000d0 7f 00 01 3b d5 57 59 bc be e1 d5 39 c0 2c 42 bb
       0.0019684134 -0.01326557 0.00040794717 -0.0029628724
0000e0 6d 61 0b 3c f4 bc cf ba 69 b3 2f bd 97 ad 3a 3c
       0.008507115 -0.0015849159 -0.04289571 0.011393926
0000f0 28 89 2b 3c 71 5e 8f bb 80 80 65 bc c1 5b c3 bc
       0.010469712 -0.004375272 -0.014007688 -0.023847463
000100 61 37 05 bc 35 b5 70 3d 46 6e 70 bc cb 24 58 bc
       -0.008130879 0.058766562 -0.014674729 -0.013192366
000110 b0 f1 40 3c 0a 33 75 3d 73 18 03 bb 1d b1 61 bc
       0.011776373 0.059863128 -0.0020003587 -0.013775137
000120 95 93 89 3b ea 9d d7 b9 d0 3c c0 bc 9c 65 2e bb
       0.0041985014 -0.0004112565 -0.023466498 -0.0026610857
000130 56 d9 54 bc f4 a5 54 3c 35 0a 80 ba cf f5 70 bc
       -0.01299127 0.012979019 -0.0009768667 -0.014707043
000140 b8 65 84 bc c2 c6 14 bc 52 c6 7e 3e a1 91 ad bb
       -0.016161785 -0.009080591 0.2488034 -0.0052969013
000150 37 f8 9f bc 63 f2 4d ba a6 b3 d4 b8 84 3f 9a bb
       -0.019527538 -0.0007856248 -0.0001014241 -0.0047072787
000160 1f 34 70 bc 35 b2 1b bc ce 66 82 bc c6 0a 8e 39
       -0.014660864 -0.009502937 -0.015918162 0.00027092377
000170 02 7f 46 3d ed 1a 89 3b 9d d7 9c 3c 4d 57 28 3c
       0.048460968 0.004184118 0.019145781 0.01027472
000180 29 30 aa bb 9f 11 00 bc dd 31 ca 3c 56 d6 c2 3c
       -0.0051937294 -0.007816701 0.02468198 0.023783844
000190 c2 9c 97 bc f1 7d bc bc b6 7a 3e 3c cb 4a 07 bc
       -0.018507365 -0.023009272 0.011625936 -0.008257578
0001a0 9f fb 55 bc bc b0 77 bc d3 ae 4b 3a 1c 6f a2 3b
       -0.013060479 -0.01511782 0.0007769886 0.004957093
0001b0 76 7d 03 bd 92 82 0b bc ee 0c 6a 3c 7e 69 65 bd
       -0.03210207 -0.008515017 0.014285309 -0.05600881
0001c0 26 a0 94 b9 f1 a5 f5 bd 3b 53 1a bc c5 91 5a bc
       -0.0002834808 -0.119945414 -0.009419258 -0.013340418
0001d0 61 d7 b9 3c b1 75 1b bc 69 e4 24 3d df fe ad bc
       0.022685708 -0.009488509 0.04025689 -0.021239696
0001e0 54 f1 42 3c fa 43 75 bb 7f f6 9e ba af 42 f2 3b
       0.011898357 -0.003742455 -0.0012127905 0.007393203
0001f0 84 bf 0e 3b 9b 15 91 3c b0 d0 ea bb f6 bf dc 39
       0.0021781633 0.017710498 -0.007165991 0.00042104692

duration_linear.weight f4 [1, 128]
000000 20 5a 77 bd 18 fb cd 3b a8 3f e8 3c 06 18 07 bb
       -0.060388684 0.006286036 0.028350666 -0.0020613684
000010 1b ef 8a bc 64 e1 91 bd 1e 50 07 3e 6a c9 b3 bc
       -0.016959717 -0.07123068 0.13214156 -0.021946628
000020 d6 42 27 3e f9 d4 30 3d 31 ca 29 3c 4c b7 0c 3d
       0.1633409 0.043171857 0.010363148 0.034354493
000030 e2 4e ec 39 0f f1 ac bd 00 ce c1 3c a4 88 a2 3d
       0.000450722 -0.08444416 0.023657799 0.079362184
000040 12 b2 28 3d cc a1 3f bd 42 d8 09 bd 25 e5 f8 3c
       0.041185446 -0.04678516 -0.033653505 0.030382702
000050 b7 2b 54 3d b1 8b a5 3d 9a 50 27 be 81 54 05 3f
       0.051799502 0.08083285 -0.16339341 0.5208207
000060 d0 23 55 bc e0 d1 56 bd 66 20 54 3e bb b8 af bd
       -0.013009027 -0.052446246 0.20715484 -0.085801564
000070 63 98 2f 3d 4d 13 ba bb 1a a0 3c 3d 11 e7 e5 3c
       0.042869937 -0.0056785704 0.046051122 0.028064283
000080 d9 eb 68 bd b2 05 a9 3c 2c fa 1b 3e b0 3d 31 3d
       -0.056865547 0.020632599 0.15232152 0.04327172
000090 b0 72 82 bd e8 99 24 3d a9 6f a2 bd 64 b2 c4 bd
       -0.06369531 0.04018584 -0.07931454 -0.09604338
0000a0 ef 5c 30 bc 12 44 5c 3d 0f 41 8e bd 81 8e 11 bd
       -0.010764345 0.053775854 -0.06946003 -0.035536293
0000b0 0f ea 17 3d cc 05 32 bd 05 3f 4f 3c 96 ff c4 bc
       0.03708845 -0.04346256 0.012649302 -0.024047654
0000c0 5f 04 ce bd e0 74 b9 3d 0d 18 f0 3d 87 fe 05 3d
       -0.100594275 0.09055495 0.11723337 0.03271344
0000d0 1a 41 37 3d ad 60 8b 3d 18 d9 aa bd d1 9f d7 bc
       0.04473982 0.06805549 -0.083421886 -0.026321324
0000e0 3e d0 d6 3d d0 04 88 bd 6f ca 84 3d d4 89 b2 3c
       0.10488938 -0.06641543 0.06483924 0.021794237
0000f0 5d e9 5c bc e5 a4 84 3c c1 d1 8d 3b cf 75 e4 3d
       -0.0134833725 0.01619191 0.004327983 0.11155283
000100 c4 6c 3d 3d 92 c7 af 3d 04 31 41 3e db b9 ee 3d
       0.046246305 0.08582987 0.18866354 0.11656543
000110 71 59 3b bc 18 b8 2d 3d 5b fd d6 3c cd e4 28 be
       -0.011434899 0.042411894 0.026243856 -0.1649353
000120 4b cf d5 bc 01 8b 74 bd d0 1b 21 bd 54 68 0e 3d
       -0.026099822 -0.059702877 -0.039333165 0.034767464
000130 f8 c2 a9 3b 7a 05 05 3d 17 9b e6 3b 6f 66 14 3e
       0.005180713 0.032475926 0.007037531 0.144922
000140 72 88 db bc 93 91 bf 3b 69 74 94 3f a7 8d 4a 3d
       -0.02679846 0.005846211 1.1598026 0.049451496
000150 01 20 8f 3d 26 c9 df b9 2a f8 23 3e 60 19 11 be
       0.06988526 -0.00042683742 0.16012636 -0.14169836
000160 e5 50 55 bc 6a a6 6e 3d 96 a7 a5 3c b7 09 e0 bc
       -0.013019775 0.058264174 0.020221513 -0.027348382
000170 eb 98 46 3d b7 61 07 be d7 4f b9 bd 60 ca ec 3d
       0.048485678 -0.13220869 -0.09048431 0.115620375
000180 f7 da 0a bd 53 dd d8 bc d9 c6 fa 3b 92 a8 83 bd
       -0.033900227 -0.026472723 0.007653099 -0.064286366
000190 b9 be 02 3d 3e 0d f7 bd 1c b4 dc ba 94 2d 09 bd
       0.03192017 -0.120630726 -0.0016838345 -0.033490732
0001a0 9c 83 b7 3d 69 99 b6 bd 74 2a 10 3d 60 07 49 3d
       0.08960649 -0.089159794 0.035196736 0.0490793
0001b0 e9 4d 4e bd 8f 04 9c bd ff 46 85 3d 4e 6e 6d 3e
       -0.05036727 -0.07618057 0.06507682 0.23186609
0001c0 63 f4 91 bd 50 da 6d be f5 72 d8 3d ab c2 cf bd
       -0.07126691 -0.23227811 0.10568801 -0.10144552
0001d0 cd b5 c3 bd 0e 32 11 be 52 e2 ea bb d5 b4 9f 3d
       -0.0955616 -0.1417925 -0.0071680928 0.07798163
0001e0 5d 65 a6 be a3 f7 b9 bd b0 26 8b 3d ac 71 37 3d
       -0.3249921 -0.09080436 0.067944884 0.04478614
0001f0 5d 1a 48 3d a4 f4 fd bc ff 29 5e 3d f5 0c 86 3d
       0.048853267 -0.031000443 0.05423927 0.0654544
