torch/model80.pth (torch, 342035 bytes, 8 tensors)

lstm.weight_ih_l0 f4 [512, 3]
000000 25 c0 a4 bd 2b b1 8c 3d 2f 6a f8 bb e3 e9 a3 3d
       -0.08044461 0.068697296 -0.0075810174 0.08003595
000010 c0 20 cf bc 6d 31 20 bd b5 49 b6 3c 3b f3 63 bd
       -0.025284171 -0.039109636 0.022251943 -0.055651885
000020 bd 6a 80 3d 5e af 8c 3c 9e 37 ac 3d 12 a4 ff 3d
       0.06270359 0.017173465 0.08409046 0.12482466
000030 a5 a0 a0 3d a5 55 c3 3c 5e f4 9e bd 48 da 3d 3d
       0.078431405 0.02384455 -0.07761453 0.046350747
000040 1f f6 d5 bd fe ed c3 3d 1d 03 af 3d e0 9e db 3d
       -0.104473345 0.09566878 0.08545516 0.107236624
000050 27 5a ab bd b2 25 80 3d 23 b9 f0 3c 7f 23 2a be
       -0.083668046 0.0625719 0.029385155 -0.16615103
000060 d2 29 ae 3d c3 b4 ca 3d 38 6e 0b 3e a5 2e 4a 3c
       0.0850407 0.09897759 0.13616264 0.0123402225
000070 f9 52 90 bd 48 96 ed 3b 75 cd 1c 3d f0 82 8f bd
       -0.07047076 0.007250581 0.038281877 -0.07007396
000080 c4 a7 6e 3c 50 27 ee bc 6a 48 c8 3d d3 b6 1f bd
       0.014566366 -0.02907148 0.09779437 -0.038992714
000090 d3 f6 d8 bc 0a c1 2f 3d 2d 0a 76 be 5f ec 61 bd
       -0.026484882 0.042908706 -0.24027319 -0.05515706
0000a0 2d ef 99 bd 07 4f ec 3d 1e f6 0d bd 55 19 da 3d
       -0.07516322 0.11538511 -0.034658544 0.10649363
0000b0 11 0d 11 3e 13 26 90 bd 1a 8c 69 3d be 12 14 be
       0.1416514 -0.07038512 0.057018377 -0.14460275
0000c0 2c 37 62 3d 50 50 75 3d 26 3e 97 3d 74 f1 35 3d
       0.055228397 0.059891045 0.07384901 0.04441972
0000d0 87 6d 66 3e b7 41 e5 bc de f8 fc bc 58 5f 87 3d
       0.22502719 -0.027985437 -0.030880388 0.06609982
0000e0 5f a0 39 3d 74 4f 1c 3c ac 95 a3 3d 46 81 2e bd
       0.045318957 0.0095404275 0.07987532 -0.042603754
0000f0 6d bb fd bb 2a 6b 9b 3d ff 5e 85 3d f6 bd c5 bd
       -0.00774329 0.07588799 0.0651226 -0.09655373
000100 ae 2f 89 3c ef fc e6 bb 7c 86 ae bd 5a 17 9a 3c
       0.016746368 -0.007049195 -0.085217446 0.018809963
000110 8a c6 1a bd df 2d a7 bc 9f 89 cc 3e 86 f6 31 bf
       -0.037786998 -0.020407615 0.39948747 -0.6951679
000120 cd 6f 94 3d c3 b5 c0 bc ce 0d 67 3d 78 aa ae 3d
       0.07247887 -0.02352417 0.05640965 0.08528608
000130 63 9e 54 3d b2 14 c9 3c 72 e8 96 bd fe 84 36 3e
       0.05190886 0.024546001 -0.07368554 0.1782417
000140 85 44 91 3d a9 f6 44 be f8 0a 4e 3e 90 a4 c4 be
       0.07093147 -0.19234718 0.20121372 -0.384068
000150 90 6c bc bc f6 00 bb 3d cc 7b 10 be ab 33 02 3d
       -0.023000985 0.09131043 -0.14109725 0.031787556
000160 6e 83 cd 3d b8 fb 82 bd e2 3f 7b 3d 59 94 92 3d
       0.10034834 -0.06395668 0.06134022 0.07157201
000170 33 90 67 3e e3 bc a8 bc e8 38 b0 3c 96 bb 42 3d
       0.22613601 -0.02059788 0.02151151 0.047542177
000180 bb 45 b3 bb d2 d0 c3 3d d5 98 0c 3d 59 81 a1 bd
       -0.005470959 0.09561314 0.03432544 -0.07885999
000190 1a 09 8a bd dd c1 5d bb 7e f1 c0 bd 6a 0f ed 3d
       -0.06740017 -0.0033837475 -0.09421061 0.115752056
0001a0 3a 8c 0a 3e d0 60 af bc 7b d8 a3 3d 43 9c f0 3d
       0.13530055 -0.021408468 0.08000275 0.117485546
0001b0 c6 6c d6 bd 51 0a 91 3d 04 f0 b5 bc 91 30 9a bd
       -0.10469966 0.07082046 -0.022209175 -0.075287946
0001c0 80 29 3b 3d 20 24 88 bd e5 59 61 3d 61 2b 5d bd
       0.045693874 -0.06647515 0.05501737 -0.053996447
0001d0 83 3d 8f 3c d5 7a 5e bc fa bd 04 3e ef 36 4c 3d
       0.017485386 -0.01357909 0.12963095 0.049857076
0001e0 ef 3d e9 bd f1 b1 6e 3d 93 f1 40 3e 77 4e 9f bd
       -0.11388766 0.058275167 0.18842153 -0.07778638
0001f0 28 f5 b5 3d 7d 2d 90 bd 7f ee ba bc 5e 7d da 3c
       0.088846505 -0.07039926 -0.022818802 0.026671108
000200 7b c9 d0 bc ea 50 83 bd 81 27 b1 bd 49 97 1a 3c
       -0.025486698 -0.064119175 -0.08650113 0.009435483
000210 de d7 79 bd b7 e4 46 3d 08 3c c0 bb 41 69 4a 3d
       -0.060996883 0.048557963 -0.0058665313 0.049416784
000220 1d 1d 22 3d 08 88 e9 3d fe 05 83 bd a6 c9 6d 3c
       0.039578546 0.11402899 -0.06397627 0.014513409
000230 3b d2 aa bc 82 9f 2c be f6 42 a2 3d 81 fd 9d 3c
       -0.020852199 -0.16857722 0.07922928 0.01928592
000240 60 41 9c 3c 22 4c 02 bc 09 27 5d bd b8 5a 5e bd
       0.019074142 -0.007952722 -0.053992305 -0.054285735
000250 cd 8c 77 3d 0f 11 73 3d 5e aa 88 bd 5d 2e 41 3d
       0.060437012 0.05934244 -0.0667312 0.047163356
000260 0a bd 69 3c 18 cd de bc 1e 4a 8d bc d9 8c b0 3d
       0.014266262 -0.027197406 -0.017247256 0.086206146
000270 ce fa aa bd 96 28 f1 3c 58 86 a7 bd 6a 9d 68 bb
       -0.083486184 0.029438298 -0.08179921 -0.0035494217
000280 04 7d 9b bd b4 1f e4 3c 0d d7 67 bd e3 e7 bd 3a
       -0.07592204 0.027847148 -0.056601573 0.0014488663
000290 5c d8 13 3e ae 3a 0b bd d5 0d bd bd 8a 54 d0 bc
       0.14438003 -0.03399151 -0.09231154 -0.025430936
0002a0 15 e6 6f 3b f2 5d f3 3d 18 2d 92 3d 21 81 96 bc
       0.0036605645 0.11883153 0.07137507 -0.01837212
0002b0 9d cc 4c bd cd 16 be 3d 25 a6 81 bd a6 6f a1 3d
       -0.049999822 0.09281693 -0.06330518 0.078826234
0002c0 51 be 7f 3d 95 1c a2 3d 43 25 a7 3d 54 fb aa 3d
       0.06243736 0.07915608 0.08161404 0.08348718
0002d0 e7 9e 04 3d 31 fd 34 3d ad fa ef ba 89 8c 26 bc
       0.032378104 0.044186775 -0.001830896 -0.010165342
0002e0 27 89 95 3d c5 ee fb bc 16 20 ac 3d 1e 78 cb 3d
       0.0730155 -0.030753503 0.084045574 0.0993502
0002f0 de 20 bb bc 24 cd 8c 3c 4e 49 f1 bc 93 93 00 3d
       -0.02284282 0.017187662 -0.0294539 0.031390738
000300 ca 85 4e bd af 45 78 bc 5d dc 17 3c ad f2 12 be
       -0.05042056 -0.015153333 0.009268847 -0.14350386
000310 13 d5 dc 3d 3f 77 54 3c 2b 2a 99 3b 58 4e 13 3e
       0.10782828 0.012967884 0.0046742163 0.14385355
000320 ce 66 99 3e b6 e3 84 bd 18 27 3f bd e8 17 ee 3d
       0.29961246 -0.06488745 -0.046668142 0.116256535
000330 94 96 41 bc 13 44 80 be 00 a1 79 be 59 c9 4d bd
       -0.011815686 -0.25051937 -0.24377823 -0.05024085
000340 bc de bc 3d 0d 6a dc bb e6 4a 26 bd f1 de 62 3d
       0.09222171 -0.0067265094 -0.040598772 0.055388395
000350 d2 ec 9c 3d a4 43 38 bd d3 d6 fd bd 50 90 31 3e
       0.076623574 -0.044986382 -0.1239449 0.17340207
000360 2b 51 03 bc ae 17 76 3d dc e2 9f bc fe 59 9c bd
       -0.008014957 0.060081176 -0.019517355 -0.07634352
000370 f8 08 27 bd 5a da 1c 3d 08 db 00 3e 40 a9 60 3d
       -0.040780038 0.038294174 0.12583554 0.05484891
000380 47 5a d4 bb 48 84 93 bc 5d 91 02 3d 93 89 1c bd
       -0.0064804885 -0.018007413 0.03187691 -0.03821714
000390 c0 39 a6 3b 7d 19 9e 3d db 1b 83 3d 1e fb 33 3d
       0.0050728023 0.07719705 0.064017974 0.043940656
0003a0 6e 84 3f 3d e0 ed 51 3d db 4d 8a bd a9 92 92 3d
       0.046757154 0.051252246 -0.06753131 0.071568795
0003b0 02 1a 04 3d 68 2d 25 be aa 0c 45 bc d5 7f 15 3e
       0.032251365 -0.16130602 -0.012026945 0.14599545
0003c0 8e ae b2 bd bf 7f 2b be e7 08 98 bd 50 be 8e bd
       -0.087247 -0.1674795 -0.07423573 -0.06969893
0003d0 0c c4 b6 3c 28 6c e7 3b 54 c5 ba 3d 3b 0c 38 3e
       0.02231028 0.007062454 0.091196686 0.17973416
0003e0 84 29 19 bf c4 1b 5c 3b 4d 02 c4 3d a4 f7 66 bd
       -0.5982897 0.0033585886 0.09570751 -0.056388512
0003f0 a0 ec 5d bd 3c 47 9e 3d 8e 77 80 3d d8 71 37 3d
       -0.05418074 0.07728431 0.06272803 0.044786304

lstm.weight_hh_l0 f4 [512, 128]
000000 d8 0c e8 bb ad 9e b2 3d f1 28 9b 3d f2 fa a3 3c
       -0.007081609 0.08721671 0.07576168 0.020017121
000010 0f 69 7b bd e7 b1 6e bd 48 8b 98 3d 3b 45 66 bd
       -0.06137949 -0.05827513 0.07448441 -0.056218367
000020 89 0d f6 3b a6 65 ba bc 2a ed 9f 3d 2f 2b f5 bc
       0.0075089377 -0.022753548 0.07808907 -0.029927818
000030 24 c4 c3 bc c6 00 18 3d 92 3c 9e bd 86 48 1a 3d
       -0.023897238 0.037110113 -0.077263966 0.03766682
000040 38 fa 3d 3c 98 dc 7f 3d 47 00 aa bd 25 d3 9a 3d
       0.011595301 0.062466234 -0.08300834 0.07559804
000050 00 24 56 bd 52 cb 61 bd a0 32 40 3d 4c f1 ac bb
       -0.052280426 -0.055125542 0.04692328 -0.0052777883
000060 7a 50 8d 3d 3a af b4 3d da f3 89 bc 45 7b ce bd
       0.06900115 0.08822484 -0.01683991 -0.100821055
000070 75 c4 aa bd 11 fb be bd 34 62 7b 3d 64 a5 80 bd
       -0.083382525 -0.09325231 0.06137295 -0.06281546
000080 e9 cb 2b bb 0f f5 f9 bc b0 c0 3b bd 5e 95 9a bd
       -0.002621407 -0.03051236 -0.045838058 -0.07548021
000090 97 9b 29 bd cd 87 27 bd a3 30 4b bd f8 8b 8c 3d
       -0.041408148 -0.040900994 -0.04960693 0.068626344
0000a0 fb 2e 90 3d 9f 91 14 3d 1d 74 33 3d 49 03 13 bd
       0.07040211 0.036271688 0.043811906 -0.035891805
0000b0 34 00 c7 3b 91 0c 03 3d f3 3d 93 bd 62 2c 8b bd
       0.0060730223 0.031994406 -0.0718955 -0.06795575
0000c0 2c fa 54 bc 88 12 9a bd c1 db 08 3d 08 45 78 3d
       -0.012999099 -0.07523066 0.0334127 0.06061271
0000d0 e1 f9 5f 3d 94 0c a4 bd cf e5 3d bd cd 2e 8d bd
       0.054681662 -0.080102116 -0.04636174 -0.06893692
0000e0 10 21 35 3d 0d 98 54 bc cf 57 bc 3c db a7 5f bd
       0.044220984 -0.012975705 0.02299109 -0.05460344
0000f0 b0 52 6c 3d 90 85 55 bc ac 6e 13 bd 64 bf 69 3d
       0.057696044 -0.013032332 -0.035994217 0.05706729
000100 24 1e ce 3b 2e f1 91 bd 4a a6 c0 3d e4 64 97 3d
       0.006290214 -0.071260795 0.09406717 0.0739229
000110 6b af 45 3d e4 8b e8 3d 12 d0 80 bd 70 ee 8c 3d
       0.048262995 0.11354807 -0.06289686 0.06881416
000120 c6 0f a2 bc 2b 56 75 3d f7 f4 bc bd ed a1 e3 3c
       -0.019782912 0.05989663 -0.09226411 0.027787173
000130 16 94 9c bd a4 9c 6b 3c aa 07 75 3d 89 47 20 bd
       -0.07645433 0.014380608 0.059821762 -0.03913072
000140 f1 bb c2 bd 67 7b 29 3c 87 6a ac 3c f2 8a 84 bc
       -0.09508503 0.010344363 0.02104689 -0.016179536
000150 8f 6f c6 3c 96 d0 da 3c 6c 92 54 3d 5a 15 46 bd
       0.024223117 0.02671079 0.05189745 -0.048360206
000160 1c b6 66 3d 3a 3e 23 bd bb fa 94 bd d6 a4 2a bd
       0.056326017 -0.039854266 -0.072743855 -0.041661106
000170 44 1f 98 bd e7 37 48 bc 47 69 99 3d 03 31 46 ba
       -0.074278384 -0.012220359 0.07490783 -0.0007560404
000180 9d 59 cd 3d 48 e2 02 3c 0f b1 91 bd b9 0f ec 3c
       0.10026858 0.00798852 -0.07113849 0.02881609
000190 e9 38 74 bd 18 70 69 bd 3f d3 95 bd ef cb e7 3c
       -0.059624586 -0.056991667 -0.073156826 0.028295485
0001a0 d1 45 78 bd 37 e0 2f 3d 58 b7 5b bd ad bd 00 bc
       -0.060613457 0.042938437 -0.053641647 -0.007857722
0001b0 cf 95 98 3d 70 54 d0 3c 6a 7a 9a 3c 0c c2 97 bc
       0.07450449 0.025430888 0.0188572 -0.018525146
0001c0 86 c2 1f bd 4b 54 63 3d df a3 dc b9 ce df 03 3c
       -0.03900387 0.05550031 -0.00042083763 0.008048965
0001d0 3d 31 a8 3d 39 b5 83 3d a2 8c 81 bd 22 11 91 3d
       0.082125165 0.0643105 -0.06325652 0.07083346
0001e0 d8 43 f6 3c 6c ed a4 bd e6 5b 34 bd 2b 80 99 3c
       0.030061647 -0.08053097 -0.044032954 0.018737873
0001f0 12 0e 40 3d 57 2f d3 3c 49 b9 ae bd 67 6b 76 bd
       0.04688842 0.02577941 -0.08531434 -0.06016102
000200 f8 aa 2e bd 6c 04 09 3c ad 8e 35 3d fa 37 02 bd
       -0.042643517 0.008362871 0.04432552 -0.031791665
000210 31 fa 9f bd 45 8a 8a bd ca 32 4c bd 59 6f 41 bd
       -0.07811392 -0.06764654 -0.049853124 -0.04722533
000220 48 44 61 3d 05 e3 59 bc ec 94 a9 bd 46 ac 50 3d
       0.05499676 -0.013298755 -0.08280358 0.050945543
000230 7a a7 90 bc a9 28 f3 3c 2e f9 1d bd 18 04 52 bd
       -0.017657984 0.029682474 -0.038567714 -0.051273435
000240 63 a5 88 3d 44 9a bc bd 13 fb 91 bd f5 16 8e 3d
       0.0667217 -0.09209111 -0.07127967 0.069379725
000250 57 5e 24 3d 68 3b c7 3c 30 17 7d bd 2a 28 20 3d
       0.040129032 0.02432032 -0.06178969 0.039100803
000260 3b 2e 83 3d 08 c5 a1 3d d9 9f 0c 3d dd 05 66 bd
       0.06405302 0.07898909 0.03433213 -0.056157935
000270 1d cd 85 bd 46 9a 61 bd 45 e5 9b bd 62 ee 24 bd
       -0.06533263 -0.055078767 -0.07612089 -0.040266402
000280 33 ed 09 bc 6a 00 3e 3d 70 a2 81 3d 21 cc 83 3c
       -0.008418369 0.046387114 0.063298106 0.016088547
000290 e7 f7 a2 3d 11 de 31 bb 85 65 71 bd 2c 0f 88 3d
       0.0795744 -0.0027140419 -0.058934707 0.06643519
0002a0 a5 2f a2 3c 64 37 7c bc 8e 8e ae bd d3 f7 82 bd
       0.01979811 -0.0153940655 -0.08523284 -0.06394925
0002b0 06 b1 a5 bc ea 69 ad 3d 37 7d 95 3d 4a c5 92 3d
       -0.020226013 0.08467467 0.072992735 0.07166536
0002c0 cc ed 43 3d 4a 87 88 3d 93 7b 7a 3d 94 43 05 3d
       0.047834203 0.06666429 0.061153006 0.03253515
0002d0 6d e3 62 3d 7c 8a ba bc 05 22 10 3d 55 80 60 3c
       0.05539267 -0.022771113 0.035188694 0.013702472
0002e0 15 c1 20 3c 11 3b a9 3b 78 15 82 3d 3c 41 67 3d
       0.009811659 0.005164512 0.06351751 0.056458697
0002f0 ae a4 45 3d 9d 28 0f 3d 6b 63 17 bd 95 88 b0 bc
       0.048252754 0.03495084 -0.036960047 -0.021549502
000300 b5 65 73 bd 7c d2 3b 3d f3 b8 08 3d 1e 41 b0 bd
       -0.059423167 0.04585503 0.033379506 -0.0860617
000310 00 5d 71 3c 10 94 98 3d a1 4c 91 3b 1f 0a d9 bc
       0.014731646 0.07450116 0.0044341837 -0.026494084
000320 ed d4 93 bd ea 7b b3 bc 6d 47 41 3c 9e 7a 9f 3d
       -0.07218347 -0.021909673 0.011796814 0.07787059
000330 46 2f c5 bb 3a 28 47 bd 75 08 b0 bd 85 15 38 bd
       -0.0060175983 -0.048622347 -0.08595363 -0.044942398
000340 c2 92 8f 3d a5 56 6e 3c 57 2a 70 3d 02 bd 3a bc
       0.07010414 0.014547025 0.05863413 -0.011397602
000350 8d 94 43 bd 9c 07 42 bd db 4a f3 bc 86 83 f4 3c
       -0.04774909 -0.047370538 -0.02969878 0.029847872
000360 cb ee 0f 3d fd 91 44 3d d1 24 93 bd 9d 61 71 3d
       0.03513984 0.047990788 -0.071847565 0.058930982
000370 f7 37 3d 3b 3a fc a7 3d 6d d6 ed 3c c2 2e 8d bd
       0.002887247 0.08202405 0.02903291 -0.06893684
000380 1e 61 86 3d 32 2d 99 bd 3b 0d 90 3d 53 fb c7 bc
       0.065614924 -0.074793234 0.070337735 -0.024411833
000390 c3 a7 98 bd be 5e a5 3d 92 82 fe 3c 3c 24 93 bd
       -0.07453873 0.08074711 0.03106812 -0.071846455
0003a0 42 d4 87 bd d0 91 65 bd 31 42 62 3d 27 e2 29 bd
       -0.06632282 -0.05604726 0.055238906 -0.04147544
0003b0 a8 eb 61 3d d7 a3 4f 3d 57 e5 84 3d 30 8d 5a bd
       0.05515638 0.05069336 0.064890556 -0.053357303
0003c0 ca 25 09 3c 32 e8 58 3d f2 88 0b 3c d8 64 65 bd
       0.008370826 0.052955814 0.008516537 -0.056004375
0003d0 bd ad e9 bc c3 2e 8b bd db 06 8e 3c ab 64 a0 bd
       -0.028525228 -0.067960285 0.017337253 -0.07831701
0003e0 a4 8b 2d bd 0c 5e 44 3d e0 37 03 3d b7 b6 ea 3c
       -0.0423695 0.047941253 0.03203571 0.028651578
0003f0 b5 9a 74 bc 0e 50 da 3b cc a1 91 3d 8a 7c 35 3c
       -0.014929463 0.0066623753 0.071109384 0.011077056

lstm.bias_ih_l0 f4 [512]
000000 c9 a3 0f be 1e 52 17 39 2a 6a 7f 3d fa aa 86 bd
       -0.14027323 0.00014431073 0.062357105 -0.0657558
000010 a4 02 fe 3b c5 f0 eb 3c fb b3 01 3d aa e9 ee 3c
       0.0077517796 0.028801331 0.031665783 0.029164154
000020 68 40 95 bd 8f c4 fe bd 33 5d ca 3c cc 8b b6 bd
       -0.07287675 -0.12439834 0.024702644 -0.08913383
000030 99 cd 65 3d 36 f4 54 bd 90 69 c2 bc 75 00 7f bd
       0.056104276 -0.05199071 -0.023731977 -0.062256295
000040 d2 2e 21 3d ca b1 6f 3d e4 bb 3e bd 1c 8a 31 bb
       0.039351292 0.058519162 -0.046565905 -0.0027090376
000050 ac 02 28 3d 02 0b af 3b da e7 84 bd 30 0f bd be
       0.041018173 0.0053418884 -0.06489535 -0.3692565
000060 07 cc ad bd 09 3e b3 3d 7a 46 6c be 40 f7 35 be
       -0.08486181 0.08752067 -0.2307376 -0.177701
000070 86 38 54 bd be 06 90 3d c0 a7 0f bd 9c 94 6d bd
       -0.051811717 0.07032536 -0.03507209 -0.058003053
000080 dd a7 6e bd 19 ec 67 3d 0f 47 43 be 90 65 0d be
       -0.058265556 0.056621645 -0.19070075 -0.13808274
000090 84 09 0e 3b 67 03 80 3d b6 2e 3f bd 80 50 09 be
       0.0021673152 0.06250649 -0.046675406 -0.13409615
0000a0 3c c1 09 be 1b 5f 14 be 92 e3 74 bc e8 03 25 bd
       -0.1345262 -0.14489405 -0.014946835 -0.04028693
0000b0 bb f5 8c 3a 3e 2a fe bd e9 3c 08 be 29 59 09 be
       0.0010754386 -0.12410401 -0.13304485 -0.13412918
0000c0 dc eb 13 3c 90 a6 4c bd 78 0f 50 be ce 30 cf bd
       0.009028401 -0.049963534 -0.20318401 -0.10116731
0000d0 ea 21 10 3d f2 49 f6 bb 3f cb 08 bc 57 06 a9 3d
       0.035188593 -0.007516139 -0.008349239 0.08253162
0000e0 08 7b e8 bd d5 b6 c7 3d 0a df 8e 3d 0d 28 c8 bc
       -0.11351591 0.09751669 0.06976135 -0.02443316
0000f0 92 d7 7e bd af 37 90 bd 0c 92 9c 3d b5 e9 17 be
       -0.062217303 -0.07041871 0.07645044 -0.14835246
000100 42 7a 7a bc 07 d5 25 be a5 1c bd bd c8 ea 07 bd
       -0.015287938 -0.16194545 -0.09233979 -0.03318289
000110 8d ab 25 be e5 5c 0a be 6e 0e f9 bc 7a 4f 43 be
       -0.16178723 -0.13511999 -0.030402388 -0.19073287
000120 62 08 08 bd 35 be 7e 3d 3f b3 f7 bc 61 79 74 3c
       -0.03321112 0.062193114 -0.030236838 0.014921517
000130 54 6d ac bd 99 0f 50 3c b2 aa f8 3b 75 92 5c bd
       -0.0841929 0.012699031 0.007588708 -0.05385061
000140 e8 a5 41 3c 38 ed d9 bd 89 b0 71 bf ba 31 b3 bd
       0.01181934 -0.10640949 -0.94409996 -0.08749719
000150 ce 2b a1 bd 4b 47 d2 3c 9a bf d3 bd 9d d6 36 be
       -0.07869683 0.02566876 -0.103392795 -0.17855306
000160 5c 5b e1 bd 43 24 00 be d1 d4 ef 3c 42 66 1c be
       -0.110037535 -0.12513833 0.029276283 -0.15273383
000170 22 f2 00 be 04 e7 e9 bd d4 38 da bd b9 6f b7 bd
       -0.12592366 -0.11421016 -0.1065537 -0.08956856
000180 f9 52 9f bd 5c 55 f1 3d 0f db 9f 3c db 26 4d 3d
       -0.07779498 0.11783859 0.019513635 0.050085884
000190 02 80 80 3d c1 36 92 be 42 0f d9 bd bd 82 72 3c
       0.062744156 -0.285574 -0.10598613 0.014801678
0001a0 8a 1a 1a bd 44 9c 72 bd 7e ef 3b bd ed 4b 91 bc
       -0.037622966 -0.059231058 -0.045882694 -0.0177364
0001b0 13 ed d5 bd fb 85 bf bc 59 b4 9a 3d 86 e9 92 bd
       -0.10445609 -0.023379317 0.0755393 -0.07173447
0001c0 e3 f0 0e 3d b5 32 0f bf ec b9 85 bd 07 53 81 bd
       0.034897696 -0.5593675 -0.065296024 -0.06314664
0001d0 89 f8 39 3c fe e0 25 be 88 78 b0 bd 33 3d 27 be
       0.011350759 -0.16199109 -0.086167395 -0.1633194
0001e0 f8 45 06 be a8 8c ef bd 0d 1e b4 bb 91 69 b2 3d
       -0.13112628 -0.1169675 -0.0054967464 0.087115414
0001f0 45 03 88 bc 31 db c1 bc b6 a5 1f bd 24 29 77 3d
       -0.016603122 -0.023664089 -0.038976394 0.06034197
000200 f2 6f fa 3c 04 24 58 bd 41 05 52 3b b8 f3 ab 3d
       0.030570958 -0.052768722 0.0032046589 0.08396095
000210 3c f3 25 bd 8b b0 49 3d f3 9e 1e 3c 63 ed 08 bc
       -0.04051517 0.04924063 0.009681451 -0.008357379
000220 ab 6b c3 3d 22 44 40 3d f7 e3 88 bd 74 e8 03 bd
       0.095420204 0.046939977 -0.06684106 -0.032204106
000230 b8 f1 06 3e fe 90 9c 3d 9b 1a af 3d 0a ec fb bc
       0.13178146 0.076448426 0.085499965 -0.0307522
000240 97 7c 7a b8 ef 7a 23 3e dd 6a 3c bd af e5 92 bd
       -5.9720678e-05 0.15964864 -0.04600035 -0.07172715
000250 ae 65 1b 3d 41 d7 58 3d d7 ca 0b 3e 0b b8 b8 3e
       0.037938766 0.052939657 0.13651596 0.36077914
000260 19 75 bc 3d 47 27 d5 3c 33 ce 91 3e c3 e3 74 3e
       0.09202022 0.026019705 0.2847763 0.23915009
000270 9f a6 a4 3d 94 42 3f 3d 39 1f d1 3d 7b 69 20 bc
       0.08039593 0.046694353 0.102110334 -0.0097907735
000280 d3 61 ed 3d 8b 78 a7 3c e9 61 82 3d d7 f0 29 bd
       0.11590924 0.020443222 0.06366331 -0.04148945
000290 4c 64 64 bd a1 89 b8 3d 56 4e da 3c 3d 6d d2 bb
       -0.055759713 0.09010626 0.026648682 -0.0064217136
0002a0 ab f9 91 bc a4 fc a5 bc 15 25 b7 3c ac e5 2a 3c
       -0.017819246 -0.02026207 0.02235655 0.010430735
0002b0 75 39 85 3a 2e 2c a2 3d e5 f9 13 3e 80 52 7c 3d
       0.0010164218 0.07918583 0.14450796 0.061602116
0002c0 ed 98 58 bd ae 1e 83 bc c1 f5 65 3e e7 bb 07 bd
       -0.052880216 -0.01600584 0.22457029 -0.033138182
0002d0 5e 94 ae 3d bb f5 a4 3b 33 eb b0 3d 8f ca 9b 3d
       0.085243925 0.005034176 0.08638611 0.07606994
0002e0 f6 46 8f 3d 3c 02 8c 3d 44 40 ad 3d 19 d3 15 bd
       0.069959566 0.06836364 0.08459523 -0.03657827
0002f0 fc 08 8a bd 73 6e c0 bc 29 08 2d 3d c8 f5 37 bd
       -0.06739995 -0.023490166 0.04224411 -0.04491213
000300 69 ce 26 3e 9a 66 35 3e 7e 30 52 3e e5 ba 72 bd
       0.16289677 0.1771492 0.20526311 -0.059260268
000310 cf 2c 0b 3e 76 be 2e 3e d5 68 85 3d e9 8c 68 bd
       0.13591312 0.17064843 0.06514136 -0.056775007
000320 22 8b 80 bd bc 4a e3 bb 28 9d 59 3e 46 1a 89 3d
       -0.062765375 -0.0069363993 0.21251357 0.066944644
000330 38 aa 83 3d b4 80 9d 3d 7c 16 a7 3b 1e 15 52 3d
       0.06428951 0.07690564 0.005099116 0.05128967
000340 ec aa fe 3d 5e 0e 95 bd 20 12 ca 3f ed a7 0d bd
       0.124349445 -0.07278131 1.5786781 -0.034583975
000350 3c 84 10 bc f7 92 9f bd 60 78 4b bd 25 3f 89 3c
       -0.00882059 -0.07791703 -0.049675345 0.016753742
000360 fc 87 7b 3d 3f 82 82 bc b5 a7 c3 3d 15 cb 0d bd
       0.06140898 -0.015931247 0.09553472 -0.034617502
000370 ea c4 d9 3d d5 0d e4 39 2f 11 79 bc 3a 99 99 bd
       0.106332615 0.00043497854 -0.015201851 -0.07499929
000380 b7 ab 17 3e 12 31 68 3e b7 a7 f4 3b 29 25 04 3e
       0.14811598 0.22674969 0.007466282 0.129048
000390 2d d2 1b bd d4 13 2d 3e ce ac 0b bc 6b f8 3d 3d
       -0.038042236 0.16902095 -0.008525087 0.046379488
0003a0 b7 2f e5 3d da 0e ab 3d 71 f4 a6 bd b6 ad c4 3d
       0.111907415 0.08352442 -0.08152092 0.09603445
0003b0 6c 14 45 3e 9c 3a 7b bc d9 6b 03 bd e5 41 0f 3e
       0.19246072 -0.015333798 -0.032085273 0.1398998
0003c0 9f 1e 11 3d ed 1c f1 3e d1 1e 2c 3d 54 7e 10 3e
       0.035429593 0.4709238 0.042021576 0.1411069
0003d0 af 6a aa 3d 1d eb 05 3d c7 a4 fa bb 4a 28 31 3e
       0.083211295 0.032694925 -0.0076490375 0.17300525
0003e0 f7 5b d5 3e d3 ee f0 bc cc d7 43 bd 3f a8 f6 bc
       0.41671726 -0.029410755 -0.04781322 -0.030109523
0003f0 28 b6 bd 3d b1 79 99 bb e1 de 58 3d b7 98 9a 3b
       0.09263259 -0.004683696 0.05294693 0.004717912

lstm.bias_hh_l0 f4 [512]
000000 ab ea b4 bd f1 47 94 3d b2 f9 8c 3d 0c ae 19 3a
       -0.08833822 0.07240284 0.06883563 0.0005862422
000010 47 cf 24 3c f2 e8 a5 bd fa d9 72 3c a1 e6 98 3c
       0.010059184 -0.081010714 0.0148224775 0.01866466
000020 1d 44 a7 bd fa 79 bb bb 08 b6 b7 bd a2 6d dd bd
       -0.081672885 -0.005721328 -0.089702666 -0.108119264
000030 19 66 42 3d bf 65 fa 3c b9 6b 38 be 26 de 5c bd
       0.04746065 0.030566094 -0.18009843 -0.053922795
000040 d8 9f 65 3d 09 86 88 bc 36 2e ad bb a9 4b 41 3d
       0.056060642 -0.016665475 -0.00528505 0.047191296
000050 10 d5 38 3d 05 ed c2 bd 88 6d 9c bd ba 01 80 be
       0.045125067 -0.09517864 -0.07638079 -0.25001317
000060 2f eb 74 bd 1b 49 07 bc e3 48 4a be 89 39 4a be
       -0.0597946 -0.008257176 -0.19754367 -0.1974851
000070 19 b1 1e be d8 22 5a 3d 34 fa fe bd 16 0e 88 3d
       -0.15497245 0.053255886 -0.12450066 0.06643312
000080 da 01 12 3d 80 8f b0 bd 14 8f ed bd 9c 0b cf bd
       0.035646297 -0.086211205 -0.115995556 -0.10109636
000090 e4 04 be 3a b7 56 21 bc 7a 2b 95 bd 76 d6 43 be
       0.0014497307 -0.009847335 -0.07283683 -0.19124779
0000a0 b8 ea 26 be 88 26 34 bc 55 af 8b bd 00 19 cc bd
       -0.16300476 -0.010995515 -0.06820551 -0.09965706
0000b0 99 cd f5 bd 08 4c c9 3c c4 3c bb bd b7 1c 23 be
       -0.12002105 0.024572387 -0.091424495 -0.15928923
0000c0 f2 7b 04 3d 25 b8 be bd ea 3d d3 bd 59 78 73 bd
       0.032344766 -0.093124665 -0.103145435 -0.059440944
0000d0 4f 5c 8e bd 87 ca e2 ba 93 32 e0 bd c0 27 b6 3d
       -0.069512 -0.001730279 -0.10947146 0.088943005
0000e0 87 ef 96 bd f3 f8 16 3d 05 80 24 bd 05 65 8d 3d
       -0.07369905 0.03685851 -0.04016115 0.069040336
0000f0 cc 8b 3e 3c 99 cf 77 3c 41 40 d2 bc cf 03 33 be
       0.01163001 0.015125179 -0.025665404 -0.17481922
000100 ab 84 63 bd 27 e2 79 be e1 42 e6 bd ec 33 45 bd
       -0.055546444 -0.24402677 -0.11243225 -0.04814522
000110 da 98 d4 bd e6 ac 59 be d5 33 44 bc 45 b9 32 bd
       -0.103807166 -0.21257362 -0.011975248 -0.043633718
000120 f3 ff 25 3d 06 3d bd bd 09 14 c6 3d 69 ca 3f 3d
       0.040527295 -0.09240155 0.0967179 0.046823893
000130 cf 02 5e bd c7 91 a6 bc 74 e7 d7 bc ad d8 1c be
       -0.054201897 -0.020333184 -0.026355483 -0.1531703
000140 39 9a 49 bd 4e 48 54 bc 83 0c 8a bf 75 d3 80 bd
       -0.049219344 -0.012956692 -1.0785068 -0.06290332
000150 3b 2d 0d 3c ed be f7 bc ff 87 6b 3c 50 4c 28 be
       0.008616741 -0.030242408 0.014375686 -0.16435361
000160 2e 50 6a bd 19 ae 88 bd 3d 6d e2 3c fb 84 d8 bd
       -0.05720537 -0.066738315 0.02763998 -0.10572239
000170 4d 2a 1e be c4 ec bc bc 09 33 c5 3c ea f6 fa bd
       -0.15445824 -0.023062117 0.024072187 -0.12254126
000180 4e 85 61 bd 5f 8c 5e bd 1a f3 c0 3c 7f a9 21 bd
       -0.05505877 -0.054333087 0.02355342 -0.039468285
000190 65 6e 8b bd 24 8e 85 be 5f ff d1 bd 3b a9 2e 3c
       -0.068081655 -0.26085007 -0.10253786 0.010660465
0001a0 8d 1f 5b bc d0 7b 86 bd 12 2e 92 3d aa c9 30 3d
       -0.0133742215 -0.06566584 0.071376935 0.04316107
0001b0 82 59 13 be 31 e9 9d bd 28 47 c7 3b 71 a8 50 be
       -0.14389613 -0.07710493 0.0060814805 -0.20376755
0001c0 01 ba 16 bc 65 88 03 bf 1c 31 ec bd 02 fe 9b bd
       -0.00919962 -0.51379997 -0.11532804 -0.076168075
0001d0 01 da 33 bc a6 24 2b be 01 ce 21 bd 6a 70 bf bd
       -0.010977269 -0.16713199 -0.0395031 -0.09347613
0001e0 0f be 7f be e8 4c 8f bd 49 45 3d bd 30 94 5b 3d
       -0.24974845 -0.069970906 -0.046208654 0.05360812
0001f0 63 d3 3b 3d c6 81 69 bd 12 77 b7 3b c8 bb 0a 3d
       0.04585589 -0.057008527 0.005598911 0.03387049
000200 39 15 e0 3d ff cd 04 bd 5d fa ae bc 57 0f 42 bd
       0.10941548 -0.032423016 -0.021359617 -0.04737791
000210 73 07 a0 3d 6a a2 df 3d f7 c9 a2 3c c7 03 be 3d
       0.07813921 0.1091965 0.019871695 0.09278064
000220 37 63 e0 3d ce f0 9a 3d df 24 2a 3c f8 f6 38 3d
       0.10956424 0.07565461 0.010384767 0.045157403
000230 25 af e6 3d b0 bf ba 3d 6c 93 e1 3d 6f 03 d4 3d
       0.11263875 0.09118593 0.110144466 0.103522174
000240 eb b5 d2 3b 97 af 70 3e ed db e0 3d b9 22 f1 bc
       0.0064303777 0.23504482 0.109794475 -0.029435502
000250 79 8f fd bc 85 6d a3 bc ed 1a 9d 3d 19 b6 e3 3e
       -0.030952202 -0.019949684 0.07671151 0.44474867
000260 41 a4 6b 3d 15 f6 6c bd 2e 9a 6d 3e 63 b6 77 3e
       0.05752969 -0.05785187 0.23203346 0.24190669
000270 92 b0 20 bb 6b 3b f1 bc 85 6f fc bc 4a f1 f4 3d
       -0.0024519307 -0.029447278 -0.030814895 0.11960085
000280 e6 eb 94 3d fc c5 89 3d 4e e2 0a 3e eb 2a cf 3d
       0.072715566 0.06727216 0.13562891 0.10115608
000290 b1 d6 11 bd 5a 10 a9 3c 8d 7e cf 3b ac 85 26 bd
       -0.035605136 0.02063768 0.0063322247 -0.040654823
0002a0 c9 df af 3c d6 91 87 3d eb 66 32 3d 0f 36 6c bc
       0.021469014 0.06619613 0.04355518 -0.014417185
0002b0 58 3c 49 3d 09 10 5c 3d 4e a7 fa 3d 7f 1b 68 3d
       0.049129814 0.05372623 0.12238942 0.056666847
0002c0 45 c9 c5 bc 59 1b 38 3d c4 2c 87 3e c6 0d 49 bd
       -0.024143824 0.044947956 0.2640134 -0.0490854
0002d0 79 e8 4b 3d 8b ec cf 3d ac 19 0c bd b1 51 d0 3c
       0.04978225 0.10152539 -0.03420417 0.025429578
0002e0 57 de 3a bd 13 91 6f bc b1 ff 4a bd f5 bb 8f 3c
       -0.045622196 -0.014621991 -0.049560253 0.01754568
0002f0 49 fb 19 bc e7 61 b5 3c 00 20 bf 3d 19 9e e7 3a
       -0.00939829 0.02214141 0.093322754 0.0017671018
000300 d7 ff 0e 3e 8c 72 10 3d cb 1b 0b 3e 31 74 84 3d
       0.13964783 0.03526549 0.13584821 0.06467474
000310 2b 65 2a 3e 2a 4f 7d 3e 42 be 5c bd a0 7b 5b 3d
       0.16640155 0.2473723 -0.05389238 0.053584695
000320 f4 5d c7 bc ff 61 56 3d 58 16 38 3e b8 65 d2 3c
       -0.024336793 0.05233955 0.17977273 0.025683269
000330 92 d7 82 ba ae f2 c4 bc 9d f8 f7 3d 20 e0 23 bd
       -0.0009982458 -0.0240415 0.12107966 -0.040008664
000340 b0 1d 23 3e 14 d8 1c 3d 22 e6 c9 3f 8f 19 0f 3c
       0.15929294 0.038292006 1.5773356 0.008734121
000350 43 6e 0d bd 83 2c 36 3b 01 ce aa bd 35 42 73 bc
       -0.034528982 0.0027797527 -0.083400734 -0.014847328
000360 bb c8 8d 3c 79 47 52 3c f8 78 bf 3d 6c 25 ce bb
       0.01730763 0.012834423 0.09349245 -0.006291082
000370 60 6b 06 3e e6 09 68 bd 65 70 1d 3d 4f 64 67 bd
       0.13126898 -0.056650065 0.038437266 -0.056492146
000380 4c f4 d8 3c a9 8e 7d 3e da 84 42 bc a5 bf db 3d
       0.026483677 0.24761452 -0.011872495 0.10729913
000390 90 55 d8 3d 57 da 4e 3e 40 43 ae bd 38 5f 92 3b
       0.10563195 0.20200478 -0.08508921 0.0044669174
0003a0 d8 0c 72 3d 6c d9 89 bc a0 b8 e8 3c c0 18 75 bb
       0.05909428 -0.016827308 0.028408349 -0.0037398785
0003b0 51 eb 10 3e ec f1 cf 3d 4d 8d 5a 3d 00 b1 91 3c
       0.14152266 0.10153565 0.05335741 0.017784595
0003c0 6a 53 49 3d 7e dd 03 3f 19 3f 59 3d 22 a2 0a 3e
       0.049151815 0.51509845 0.05303869 0.13538411
0003d0 09 da ad bc 0c 0c f0 3d 84 d1 46 bc 3d 26 37 3c
       -0.021222131 0.11721048 -0.012134913 0.01117855
0003e0 22 3a e6 3e 85 a1 42 3d d5 17 77 bd 7a 5b f9 bc
       0.44966227 0.04751732 -0.060325462 -0.030439127
0003f0 79 95 69 3d 3e e3 29 bd be 54 bb bc dc 46 7b 3c
       0.057027314 -0.04147648 -0.022867557 0.015336718

pitch_linear.weight f4 [128, 128]
000000 03 6c 81 be ca 13 ff 3d df 40 69 3c 3f 94 bc 3d
       -0.2527772 0.12454946 0.014236658 0.09207963
000010 42 58 4f 3d 46 5c 80 3e 40 d7 9a 3b f1 76 87 3e
       0.05062128 0.250704 0.004725367 0.26457933
000020 5f dd c8 3e 74 f4 9c 3d d8 f5 83 bd 7d 82 90 3c
       0.39231393 0.07663813 -0.06443375 0.017640347
000030 99 39 76 be b3 ee 14 be d6 e5 c2 bc f6 c1 d5 ba
       -0.2404541 -0.14544182 -0.023791235 -0.0016308415
000040 51 35 1d 3c 8d cf 86 be e7 12 19 be 3d 50 8e 3d
       0.009595231 -0.26330224 -0.14948617 0.06948898
000050 30 7c 8d 3e 85 63 80 be e4 d0 20 3e 9d 80 78 be
       0.2763381 -0.25075927 0.15704685 -0.24267812
000060 cb 8b 31 3c 4b 26 93 3d 0a 51 8e 3e 75 7d a0 be
       0.010836552 0.07185038 0.27796203 -0.31345716
000070 36 32 83 be ed 1e 83 bc c2 09 ad bc 58 f0 99 bd
       -0.25624245 -0.016005957 -0.021122817 -0.07516545
000080 eb 58 98 bd 6c 3c 80 3d c7 5b c0 3e 89 f4 b0 3d
       -0.07438835 0.062615246 0.3757002 0.086403914
000090 a9 5d 6b bb 92 c7 f0 3d b2 c9 3e be d2 f6 82 be
       -0.003591398 0.11756815 -0.18631628 -0.25578934
0000a0 b0 f7 69 b8 62 75 35 be 10 0c 73 3d 5b e7 84 3c
       -5.5782206e-05 -0.17720559 0.059337676 0.0162236
0000b0 c3 83 45 be e7 cf 46 3d 00 98 29 3e 10 bc a0 be
       -0.19288544 0.048538115 0.1656189 -0.3139348
0000c0 b8 13 8e 3c 51 b8 88 bc b7 65 e2 be 6e c1 0f 3d
       0.017343387 -0.016689451 -0.44218227 0.03509658
0000d0 64 c5 80 3d c5 41 0f bd 81 25 29 bd b9 c3 53 3b
       0.06287649 -0.034974832 -0.041295532 0.0032312705
0000e0 04 9f 22 3d ca e7 33 3d 32 7b 24 be c6 a7 4d bd
       0.03970243 0.043922223 -0.1606262 -0.05020883
0000f0 7c 56 d8 bc 25 34 27 3d 0d 90 d0 3c 8d e9 25 3e
       -0.026408426 0.040821213 0.025459314 0.16202374
000100 63 9b 81 be 3c d4 9a 3e 7d 02 81 3e a1 c4 4f 3c
       -0.25313863 0.30240047 0.2519721 0.012681157
000110 c6 c5 d4 be 81 73 89 3e 96 fa 08 3d 82 82 33 be
       -0.4155714 0.26845935 0.033442102 -0.17530254
000120 ae 8f a3 3b 9e 65 8e bd 1e 52 30 be 3b ee ea 3d
       0.004991493 -0.06952976 -0.17218825 0.1147122
000130 71 3b bc be 0a 3e ce 3d ad cf 26 3e b5 95 93 3e
       -0.367641 0.10070427 0.1629016 0.28825155
000140 5a ed a2 be 71 87 12 bd 65 b3 da 3e b7 27 af bc
       -0.3182171 -0.0357737 0.42714992 -0.021381242
000150 9a 02 b9 bd 49 b9 dc bd 90 eb bc 3d 7c d7 3c be
       -0.09033699 -0.10777528 0.092246175 -0.18441576
000160 32 0b 00 be 20 ae bd 3c 52 f3 5e 3d 94 1b b2 bc
       -0.1250427 0.023154318 0.054431267 -0.021741666
000170 01 e7 4f 3e dd f5 4f bd 5f e6 64 3e a6 1a 32 3e
       0.20302965 -0.050771583 0.22353505 0.17392978
000180 51 ed 87 3e 3e e0 c8 be cb 0e f2 3d 07 86 5e 3e
       0.26548246 -0.39233583 0.11819228 0.21730815
000190 f6 d2 63 be 8b 9c 82 be 07 b7 b7 bd 72 02 3c 3e
       -0.22248444 -0.25510058 -0.089704566 0.18360308
0001a0 8c 57 c2 be f0 cb 6b bd e1 ea d9 3d ea 92 12 3e
       -0.37957418 -0.057567537 0.10640503 0.14313856
0001b0 00 00 80 3e 46 77 17 be 2d 64 fa 3d 39 cb 03 be
       0.25 -0.14791593 0.12226138 -0.12870492
0001c0 31 06 b5 bd f8 18 a8 be 27 c9 c2 bd 4a 99 80 3e
       -0.088390715 -0.3283155 -0.09511023 0.2511695
0001d0 d2 e1 3a 3e 0c d1 b7 bd 6a 68 3d 3e 2b db 20 be
       0.18250206 -0.089754194 0.18496862 -0.15708606
0001e0 f0 e5 f1 bc 48 ab 76 bc 65 c0 2e 3e 27 47 10 be
       -0.029528588 -0.015055485 0.1706558 -0.14089642
0001f0 c7 54 7e 3d 26 c9 e0 3d b2 e9 5a bd 05 90 9f 3d
       0.06209257 0.10975866 -0.053445525 0.077911414
000200 0b bb 36 be e7 e6 40 3e fa a2 3e 3d 40 fe a3 3d
       -0.17844789 0.18838082 0.046542145 0.08007479
000210 d0 eb e3 3d bd 23 fc 3d 47 58 93 3d 4c d9 6e 3e
       0.11128962 0.12311504 0.07194572 0.2332508
000220 67 b5 ca 3e 9b 85 f4 3d 72 00 59 3a 26 00 5d 3d
       0.39591524 0.11939546 0.00082779594 0.05395522
000230 49 9f 08 be 70 6f 07 be e0 d2 fb 3c b2 c5 c9 bd
       -0.13342012 -0.13226104 0.030740201 -0.098521605
000240 8c 3e 10 bb 26 5e 80 be b7 81 e3 bd 17 5b 00 3e
       -0.0022009937 -0.2507183 -0.111087255 0.12534748
000250 ba 12 83 3e 2a c4 6e be 2c 40 21 3e 41 47 44 be
       0.25600225 -0.23317018 0.15747136 -0.19167806
000260 26 bd 0c bd 5d a5 04 3e 55 ee 59 3e 27 f0 c6 be
       -0.034360074 0.12953706 0.21282323 -0.38855097
000270 93 11 17 be 86 07 95 3c 84 e6 da bd 71 36 04 be
       -0.14752798 0.018192064 -0.106884986 -0.12911393
000280 0a ef 07 bb b9 a6 02 3b 3a 19 c7 3e 5f 12 19 3d
       -0.0020741844 0.00199358 0.38886434 0.037371036
000290 e3 01 21 3d 6d 62 f6 3d de ba 72 be 3a 79 10 be
       0.03930844 0.12030492 -0.23704097 -0.14108744
0002a0 c8 e5 9c bd 87 fd b1 bd ac 53 4f 3d 99 8a 2b 3e
       -0.07661015 -0.08690935 0.050616905 0.1675209
0002b0 30 92 80 be 0a 31 b9 3d 79 02 27 3e a6 5f ac be
       -0.25111532 0.090425566 0.16309537 -0.33666724
0002c0 af 7e 30 bb 45 fa b4 3d 67 38 b4 be c3 1d 68 3d
       -0.0026930978 0.088367976 -0.35199282 0.056669008
0002d0 bc 9c a7 bc 72 d5 1a be d2 97 14 bd 7e fb 94 bd
       -0.020460479 -0.15120485 -0.0362776 -0.07274531
0002e0 a2 45 a2 3d 69 e4 9b 3d 90 85 7f bd ec ae 5e be
       0.07923438 0.07611925 -0.062383235 -0.21746415
0002f0 f0 9a d1 3d 6a 15 7f 3d ce d0 24 3d ab 11 82 3e
       0.1023463 0.06227628 0.040238194 0.25404105
000300 61 a6 81 be 21 59 27 3e 2e f7 0a 3e 2b b3 0c 3e
       -0.2532225 0.16342594 0.13570854 0.13740222
000310 c6 fd aa be dc e3 ab 3e 00 00 80 bd 3f f0 0e be
       -0.3339674 0.3357228 -0.0625 -0.13958834
000320 73 25 f0 bd 46 c0 e9 bd eb 15 62 be 60 22 cc bc
       -0.11725893 -0.114136264 -0.22078674 -0.024918735
000330 bd 06 83 be 7e dd 12 bd 5d db 09 3d 67 a5 87 3e
       -0.25591078 -0.035855763 0.033656467 0.2649338
000340 ce 3f 7c be 44 a3 eb 3d c0 ee 9a 3e de 89 33 3d
       -0.24633715 0.1150575 0.30260277 0.043832652
000350 9e 22 0d bd 79 3b 7a ba eb f4 1d 3e b8 08 50 be
       -0.03445684 -0.0009545605 0.1542546 -0.20315826
000360 a5 5f 41 bd 8d 6b 84 bc 90 7f ea 3d 13 21 72 bd
       -0.047210354 -0.016164565 0.11450112 -0.059113573
000370 d4 2b 1d 3e 5c 81 91 bd d6 0f 67 3e 21 3e 5f 3e
       0.1534875 -0.071047515 0.22564635 0.21801044
000380 c2 9f 99 3e df 41 bc be 2f 9b d6 3d 97 06 b4 3e
       0.30004698 -0.36769006 0.10478818 0.35161278
000390 26 2e 49 be e1 2c 93 be 6f 7d 69 3d 59 9c 1e 3e
       -0.1964651 -0.28745177 0.05700439 0.1548933
0003a0 cb 34 b9 be 90 8b 49 bd 39 1e 14 3e b0 30 43 3d
       -0.3617309 -0.049205363 0.14464654 0.047653854
0003b0 1a ba 84 3e c8 27 6e be 83 35 b2 3d 19 80 38 bd
       0.25923234 -0.23257363 0.08701613 -0.04504404
0003c0 c4 ae 13 3d 13 43 2e be 6b 54 00 be 61 d6 77 3e
       0.03605534 -0.17017774 -0.12532203 0.24202873
0003d0 a5 50 3e 3e a8 1b 92 bd 09 32 83 3e ef c0 4f be
       0.18585451 -0.07134181 0.2562411 -0.20288442
0003e0 f0 39 23 be 8a 96 2a be f8 18 16 3e 5b 01 16 bd
       -0.1594007 -0.16658989 0.14657962 -0.036622386
0003f0 04 0d f4 3d 29 46 0d 3e c5 60 b6 bc 7f 33 27 3e
       0.11916545 0.13796295 -0.02226294 0.16328238

pitch_linear.bias f4 [128]
000000 9e 16 b3 bf 02 37 c1 bf dd 5c b9 bf 8e ed be bf
       -1.3991277 -1.5094912 -1.4481465 -1.4916246
000010 ad 21 c3 bf 61 2d c4 bf 9b 7d c0 bf 80 64 b9 bf
       -1.5244652 -1.5326349 -1.5038332 -1.4483795
000020 07 67 bf bf 52 8c b8 bf c1 fb c7 bf 34 44 c4 bf
       -1.4953316 -1.4417822 -1.5623704 -1.5333314
000030 8e c5 b9 bf ee 25 bb bf fa 93 b6 bf 34 11 bb bf
       -1.4513414 -1.462095 -1.4263909 -1.4614625
000040 c0 78 b9 bf 62 74 bf bf 07 e1 b9 bf f8 5c bf bf
       -1.4489975 -1.4957392 -1.4521798 -1.4950247
000050 eb 65 b8 bf b8 15 be bf ba aa bd bf 5c 83 b8 bf
       -1.4406103 -1.4850378 -1.4817727 -1.4415088
000060 7c 46 bc bf 8b 4b b4 bf df b3 ba bf 43 1d bf bf
       -1.470901 -1.4085554 -1.4586142 -1.4930805
000070 0b fa b5 bf 3f 5d a1 bf 09 7d 9c bf e8 3d 90 bf
       -1.4216932 -1.2606581 -1.2225658 -1.1268892
000080 3d bb 84 bf e1 6b 70 bf 2f 9f 64 bf 76 4e 55 bf
       -1.036964 -0.9391461 -0.89305395 -0.83322847
000090 14 96 c5 be 10 96 f2 be 6e fc cc be b8 74 b2 be
       -0.38591063 -0.47380114 -0.4003634 -0.34854674
0000a0 70 24 52 be 59 da b8 3d a1 95 af bd d9 50 ff 3e
       -0.20521712 0.090260215 -0.08573461 0.4986637
0000b0 fa 7f ea 3e 72 78 33 3f b8 43 2e 3f 57 4f 0f 3f
       0.45800763 0.7010566 0.6807208 0.5598044
0000c0 8a c9 a4 3f 99 1f 78 3f 7e 73 bc 3f 17 17 ac 3f
       1.2874005 0.96923214 1.4722745 1.3444546
0000d0 4e 85 bf 3f a7 4f d9 3f ec 5a c5 3f b2 4d e5 3f
       1.4962556 1.6977433 1.5418372 1.7914336
0000e0 78 6b e6 3f cc 96 f4 3f e0 bb f1 3f fe 8d e0 3f
       1.8001547 1.910852 1.888546 1.7543333
0000f0 a4 90 fa 3f 88 c6 ec 3f 56 0b 07 40 74 8c f4 3f
       1.9575391 1.8498087 2.110067 1.9105363
000100 ed ad fe 3f 82 0d fb 3f 93 17 ef 3f 5d 23 02 40
       1.9896828 1.9613497 1.8679069 2.0334084
000110 28 d5 ec 3f fa 16 ff 3f b2 19 e5 3f d1 80 e2 3f
       1.850255 1.9928887 1.7898467 1.7695562
000120 bf 48 e6 3f e2 56 e0 3f d7 52 eb 3f e6 ff c9 3f
       1.799095 1.7526515 1.8384656 1.5781219
000130 2f 7e c0 3f a6 ab c5 3f 15 c9 9d 3f 7f 08 ae 3f
       1.5038508 1.5443008 1.232699 1.3596343
000140 f3 a1 83 3f 53 08 7d 3f 08 37 ef 3e bb 6a 88 3e
       1.0283798 0.98840827 0.46721673 0.2664393
000150 3c 75 88 3e 1b 72 88 bd 56 1c 04 be 8b b8 b0 be
       0.26651943 -0.06662389 -0.12901434 -0.34515795
000160 7a d8 b4 be 52 ff f6 be b0 31 51 bf 60 f7 5f bf
       -0.3532141 -0.4824167 -0.8171644 -0.8748684
000170 69 23 82 bf 18 dd 8c bf 09 9b 91 bf 97 52 9f bf
       -1.0167056 -1.1004972 -1.1375438 -1.244708
000180 83 7a a7 bf 32 5b ab bf e7 4b af bf 41 ff b1 bf
       -1.3084263 -1.3387206 -1.3695039 -1.3906022
000190 26 c6 b8 bf 24 e6 b7 bf c2 af bd bf c0 84 ba bf
       -1.443547 -1.4367108 -1.4819262 -1.4571762
0001a0 22 ee c5 bf 9d 3f be bf b4 f5 bb bf 85 37 bb bf
       -1.5463297 -1.4863163 -1.4684358 -1.4626318
0001b0 6d 80 c4 bf e5 2d bd bf dc e2 ba bf 68 59 bb bf
       -1.5351692 -1.4779631 -1.4600482 -1.463666
0001c0 39 3e c0 bf 8b 87 bd bf 0f 23 c5 bf e2 bd c5 bf
       -1.5018989 -1.480699 -1.5401324 -1.5448573
0001d0 e3 20 c7 bf 24 88 b9 bf cd 44 b9 bf bd cb b9 bf
       -1.5556911 -1.4494672 -1.4474121 -1.4515301
0001e0 6a 66 bf bf c9 04 c2 bf f9 a5 c5 bf 52 91 c4 bf
       -1.4953129 -1.515771 -1.5441276 -1.5356848
0001f0 f4 20 b9 bf c0 b5 c2 bf 56 04 c3 bf fe 42 ba bf
       -1.4463181 -1.5211716 -1.5235698 -1.4551694

step_linear.weight f4 [1, 128]
000000 53 f0 86 bc ed f6 39 3c e1 72 81 ba df 7d a0 3c
       -0.016472017 0.011350376 -0.0009876156 0.01959127
000010 1e 1b 7c 3a 16 ae 4d 3b b4 6f 11 3c 8a 59 ae 3b
       0.0009617078 0.003138428 0.00887673 0.0053207325
000020 88 28 e8 3d 72 59 4d bc b5 02 0d bc d5 9c 4b 3c
       0.11335856 -0.012533532 -0.008606602 0.012427528
000030 d5 72 e3 bb 18 02 8e bc cc f9 1a bd e0 39 97 bb
       -0.0069411793 -0.017334983 -0.03783588 -0.0046150535
000040 0e d6 9a bc 3b ef 83 bc ae bd 52 3c 71 2b e0 ba
       -0.018900897 -0.016105285 0.012862606 -0.001710279
000050 ff 43 cd 3b e2 48 93 bc 9d e5 41 3c de ac 0f 3e
       0.0062642093 -0.01797909 0.011834529 0.14030787
000060 bd 54 39 3c db 1f e5 3b b3 f9 91 3b 04 44 b2 bd
       0.011311707 0.006992323 0.0044548153 -0.08704379
000070 33 82 61 bd 08 cd 8c 3b 2b d3 e0 bc 31 80 dc bc
       -0.05505581 0.0042969026 -0.027444443 -0.026916595
000080 8a 52 43 3a 84 3e 11 bc 66 b8 48 3c 45 da 28 bb
       0.0007450959 -0.008865003 0.012250995 -0.0025764864
000090 4f 1e 32 bc cf eb 10 3c be 7c ee 3c 20 1f 7f bc
       -0.010871484 0.008845284 0.029112216 -0.015571386
0000a0 d2 44 a2 3c 0a 34 94 bc 2e d0 2f 3a 27 2b f8 bb
       0.019808207 -0.01809122 0.00067067414 -0.0075735035
0000b0 c3 cc c9 bc dc fa 8b 3d 62 58 8a bb c0 d3 cb bc
       -0.02463377 0.06834957 -0.004221962 -0.024881244
0000c0 67 71 1d bd 81 8b d0 bc 26 04 a3 bd 10 27 4c 3b
       -0.038438227 -0.025457146 -0.079597756 0.0031151213
0000d0 3a e4 27 3b b0 25 a8 bb c3 21 85 3b 80 81 92 39
       0.0025618211 -0.005131446 0.0040628626 0.00027943775
0000e0 72 a8 6a bb 5e 1e 54 3c 18 ba 05 bd 38 05 cc 3b
       -0.0035805968 0.012946693 -0.032648176 0.006226208
0000f0 85 c6 81 3c 2b 89 8e 3a ca ab 6a bc b6 32 40 bc
       0.015841732 0.001087462 -0.014323184 -0.01173084
000100 ce dd 37 39 35 c7 b7 3d 36 70 26 3b ab 23 4f bc
       0.00017534869 0.089735426 0.0025396473 -0.012642781
000110 70 c5 3b bb 55 81 ba 3d 84 67 10 bb aa bb 64 3b
       -0.0028651617 0.091066994 -0.0022034356 0.0034901896
000120 39 9e 8c ba 7a 1f 43 bb a0 ad d7 bb d6 24 b4 3b
       -0.0010728306 -0.00297734 -0.006581977 0.0054975552
000130 e4 a3 19 bc 25 6c 2a 3c e7 0e b5 bb eb d3 a3 bc
       -0.0093774535 0.01040176 -0.005525458 -0.019998511
000140 c1 ab 58 bc 3e 12 13 bc 93 76 96 3e 9a a4 0f 3b
       -0.013224543 -0.008976517 0.2938734 0.0021918179
000150 72 cb b6 bc 59 01 a1 3b 21 49 ae 3b 16 b0 c1 3b
       -0.022313807 0.0049134907 0.0053187762 0.0059108837
000160 bd ff 95 bc 59 82 6d bc af fc a5 bc d3 67 12 3c
       -0.018310422 -0.014496409 -0.02026209 0.008935886
000170 48 fc 36 3d 55 91 a2 3a eb 2c 8f 3c c8 56 4f 3c
       0.044674188 0.0012402931 0.017477473 0.012654968
000180 08 a3 9d bb e0 28 28 3c 41 7c 9e 3c e4 93 9b 3c
       -0.0048106946 0.010263652 0.019346358 0.018991418
000190 39 c5 12 bd 0d ae ee bc c0 5b fb 3b c5 fb 63 bb
       -0.035832617 -0.029135728 0.0076708496 -0.0034787518
0001a0 06 48 58 bb 71 05 79 bc ec f1 e5 ba 0f ec 18 39
       -0.0033001914 -0.015199051 -0.0017543412 0.00014583788
0001b0 c7 dc da bc 78 7f 6c bc 9f 5c 8a 3b 52 79 2b bd
       -0.026716603 -0.014434688 0.004222467 -0.041863747
0001c0 22 b4 0c bc e1 63 1d be de 8c 5c bc c4 69 fa 3b
       -0.008587869 -0.15370132 -0.01346132 0.007642003
0001d0 ba db c9 3c 89 ca 0f 3c c8 4a 2a 3d 5c f0 20 bd
       0.024640907 0.0087763155 0.041575223 -0.039291725
0001e0 28 bc 8c 3c 97 bf bf 3b 34 36 84 39 93 91 67 3b
       0.017179564 0.0058516967 0.00025217386 0.0035334572
0001f0 a5 f8 62 bb 7c 96 be 3c 39 38 8f bb ba d9 80 3b
       -0.0034633067 0.023265116 -0.004370716 0.003932205

duration_linear.weight f4 [1, 128]
000000 a3 15 f5 bc 5d d5 8a ba e8 cc a7 3c e4 ba 47 3c
       -0.029917544 -0.0010592152 0.02048345 0.012190554
000010 02 8e 80 3b 11 d7 ed bd bc a3 95 3d 0c 97 c4 bb
       0.0039231787 -0.11613286 0.073066205 -0.0059994515
000020 bb 17 82 3e e5 f3 69 3c fa d4 f0 3b e6 b6 04 3d
       0.2540873 0.01427934 0.0073496075 0.032400988
000030 f8 47 06 3c 22 81 da bd 22 cf bf 3c 84 67 9e 3d
       0.00819587 -0.106691614 0.023414198 0.07734588
000040 5c ba 07 3d 6d 97 31 bd 6c 00 52 bd 76 af 01 3d
       0.03313671 -0.0433573 -0.051269934 0.031661473
000050 11 97 51 3d 74 42 ac 3d ea 71 25 be 43 e1 20 3f
       0.05116946 0.084111124 -0.16156736 0.6284372
000060 13 e5 29 bb dc 18 1d bd 12 73 40 3e 9b d7 97 bd
       -0.0025923892 -0.038353786 0.18793896 -0.0741417
000070 fa 64 61 3c 34 cf 2d bc a3 8f 37 3d b9 80 45 3c
       0.013756985 -0.010608483 0.044814717 0.012054616
000080 da f9 f0 bc 6b a3 d2 3b 52 c2 2b 3e 72 e2 25 3d
       -0.029416014 0.0064281723 0.16773346 0.04049916
000090 0f 9a 81 bd 51 d7 63 3d 1c 40 8b bd 56 fa c7 bd
       -0.063282125 0.055625264 -0.06799337 -0.09764545
0000a0 77 62 bd 3c 4f f2 8e 3d 23 60 95 bd 99 61 07 bd
       0.02311824 0.069798104 -0.07293727 -0.03305206
0000b0 05 6e a0 3c 6a 74 3d bd 4f 6e 09 bc eb 11 2c bd
       0.019583711 -0.0462536 -0.008388116 -0.042009275
0000c0 d1 99 bf bd c1 b0 e2 3d bf 58 b5 3d 45 b8 01 3b
       -0.0935551 0.110688694 0.088548176 0.001979367
0000d0 cb a3 40 3d db 59 09 3d b5 38 36 bd f4 b3 58 bd
       0.047031205 0.03353296 -0.044487674 -0.05290599
0000e0 f4 40 b4 3d 5d da 37 bd 81 b6 10 3d ae 93 28 3d
       0.08801451 -0.04488598 0.0353303 0.041156463
0000f0 cf 7d 64 bc 61 54 46 3c da 4c da bc 35 1d b1 3d
       -0.013946011 0.012105078 -0.026647974 0.08648149
000100 2c 5b 23 3d 30 0d f4 3d 35 21 47 3e 9d 2b ab 3d
       0.03988187 0.11916578 0.19446261 0.08357928
000110 b5 53 62 3c b3 b7 e8 3d 2b 8d 26 3c b5 7d ff bd
       0.013813903 0.11363163 0.010165493 -0.124751486
000120 c2 87 07 bd f8 75 81 bd 9c 86 a3 bd 2a 4c d4 3c
       -0.033088453 -0.06321329 -0.07984659 0.025915224
000130 bd e1 1d 3c d1 ee ef 3c 6f dd dc 3b d5 aa dc 3d
       0.00963634 0.029288681 0.006740264 0.10774771
000140 d4 46 c2 bc 9f 86 59 3c 6b 50 b1 3f cc 12 eb 3c
       -0.023715414 0.013276725 1.3852667 0.028695486
000150 e0 4f 2e 3d 2b 29 ef 3b ff b1 ea 3d 53 1e 05 be
       0.042556643 0.007298609 0.11459731 -0.12999849
000160 9a cd b2 3a 4e 32 01 3d 26 0a 0f bc 63 27 0f bd
       0.0013641596 0.031542115 -0.008730447 -0.03494967
000170 34 6b 0b 3d 7f e3 f8 bd 66 75 ae bd 36 d0 fa 3d
       0.034037784 -0.121527664 -0.08518486 0.12246744
000180 83 cb 37 bd 54 99 8d b9 4b ab 99 3c 12 35 38 bd
       -0.04487182 -0.00027007854 0.018758437 -0.044972487
000190 fc 57 15 3d c7 39 db bd b6 35 ab bc b6 35 1f bd
       0.03646086 -0.107043795 -0.020899635 -0.038869582
0001a0 8e 54 93 3d 35 ff e1 bd 29 f7 30 3d 14 fe 53 3d
       0.07193862 -0.11035005 0.04320446 0.05175598
0001b0 c2 5d 82 bd 47 6c 70 bd 09 04 b2 3d 84 3c 5a 3e
       -0.06365539 -0.05869701 0.08692176 0.21312147
0001c0 3d ad 88 bd ee 6d b7 be 7c 92 c2 3d ad 32 12 be
       -0.066736676 -0.35826057 0.09500596 -0.14277144
0001d0 0c 50 8e bd 16 ed 5b be 57 68 b2 bc 16 fe dd 3d
       -0.069488615 -0.2147716 -0.021778269 0.10839479
0001e0 d6 4f 32 be 2c 10 9d bd 28 14 58 3d 94 90 3d 3d
       -0.17413267 -0.076691 0.052753597 0.04628046
0001f0 8f 18 15 3d de d4 c8 bc 24 d1 12 3d 6e 6f 97 3d
       0.036400374 -0.024515565 0.035843983 0.073943004
