torch/model90.pth (torch, 342035 bytes, 8 tensors)

lstm.weight_ih_l0 f4 [512, 3]
00000000: 4fad aebd c035 883d 1906 e8bb d44c a53d
00000010: ca33 b1bc a6a8 2bbd 53ec af3c 6d6d 64bd
00000020: 5700 853d e415 233c 5b16 ab3d d5ee 033e
00000030: 34d4 a13d 33de cc3c 767b 9cbd a392 5c3d
00000040: 8e2c ccbd b31f c03d f52e ac3d 85dc ef3d
00000050: 20d0 b2bd 6d67 873d 367d d43c 7967 2dbe
00000060: cc97 be3d 7035 e73d e1f5 073e 57fe 583c
00000070: 4360 9ebd 0a99 b13b e41c 163d d844 8cbd
00000080: 8230 503c d7a9 efbc 18b6 d03d ccbe 0bbd
00000090: f561 c6bc 81fb 243d 4f9e 85be 4938 61bd
000000a0: 98c7 bbbd 2040 083e a560 0abd 1c7f ec3d
000000b0: 2860 153e abc6 99bd 0473 623d 8aa9 15be
000000c0: 4fa5 583d 859d 713d 1f27 9f3d 5613 233d
000000d0: bafb 823e 3e90 eabc d515 ffbc e73b 8d3d
000000e0: c2ae 2e3d 9e3d 193c a46a a03d fbe1 31bd
000000f0: 097a d0bb 50b1 913d b170 803d 7f26 ccbd
00000100: 07ea 793c aed6 5bbc d02e b2bd 09e8 a23c
00000110: 2846 2bbd 91b3 18bd f46c da3e 93da 43bf
00000120: 9db5 913d 1c98 a4bc 1dd8 6e3d 3464 b13d
00000130: f1f0 563d e028 f93c 55ce a3bd 1d03 493e
00000140: 1be2 683d e378 42be 7144 4c3e 65cb cbbe
00000150: 8a5d 96bc ded4 b83d b0b7 23be c77c 023d
00000160: ecd0 cc3d 640a 82bd 15fe 803d 9b79 9c3d
00000170: 3720 763e 238c a5bc 4f05 733c c5f6 4f3d
00000180: 9ad3 99bb e695 c63d 5cac 4a3d ca6c a0bd
00000190: 96c8 95bd 8442 97bb 0e9f bfbd 6b8a f23d
000001a0: 2b7e 0d3e 0f21 b1bc 860a ac3d 9643 fd3d
000001b0: 1e43 dbbd 4d5f 943d 8fa7 d7bc ffef 98bd
000001c0: e273 1f3d e72d 93bd 03a9 6e3d 77b9 6ebd
000001d0: 96d9 a63c 7f98 7abc 86c5 033e 8029 2e3d
000001e0: 3609 e9bd ba38 783d 1025 453e 7613 a0bd
000001f0: 7e23 b03d d119 96bd 41a6 c0bc ba7d c23c
00000200: 6fe6 d2bc 4b20 81bd 682a b2bd a408 713c
00000210: e2cc 81bd 9658 423d d565 1bbc d75e 523d
00000220: 358d 093d 76ce f83d 49cc 7ebd c839 703c
00000230: 0d74 bcbc 6483 30be 8564 983d a666 e43c
00000240: f048 713c c9bc 7dbc 3b55 62bd 6db9 57bd
00000250: 9df7 653d e9e8 633d 4a5c 8bbd 7fbf 453d
00000260: 86d7 21bc 3314 e1bc 5bd8 77bc 7f17 aa3d
00000270: b85b abbd 2cc9 e73c f28e a8bd c17f 8dbb
00000280: 6716 99bd c76c bd3c d129 67bd e643 f6bb
00000290: 59ec 193e 1259 0cbd 9984 d3bd bb29 07bd
000002a0: 23ef 313b ceef f43d cb76 9c3d d1b6 a9bc
000002b0: 2d8f 5bbd 2042 bc3d 5fe1 82bd a4da 983d
000002c0: 2c3d 913d e282 a13d e7fb b33d 50be a93d
000002d0: 2f95 063d 8c99 1c3d 6ed3 dc3a 3a48 35bc
000002e0: 2ba5 9b3d 09a2 d9bc 6444 b43d 840e d33d
000002f0: 7d28 cabc 7b71 513c d637 0cbd 52a9 ff3c
00000300: 6561 3bbd d712 a5bc 0eda 1a3c 7fa2 14be
00000310: 769c e13d 237a e73c d31d 463b 4db5 273e
00000320: 022c 953e 92cf 84bd d1cf 52bd f18e ed3d
00000330: 86ec 1cbb 38e5 88be e610 86be 26cb 59bd
00000340: 6d13 b53d 1b91 96bb 72a5 20bd ecb8 833d
00000350: aa1b a93d 3a33 35bd 194e 00be 4bc2 323e
00000360: 6a5e 15bc 68b6 753d 82a7 d1bc 55d2 9cbd
00000370: eb76 34bd 0ebe 1d3d d9c0 053e 684f 1d3d
00000380: cb84 0dbc 879f 9cbc 8f2e 0d3d 2048 55bd
00000390: d6d0 af3b 14a9 9f3d e882 8b3d 0c47 3a3d
000003a0: 5148 503d 3bfc 463d 68a0 8bbd 5341 8f3d
000003b0: 765b ca3c 115f 2abe bc6f 45bc f32c 203e
000003c0: 8930 b0bd 7952 36be a85d 9cbd ced1 8fbd
000003d0: ba07 9c3c fe6f 203b 6a53 033e 9a0e 3d3e
000003e0: c35d 1bbf 61e5 983b 599a c63d 39af 63bd
000003f0: 4e2a 63bd ba78 a43d 5731 963d 3c84 393d
-0.0852915 0.06650877 -0.007080805 0.080712944 -0.02163114 -0.041908883 0.021474993 -0.05576842
0.064942054 0.00995395 0.08353873 0.12884076 0.07901803 0.025008297 -0.07640736 0.05385078
-0.09969436 0.09381046 0.08407394 0.11711983 -0.08731103 0.06611524 0.025938611 -0.16934003
0.09306297 0.11289489 0.13277389 0.013244233 -0.07733204 0.005419855 0.036648646 -0.068490684
0.012706878 -0.02925579 0.101909816 -0.034117505 -0.024216631 0.040278915 -0.26097342 -0.05498532
-0.09168929 0.13305712 -0.033783574 0.11547682 0.14587462 -0.07508596 0.05528547 -0.14615455
0.052892026 0.058988113 0.07771134 0.039813362 0.25582677 -0.028633233 -0.03113834 0.06896191
0.04264713 0.00935307 0.0783284 -0.043428402 -0.006362204 0.07113898 0.06271494 -0.0996828
0.01525355 -0.013417883 -0.08700335 0.019886034 -0.041814953 -0.037280623 0.4266125 -0.7650539
0.07114718 -0.020092063 0.05831157 0.0866169 0.052475873 0.030414999 -0.07998339 0.19630094
0.056856256 -0.18991427 0.19947983 -0.39803615 -0.01835515 0.09024976 -0.1598804 0.03185728
0.10000786 -0.06349638 0.06298462 0.07640382 0.24035726 -0.020208424 0.014832809 0.050772447
-0.0046944143 0.096965596 0.04948078 -0.0783325 -0.07313649 -0.0046160836 -0.09356509 0.118428074
0.1381766 -0.021622209 0.08400445 0.123664066 -0.10706161 0.0724474 -0.026325015 -0.074676506
0.038928874 -0.071864896 0.05826665 -0.05828234 0.020367425 -0.015295147 0.12868318 0.042520046
-0.1137871 0.060600974 0.1925242 -0.07816212 0.086005196 -0.07329143 -0.023516776 0.023741592
-0.025744645 -0.063049875 -0.086994946 0.014711533 -0.063379064 0.047447763 -0.009484728 0.051359978
0.03358193 0.12148754 -0.06220654 0.014662214 -0.023004556 -0.17237622 0.074410476 0.027880978
0.014726862 -0.015486904 -0.055257063 -0.05266707 0.056144346 0.055642042 -0.06804712 0.048278328
-0.009878045 -0.027475452 -0.015127267 0.08305263 -0.08367103 0.028294168 -0.0823039 -0.004318208
-0.07474976 0.023123158 -0.056436364 -0.0075154183 0.15031566 -0.03426463 -0.10328025 -0.03299878
0.0027150593 0.119598016 0.076398455 -0.020717056 -0.05360334 0.091923 -0.063906424 0.074635774
0.07091746 0.07886292 0.08788281 0.08288252 0.032857116 0.03823237 0.0016847679 -0.011064583
0.07599863 -0.026566522 0.08802107 0.10305503 -0.02467751 0.0127834035 -0.034232937 0.031208668
-0.04574718 -0.020150585 0.009451402 -0.14515112 0.11016171 0.028256482 0.003023018 0.16377755
0.29135138 -0.064849034 -0.05146772 0.115995295 -0.002394469 -0.2673738 -0.26184767 -0.053172253
0.08841596 -0.0045949346 -0.03922028 0.064317554 0.082572296 -0.044238307 -0.12529792 0.1745693
-0.009116748 0.05998841 -0.02559257 -0.07657305 -0.04405872 0.03851133 0.13061847 0.038405806
-0.008637617 -0.019119037 0.03446823 -0.052070737 0.0053654714 0.07795921 0.06812078 0.04547791
0.050850216 0.04858039 -0.068177044 0.069948815 0.024701815 -0.16637827 -0.012050565 0.15642147
-0.08603007 -0.17804898 -0.07635051 -0.07022439 0.019046653 0.0024480815 0.12824789 0.18462601
-0.60689944 0.004666016 0.09697408 -0.055587027 -0.055460267 0.08030839 0.073336296 0.045292124

lstm.weight_hh_l0 f4 [512, 128]
00000000: bc3b f9bb 1fc7 b23d 02d7 993d 0552 ac3c
00000010: 8c6a 7ebd 9d22 72bd de9c 983d 10d5 5fbd
00000020: 84a0 e83b 505b b8bc 9dbd 9e3d af31 f4bc
00000030: ca1b c9bc a513 163d b5ad 9cbd 1ce7 153d
00000040: 39bd 333c 9f1e 813d 22f9 a8bd 6c6e 9b3d
00000050: ef24 52bd ef8a 63bd 5821 423d 0c2c d6bb
00000060: 69dc 8c3d babd b23d 4f42 84bc b8cd cebd
00000070: 4c02 acbd e1a7 bfbd 883d 7c3d 074d 7cbd
00000080: 86fd 85bb eb58 f4bc 64d9 39bd 6094 9abd
00000090: 6737 2abd 8066 28bd 3560 4dbd 1e4c 8c3d
000000a0: 3b57 8e3d 0908 153d f597 323d 1ec4 14bd
000000b0: 18ae c83b d233 043d 1dc0 93bd 6142 8cbd
000000c0: 12a3 4fbc 300a 9bbd 2ef4 073d 6a9f 773d
000000d0: 8561 623d 56ab a2bd 32a8 3dbd 1931 8abd
000000e0: b7f5 363d 2514 52bc 5100 c43c 3aa8 61bd
000000f0: 5628 6d3d bd35 4bbc aac2 0fbd 0f77 723d
00000100: 3f22 fc3b 021a 92bd 97ae c13d f45b 973d
00000110: 5ece 403d c320 eb3d f8ab 80bd 0434 8c3d
00000120: dc35 a8bc 65d6 733d c565 c0bd bde2 e43c
00000130: a681 9ebd 888c 753c a650 743d ced4 1cbd
00000140: 36f8 c4bd ce5e 213c 19a6 983c fe15 85bc
00000150: c661 bc3c e9aa dd3c 502d 573d 4a62 47bd
00000160: 91d7 643d b7e3 22bd 7a1b 93bd 720d 2bbd
00000170: b5a5 97bd 54b6 5bbc e6ed 993d 0ed9 8b39
00000180: 4c03 d03d a82a 353b ebd2 8fbd 806d fe3c
00000190: 8586 7dbd 6d97 68bd 9084 96bd d66e e73c
000001a0: 7963 7dbd 06f7 2e3d b47c 5cbd 4d77 dabb
000001b0: b485 993d e0c0 d33c 54b5 a03c cbb3 94bc
000001c0: 91df 21bd 586a 633d e647 18ba 600d e93b
000001d0: 24f2 a83d d4fa 823d fd4d 80bd 0b14 923d
000001e0: 2d72 d73c 9deb a5bd 8fdb 31bd 2b3c 9b3c
000001f0: 0a21 403d 30c9 d73c bbad adbd 2136 78bd
00000200: 992c 30bd 2dc7 183c 7088 353d a5df 00bd
00000210: 6715 9fbd 92e3 88bd 1d0f 49bd a4a5 3ebd
00000220: 5134 623d cfc1 56bc 91ad a9bd f7a7 513d
00000230: ef4d 95bc 26be ee3c d445 1abd 339d 51bd
00000240: 99a2 873d 9f11 c0bd 4620 93bd 7bbf 8d3d
00000250: a4d5 283d 89d9 c33c c634 7bbd b37f 253d
00000260: aed0 823d 2228 a33d 5d11 0f3d 9c06 69bd
00000270: 32cb 86bd 8f3f 5fbd b519 9ebd cb75 27bd
00000280: 7491 04bc 777c 3d3d 3ad4 823d 4087 863c
00000290: fb40 a23d cb33 28bb 9500 73bd 113b 873d
000002a0: fe99 9a3c 0750 80bc 1c8f aebd d22e 83bd
000002b0: 9fb8 a8bc 635a af3d 3d13 953d f137 913d
000002c0: a2c2 423d a075 873d 84cb 783d f595 033d
000002d0: 9d11 643d 39d1 bfbc 8930 0f3d b25a 5a3c
000002e0: 9c14 243c 689f bc3b 3551 823d 9089 653d
000002f0: 6976 473d 8c9a 0d3d 2c15 13bd 4d76 a8bc
00000300: 1616 75bd a3eb 3c3d 7847 093d eda3 afbd
00000310: c6cb 683c d66a 9a3d 0fac 623b 6d54 d8bc
00000320: f624 94bd bf66 b8bc 784c 263c 74ae 9e3d
00000330: 905a e0bb 7b26 47bd 7cb1 afbd ef58 35bd
00000340: fa8b 8d3d 5c6d 6e3c 7fe5 773d 7a51 42bc
00000350: 2176 42bd 738a 40bd 0c93 efbc 8790 f23c
00000360: a92d 123d 51cf 443d 86b5 93bd 7195 723d
00000370: 9f75 413b b237 a73d f7de f23c c00d 8cbd
00000380: 5d01 863d 566d 9bbd bffc 903d 7f2d bbbc
00000390: bf0a 99bd 2f47 a43d 16bc fc3c 25b4 92bd
000003a0: 0c9e 89bd 2460 66bd a87b 633d 407b 25bd
000003b0: 42ba 603d ab1a 513d b6aa 853d d8e0 5abd
000003c0: f08d f73b 7c8a 573d 3afe 093c 0fac 65bd
000003d0: be5c e8bc 77f5 89bd b4d8 913c 657f a0bd
000003e0: f2c3 34bd 4aef 433d bc6b 063d c24d e73c
000003f0: 1e1c 7dbc 21fc f13b ec2f 923d 598b 303c
-0.007605998 0.087293856 0.075117126 0.021035204 -0.06211333 -0.05911504 0.07451795 -0.05464655
0.007099213 -0.022504479 0.077510096 -0.029808847 -0.024549384 0.03663983 -0.076503195 0.036597356
0.010970407 0.06304669 -0.08250643 0.07589421 -0.051304754 -0.05555242 0.04739508 -0.0065360125
0.068779774 0.08727594 -0.0161449 -0.100978315 -0.083988756 -0.09358192 0.06158212 -0.061596896
-0.0040890602 -0.029827556 -0.045373335 -0.075478315 -0.041556742 -0.041113377 -0.05014058 0.06850456
0.06950232 0.036384616 0.04360195 -0.036319844 0.006124269 0.032275982 -0.07214377 -0.06848598
-0.012673156 -0.075703025 0.033191852 0.060454763 0.055268783 -0.07942836 -0.04630298 -0.06747646
0.044667926 -0.012822186 0.023925932 -0.055092074 0.057899795 -0.012402949 -0.035097755 0.059195574
0.007694512 -0.07133867 0.094571285 0.073905855 0.047071807 0.11480858 -0.062828004 0.06845859
-0.020533495 0.059530634 -0.09394411 0.027940148 -0.07739572 0.014987119 0.059647225 -0.038288884
-0.09617655 0.009849263 0.018633889 -0.016245838 0.02299584 0.027059035 0.052533448 -0.04867772
0.055869643 -0.039767947 -0.07182975 -0.04176087 -0.07404653 -0.01341017 0.07516079 0.00026673864
0.10156879 0.0027643833 -0.07022651 0.031058073 -0.061895866 -0.056785036 -0.07349503 0.028251093
-0.061862443 0.04271605 -0.053829864 -0.006667054 0.07496205 0.025848806 0.019617714 -0.018152138
-0.03951985 0.05552134 -0.00058090535 0.00711219 0.0824931 0.06395498 -0.06264875 0.07132729
0.02629956 -0.0810158 -0.043422278 0.018949589 0.04690651 0.02634105 -0.08480402 -0.060598496
-0.04301128 0.009324831 0.04431957 -0.031463284 -0.07767754 -0.066840306 -0.04908668 -0.046544686
0.055225674 -0.013107731 -0.08285058 0.051185574 -0.018225638 0.029143404 -0.03766425 -0.051175307
0.0662281 -0.09378361 -0.0718389 0.069212876 0.04121937 0.02390744 -0.061329626 0.040404987
0.06387459 0.07966639 0.03492867 -0.05689107 -0.06581725 -0.054503974 -0.07719747 -0.04088382
-0.008091319 0.046261277 0.06388135 0.016421914 0.0792255 -0.0025665637 -0.059326727 0.06603063
0.018872257 -0.01566316 -0.0852339 -0.06405415 -0.020595847 0.08562162 0.0727906 0.07090748
0.047548898 0.06614232 0.060740963 0.032125432 0.05568086 -0.023415195 0.034958396 0.0133272875
0.010014679 0.0057563074 0.06363145 0.056039393 0.04869691 0.034571216 -0.035908863 -0.020564223
-0.059835516 0.04612316 0.033515424 -0.08576188 0.01420874 0.075399086 0.0034587418 -0.026407445
-0.07233612 -0.02250993 0.0101500675 0.07748118 -0.0068467334 -0.048620682 -0.08578774 -0.044274267
0.06911464 0.0145524405 0.0605216 -0.011860246 -0.047475938 -0.047007035 -0.029244922 0.029609932
0.035688076 0.048049275 -0.07212357 0.05922455 0.002951957 0.0816492 0.029647334 -0.0683856
0.06543229 -0.075892136 0.070794575 -0.022848843 -0.07472753 0.0802139 0.030851405 -0.07163266
-0.06719598 -0.05624403 0.05553785 -0.040400743 0.05486513 0.051050823 0.06526701 -0.053437084
0.007554762 0.052622303 0.008422429 -0.05607229 -0.028364535 -0.06736272 0.017803527 -0.078367986
-0.04413218 0.047835626 0.032817587 0.02823532 -0.015448598 0.0073847924 0.071380466 0.010775411

lstm.bias_ih_l0 f4 [512]
00000000: fffe 19be 4b05 5fbb 71e4 683d 45e3 98bd
00000010: 208f c13b 47ac c33c 37de ed3c bdd7 553c
00000020: 9d69 b4bd 8e37 00be cdf5 8f3c 20a0 c5bd
00000030: d419 7a3d 8c49 61bd f6ff fbbc 3b74 9abd
00000040: d0a4 0d3d 0f50 2c3d 5fb7 49bd 367f 9ebb
00000050: a2a5 183d 563e 613a 554b 87bd d8f0 dbbe
00000060: 23a2 b3bd 5a31 a83d 930d 82be 23cb 41be
00000070: 9717 77bd 26cf 8b3d 1e02 23bd 882c 9dbd
00000080: 22e2 88bd 3cd3 4c3d b28b 52be 1e44 11be
00000090: d695 09bb 55a5 693d 31b6 53bd 25ac 15be
000000a0: 4735 13be 3b86 19be 6587 b4bc f113 32bd
000000b0: fc8e 95bb a077 09be e91f 0fbe 8e11 12be
000000c0: 929f 093b 144b 4abd bd77 66be 55cc d2bd
000000d0: f263 0d3d 5a57 37bc ea05 00bc 7727 663d
000000e0: 977c f0bd 0c56 bb3d 79c0 6a3d c26c d9bc
000000f0: 43d3 80bd d255 95bd 2bad 923d 5b22 21be
00000100: cbd1 debc f7dc 31be 782b d9bd 9448 0cbd
00000110: af29 2ebe f33b 18be c863 03bd 4782 4abe
00000120: cc90 2ebd f9ea 733d d8d7 75bd 724c 3f3c
00000130: 9e9f c3bd 9850 553c f58a 85bb 9a61 84bd
00000140: 90f4 d5bb 93e6 e1bd 8923 7cbf 5bd3 afbd
00000150: a5f1 b5bd eace cb3c 120d d9bd 8f13 39be
00000160: abe1 efbd 84c8 08be 5cfa b13b 3fc8 2abe
00000170: 4791 09be abe0 febd 0fc8 d9bd d4c6 c4bd
00000180: 74fa c0bd 2796 cb3d 7776 873c d630 0b3d
00000190: ab16 2b3d db67 9ebe da31 dfbd 33d0 6a3c
000001a0: 60f6 69bd 0ffc 76bd 6b30 3abd e13e edbc
000001b0: b9d3 00be b706 ecbc 217a 903d e5a4 a4bd
000001c0: 650f 0a3d ec4e 1cbf e102 96bd d28f a1bd
000001d0: 4769 863b d411 3dbe e0e9 c0bd be31 37be
000001e0: 4190 1cbe 7a73 f8bd cf61 c3bb c42e b23d
000001f0: 4a12 afbc 5002 e0bc 02b7 34bd 475d 723d
00000200: 9560 e93c 37f8 5fbd 57f0 42ba 2397 9f3d
00000210: 6f4a 30bd 1d47 413d 0811 373c e8bb a2bc
00000220: 9ce2 ea3d 01a2 413d 7df4 91bd ed0c 09bd
00000230: ce3c 133e 8998 ac3d 6fdd c33d ac74 37bd
00000240: 87d3 5dbb 081a 1f3e 6b2b 45bd 9643 95bd
00000250: 54c0 163d c360 603d 6348 113e a514 cd3e
00000260: 559e bc3d 375f af3c cd78 943e b3d8 873e
00000270: b5fb ae3d 5e1b 3f3d 4727 d23d 4084 ffbc
00000280: ebc7 dd3d 3b72 653c 35a6 6b3d c0f4 25bd
00000290: 9b6d 6cbd 85da b03d cbe4 c43c 2236 4dbc
000002a0: a8b9 79bc e3ff a4bc 56af b83c 41ec 453c
000002b0: 2b25 6d3a c737 9c3d cf68 163e 7c70 7b3d
000002c0: 3616 59bd cd6c 5dbc 8448 853e e171 09bd
000002d0: 4b35 ae3d 2f3d ab3a df39 b33d cd95 333d
000002e0: 5ec4 8c3d 06d7 853d a374 9d3d 59f6 1dbd
000002f0: 3d0b 8bbd b0ed c7bc 9132 273d fc8a 46bd
00000300: 008c 1a3e c746 3d3e 0fe8 683e 024c 77bd
00000310: 6c25 113e d6d6 333e f2e4 863d bf6d 78bd
00000320: 1a52 87bd 9121 00bc 5b0b 423e 401c 8f3d
00000330: e02c 803d d12a a13d 1bca 09bb 6688 3a3d
00000340: 44ba f63d 2967 9abd 9a02 d13f ec2e 04bd
00000350: e3b6 62bc e8dc a1bd 0f9d 50bd 45d0 883c
00000360: 0985 793d 15ba 98bc e22a 923d f929 1cbd
00000370: 2878 d93d fc25 1dba b626 3bbc 6802 9abd
00000380: b884 0c3e ec51 523e 5664 c23b 23f6 ff3d
00000390: f4a3 61bd 0f47 343e a634 14bc a027 413d
000003a0: 5916 d33d 6799 ad3d fcaa a5bd 008d b13d
000003b0: d4ee 483e f006 6dbc 574f 0dbd 7aa0 1f3e
000003c0: b401 133d 7b74 0e3f c50b 293d a0d5 303e
000003d0: fd49 ad3d a706 ea3c 8578 e8bb 37e9 3e3e
000003e0: fb10 c43e 809c 01bd 3f7d 44bd aa81 efbc
000003f0: b5e4 ba3d b528 ddbb 12ce 493d a5c0 173c
-0.1503868 -0.0034030254 0.056858484 -0.07465223 0.0059069544 0.02388586 0.029036624 0.013051924
-0.08809207 -0.12521192 0.017573262 -0.09649682 0.061059788 -0.05500178 -0.0307617 -0.075417005
0.034581006 0.042068537 -0.049247142 -0.004836942 0.037267335 0.00085923576 -0.06606165 -0.42957187
-0.087711595 0.08212538 -0.2540098 -0.18925147 -0.06032523 0.0682662 -0.03979694 -0.07674509
-0.066837564 0.050006136 -0.20561102 -0.14186141 -0.002099385 0.05704244 -0.051687423 -0.14616449
-0.14375792 -0.14992611 -0.022037217 -0.04347605 -0.004564164 -0.1342454 -0.13977017 -0.14264509
0.0020999652 -0.049388006 -0.22506614 -0.102928795 0.034519143 -0.01119026 -0.00781391 0.05618998
-0.117425136 0.091472715 0.057312462 -0.026541118 -0.06290295 -0.072917596 0.071619354 -0.15735762
-0.027199646 -0.17369448 -0.10603994 -0.034248903 -0.17008089 -0.14866619 -0.03207758 -0.1977626
-0.042618558 0.05955026 -0.060020298 0.011675941 -0.09551929 0.013019703 -0.004075403 -0.064639285
-0.0065293983 -0.11030307 -0.9849172 -0.08585235 -0.08883981 0.024878938 -0.10598196 -0.18073867
-0.117129646 -0.1335774 0.0054314565 -0.1667795 -0.13434325 -0.12445196 -0.10633861 -0.09608236
-0.0942277 0.09940749 0.01653598 0.03398212 0.041769665 -0.3093861 -0.1089818 0.014331865
-0.057119727 -0.060298976 -0.04545633 -0.028960647 -0.12580766 -0.028811796 0.07054544 -0.08039264
0.033706088 -0.61057925 -0.07324768 -0.0788876 0.0041019055 -0.18463832 -0.09419608 -0.17890069
-0.15289403 -0.121314004 -0.0059625874 0.08700326 -0.021371026 -0.027344853 -0.044119842 0.059170987
0.028488437 -0.054680075 -0.0007436326 0.07792499 -0.043039735 0.04718696 0.011173494 -0.019864991
0.114690036 0.04727364 -0.071267106 -0.033459593 0.14378664 0.08427531 0.095637195 -0.044789
-0.0033848004 0.15537274 -0.04813711 -0.072882816 0.036804512 0.05477978 0.1418777 0.40054813
0.09209887 0.021407707 0.28998414 0.26532516 0.08544103 0.04665696 0.10261398 -0.031190991
0.10829147 0.014004285 0.057531554 -0.040516615 -0.057721715 0.08635429 0.024034878 -0.012525113
-0.015242018 -0.020141548 0.022544544 0.012080253 0.0009046371 0.07627826 0.14688419 0.06138657
-0.052999698 -0.01351471 0.26031888 -0.03355587 0.085062586 0.0013064499 0.087512724 0.043844033
0.068733916 0.06535153 0.07688262 -0.038565014 -0.06789253 -0.02440533 0.04081971 -0.04847239
0.15092468 0.1848403 0.22744773 -0.06037522 0.14174432 0.17562422 0.065866366 -0.060651537
-0.066074565 -0.007820503 0.18949644 0.0698781 0.06258559 0.07869495 -0.0021025005 0.045540236
0.12047246 -0.075392075 1.6328919 -0.03227131 -0.013837549 -0.07903463 -0.050931033 0.016700873
0.060917888 -0.018643418 0.071370855 -0.038125966 0.10618621 -0.0005994735 -0.011422804 -0.0751999
0.13722503 0.20539063 0.005932371 0.12498119 -0.055088 0.17605232 -0.0090457555 0.04715693
0.10306997 0.08476525 -0.08089253 0.08669472 0.19622356 -0.014466986 -0.034499492 0.1558856
0.035890296 0.55646485 0.04127099 0.17268991 0.08461378 0.028567625 -0.007094445 0.18643652
0.38294205 -0.03164339 -0.047971006 -0.029236633 0.09125654 -0.0067492374 0.04926879 0.009262239

lstm.bias_hh_l0 f4 [512]
00000000: a5a1 c9bd 7c04 8d3d cbb6 813d ea3a 08bc
00000010: 7996 063c 6afa afbd 56c3 473c 4e42 273b
00000020: 526d c6bd 8b19 d6bb 2a50 c6bd f681 ecbd
00000030: 5db2 563d afba e13c 179f 3fbe 3762 89bd
00000040: d615 523d 0fa4 07bd 6f84 02bc 0994 383d
00000050: 0678 293d f91b ccbd 03d1 9ebd 5be3 9ebe
00000060: d84c 80bd 68a7 5fbc 7d1d 62be 6c0d 56be
00000070: 1468 27be 32b2 513d 7254 04be 2658 433d
00000080: 84cc dd3c 4f1b bebd 2f0a 06be 77c7 d6bd
00000090: 0d9d 38bb 7ce2 7abc 3970 9fbd 1b32 50be
000000a0: c35e 30be 6e56 83bc be34 9abd 1c9f d2bd
000000b0: 2fad 00be fa60 6c3c 1e03 c9bd 1cd5 2bbe
000000c0: 7037 d03c 5788 bdbd 7807 00be bdb0 7abd
000000d0: d6ba 8fbd 1b13 b1bb 2b19 dfbd 5337 803d
000000e0: 16f1 9ebd 6e68 fc3c 707d 57bd 2013 893d
000000f0: 1455 333c fae0 4e3c 53d6 f9bc 753c 3cbe
00000100: 3e28 8abd f3f3 82be e528 01be b891 49bd
00000110: 3a90 e5bd f48b 67be 8aa4 5fbc b585 4fbd
00000120: 7aef fe3c e7a5 c2bd 5716 893d 6d7e 323d
00000130: 5633 86bd 9bef a3bc 00bc 1bbd 38e6 27be
00000140: 8061 8abd 440d 8abc cc47 8fbf 27e9 7abd
00000150: 293f c8ba 4e37 febc 540f 413c 4289 2abe
00000160: 41ad 83bd ccf6 99bd 36bb 783b 2e44 f5bd
00000170: 74c9 26be 0668 08bd 1ff8 c63c 7826 04be
00000180: 8069 92bd a804 95bd 108e a83c f89f 63bd
00000190: e261 b6bd 3ebf 91be f721 d8bd b1f6 263c
000001a0: 08a3 06bd 8fad 88bd c10d 933d aad0 023d
000001b0: c836 29be e407 a9bd 08e9 8e3a d684 59be
000001c0: 884a 2abc 9ca4 10bf 117a fcbd a73a bcbd
000001d0: f54e 95bc 7c55 42be 91ae 42bd a957 dfbd
000001e0: ce06 8bbe ba33 98bd 912d 3fbd 5321 5b3d
000001f0: 2c4c 283d 8c94 78bd df87 ee39 ebef 053d
00000200: f8d2 db3d 32a2 0cbd 3152 cfbc adc6 5abd
00000210: 89da 9a3d 476f db3d 6802 af3c c270 a63d
00000220: 1eee 033e 849f 9b3d b478 c33b 7fd2 333d
00000230: ba42 ff3d 3bc7 ca3d 4056 f63d 6c43 b73d
00000240: 9682 4b3b b04e 6c3e ad79 dc3d b0a3 fabc
00000250: 286c 03bd cc57 94bc 3b13 a83d b312 f83e
00000260: 57f6 6b3d 74d7 7fbd 30ef 723e d841 893e
00000270: 8cef 293b d485 f1bc 544f f8bc 4b1e c93d
00000280: 7452 853d 172c 793d ff98 043e 3926 d13d
00000290: 00e0 19bd 575a 8a3c 42b6 733b ad86 3fbd
000002a0: 6dfc c43c 83d1 873d f92a 333d 7a2f 51bc
000002b0: 14c6 483d 3b2b 503d 0085 ff3d 1637 673d
000002c0: b1c6 c6bc 884f 423d 2a7c 993e c0c3 4abd
000002d0: c528 4b3d 1f4a c83d 2d7e 07bd bcb2 debb
000002e0: 60dd 3fbd d976 90bc c796 6abd 6ee6 7e3c
000002f0: 9c04 22bc aae2 ad3c c533 bc3d 83d7 eaba
00000300: 6ebd 023e cbf6 2f3d 5cd3 213e 882b 823d
00000310: c85d 303e 1933 813e 9bc5 59bd ca9a 4b3d
00000320: 9975 e2bc eec2 523d 8b84 203e 906f ea3c
00000330: e21d 31bb 0541 b6bc 2e37 e93d d86c 3bbd
00000340: 7723 1f3e 4f21 123d 9cd6 d03f f300 353c
00000350: abf9 21bd 7db7 d93a 6b60 adbd 6422 74bc
00000360: 9dc3 893c a0d9 253c 25fc 8d3d e991 20bc
00000370: 5246 063e 9a45 6cbd 7be9 2c3d 3334 68bd
00000380: 498c 7f3c a9ae 673e 36a6 5bbc ef69 d33d
00000390: 5d6b b53d 920d 563e 6450 afbd a5df ab3b
000003a0: acdb 4d3d 8067 7fbc 4cdf ed3c b646 56bc
000003b0: b9c5 143e d5b8 d13d cfa9 503d 604f 0a3d
000003c0: 7f36 4b3d 04c4 193f 0d2c 563d 6ef9 2a3e
000003d0: 5860 a2bc 7796 e73d 73ba 3dbc 0f8f c93c
000003e0: 26ef d43e 507b 393d 48bd 77bd e534 f2bc
000003f0: 2cf1 633d 0a5a 32bd 9678 d9bc b7dd a23c
-0.098452844 0.06885621 0.06333693 -0.008314827 0.008214586 -0.085926846 0.012192568 0.0025521698
-0.0968882 -0.0065338067 -0.09683259 -0.115482256 0.052416194 0.027554838 -0.18713032 -0.06708186
0.051290356 -0.033115443 -0.007966145 0.045063052 0.04137423 -0.09966273 -0.077547096 -0.31032833
-0.06264657 -0.013650753 -0.22081561 -0.20903558 -0.16348296 0.05119533 -0.12922838 0.047691487
0.02707506 -0.092825525 -0.13089822 -0.10487264 -0.0028169781 -0.015312787 -0.07785077 -0.20331614
-0.17223649 -0.016032424 -0.07529591 -0.10284254 -0.12566064 0.014427418 -0.09815048 -0.16780514
0.02541706 -0.092545204 -0.12502849 -0.061203707 -0.07018058 -0.005403889 -0.10893472 0.06260552
-0.07760827 0.030811515 -0.05260986 0.06693101 0.010945577 0.012626881 -0.030497706 -0.18382438
-0.06745957 -0.25576743 -0.12613256 -0.049211234 -0.1120915 -0.22611982 -0.013650069 -0.050664622
0.03112005 -0.095042996 0.06693714 0.0435776 -0.0655276 -0.020011714 -0.038021088 -0.16396415
-0.06756878 -0.016852029 -1.1193786 -0.061257508 -0.0015277612 -0.03103223 0.01178344 -0.16653922
-0.0642953 -0.07517776 0.0037953383 -0.11975895 -0.16287786 -0.03330233 0.024288235 -0.129053
-0.07149029 -0.07276279 0.020575553 -0.05557248 -0.089053884 -0.2846622 -0.10553353 0.010190652
-0.032870322 -0.06673729 0.07180358 0.03193728 -0.16524804 -0.08253458 0.0010903189 -0.21242079
-0.010393746 -0.56501174 -0.1232797 -0.091908745 -0.018226126 -0.18977922 -0.04752976 -0.10905392
-0.2715363 -0.07431741 -0.046674315 0.053498577 0.04108827 -0.06068854 0.0004549613 0.032699507
0.107335985 -0.03433437 -0.025307747 -0.05341213 0.075612135 0.10714584 0.021363452 0.081269756
0.12883803 0.075987846 0.0059653167 0.043901917 0.12463899 0.099012814 0.1202817 0.089484066
0.0031053177 0.23076892 0.10765395 -0.03059563 -0.032085568 -0.018108271 0.08206793 0.48451766
0.057607975 -0.06246133 0.23724055 0.26808047 0.0025930135 -0.02948276 -0.030311264 0.09820231
0.06509867 0.060833063 0.12948988 0.102123685 -0.03756714 0.01688878 0.0037187492 -0.046759296
0.024046147 0.06631758 0.043742154 -0.012767667 0.049017027 0.050822478 0.124765396 0.05644902
-0.024264665 0.04743913 0.29977542 -0.049503088 0.049599428 0.097797625 -0.033079315 -0.006796209
-0.04684198 -0.017634796 -0.0572727 0.015557868 -0.009888794 0.021226246 0.09189562 -0.0017917011
0.12767574 0.04295997 0.15803283 0.06355959 0.17223275 0.25234297 -0.053166967 0.049708165
-0.027643966 0.05145543 0.15675561 0.02861765 -0.0027025868 -0.0222478 0.11387478 -0.0457581
0.15540873 0.035676297 1.6315494 0.01104759 -0.039544743 0.001661047 -0.08465656 -0.0149007775
0.016816908 0.010122687 0.069328584 -0.009800413 0.13112763 -0.057683565 0.04221485 -0.056690406
0.015597411 0.22625221 -0.013406327 0.103229396 0.088583685 0.20903614 -0.08560255 0.0052451664
0.050258324 -0.015588641 0.02903714 -0.013078382 0.1452855 0.10240332 0.050943192 0.033767104
0.04961252 0.6006472 0.052288104 0.16696712 -0.01982133 0.11307996 -0.0115800975 0.024604348
0.41588706 0.045283616 -0.060483247 -0.029566238 0.05564992 -0.0435429 -0.026546758 0.019881113

pitch_linear.weight f4 [128, 128]
00000000: fe67 82be e81d 013e 7b65 833c 5b64 c23d
00000010: bbfe 553d a811 813e 8926 d73b 1755 873e
00000020: 32a7 d03e 9585 aa3d b9af 83bd e381 b13c
00000030: cd1a 7cbe 536a 15be c0a1 cdbc ffc2 e4b9
00000040: 17be 043c 4056 88be 6d83 1bbe 367d 903d
00000050: 6bba 8d3e d25a 80be f513 2a3e 84e4 7bbe
00000060: 7e2f 0e3c 5bb2 983d 9008 903e e149 a4be
00000070: 812a 84be aa20 8fbc 3d38 c9bc ee94 a2bd
00000080: dab8 95bd 22dd 7f3d 05f8 c33e 3fcb b03d
00000090: ed58 a5bb 0cca fa3d b366 45be fa88 84be
000000a0: 467d 7eba 1589 38be da2e 833d 684e a93c
000000b0: c092 4ebe 93a6 4d3d 42c2 2c3e df6b a3be
000000c0: 78bf 9f3c 5c78 81bc 95e7 e5be 5a38 103d
000000d0: 6a3b 803d fea8 24bd b86b 3abd 5a96 daba
000000e0: bd7d 353d 685a 373d be74 27be fd0b 63bd
000000f0: 7e2e c8bc 4c70 243d 3898 ed3c 0c7c 2e3e
00000100: b81f 84be a9f4 9b3e d5aa 823e c08d 843c
00000110: 1896 d9be 865e 8c3e e2b9 023d 84c4 33be
00000120: e6d4 533b 14c3 90bd 4ffc 36be 2739 ea3d
00000130: 9a98 bdbe caff cd3d f749 2b3e a711 963e
00000140: 44e4 a2be 632f 0cbd 2e69 e73e e6f8 b6bc
00000150: 1cde b7bd 83fc dcbd 2a22 c13d 5489 3fbe
00000160: 5806 00be 7bfd ad3c a567 663d b467 d6bc
00000170: 5000 503e 37cb 4abd 398b 6f3e 4bb7 383e
00000180: 63d6 873e 1766 cbbe 3c2b 003e 2a19 693e
00000190: 5cf7 6abe 1abc 85be 5d88 b7bd 5600 3e3e
000001a0: 6345 c2be 4ccb 6abd f60d dc3d 34b5 123e
000001b0: 0000 803e 5ef0 1dbe 2578 fd3d e53c 05be
000001c0: 2cb7 b4bd 645b abbe e51c c4bd 3bbb 803e
000001d0: 1bf4 3b3e a70b bcbd d28a 493e 8a24 23be
000001e0: f538 06bd 7159 9dbc ec6d 2f3e 1cb6 11be
000001f0: 80a8 813d 582d f03d 35c7 5abd a350 a33d
00000200: e3db 40be 7619 423e 5dac 453d 67b0 a93d
00000210: b6bd e53d 7bce 033e 6f9a 963d 1cd4 7b3e
00000220: e338 d23e 0000 003e 5e94 e8b9 be3c 6c3d
00000230: 5dfc 0dbe 7ac5 07be 9d82 f03c 411a c7bd
00000240: 658b 6dbb 45ba 81be 67d0 ecbd 7a82 003e
00000250: 252b 833e b243 72be 484e 2a3e 547b 47be
00000260: df7e 17bd 17f5 053e e72e 643e d588 cabe
00000270: d586 20be 6031 893c e2ef debd 51a3 07be
00000280: eabd 99ba c316 303b 397b ca3e 9f5b 173d
00000290: fe79 1e3d eb00 003e 1e0e 79be de3f 1abe
000002a0: 8098 9dbd fcb7 bcbd 7db6 623d cc54 2d3e
000002b0: 2c1a 81be c856 bb3d 0c22 2a3e d2e4 aebe
000002c0: 471b 02ba b7d7 b43d c083 b7be f4ba 683d
000002d0: d3b1 a4bc da99 1dbe 6aa8 25bd 08aa 9ebd
000002e0: 38f5 ac3d 5d98 9c3d 315b 89bd a60a 60be
000002f0: bc7e d13d 927d 7c3d f378 323d 0a88 823e
00000300: 7d14 84be f7b3 323e 8747 123e 9ab5 0c3e
00000310: 8990 afbe 1780 ae3e 57b3 80bd 9537 0fbe
00000320: 0aff f0bd 2ed8 ebbd 0790 68be 318d c3bc
00000330: 6e3b 84be f9ef 0dbd cd3b 203d aff8 893e
00000340: 0000 80be fd58 ed3d 4534 a73e dc04 333d
00000350: 6582 10bd db12 03bb f740 1e3e 158d 52be
00000360: 51e7 4ebd 8e49 94bc 2555 ef3d 79f7 81bd
00000370: 783f 1d3e 565c 8fbd 0c5b 713e 3b9e 653e
00000380: f38a 993e dfbc bebe 125d e53d 8a9e b43e
00000390: 8422 50be cb22 96be 920b 6c3d 677e 203e
000003a0: 501b b9be 7955 48bd f750 143e 5f5b 4b3d
000003b0: 088b 843e d987 74be 5522 b53d fda4 4bbd
000003c0: 3c66 0e3d 7013 3cbe 53f5 ffbd ea1c 7f3e
000003d0: 74f0 3e3e 7937 96bd 9829 833e ab0e 52be
000003e0: fd66 26be 96cb 2bbe a770 163e 9901 25bd
000003f0: a645 f63d 18a9 103e c422 b2bc b534 273e
-0.25469965 0.12609065 0.0160396 0.094917975 0.052244883 0.25208783 0.006565873 0.26432106
0.4075256 0.0832626 -0.06430001 0.02166838 -0.24619599 -0.1459134 -0.025101542 -0.00043632832
0.008101962 -0.26628304 -0.15186854 0.07055132 0.27681288 -0.2506929 0.16609176 -0.2459889
0.008678315 0.074558936 0.28131533 -0.32087615 -0.25813678 -0.01747163 -0.02456295 -0.07938562
-0.07310648 0.062466748 0.3827516 0.08632516 -0.005046001 0.12245569 -0.19277458 -0.25885755
-0.0009707998 -0.18021043 0.064054206 0.02066727 -0.20173168 0.050207686 0.16870978 -0.31918237
0.01950048 -0.015804462 -0.44903246 0.03520999 0.06261332 -0.040200226 -0.045512885 -0.0016676888
0.044309366 0.044763952 -0.16353127 -0.055431355 -0.024436232 0.040146157 0.029003248 0.17039508
-0.2580545 0.30460098 0.2552096 0.016180873 -0.42497325 0.27415866 0.031915553 -0.17555434
0.0032322942 -0.07068458 -0.17869686 0.11436682 -0.37030488 0.100585535 0.16727434 0.29310343
-0.31814778 -0.03422488 0.45197433 -0.02233548 -0.08977911 -0.1079035 0.094303444 -0.1870473
-0.1250242 0.021239033 0.056251187 -0.026172496 0.20312619 -0.049510207 0.23392953 0.1803867
0.26530752 -0.39726326 0.12516493 0.22763506 -0.22945923 -0.26120073 -0.08961556 0.18554816
-0.37943563 -0.057322785 0.1074485 0.14326936 0.25 -0.15423724 0.123764314 -0.1301151
-0.08824 -0.33468163 -0.09575824 0.25142846 0.18354838 -0.0918191 0.19681862 -0.15931907
-0.032769162 -0.019207688 0.17131776 -0.14229625 0.06330967 0.11727399 -0.053412635 0.079743646
-0.1883388 0.18955025 0.04826008 0.08285599 0.11217825 0.12871735 0.073536746 0.24592632
0.41059026 0.125 -0.0004436103 0.057675116 -0.138658 -0.13258925 0.029359156 -0.097218044
-0.0036246416 -0.25337425 -0.11563187 0.12549773 0.25618854 -0.23658636 0.16631424 -0.1948064
-0.036986228 0.13081776 0.22283517 -0.3955752 -0.15676434 0.016747177 -0.10885598 -0.13245894
-0.0011729572 0.0026869036 0.39547136 0.03695261 0.03869056 0.1250035 -0.24321792 -0.15063426
-0.07695103 -0.0921478 0.055349816 0.16926879 -0.2521528 0.091474116 0.1661455 -0.3415895
-0.0004963171 0.08830207 -0.35842705 0.056818917 -0.020104324 -0.15390721 -0.040443815 -0.07747275
0.08445209 0.076462485 -0.067068465 -0.21879062 0.10229251 0.06164319 0.043572377 0.25494415
-0.2579688 0.17451464 0.14285098 0.1374115 -0.3428996 0.340821 -0.06284206 -0.13986047
-0.11767395 -0.115158424 -0.22711192 -0.023871036 -0.2582659 -0.034652684 0.03911953 0.26947543
-0.25 0.11589239 0.32657066 0.043705806 -0.035280604 -0.0020000252 0.1545447 -0.20561631
-0.05051357 -0.01810148 0.11686162 -0.0634603 0.15356243 -0.070000336 0.23569888 0.22423641
0.29988822 -0.37253472 0.111993924 0.35277206 -0.20325667 -0.2932342 0.05762822 0.15673219
-0.3615365 -0.048909638 0.1448401 0.049647685 0.25887322 -0.23879947 0.08844439 -0.049717892
0.034765467 -0.1836679 -0.12497964 0.24913374 0.18646413 -0.07334799 0.2561767 -0.20513408
-0.16250224 -0.1677688 0.14691411 -0.040284727 0.12025003 0.14127004 -0.021745093 0.163287

pitch_linear.bias f4 [128]
00000000: f8ca bdbf 9a94 cbbf 6cf9 c3bf b539 c9bf
00000010: f524 cdbf eb5d cebf 77c2 cabf d8c5 c3bf
00000020: 56cd c9bf da09 c3bf e219 d2bf 01b7 cebf
00000030: f054 c4bf 6c66 c5bf 151a c1bf d68c c5bf
00000040: fb2b c4bf d57e c9bf 0660 c4bf 2a95 c9bf
00000050: 46df c2bf aa69 c8bf bed7 c7bf 7afb c2bf
00000060: e8af c6bf 1fde bebf a328 c5bf deed c9bf
00000070: 748b c0bf aa63 acbf 87b1 a6bf a4f3 97bf
00000080: 5e48 8bbf e557 7bbf adc4 70bf e55f 60bf
00000090: d305 bfbe a7e8 f6be dc0c c9be 182c afbe
000000a0: f4bb 49be bda3 ca3d 65d4 94bd 0956 ff3e
000000b0: d45e f13e 4d27 343f e7cd 2f3f 9a78 0f3f
000000c0: 9061 ad3f f24c 7f3f 265a c73f 8f00 b43f
000000d0: c3d9 c93f 13d1 e33f 27c8 cf3f 9a5c f03f
000000e0: 8762 f03f bd19 ff3f cb02 fc3f 4c64 ea3f
000000f0: dbec 0340 09ce f73f b384 0d40 fab9 ff3f
00000100: 68eb 0540 7fef 0340 b2a8 f83f 8fd7 0840
00000110: 6ee9 f63f 0414 0640 3d31 ef3f 9512 ec3f
00000120: 33f8 f03f 0360 e93f 632a f53f b85b d33f
00000130: ea41 c93f df11 ce3f 815b a33f c780 b53f
00000140: 32e9 863f bd53 813f 2965 e33e 579c 623e
00000150: 5914 683e f33b edbd a0d2 33be 22ee c7be
00000160: cd39 ccbe 3f06 03bf 435d 57bf baa5 69bf
00000170: cf82 87bf 0c4b 93bf b201 99bf c285 a9bf
00000180: 0828 b3bf 2e7b b6bf 127f bbbf 641b bebf
00000190: d3ea c4bf 8c66 c3bf d7d4 c8bf 9675 c5bf
000001a0: eb29 d0bf 6ea5 c8bf 4f7a c6bf 66a2 c5bf
000001b0: 1317 cfbf 0d36 c7bf 1c39 c5bf fdd5 c5bf
000001c0: 366f cabf 401b c8bf 9004 cfbf b8ab cfbf
000001d0: 9549 d1bf de0a c4bf 84a9 c3bf e234 c4bf
000001e0: 9cc7 c9bf 6418 ccbf 4bad cfbf 12ec cebf
000001f0: b7b4 c3bf 80c2 ccbf 1621 cdbf 54b2 c4bf
-1.4827566 -1.5904725 -1.5310493 -1.5720736 -1.6026903 -1.6122411 -1.5840596 -1.5294752
-1.5765789 -1.5237381 -1.6414149 -1.6149598 -1.5338421 -1.5421882 -1.5086085 -1.5433605
-1.5325922 -1.5741831 -1.5341804 -1.5748646 -1.5224388 -1.5657246 -1.5612714 -1.5232995
-1.5522432 -1.4911536 -1.5403026 -1.5775716 -1.5042558 -1.3467915 -1.3022927 -1.1871228
-1.088146 -0.9818099 -0.94050103 -0.87646323 -0.3730913 -0.48224375 -0.39267623 -0.34213328
-0.19700605 0.09894512 -0.072670735 0.49870327 0.4714266 0.7037247 0.6867356 0.560434
1.3545399 0.99726784 1.5574386 1.406267 1.5769581 1.7798179 1.6232957 1.877826
1.8780068 1.992973 1.9688352 1.8311858 2.0613315 1.9359752 2.2112243 1.997863
2.092493 2.0614927 1.9426482 2.1381567 1.9289987 2.0949717 1.8686901 1.8443171
1.8825744 1.8232425 1.915356 1.6512365 1.572324 1.6099204 1.27623 1.4179925
1.0539916 1.010368 0.44413117 0.22129951 0.22664012 -0.115837 -0.17560816 -0.39048868
-0.39887848 -0.51181406 -0.8412668 -0.91268504 -1.0586795 -1.1507277 -1.1953642 -1.3243945
-1.3996592 -1.4256341 -1.4648154 -1.4852109 -1.5384163 -1.526567 -1.5689954 -1.5426509
-1.6262792 -1.5675485 -1.5506076 -1.5440185 -1.6178917 -1.556337 -1.5408053 -1.5455929
-1.5815189 -1.5633316 -1.6173267 -1.6224279 -1.635058 -1.5315816 -1.5286107 -1.5328639
-1.5764041 -1.5944943 -1.622476 -1.6165793 -1.5289525 -1.5996857 -1.6025722 -1.5366921

step_linear.weight f4 [1, 128]
00000000: 1781 c0bc 4402 383c db12 a1bb b7fa b13c
00000010: 0bc9 17ba d5bd a33b 353b 433b 3978 df37
00000020: 0af2 d73d 4e13 86bc da75 a7ba 38b7 503c
00000030: 765e 693b 212d 55bc 65b4 0fbd 85ca a63b
00000040: 1d71 6fbc b42e e2bc a171 e93b 1b86 053a
00000050: 192e 143c a36c 5cbc 1be6 093c e1fe 0a3e
00000060: 1758 5f3c c689 0e3b 1de0 15bd 7841 d9bd
00000070: 5f41 54bd 91b8 913b 76df 05bd ccb4 c4bc
00000080: 0d75 d83b 7660 78bc 718d 623b 4aa3 d2bb
00000090: 5f94 20bc c54a 213c f65b 103d 547f 07bd
000000a0: 42b9 4f3c a759 acbc 45c2 793a f27e c7bb
000000b0: ffaf d9bc d35e 983d ed9d 0dbb e9ca 8fbc
000000c0: 027c 2dbd 56b6 d3bc f5b2 90bd 2d3d ff3b
000000d0: 77e2 0f3c 6bb5 14bc 18eb de3a 1a2a 873b
000000e0: 9dc5 29bb 0ef9 ac3c c8fe f7bc 7199 273c
000000f0: fa71 663c b76a 82bb 62af 82bc 2896 0cbc
00000100: 8196 8eba 2219 d03d 891c deba b96b 44bc
00000110: fda0 9eb9 3e5b c93d 5ecd 5cbb 1f56 613b
00000120: 794a 6fbb 4400 0ebc 20f3 bebc ef0a c33b
00000130: 46d4 a4bb f668 353c add5 c83b 4a14 f7bc
00000140: 55db b739 f42b 51bc b52c 9f3e 5701 01bb
00000150: 593f a7bc 0def c43b eee5 143c 4c68 d93b
00000160: 09e1 73bc bac8 8bbc f711 e3bc 0ede 993a
00000170: b438 7c3d 5d9f 2e3a d802 5b3c 136c b53c
00000180: 8e79 38bc cd94 7d3b 9ec5 793c e682 323c
00000190: 9226 e2bc 10d3 1fbd 0bb4 e03a 076c d0bb
000001a0: be82 023c 69b1 a4bc 070a 9b3a 6e75 2dbb
000001b0: 5efe e6bc 21a0 06bd 5b5e 703a 22a1 3cbd
000001c0: a7bc 94bc d232 31be 26e7 2abc da9c 963c
000001d0: c736 a63c fee5 8b3c b4bc 183d 56fd 6ebd
000001e0: 82ba 343c a026 1b3b 75bc 653a 290b 043b
000001f0: 643b fdbb 2c39 f03c 3ff4 b9bb 1123 1b3c
-0.023499055 0.011231009 -0.004915578 0.021725995 -0.00057901506 0.004996995 0.0029789929 2.6639655e-05
0.10544212 -0.016366627 -0.0012776211 0.012738995 0.0035609282 -0.013011248 -0.035084147 0.00509006
-0.014614371 -0.02761016 0.0071241413 0.00050935306 0.009044194 -0.013453635 0.008416678 0.13573791
0.013631842 0.00217496 -0.036590684 -0.1060819 -0.051820155 0.004447051 -0.032683812 -0.024011992
0.0066057504 -0.015159717 0.003456917 -0.006428157 -0.009800999 0.009844487 0.03524395 -0.033080414
0.012678446 -0.021038843 0.00095275446 -0.006088131 -0.02657318 0.07439961 -0.0021609024 -0.01755281
-0.04235459 -0.02584378 -0.07065383 0.007789275 0.008782021 -0.009076457 0.0017007319 0.004124892
-0.002590514 0.021114852 -0.030272856 0.010229454 0.01406526 -0.0039800066 -0.01595277 -0.008580722
-0.0010878594 0.10161044 -0.001694576 -0.011988574 -0.00030256054 0.09831856 -0.0033691744 0.0034383608
-0.0036512895 -0.0086670555 -0.02330929 0.005952231 -0.005030188 0.011072388 0.0061289878 -0.030161042
0.00035067895 -0.012766827 0.31088796 -0.0019684636 -0.020415949 0.0060099424 0.009088023 0.0066347476
-0.0148851955 -0.017063487 -0.027718527 0.0011739151 0.061577514 0.000666132 0.013367377 0.02214626
-0.01125945 0.0038693429 0.0152448695 0.010895466 -0.027606282 -0.039019644 0.0017143501 -0.006360534
0.007965742 -0.020104127 0.001182855 -0.0026467699 -0.028197464 -0.032867555 0.00091693335 -0.046052106
-0.018156363 -0.17304543 -0.010431087 0.01838534 0.020289792 0.017077442 0.037289336 -0.05834707
0.011030795 0.0023674145 0.0008763739 0.0020148254 -0.007728027 0.029324137 -0.0056748684 0.00946881

duration_linear.weight f4 [1, 128]
00000000: 1f1f b3bc c88f 373a 6a65 943c c54d 4c3c
00000010: 560c 5c3b 343c 01be 36a6 603d cf0f 23bc
00000020: 5d73 873e 1ca4 0e3c 9fef 153c dfcc 073d
00000030: e7a5 dc3b 9a96 debd 9e1e 513c 3059 993d
00000040: 1263 eb3c 44e4 27bd 49c9 41bd 08ac 043d
00000050: 7706 6e3d 7b0e b33d 6e1c 25be 37a8 263f
00000060: 2221 ccba acc6 04bd 1c8f 353e 23f2 67bd
00000070: 3039 853b 1ee1 64bc fd8e 463d ee4f 873c
00000080: 6f2c f9bc 2cdb e6ba fd99 263e 0552 0d3d
00000090: b47b 72bd dbd6 853d 8d1f 8abd 512e bcbd
000000a0: bfc9 0d3d 219c 993d b864 9cbd e41f 06bd
000000b0: 0a2a 8a3c 61c7 36bd 3810 64bc 4bf9 52bd
000000c0: ad91 b1bd c4d2 f13d ca87 af3d e8cb 04bc
000000d0: ecc7 323d 2616 dc3c b2d9 1dbd ba25 6fbd
000000e0: cf6b b23d 84b3 27bd 0be1 073d 267b 263d
000000f0: 29ea bcbc ed39 8b3c 0c6e d0bc c723 a93d
00000100: 4fdc 063d 1a24 043e 0290 493e 2b21 a23d
00000110: 8135 753c 5b54 0f3e 1cd2 033c 800f f4bd
00000120: 07bf 1ebd d4ed 75bd 8270 ccbd e0e0 be3c
00000130: 308c e23c 504f 0c3d e483 4c3c a175 bb3d
00000140: fa35 8bbc 95b0 a13c 5dc3 b63f c181 e23c
00000150: fc87 e23c d47e 263c 54ba d23d fc78 00be
00000160: 4000 a5ba 1ff5 8e3c 1db6 71bc b468 06bd
00000170: 486d 0f3d e6f9 f6bd e66f aabd 7a1b fc3d
00000180: 29be 48bd 6cfe 43bb 59bd ad3c 86e0 00bd
00000190: 7c4b b73c bf0a c1bd b161 dbbc 7b67 31bd
000001a0: e9ce 873d 471e e2bd 974c 483d d597 543d
000001b0: 7637 82bd 4207 64bd e7a9 c13d 6e7c 593e
000001c0: 8984 87bd b3ae c2be 3ae8 c03d bf34 1cbe
000001d0: c200 88bd c0b6 6dbe 6d66 d9bc 3e6b f73d
000001e0: f2f3 15be 30e4 8fbd 979a 4f3d bf24 343d
000001f0: 00cb 1a3d bb4f afbc 424b fb3c 8bf2 a83d
-0.021865426 0.0007002321 0.018114764 0.012469714 0.0033576689 -0.12620622 0.05484601 -0.0099524995
0.26455203 0.008706119 0.009151368 0.033154365 0.0067336443 -0.10868569 0.012763647 0.07487714
0.028733764 -0.040989175 -0.0473111 0.032390624 0.058111634 0.08742996 -0.16124126 0.65100425
-0.0015573839 -0.03241603 0.17730373 -0.056627404 0.004065655 -0.013969688 0.048476208 0.016517606
-0.030416695 -0.0017612926 0.1626968 0.034502048 -0.059200004 0.06535121 -0.06744299 -0.09188522
0.03461623 0.07500482 -0.07636398 -0.032745257 0.016865749 -0.044623736 -0.0139198825 -0.051507276
-0.086703636 0.118077785 0.085708216 -0.008105256 0.04364769 0.02686603 -0.03853769 -0.05838559
0.08711969 -0.040942684 0.033173602 0.040644787 -0.023060875 0.016995395 -0.0254431 0.08258777
0.032924946 0.12904397 0.19683841 0.079164825 0.01496637 0.13997023 0.008045699 -0.11917019
-0.038756397 -0.060041264 -0.09982397 0.023300588 0.027654737 0.034255326 0.012482617 0.09153295
-0.016993511 0.019737521 1.427837 0.027649762 0.027652733 0.010162074 0.102894455 -0.12546152
-0.0012588575 0.017450867 -0.014752892 -0.032814696 0.035016328 -0.12059383 -0.08322124 0.12309928
-0.049009476 -0.0029906286 0.021208452 -0.031464122 0.022374861 -0.09425878 -0.026779981 -0.043311577
0.06631262 -0.11040931 0.048901167 0.05190261 -0.063582346 -0.055670984 0.094562344 0.21238872
-0.06617076 -0.3802391 0.09419294 -0.15254496 -0.066407695 -0.23214245 -0.026538098 0.12081002
-0.14643839 -0.07025945 0.050684538 0.043980356 0.037791252 -0.021400323 0.030675534 0.082493864
