torch/model0.pth (torch, 342035 bytes, 8 tensors)

lstm.weight_ih_l0 f4 [512, 3]
0	0x3d50e958	0.051003784
1	0xbdaccbde	-0.08437322
2	0xbd1f8b6c	-0.038951322
3	0x3dac6e9b	0.08419534
4	0x3da66edf	0.08126616
5	0xbd5fd327	-0.05464473
6	0xbd0c2b57	-0.03422102
7	0x3d01aa87	0.03165677
8	0x3db74fde	0.0895078
9	0x3d50cd64	0.050977126
10	0xbd57b6f6	-0.05266472
11	0x3da9fc67	0.08300095
12	0x3d70b0ba	0.05876229
13	0x3cdeae6b	0.027182778
14	0xbd1310fd	-0.035904873
15	0x3d4764db	0.048680168
16	0x3c92dd25	0.017927716
17	0x3dabc470	0.08387077
18	0xbd03da2b	-0.032190483
19	0x3d617b98	0.05504951
20	0x3da28b56	0.079367325
21	0xbc7ec2a4	-0.015549336
22	0xbd006d21	-0.031354073
23	0x3d2866e4	0.04111375
24	0xbda61104	-0.08108714
25	0xbdafd8ff	-0.085863106
26	0xbd4427e6	-0.047889613
27	0xbc29f99e	-0.010374455
28	0x3d898ac2	0.06715919
29	0x3d9c9a28	0.076465905
30	0x3d89ad89	0.06722552
31	0xbd40334b	-0.046923917
32	0x3d733be7	0.0593833
33	0xbbb9aa01	-0.005666018
34	0xbd9aa249	-0.07550485
35	0xbd8df510	-0.069315076
36	0x3c894ad2	0.01675931
37	0x3bc351da	0.005960685
38	0x3d696f9b	0.0569912
39	0x3d080024	0.03320326
40	0x3d96f36a	0.07370646
41	0x3c281d7b	0.010260935
42	0xbd5d7bac	-0.05407302
43	0xbda5cf5f	-0.080961935
44	0xbd87a761	-0.06623722
45	0xbd759ac5	-0.059962053
46	0xbc2ed768	-0.010671474
47	0x3ccb0d7f	0.024786709
48	0xbc0c8a54	-0.008577902
49	0xbd54b494	-0.051930025
50	0x3adb16a4	0.0016715121
51	0x3d49b466	0.049244307
52	0x3b9e0293	0.004822084
53	0x3c3751ac	0.011188906
54	0xbd25fd4b	-0.040524762
55	0x3a8371ea	0.0010028456
56	0xbc6e955c	-0.014561977
57	0x3da50498	0.08057517
58	0x3d8555fd	0.065105416
59	0xbcfdee0e	-0.030997302
60	0x3d33218e	0.043733172
61	0x3d65ad44	0.056073442
62	0xbcbf2212	-0.023331676
63	0xbd08297c	-0.033242688
64	0x3c6f65f7	0.014611713
65	0x3ccb426b	0.024811944
66	0x3d3b2699	0.045691106
67	0x3dafeb39	0.08589787
68	0xbcd9268a	-0.026507635
69	0xbd6c90e2	-0.05775536
70	0xbd2b3b85	-0.04180481
71	0x3d6d52b6	0.057940207
72	0x3a27ba88	0.000639834
73	0xbcd6796c	-0.026180945
74	0xbd9b3194	-0.07577816
75	0x3dadacd6	0.084802315
76	0xbd367da3	-0.04455341
77	0x3d15e5e6	0.0365962
78	0x3d368a56	0.04456552
79	0xbdaad044	-0.08340505
80	0x3dac459e	0.08411716
81	0x3b05492f	0.002033781
82	0xbd0e3193	-0.034715246
83	0x3cb43fae	0.022003021
84	0xbb813aa6	-0.003943759
85	0x3cd6a149	0.026199954
86	0x3cc92eda	0.024558473
87	0x3ce3926b	0.027779778
88	0xbda6b095	-0.08139149
89	0xbcae78c0	-0.021297812
90	0xbd068b15	-0.032847483
91	0x3dafd169	0.08584864
92	0x3c090320	0.008362561
93	0x3c031327	0.008000172
94	0x3d92f157	0.07174938
95	0x3d0202e3	0.031741034
96	0x3da2cb25	0.07948903
97	0x3d9efc4a	0.07762964
98	0x3d052f1f	0.03251564
99	0x3d882334	0.066473395
100	0x3cef00a5	0.029175112
101	0x3d958962	0.07301594
102	0xbdb2134a	-0.08695085
103	0x3d86e728	0.06587058
104	0x3da393f0	0.07987201
105	0xbd04cbee	-0.032421045
106	0xbd90e4ac	-0.07074866
107	0xbc1a7565	-0.009427403
108	0xbcc255cb	-0.02372255
109	0x3b721673	0.003693965
110	0x3c6da4aa	0.014504591
111	0xbda8d5e3	-0.08243921
112	0xbd275c98	-0.04085979
113	0xbd02ecf5	-0.03196426
114	0xbd4f7d2c	-0.050656483
115	0xbda16185	-0.078799285
116	0xbd806a70	-0.06270301
117	0x3d078546	0.033086084
118	0xbcb0ba43	-0.021573192
119	0x3d489995	0.048974592
120	0xbd219a14	-0.03945358
121	0x3c91a5bd	0.017779225
122	0x3cd0a4ff	0.025469301
123	0x3d67a0a5	0.056549687
124	0x3da40ded	0.08010469
125	0xbcf51ae9	-0.029920058
126	0xbd78faf2	-0.060786195
127	0xbc538f89	-0.012912639
128	0xbd185655	-0.037191708
129	0x3d1ebc79	0.03875396
130	0xbc91375b	-0.01772659
131	0x3c009e97	0.007850311
132	0xbdb02ebd	-0.086026646
133	0x3c88c615	0.016696015
134	0xbd3c1cf8	-0.045926064
135	0x3c2efde1	0.010680647
136	0xbcc296f2	-0.023753617
137	0xbd0be192	-0.034150667
138	0x3d55bc9e	0.052181832
139	0xbd4e13b0	-0.050311744
140	0x3d8a5af9	0.06755633
141	0x3c862597	0.016375346
142	0xbc8bb658	-0.017054722
143	0x3da2c70c	0.079481214
144	0x3d9b587a	0.07585235
145	0xbd42e8c1	-0.047585253
146	0x3d20d731	0.039267723
147	0xbcf00ca1	-0.029302897
148	0xb9c53063	-0.0003761082
149	0x3d2dc132	0.042420574
150	0xbc6c83df	-0.014435737
151	0xbd583c8e	-0.052792124
152	0x3d8b3b4c	0.06798419
153	0x3d1a16ee	0.037619524
154	0xbd7bc90f	-0.06147104
155	0xbd04b4af	-0.032398876
156	0xbdb07a14	-0.086170346
157	0x3d9ef966	0.07762413
158	0xbd76bbb5	-0.060237605
159	0xbd2be6e8	-0.041968256
160	0xbd7571bc	-0.05992292
161	0x3b96fa9f	0.004607513
162	0xbdb0b6c8	-0.08628613
163	0x3caad146	0.020851742
164	0xbda05808	-0.07829291
165	0x3cf80f00	0.03028059
166	0x3d49a211	0.049226824
167	0x3da15a61	0.078785665
168	0xbce60db8	-0.028082713
169	0xbccfde8c	-0.025374673
170	0x3c05dcc3	0.0081703095
171	0xbd8e954a	-0.069620684
172	0x3d69d71e	0.057089917
173	0xbc6bd79a	-0.014394665
174	0xbd54d7fb	-0.051963788
175	0xbd20a5bc	-0.039220557
176	0xbcfe608f	-0.031051902
177	0xbd4f2e55	-0.050581295
178	0xbdacdb83	-0.08440306
179	0xbd112807	-0.035438564
180	0x3bc36485	0.0059629106
181	0xbd089fb2	-0.033355422
182	0xbb5ebe02	-0.0033987765
183	0xbd9e6e5e	-0.077358946
184	0xbd81bfba	-0.06335397
185	0xbd26b9a0	-0.04070437
186	0xbd89090c	-0.06691179
187	0xbd48bcc7	-0.049008157
188	0x3c2604ba	0.010132963
189	0xbd8a0ca6	-0.06740694
190	0xbc6fdce4	-0.014640067
191	0x3d759f70	0.059966505
192	0xbd5de766	-0.054175757
193	0x3da85130	0.0821861
194	0x3d19ac3c	0.03751777
195	0x3d1c2105	0.038117427
196	0x3d9d00b6	0.07666151
197	0xbd7236ce	-0.059134297
198	0xbd70c4b1	-0.05878133
199	0xbd094ffa	-0.033523537
200	0xbd82d67f	-0.06388568
201	0xbcb80e7e	-0.022467848
202	0x3d942135	0.07232896
203	0xbc927aa8	-0.017880753
204	0x3da65c12	0.0812303
205	0x3d9b8b11	0.07594884
206	0x3d137835	0.03600331
207	0xbbe0ca66	-0.0068600653
208	0x3d407737	0.046988692
209	0xbda1d52e	-0.07901989
210	0x3dae827d	0.085209824
211	0x3d4524b1	0.048130695
212	0x3d85b7e3	0.06529214
213	0x3d94c958	0.07264966
214	0x3d500437	0.05078527
215	0x3ce920b0	0.02845797
216	0xbd0341f1	-0.03204531
217	0xbcb9ece9	-0.022695975
218	0x3c6e8d23	0.014560017
219	0x3d58a651	0.052892987
220	0xbd839b45	-0.064261
221	0x3d6911fd	0.05690192
222	0xbd8cd786	-0.06877045
223	0xbba57832	-0.005049729
224	0x3c2b501d	0.010456112
225	0x3d0f0177	0.034913506
226	0xbd954f50	-0.07290518
227	0x3d9fe254	0.078068405
228	0xbc64679a	-0.013940716
229	0x3d43a6a0	0.047766328
230	0x3d85b63e	0.065289006
231	0x3d36264d	0.04447012
232	0xbabe078b	-0.0014498098
233	0x3d751edc	0.059843883
234	0xbc636dd6	-0.013881167
235	0x3c0c00ca	0.00854511
236	0x3b98a415	0.004658232
237	0x3a9af610	0.00118226
238	0xbd53ed08	-0.051739722
239	0xbd7c64da	-0.061619617
240	0xbd3e2220	-0.046419263
241	0x3d50f336	0.051013194
242	0x3d4c504a	0.049881257
243	0x3daa3eb6	0.083127424
244	0x3cc82a99	0.024434375
245	0x3ca373a5	0.019952605
246	0x3da16242	0.07880069
247	0xbd66ca6d	-0.056345392
248	0x3d4c8975	0.049935777
249	0xbd5b0c5f	-0.053478595
250	0xbd55527a	-0.05208061
251	0xbd7f164b	-0.06227712
252	0xbce583e8	-0.028017
253	0xbbb9a80b	-0.0056657842
254	0x3d82489f	0.063615076
255	0x3d4b2098	0.04959163

lstm.weight_hh_l0 f4 [512, 128]
0	0x3cdcf70f	0.026973275
1	0xbc09c82c	-0.008409541
2	0x3b465572	0.0030263332
3	0x3d55ee53	0.052229237
4	0xbcbf9805	-0.023387918
5	0x3bbf24d8	0.0058332495
6	0xbd468a61	-0.048471812
7	0xbd59da54	-0.05318673
8	0xbd9c0db3	-0.076198004
9	0x3c39c027	0.011337317
10	0x3b10564e	0.0022024098
11	0x3d7cec75	0.06174894
12	0x3d7bda3f	0.061487433
13	0x3cb8149b	0.022470763
14	0x3d88d266	0.06680755
15	0x3b2964a1	0.0025847333
16	0xbd09a9c8	-0.03360918
17	0x3d9e7ab9	0.07738251
18	0x3d5b9f39	0.053618643
19	0x3d6e455b	0.05817161
20	0x3d1021e1	0.03518856
21	0xbbb6635c	-0.005566044
22	0x3d2edba9	0.042689953
23	0x3cd8a56c	0.026446067
24	0x3d53d78f	0.051719245
25	0x3dabfeee	0.08398233
26	0xbda072e5	-0.078344144
27	0xbccd960d	-0.025095964
28	0xbda26c20	-0.079307795
29	0xbce9e24a	-0.028550286
30	0xbd4b041c	-0.049564466
31	0xbdb3dd18	-0.08782405
32	0xbcefbedc	-0.029265814
33	0xbc3f93a4	-0.011692915
34	0xbd2569b6	-0.040384017
35	0x3d4c40aa	0.049866356
36	0xbc97b7f2	-0.01852033
37	0xbdb4fe4f	-0.08837568
38	0x3c0a7281	0.008450151
39	0xbcad9668	-0.021189883
40	0xbbd4969b	-0.00648768
41	0xbcf72050	-0.030166775
42	0xbd3949c6	-0.04523637
43	0xbcdd828f	-0.027039794
44	0x3d906e1c	0.07052252
45	0x3c1a582d	0.009420437
46	0xbd1b1157	-0.037858333
47	0x3d9a4ae6	0.07533817
48	0xbd4b10a9	-0.049576435
49	0xbda43d8d	-0.080195524
50	0x3cb20f01	0.02173567
51	0xbc25d667	-0.010121918
52	0x3bececb6	0.0072303666
53	0xbdb244c1	-0.0870452
54	0xbd6bab11	-0.05753619
55	0xbd85a77e	-0.06526087
56	0xbcc9a0ea	-0.024612863
57	0xbc338a18	-0.010958217
58	0x3d373f4a	0.04473809
59	0x3bf8fa2d	0.0075981827
60	0xbd783a02	-0.060602196
61	0xbcf83fea	-0.030303914
62	0x3d8ae7de	0.067825064
63	0xbbfb1e05	-0.0076634907
64	0x3cec3267	0.028832627
65	0x3d9ed6b8	0.07755798
66	0xbcea8b23	-0.028630799
67	0x3bdb7853	0.0066976934
68	0x3d96e6ff	0.07368278
69	0x3cbface1	0.023397865
70	0xbcfab037	-0.030601604
71	0x3ce6dbe1	0.028181018
72	0xbdb34437	-0.08753245
73	0x3caee246	0.02134813
74	0x3d69a5b4	0.057042792
75	0xbc152ee0	-0.009105414
76	0xbdb005e9	-0.08594877
77	0xbc16b8b0	-0.009199306
78	0x3d44b83d	0.048027266
79	0x3d6ad62a	0.05733315
80	0x3c85ade1	0.016318263
81	0x3d4d2c50	0.050091088
82	0xbbe08e4d	-0.006852901
83	0xbdb0afb8	-0.08627266
84	0x3db2cb2e	0.0873016
85	0x3d6146c2	0.05499912
86	0x3d76ac49	0.060222898
87	0xbd51775c	-0.05113922
88	0x3d9e087b	0.07716461
89	0x3d43fd86	0.0478492
90	0xbc87e42d	-0.016588295
91	0x3da449a8	0.08021861
92	0xbd9ade9c	-0.075619906
93	0xbd8596d2	-0.06522907
94	0x3da63bcb	0.08116873
95	0x3d596a48	0.053079873
96	0x3d83891a	0.064226344
97	0xbd0ac38c	-0.033877894
98	0xbd30d903	-0.04317571
99	0xb9f975b0	-0.00047580665
100	0x3d8921a3	0.06695869
101	0x3b6d83c2	0.0036241864
102	0x3cb6cd53	0.022314703
103	0x3d6bb3ee	0.05754464
104	0xbd524b17	-0.051341143
105	0xbd9db5a4	-0.07700661
106	0x3d5bd4fd	0.05366992
107	0x3d3f4d23	0.046704423
108	0x3d5a1452	0.053242035
109	0xbd41167d	-0.047140587
110	0xbc0a7ef5	-0.0084531205
111	0xbca1478b	-0.019687435
112	0xbd85e3c0	-0.065375805
113	0x3cf4db7e	0.029889818
114	0x3d7f7efb	0.062376957
115	0xbd9b996a	-0.07597621
116	0xbcdb43b9	-0.026765691
117	0x3d6992af	0.057024654
118	0xbdb3df0f	-0.087827794
119	0xbd513df3	-0.05108447
120	0x3d25d550	0.040486634
121	0x3ced6564	0.02897901
122	0xbd38c69e	-0.04511129
123	0x3d9971b7	0.074923925
124	0xbcc9da4e	-0.024640229
125	0xbd6cdfb2	-0.05783052
126	0x3d4a2fb9	0.049361918
127	0x3da85236	0.082188055
128	0xbda16647	-0.07880836
129	0xbbfa7a43	-0.0076439693
130	0x3daaffde	0.08349584
131	0x3d5b764d	0.053579617
132	0x3c298f97	0.010349176
133	0xbd04cb90	-0.032420695
134	0x3c33c963	0.010973307
135	0xbc18942d	-0.009312672
136	0xbd505f07	-0.050871875
137	0xbd82b00f	-0.06381237
138	0x3d992394	0.07477489
139	0x3d05e029	0.03268448
140	0x3c2402f5	0.010010471
141	0x3bd53a0d	0.0065071643
142	0x3c18e033	0.009330797
143	0xbd475237	-0.04866239
144	0x3cedaacf	0.029012112
145	0xbd23bf2a	-0.03997723
146	0x3d14b61d	0.03630649
147	0xbbe67e1c	-0.0070340764
148	0xbd7cde37	-0.061735358
149	0xbd9b9efe	-0.07598685
150	0xbc5ea5dc	-0.013589349
151	0x3ceb32b5	0.028710702
152	0x3ce066be	0.027392741
153	0xbd884a66	-0.066548154
154	0x3d02098b	0.031747382
155	0x3d623673	0.055227708
156	0xbd8fee03	-0.07027819
157	0x3d5edc48	0.054409295
158	0xbd471b46	-0.048609994
159	0x3d6e0b59	0.05811629
160	0xbd92924d	-0.07156811
161	0x3cc7a525	0.02437074
162	0x3cb5022e	0.022095766
163	0xbc0caa89	-0.008585581
164	0xbd46245d	-0.048374522
165	0xbbced6db	-0.006312234
166	0x3c34e352	0.0110405255
167	0xbd0808a0	-0.03321135
168	0x3ce86be7	0.028371764
169	0xbcf4e5cf	-0.029894738
170	0x3d751cee	0.059842043
171	0xbd132ea4	-0.03593315
172	0x3ce1be62	0.027556602
173	0x3c1cab7d	0.00956237
174	0xbc29b29a	-0.010357523
175	0xbd94e902	-0.07271005
176	0xbac504ef	-0.0015031378
177	0xbd361366	-0.044452094
178	0xbd9b6532	-0.07587661
179	0xbd884a83	-0.06654837
180	0x3c5a512f	0.01332502
181	0xbccaf58b	-0.024775287
182	0xbd6dde7d	-0.05807351
183	0x3c9ba4f3	0.018999552
184	0x3d1bb41c	0.038013563
185	0x3d9e67af	0.0773462
186	0x3b68df20	0.0035533383
187	0xbd705765	-0.058677096
188	0x3d9f02a9	0.07764179
189	0x3d523da3	0.051328313
190	0xbd48878a	-0.048957385
191	0x3bf408f4	0.0074473564
192	0xbc79832b	-0.015229027
193	0xbc2dd384	-0.010609511
194	0x3cb740a3	0.022369688
195	0x3db40bff	0.087913506
196	0xbc8b358a	-0.016993303
197	0xbda1f331	-0.07907713
198	0x3d04ad25	0.032391686
199	0xbcee5dac	-0.0290974
200	0xbcd14b08	-0.025548473
201	0xbd83afc2	-0.064300075
202	0xbd0de341	-0.034640554
203	0x3da88747	0.08228927
204	0xbd776071	-0.060394708
205	0xbd2ea43a	-0.042637087
206	0xbdad6b7b	-0.08467766
207	0xbdb3dc66	-0.08782272
208	0xbcaf0f0d	-0.021369481
209	0xbd56b2cd	-0.05241661
210	0xbc3868de	-0.011255471
211	0x3cef6723	0.029223984
212	0x3b2e1705	0.0026564014
213	0xbdb3353d	-0.08750389
214	0xbd57f532	-0.05272407
215	0x3cf9e448	0.03050436
216	0x3d97e0b3	0.07415905
217	0x3d3d5e60	0.04623258
218	0x3d283030	0.04106158
219	0x3d2336be	0.039847128
220	0x3d6c652a	0.057713665
221	0x3d6318e4	0.05544366
222	0x3d920905	0.071306266
223	0xbd43d19f	-0.047807332
224	0xbd882291	-0.06647218
225	0x3d94b9ad	0.07261977
226	0xbd98aeeb	-0.07455238
227	0x3cfc412d	0.030792797
228	0xbcd79b5e	-0.026319202
229	0x3d87b430	0.06626165
230	0xbd3c1a63	-0.0459236
231	0x3c38ba85	0.0112749385
232	0x3cb92f1b	0.02260547
233	0x3cd53263	0.026025003
234	0x3c9e5475	0.019327382
235	0x3d3f27d3	0.04666884
236	0x3b6abe1b	0.0035818878
237	0x3d152d14	0.036419943
238	0xbbd91217	-0.006624471
239	0xbc517b93	-0.01278581
240	0x3ccf5df1	0.02531335
241	0xbd1aea76	-0.037821256
242	0xbc05ff62	-0.008178564
243	0x3ccd7517	0.025080247
244	0x3beb6a18	0.007184278
245	0x3cf1e0dc	0.029526167
246	0x3cbac53e	0.02279913
247	0x3bd61de0	0.006534323
248	0xbd576390	-0.052585185
249	0xbcf5f671	-0.030024739
250	0x3db17439	0.08664746
251	0x3c5a0dd9	0.013308966
252	0xbcaca51f	-0.02107483
253	0x3da3ffd8	0.08007783
254	0xbcf8cbfb	-0.030370703
255	0xbc6f30dd	-0.014599052

lstm.bias_ih_l0 f4 [512]
0	0x3cd810c4	0.026375182
1	0x3ca7ad7e	0.02046847
2	0x3d860689	0.06544215
3	0xbdb05212	-0.08609404
4	0xbcbe779f	-0.0232504
5	0xbbad2257	-0.0052836346
6	0xbd44bf65	-0.04803409
7	0x3db179b0	0.08665788
8	0x3d8150be	0.063142285
9	0x3c1a8204	0.009430412
10	0x3d42f7a6	0.047599457
11	0xbceea0c0	-0.029129386
12	0xbc21129e	-0.009831099
13	0xbbffd618	-0.0078075044
14	0x3d2884b1	0.04114217
15	0xbd6d89d5	-0.057992775
16	0x3d9ae2f3	0.075628184
17	0x3b34d9a1	0.0027595537
18	0x3dab8d7c	0.083765954
19	0x3a8a3f44	0.0010547419
20	0x3ce7b69e	0.02828532
21	0x3d2ceae2	0.04221619
22	0xbce53146	-0.027977597
23	0x3cf92f3f	0.030418037
24	0x3d96f426	0.07370786
25	0x3c1d2a4f	0.009592607
26	0xbc5d0a8c	-0.013491284
27	0xbd980941	-0.0742364
28	0x3c87c343	0.0165726
29	0xbd830dc2	-0.063991085
30	0xbd3fd335	-0.046832282
31	0xbd4dd091	-0.050247733
32	0x3bd05f48	0.0063590147
33	0xbd64780b	-0.055778544
34	0x3dad0f35	0.08450166
35	0xbd6c0090	-0.057617724
36	0x3c9eb4e5	0.019373367
37	0x3c6063fd	0.013695714
38	0x39557908	0.0002035835
39	0xbaf2f6d6	-0.0018536698
40	0xbd499069	-0.049209986
41	0xbd43cf8a	-0.047805347
42	0xbb3fc3c4	-0.0029260973
43	0x3d95454b	0.07288607
44	0xbda43fa6	-0.080199525
45	0xbcffba9b	-0.03121691
46	0x3d75eeed	0.06004231
47	0xbd376e21	-0.04478276
48	0xbd5fea89	-0.05466703
49	0xbd60a312	-0.054843016
50	0xbc892fac	-0.016746365
51	0x3da23bad	0.079215385
52	0xbdb52b05	-0.08846096
53	0xbd8f7414	-0.07004562
54	0x3da77872	0.0817727
55	0xbd98e99d	-0.07466433
56	0x3d98e83b	0.074661694
57	0x3d7e47ca	0.062080182
58	0x399fb707	0.0003046321
59	0xbd83a29a	-0.06427498
60	0x3da03786	0.0782309
61	0xbd655535	-0.055989463
62	0x3da96d2e	0.082727775
63	0x3c3145c6	0.010819858
64	0x3ce56fbf	0.028007386
65	0x3d97732d	0.07395015
66	0xbdab1144	-0.083529025
67	0x3d9be712	0.076124325
68	0xbd4b7e13	-0.04968078
69	0x3c09877f	0.008394121
70	0x3d82d07b	0.06387421
71	0xbd1fec3c	-0.03904365
72	0xbd94f252	-0.072727814
73	0xbda3bb21	-0.079946764
74	0x3cee1f55	0.029067675
75	0x3d829e0e	0.06377803
76	0xbd6f11c5	-0.058366556
77	0x3be728bc	0.0070544165
78	0x3d48f5ab	0.049062412
79	0x3d9e25f8	0.07722086
80	0x3c83246a	0.016008575
81	0x3c025a87	0.007956154
82	0xbdb2b38e	-0.087256536
83	0x3da670ae	0.08126961
84	0x3d3d4feb	0.046218794
85	0xbd5c37d6	-0.053764187
86	0xbd2cdc50	-0.042202294
87	0xbcba56bb	-0.022746434
88	0x3d058d2e	0.032605343
89	0xbd34160d	-0.04396634
90	0x3d9175fa	0.0710258
91	0x3d89aa96	0.0672199
92	0xbd71dfbb	-0.059051257
93	0x3c37bb05	0.0112140225
94	0xbda16924	-0.07881382
95	0xbd63ff5d	-0.055663455
96	0xbd796c9b	-0.06089459
97	0x3d7f91db	0.062394958
98	0xbdafc00a	-0.085815504
99	0x3c65531a	0.013996864
100	0x3d49e3fa	0.04928968
101	0xbd9bb589	-0.076029845
102	0xbc579cf4	-0.013159979
103	0xbd4164fb	-0.047215443
104	0xbd917695	-0.07102696
105	0xbc027ac7	-0.007963843
106	0xbd19260f	-0.03738981
107	0xbd90e3ee	-0.07074724
108	0xbd86a263	-0.065739416
109	0xbd76fa14	-0.060297087
110	0xbd62f2a2	-0.055407174
111	0x3d7355f3	0.05940814
112	0xba598b39	-0.0008298639
113	0x3d894ae2	0.06703736
114	0x3cac017f	0.020996807
115	0xbb261e99	-0.0025347827
116	0x3cf1c19b	0.029511264
117	0x3c46960e	0.012120737
118	0x3d94e001	0.07269288
119	0x3c2ca905	0.010538344
120	0xbd85776b	-0.06516918
121	0x3d545fa6	0.05184903
122	0x3d44749c	0.04796277
123	0x3cb175ca	0.021662612
124	0xbc255292	-0.010090487
125	0x3d3f3838	0.046684474
126	0xbd2ec3aa	-0.04266707
127	0xbcb48686	-0.022036802
128	0x3d6da7f9	0.05802152
129	0xbc639dd1	-0.013892607
130	0xbd93e905	-0.07222179
131	0xbda952b6	-0.08267729
132	0x3cc753de	0.024331983
133	0xbbcb0390	-0.006195493
134	0xbda4305e	-0.08017038
135	0xbd857886	-0.06517129
136	0x3d02902f	0.031875785
137	0xbd13c77e	-0.036078922
138	0xbd3e7ef2	-0.046507783
139	0x3d9d94fb	0.076944314
140	0x3d85851f	0.065195315
141	0x3dabe0ff	0.08392524
142	0x3d588c93	0.052868437
143	0x3d42e040	0.047577143
144	0xbd829a6a	-0.063771084
145	0x3ca9a2ac	0.02070745
146	0x3d30431e	0.043032758
147	0x3d645b7b	0.055751305
148	0xbc48e398	-0.012261294
149	0xbc36537f	-0.011128305
150	0xbc788463	-0.015168282
151	0xbd355414	-0.044269636
152	0xbdae7266	-0.085179135
153	0xbcd34987	-0.025791897
154	0xbb3ee550	-0.002912838
155	0x3d9ad5c2	0.07560302
156	0xbb8eeded	-0.004361859
157	0x3c2ae35a	0.010430181
158	0x3d0b69bd	0.034036387
159	0x3ceb4dba	0.028723586
160	0xbcd7b509	-0.026331441
161	0x3c3650fb	0.011127706
162	0xbd8a844b	-0.06763514
163	0xbcc2ede6	-0.02379508
164	0x3d1fff75	0.039061982
165	0x3d4fec3d	0.050762404
166	0x3ca0c8c5	0.019626984
167	0xbd69cf46	-0.057082437
168	0xbd6c5acb	-0.057703774
169	0x3d1da300	0.038485527
170	0xbd8b3514	-0.06797233
171	0xbdb21819	-0.086960025
172	0xbd881bfd	-0.06645963
173	0xbc203a2d	-0.009779495
174	0x3c5e78d2	0.0135786105
175	0x3d196226	0.037447117
176	0xbb766a91	-0.003760014
177	0xbd85eb2d	-0.06538997
178	0xbd8d9142	-0.06912471
179	0x3d8864d1	0.06659854
180	0x3d32a884	0.04361774
181	0xbd15982d	-0.03652208
182	0xbd26316d	-0.04057448
183	0xbdb146b8	-0.08656067
184	0x3d66146b	0.056171816
185	0x3d32a35c	0.043612823
186	0xbd9dfa70	-0.07713783
187	0x3c3754cd	0.011189652
188	0xbd8f3e28	-0.06994277
189	0xbd8ac4b5	-0.067758
190	0x3d8f6e14	0.070034176
191	0x3d40cdf9	0.04707143
192	0xbd984f67	-0.0743702
193	0x3d2e9a71	0.042627756
194	0xbda31fcd	-0.0796505
195	0xbd9a6fd6	-0.07540862
196	0xba23983f	-0.0006240643
197	0x3da3d3d5	0.07999388
198	0xbda6c741	-0.081434734
199	0x3dab40fa	0.08362003
200	0xbc1ea966	-0.009683942
201	0xbccacb93	-0.024755275
202	0xbb83689a	-0.004010272
203	0x3d85ad08	0.06527144
204	0xbc87ccc7	-0.016577138
205	0x3c4932ed	0.012280208
206	0xbb5e6907	-0.0033937113
207	0xbc45bdfb	-0.012069221
208	0xba630948	-0.0008660746
209	0xbc37c033	-0.011215257
210	0xbc599204	-0.013279442
211	0x3d3fc48c	0.0468183
212	0x3caa2649	0.020770209
213	0xbd744715	-0.0596381
214	0xbce7bb17	-0.028287454
215	0x3d03a225	0.032137055
216	0xb997515a	-0.00028861576
217	0xbbd7671b	-0.0065735704
218	0xbd46b03c	-0.048507914
219	0x3d68d7a9	0.056846295
220	0x3d1c7581	0.038197998
221	0xbd13caee	-0.0360822
222	0x3d801bc3	0.06255295
223	0xbd85229a	-0.0650074
224	0xbd85c7a3	-0.06532218
225	0x3d82fb63	0.063956045
226	0xbd2ebfc8	-0.042663366
227	0x3c91ff6b	0.017821988
228	0x3c7dba3b	0.015486295
229	0xbda91f81	-0.08257962
230	0x3c3a4243	0.011368337
231	0x3cf9ed8e	0.030508783
232	0xbd8cd76a	-0.068770245
233	0xbd243f76	-0.040099584
234	0xbd46b330	-0.04851073
235	0xbd1743e1	-0.03692997
236	0x3d4074ce	0.046986394
237	0x3da583b4	0.08081761
238	0x3c4ff1bc	0.012691911
239	0xbc566e6a	-0.013087848
240	0xbdb40054	-0.08789125
241	0xbd8cfef8	-0.06884569
242	0xbca76645	-0.020434508
243	0x3da3c2a4	0.07996109
244	0xbcb0c444	-0.021577962
245	0x3d917df6	0.07104103
246	0xbd836164	-0.0641506
247	0xbd499115	-0.049210627
248	0xbda8d486	-0.08243661
249	0xbd410bed	-0.047130514
250	0x3d89c946	0.06727843
251	0x3d081688	0.033224612
252	0x3d7dcd34	0.061963275
253	0xbca3d957	-0.020001097
254	0xbd8080a8	-0.06274539
255	0xbb5247c4	-0.0032086233

lstm.bias_hh_l0 f4 [512]
0	0x3d04dc51	0.032436673
1	0xbd9703fc	-0.07373807
2	0xbc689291	-0.0141951
3	0xbdaa6521	-0.0832007
4	0xbd50da03	-0.050989162
5	0xbd4ad84d	-0.049522687
6	0xbd847d0d	-0.06469164
7	0xbdadc586	-0.0848494
8	0x3daee688	0.08540064
9	0xbcdfcfae	-0.02732071
10	0xbc8c3d82	-0.017119173
11	0x3cf6f843	0.030147677
12	0x3d451e59	0.048124645
13	0x3c17561b	0.009236838
14	0x3bb98a16	0.005662213
15	0xbd010d38	-0.031506747
16	0xbcbc36c3	-0.022975331
17	0xbc97cc15	-0.018529931
18	0x3c9f741f	0.01946455
19	0xbd6fd3c2	-0.058551557
20	0x3d89ddbe	0.06731747
21	0x3c53480b	0.012895594
22	0xba4a5fac	-0.00077199447
23	0x3d86bbba	0.06578775
24	0x3d85824c	0.06518993
25	0x3db071fd	0.086154915
26	0xbd290f42	-0.041274317
27	0xbd4d5e88	-0.05013898
28	0xbda6fdc3	-0.0815387
29	0x3d2a6e6c	0.041609213
30	0x3da7bb62	0.08190037
31	0x3cf75c34	0.030195333
32	0x3d95e567	0.07319146
33	0x3c87666d	0.016528333
34	0xbdb5c09d	-0.08874629
35	0x3d26e2c6	0.04074361
36	0x3ce60aad	0.028081262
37	0xbc3e7e33	-0.011626768
38	0x3c9d36f3	0.01919124
39	0x3d423fc1	0.04742408
40	0xbdb544a5	-0.088509835
41	0x3d62a64d	0.055334378
42	0xbda732df	-0.08164
43	0xbd75f515	-0.06004818
44	0xbdb1cece	-0.08682023
45	0x3cc7e89a	0.024402905
46	0xbda5bce4	-0.08092669
47	0xbd235897	-0.039879408
48	0xbdac70ee	-0.08419977
49	0xbd8fd28b	-0.0702258
50	0x3d58c7c6	0.052924894
51	0x3d1f3230	0.038866222
52	0x3c59f7ac	0.0133036785
53	0xbd3d6208	-0.046236068
54	0xbd3905af	-0.045171436
55	0x3d9d47b9	0.07679696
56	0xbd08c904	-0.03339483
57	0xbd674ded	-0.0564708
58	0xbd0e760e	-0.034780554
59	0xbd46d751	-0.048545185
60	0xbce95b88	-0.028486028
61	0x3cf906ee	0.030398812
62	0x3c3b316f	0.01142536
63	0x3d3cc633	0.046087455
64	0x3d1ed554	0.038777664
65	0xbcf666df	-0.03007835
66	0x3abb37bb	0.0014283577
67	0x3a1430fb	0.00056530506
68	0x3bed7a79	0.007247266
69	0xbd2a7874	-0.04161878
70	0x3d32c44c	0.043644235
71	0x3cdd45ba	0.027010787
72	0xbb037321	-0.0020057636
73	0xbd622181	-0.055207733
74	0xbda20512	-0.07911123
75	0xbd4b225e	-0.049593322
76	0x3db1d97c	0.0868406
77	0x3da3f378	0.08005422
78	0xbcffb0c1	-0.031212213
79	0xbc93bdbb	-0.018034806
80	0xbd825cb1	-0.06365336
81	0xbd864c3d	-0.0655751
82	0xbd2d4fd6	-0.042312466
83	0x3c93ccef	0.018042056
84	0xbd830ca6	-0.06398897
85	0x3d9fcac6	0.07802348
86	0x3d81d3d0	0.06339228
87	0x3d429fc8	0.04751566
88	0xbc034037	-0.0080109155
89	0xbdaf74b9	-0.08567185
90	0x3c083ecf	0.008315756
91	0xbda547c3	-0.08070328
92	0x3d925c44	0.071465045
93	0x3d9cbaff	0.07652854
94	0xbcea02b6	-0.028565746
95	0xbc802841	-0.015644195
96	0xbd5fdc77	-0.05465361
97	0xbca3b4ee	-0.019983735
98	0xbd3b0a82	-0.045664318
99	0x3b36c027	0.0027885528
100	0x3c2a0976	0.010378232
101	0xbcbbe4ff	-0.022936342
102	0x3d3a08d7	0.045418587
103	0xbd926b96	-0.07149427
104	0xbcca3cd0	-0.0246872
105	0x3d9b8f41	0.07595683
106	0x3d02b37f	0.031909462
107	0xbc8e1d69	-0.017348008
108	0x3db03abb	0.08604952
109	0x3d8aa8bd	0.067704655
110	0x3d34e5fc	0.044164643
111	0xbda240a0	-0.079224825
112	0xbb4d29d8	-0.0031305458
113	0x3ce299e2	0.027661268
114	0x3d25d600	0.04048729
115	0x3d023fd7	0.031799164
116	0xbd9ad1d6	-0.07559554
117	0x3b86bb19	0.0041116592
118	0x3c8177b0	0.015804142
119	0xbd941132	-0.07229842
120	0x3bc32249	0.005955015
121	0x3d46123a	0.048357226
122	0x3d6f3634	0.0584013
123	0x3da95cfc	0.082696885
124	0xbc10f91a	-0.008848453
125	0x3d134426	0.035953663
126	0xbd3cc0df	-0.046082374
127	0xbd67d82c	-0.056602642
128	0xbd3d456d	-0.046208788
129	0xbdadfaae	-0.08495079
130	0x3d887f19	0.06664867
131	0x3c4c00d5	0.01245137
132	0xbd108f2c	-0.03529279
133	0x3dac36ed	0.08408914
134	0xbd8c4f11	-0.06851018
135	0xbd2b8795	-0.041877348
136	0xbc94d1b9	-0.01816641
137	0xbd9b85ab	-0.075938545
138	0x3cc00b11	0.023442777
139	0xbd6c1c9f	-0.057644483
140	0x3daafd91	0.08349145
141	0x3d97ba17	0.07408541
142	0x3d81f475	0.063454546
143	0xbd0befd5	-0.03416427
144	0xbd1cd6a8	-0.03829065
145	0x3d534c3d	0.05158638
146	0x3c126258	0.00893458
147	0xbca7f04e	-0.020500328
148	0xbd1942eb	-0.037417334
149	0x3d8ae27b	0.06781479
150	0x3c321fe5	0.010871862
151	0x3c87baac	0.016568504
152	0x3d534285	0.05157711
153	0x3db2083b	0.08692976
154	0x3bb2e4b8	0.0054593943
155	0x3b0a454c	0.0021098433
156	0x3d291db5	0.041288096
157	0xbc944065	-0.018097112
158	0x3d635d4f	0.055508908
159	0xbda32a29	-0.07967026
160	0xbc2510f9	-0.010074847
161	0xbdad2938	-0.084551275
162	0xbbd50fcd	-0.0065021277
163	0x3d8eb8a4	0.06968811
164	0x3d9e2b05	0.07723049
165	0xbcc21cb5	-0.02369533
166	0xbda6ff69	-0.08154184
167	0x3da8ab81	0.08235837
168	0xbd58c8f6	-0.052926026
169	0xbc57c0a7	-0.0131684905
170	0xbccbbab2	-0.024869297
171	0x3cbd2cdb	0.023092678
172	0x3d3ad5f3	0.045614194
173	0xbd9737f8	-0.07383722
174	0xbd776404	-0.060398117
175	0xbc14f4b6	-0.009091547
176	0xbcec9921	-0.028881611
177	0x3d213053	0.039352726
178	0xbda9333f	-0.082617275
179	0xbce90311	-0.028443845
180	0xbd4dca61	-0.05024183
181	0x3d2ccc20	0.042186856
182	0x3c40b23a	0.0117612425
183	0x3d84931d	0.06473372
184	0xbd8606d2	-0.065442696
185	0xbcaa4010	-0.0207825
186	0xbdb56355	-0.08856837
187	0x3cfa34e6	0.030542802
188	0xbd215398	-0.03938636
189	0x3db2c977	0.087298326
190	0x3d10fc97	0.03539714
191	0x3d2fece9	0.042950545
192	0xbd1b98e3	-0.0379876
193	0x3d650675	0.05591436
194	0x3c9c1899	0.019054698
195	0x3c23ade3	0.009990188
196	0x3c11230e	0.008858455
197	0x3c8ef2d0	0.017449766
198	0xbd033f85	-0.032043
199	0x3d3805ab	0.04492728
200	0xbd440fc1	-0.047866587
201	0x3c872a79	0.016499745
202	0x3cdb8491	0.026796611
203	0x3d5545d2	0.05206854
204	0x3c967409	0.018365877
205	0xbd6d6f5e	-0.057967536
206	0xbd880b02	-0.066427246
207	0xbca8db4d	-0.020612383
208	0x3cc4c709	0.024020689
209	0xbc2a0db3	-0.010379243
210	0x3d8871cd	0.06662331
211	0x3d8683f1	0.065681346
212	0xbd0628ef	-0.03275388
213	0xbd831039	-0.063995786
214	0xbd34a192	-0.044099398
215	0xbbe6d374	-0.00704425
216	0xbd7b870b	-0.061408084
217	0x3d6608fb	0.05616091
218	0xbd9a8ce5	-0.07546405
219	0xbd24dcd1	-0.04024965
220	0xbd511218	-0.051042646
221	0x3cad5c3a	0.021162141
222	0xbda406cf	-0.08009111
223	0xbd162d03	-0.03666402
224	0x3adfca68	0.0017073872
225	0xbd35abfe	-0.044353478
226	0xbda2891c	-0.07936308
227	0xbcfb401b	-0.030670216
228	0xbd56b31e	-0.052416913
229	0x3d8d4030	0.068970084
230	0xbbcb817c	-0.006210504
231	0x3d771a33	0.06032772
232	0x3d904379	0.070441194
233	0x3c2bfa25	0.010496651
234	0xbda1685f	-0.07881235
235	0x3d56f0c5	0.05247571
236	0xbd0705df	-0.032964583
237	0x3d4c3552	0.049855538
238	0x3d474839	0.04865286
239	0xbd231a8d	-0.039820243
240	0xbd8ba8aa	-0.068192795
241	0x3c5f8ce6	0.013644433
242	0xbd930c50	-0.07180083
243	0x3d08d095	0.033402044
244	0xbd2d820e	-0.042360358
245	0xbc76a5c2	-0.015054168
246	0xbd24990a	-0.040185012
247	0x3db0a75e	0.08625673
248	0x3d0963b5	0.033542354
249	0x3d17dc2c	0.037075207
250	0xbc47e660	-0.012200922
251	0x3c4baa9d	0.012430814
252	0xbd90d25a	-0.070713714
253	0x3c88870d	0.01666596
254	0xbcf03e0c	-0.029326461
255	0xbd328ae9	-0.043589506

pitch_linear.weight f4 [128, 128]
0	0x3da0aec4	0.07845834
1	0x3cf6f819	0.030147599
2	0xbd1b94d0	-0.037983716
3	0x3d8743cf	0.0660473
4	0xbd86c303	-0.06580164
5	0xbc81e998	-0.015858456
6	0x3da5d93d	0.080980755
7	0x3d5de74c	0.05417566
8	0x3cdac570	0.026705474
9	0x3c922142	0.017838124
10	0x3a60b87d	0.0008572413
11	0x3d5cc1f5	0.05389591
12	0xbd8eeb94	-0.06978527
13	0x3d4d1c28	0.05007568
14	0x3dafbddc	0.08581135
15	0xbd785a08	-0.060632735
16	0xbbb47336	-0.0055068983
17	0xbd71c690	-0.059027255
18	0x3c8d2cee	0.017233338
19	0x3d097a6a	0.03356401
20	0x3b2fc14e	0.00268181
21	0x3d256c53	0.04038651
22	0x3da0b06e	0.07846151
23	0x3dab8ec3	0.08376839
24	0xbd8e6eb7	-0.06954711
25	0xbd9e4c73	-0.07729425
26	0xbd31f5d5	-0.043447334
27	0xbb06b834	-0.002055657
28	0xbd284cf8	-0.041089028
29	0x3c66f18f	0.014095678
30	0x3db3b45c	0.08774635
31	0xbcf9831b	-0.030458024
32	0xbb0a267e	-0.0021080072
33	0x3d191668	0.037374884
34	0x3d0f8b28	0.03504482
35	0x3d6b156f	0.057393488
36	0xbd602696	-0.0547243
37	0xbd8f552c	-0.06998667
38	0x3da91502	0.0825596
39	0x3d800cf6	0.06252472
40	0xbc02a34f	-0.007973506
41	0x3b41d66b	0.0029577266
42	0xbd5086f9	-0.05090997
43	0xbd8b2cc1	-0.067956455
44	0x3d3e4248	0.04644993
45	0xbd6edd56	-0.05831655
46	0xbd607c0c	-0.0548058
47	0xbd06c6b1	-0.03290433
48	0x3c285bf5	0.0102758305
49	0x3d91f883	0.07127478
50	0xbd92f1cc	-0.07175025
51	0xbd95493c	-0.07289359
52	0xbceb1760	-0.02869767
53	0xbd33e89f	-0.043923017
54	0x3cad8ac7	0.021184338
55	0x3db098d8	0.08622903
56	0x3caf112d	0.021370495
57	0xbd7c02fb	-0.06152628
58	0xbd9aea91	-0.07564271
59	0xbd86d2a4	-0.06583145
60	0xbdaedb3a	-0.08537908
61	0xbd22c3e0	-0.039737582
62	0x3c3cd70e	0.011525882
63	0x3cb6eb77	0.022329075
64	0x3c60dc1e	0.013724355
65	0x3d408be3	0.047008406
66	0xbd2f0fb5	-0.04273959
67	0x3d56fa32	0.0524847
68	0x3d7a539f	0.061114904
69	0x3d0f9006	0.03504946
70	0x3d7b91c6	0.061418317
71	0xbd608633	-0.054815482
72	0x3c1ae18b	0.009453188
73	0x3d919827	0.07109099
74	0x3d62c57d	0.05536412
75	0xbda46a4e	-0.080280885
76	0xbda8116a	-0.082064465
77	0x3d201cae	0.03908985
78	0xbd090dff	-0.033460613
79	0x3d6217de	0.055198543
80	0xbd0c0470	-0.03418392
81	0xbbe11c5d	-0.0068698362
82	0x3d505db6	0.05087062
83	0xbc81ada5	-0.01582987
84	0x3ce11ff0	0.02748105
85	0xbd488468	-0.048954397
86	0xbdab9739	-0.08378453
87	0xbd1dc04d	-0.03851347
88	0xbca1d926	-0.019756865
89	0x3b28edab	0.0025776427
90	0xb98568c5	-0.00025445796
91	0xbbf9d68c	-0.007624453
92	0xb9cb09fe	-0.00038726622
93	0x3a97cfc3	0.0011582304
94	0x3d3d5f2b	0.046233337
95	0xbd8f68f6	-0.070024416
96	0x3cbbf1e3	0.022942489
97	0x3d8739d8	0.0660283
98	0xbd157f5e	-0.03649842
99	0xbcaf1aa7	-0.021375014
100	0xbc25e69a	-0.0101257805
101	0xbca3dce9	-0.0200028
102	0x3d9de09e	0.07708858
103	0xbd696b79	-0.05698726
104	0xbd031885	-0.032005806
105	0x3d84a0b6	0.06475966
106	0xbca3a126	-0.019974303
107	0xbd723f3c	-0.059142336
108	0xbd69f92c	-0.057122394
109	0xbd04ae94	-0.032393053
110	0xbd07fde1	-0.033201102
111	0xbda2c346	-0.07947402
112	0x3c5a9667	0.013341523
113	0x3d260ecc	0.040541455
114	0xbd69392e	-0.056939296
115	0xbd32c865	-0.043648142
116	0x3d95225a	0.07281943
117	0x3cebdb0d	0.028790975
118	0xbb3a2957	-0.0028405988
119	0x3ac5b645	0.0015084228
120	0x3c02a9ae	0.007975025
121	0xbd9193d1	-0.07108272
122	0x3d3bd30b	0.045855563
123	0x3cd7d0db	0.026344707
124	0xbd952471	-0.07282341
125	0xbc604c95	-0.013690134
126	0x3bf9a4b7	0.0076185125
127	0xbda4231e	-0.080145106
128	0xbd556a0d	-0.05210309
129	0xbcf17f08	-0.029479519
130	0x3c3cda63	0.011526677
131	0x3d6307d8	0.055427402
132	0x3ca704a5	0.020387957
133	0x3d4ee7d3	0.050514054
134	0x3d9d803b	0.07690474
135	0x3c8e7ab0	0.017392486
136	0xbd48be9b	-0.0490099
137	0xbd8ea86a	-0.06965716
138	0x3d8c4bac	0.06850371
139	0x3d52751c	0.051381215
140	0xbd8f4ae5	-0.06996707
141	0x3d90d25a	0.070713714
142	0x3d94021e	0.07226966
143	0xbd9385dd	-0.07203267
144	0xbb28781a	-0.0025706352
145	0x3d881875	0.0664529
146	0xbd88c8da	-0.066789344
147	0x3d5a6432	0.05331821
148	0x3ca6c0bd	0.020355577
149	0xbd24ca89	-0.040232215
150	0x3d1b552f	0.037923034
151	0xbc628704	-0.013826136
152	0x3b7f3fde	0.003894798
153	0x3c102870	0.008798704
154	0x3caceb9b	0.02110844
155	0xbd42c662	-0.047552474
156	0x3d97c9d9	0.07411546
157	0x3d8533bf	0.065040104
158	0xbc750fc9	-0.014957377
159	0x3d51d443	0.05122782
160	0xbd79ff7a	-0.061034657
161	0xbcbeb011	-0.023277314
162	0x3d75f448	0.060047418
163	0x3d075754	0.033042267
164	0xbce19ef6	-0.027541619
165	0xbd670e74	-0.056410268
166	0x3d4a57de	0.049400203
167	0x3d38eddf	0.045148727
168	0xbcfc6ce5	-0.030813644
169	0x3c770ed6	0.015079221
170	0x3d39bcd9	0.045346115
171	0xba548b72	-0.0008107937
172	0x3c9286b1	0.017886491
173	0x3cfbe3cb	0.030748269
174	0x3d813f8c	0.06310949
175	0xbba2bbe5	-0.0049662464
176	0x3d781f94	0.06057699
177	0x3d466d2a	0.04844395
178	0x3d70078e	0.058600955
179	0x3b32e338	0.0027296077
180	0xbdaec157	-0.085329704
181	0x3d998234	0.074955374
182	0x3d45daa3	0.04830421
183	0x3d7ac161	0.061219577
184	0x39766f07	0.00023501749
185	0x3ce5d5c3	0.028056031
186	0x3da972f6	0.0827388
187	0x3d85572a	0.06510766
188	0x3d57e4d3	0.05270846
189	0x3d2d7886	0.04235127
190	0xbc9df5c5	-0.019282231
191	0x3d5ac4ea	0.053410448
192	0x3cd25edf	0.025680004
193	0xbda06e4b	-0.07833537
194	0x3bb2bdfc	0.005454777
195	0x3d69654a	0.056981362
196	0xbdab584b	-0.0836645
197	0xbd8bf775	-0.06834308
198	0xbd2dcb99	-0.042430494
199	0x3cd3c40e	0.025850322
200	0x3c9e96e9	0.019359069
201	0x3d25e5ca	0.040502347
202	0xbc61791c	-0.013761785
203	0xbc7f45fd	-0.015580651
204	0x3c9d81b3	0.019226884
205	0xbcf167be	-0.029468413
206	0x3d8724df	0.065988295
207	0xbd23b70a	-0.03996948
208	0x3daf65f7	0.0856437
209	0x3d71f470	0.059071004
210	0x3d08b3d3	0.03337462
211	0x3d8fbc53	0.07018342
212	0x3cdb0058	0.026733562
213	0xbc93fc77	-0.01806472
214	0xbbd03f04	-0.0063551683
215	0x3d99d790	0.075118184
216	0xbd5f2d35	-0.054486472
217	0x3d9323d2	0.071845666
218	0x3d9d3701	0.07676507
219	0xbda17d3a	-0.07885213
220	0x3d6f0e9c	0.058363542
221	0xbc0a5945	-0.008444135
222	0x3c92d325	0.017922947
223	0xbcd78ec6	-0.026313197
224	0x3d992c58	0.07479161
225	0x3d815166	0.06314354
226	0x3d54fd2d	0.05199926
227	0x3d3783e3	0.04480351
228	0xbccc8172	-0.024964068
229	0x3d200d85	0.039075393
230	0x3d1938c6	0.03740766
231	0xbd6f74e8	-0.0584611
232	0x3d1d6b48	0.03843239
233	0xbd9c036c	-0.0761784
234	0xbc2cd43e	-0.010548649
235	0x3d3e55e7	0.04646864
236	0x3a88f574	0.0010449127
237	0x3b88c143	0.004173429
238	0xbd6f38b5	-0.05840369
239	0xbce7490c	-0.028233074
240	0x3d85ad74	0.06527224
241	0xbdaeedd3	-0.08541455
242	0xbd7edc03	-0.06222154
243	0x3d82a1a3	0.06378486
244	0x3ce568f9	0.028004156
245	0xbd8a863d	-0.06763885
246	0x3d1a163f	0.03761887
247	0x3c17975f	0.009252398
248	0x3d672c93	0.056438994
249	0xbca0d165	-0.019631097
250	0xbd5cc990	-0.053903162
251	0x3d200209	0.03906444
252	0xbd98e998	-0.074664295
253	0x3d38ba8c	0.04509978
254	0xbd369a5d	-0.044580806
255	0x3ca8a922	0.020588461

pitch_linear.bias f4 [128]
0	0xbd288e61	-0.041151408
1	0xbd5bce99	-0.053663824
2	0x3d09e30e	0.0336638
3	0xbcd472ef	-0.02593371
4	0x3db08836	0.0861973
5	0xbd155257	-0.03645548
6	0xbcf34410	-0.02969554
7	0xbcc37fd2	-0.02386466
8	0xbd9ad5a5	-0.07560281
9	0xbdab1d85	-0.0835524
10	0x3d91cc19	0.07119007
11	0xbd3b1db4	-0.045682624
12	0x3d0d3c77	0.034481492
13	0xbd032634	-0.032018855
14	0x3d03bdfe	0.032163613
15	0xbd2e5781	-0.04256392
16	0x3c6019b3	0.013678002
17	0x3c4a276b	0.0123385
18	0x3d5fc0b9	0.054627154
19	0x3d2e9d3e	0.042630427
20	0xbc575a94	-0.013144154
21	0xbc43a452	-0.0119410325
22	0xbcb64fe9	-0.022254901
23	0xbb97c59c	-0.004631711
24	0x3cf36b63	0.029714292
25	0xbd5af217	-0.05345353
26	0x3d85a2c6	0.06525187
27	0xbd34d73b	-0.044150572
28	0xbd91192f	-0.070848815
29	0x3b281c63	0.0025651685
30	0x3b8480f4	0.0040436927
31	0xbdb064a9	-0.086129494
32	0xbd9f724d	-0.07785473
33	0x3d84b9a2	0.06480719
34	0x3d7e2ea9	0.062056217
35	0x3cb4ba35	0.022061447
36	0xbbc41445	-0.0059838616
37	0x3c8f7099	0.017509745
38	0xbd1c418c	-0.038148448
39	0x3d6e69ca	0.058206357
40	0xbcac2e8c	-0.021018289
41	0xbd887cf2	-0.066644564
42	0x3c915c1a	0.017744113
43	0x3d8278ea	0.06370719
44	0x3d19ee8f	0.037581023
45	0xbbc66c72	-0.006055408
46	0xbcb003ec	-0.021486245
47	0xbd278c25	-0.040905137
48	0x3d0a1865	0.03371467
49	0x3d957974	0.07298556
50	0xbad67ada	-0.0016363517
51	0xbd8f0f51	-0.06985343
52	0x3cfda957	0.030964537
53	0x3d4fa17c	0.050691113
54	0x3d857781	0.06516934
55	0xbd3d9d0d	-0.046292353
56	0x3cd3c18e	0.02584913
57	0xbc7dc188	-0.015488036
58	0xbd96a8e3	-0.07356431
59	0xbda8f731	-0.08250273
60	0xbc29f835	-0.010374119
61	0x3d33c5fa	0.043889977
62	0x3d4d1069	0.050064478
63	0x3d533218	0.051561445
64	0xbcf06d29	-0.029348927
65	0xbcba9f3e	-0.02278101
66	0x3d082eef	0.033247884
67	0xbd2617a1	-0.040549878
68	0x3d32170f	0.04347902
69	0xbd2923b8	-0.04129383
70	0x38fd6148	0.000120821
71	0x3cd11a8d	0.025525356
72	0x3da9417e	0.08264445
73	0xbd8f41d6	-0.06994979
74	0x3d8e2a1b	0.06941625
75	0xbc8458b9	-0.016155588
76	0xbd8022d7	-0.06256645
77	0xbbb31157	-0.0054647136
78	0xbd8bce27	-0.0682643
79	0x3daf5406	0.08560948
80	0x3cd07b37	0.025449378
81	0x3d5c02b1	0.053713504
82	0x3c39e14c	0.011345219
83	0x3d5a1939	0.05324671
84	0xbb960126	-0.0045777736
85	0xbd93faee	-0.072255954
86	0x3d9400e3	0.07226732
87	0x3d15a201	0.036531452
88	0xbc1cec35	-0.0095778005
89	0x3bd2168d	0.0064113797
90	0x3ca15d3a	0.019697774
91	0x3d5ebea0	0.054381013
92	0xbd06df06	-0.032927535
93	0x3d47ecf6	0.048809968
94	0xbbc401df	-0.0059816684
95	0xbd9ab6cf	-0.07554399
96	0x3d7919fa	0.06081579
97	0x3d045729	0.032309685
98	0x3db2ffb3	0.08740177
99	0xbd84a7cc	-0.06477317
100	0x3d86690f	0.06563007
101	0xbd111b20	-0.03542626
102	0x3cce32e6	0.025170755
103	0xbd18af3a	-0.037276484
104	0x3ceb7759	0.028743433
105	0xbc1c5846	-0.00954253
106	0x3d4b85bc	0.049688086
107	0x3d9f2a81	0.07771779
108	0xbc11361c	-0.008862998
109	0xbd0102b4	-0.03149672
110	0x3cb31096	0.021858495
111	0x3d0e3b36	0.034724437
112	0xbc82d590	-0.015970975
113	0x3da02306	0.0781918
114	0x3d1f08fb	0.038826924
115	0xba34c04e	-0.0006895111
116	0x3d040d6f	0.032239374
117	0x3ce74665	0.028231809
118	0x3d57a661	0.052648906
119	0x3d0e391f	0.034722444
120	0xbd11078b	-0.035407584
121	0x3d640186	0.055665515
122	0xbd3d7ec7	-0.046263482
123	0xbd91e085	-0.07122902
124	0x3d3f234d	0.046664525
125	0xbdb51d63	-0.08843496
126	0x3d0d2956	0.03446325
127	0x3cfec087	0.031097664

step_linear.weight f4 [1, 128]
0	0x3c7fb22c	0.015606444
1	0xbd33ecac	-0.04392688
2	0xbd3f70b2	-0.046738334
3	0x3d1f6b53	0.03892071
4	0xbc4af245	-0.012386863
5	0x3d5585a3	0.0521294
6	0xbca228c1	-0.019794824
7	0x3bebe3cd	0.007198787
8	0x3d0cd21f	0.034380075
9	0xbc890c93	-0.016729629
10	0x3ce95422	0.0284825
11	0x3d9c2c65	0.07625655
12	0x3ba32c51	0.004979648
13	0x3c908d62	0.017645542
14	0x3d47ce7b	0.0487809
15	0xbd109ef0	-0.035307825
16	0x3d1939f0	0.03740877
17	0xbb60e14c	-0.0034313975
18	0x3c180d38	0.009280495
19	0x3c162009	0.009162911
20	0xbc466290	-0.01210846
21	0xbd2e0823	-0.04248823
22	0xbd7220c5	-0.059113283
23	0xbd096918	-0.03354749
24	0xbba3133e	-0.004976659
25	0xbd008279	-0.03137443
26	0x3cbfcca9	0.02341302
27	0xbcdffebe	-0.02734315
28	0x3b8dfe59	0.004333299
29	0x3b685e44	0.0035456577
30	0xbc85d642	-0.016337518
31	0xbc4d53b6	-0.012532165
32	0xbd53b813	-0.05168922
33	0x3d0586db	0.03259931
34	0xbdb4f705	-0.08836178
35	0x3c8cc488	0.017183557
36	0xbd14c846	-0.036323808
37	0xbb363e99	-0.0027808307
38	0xbc301888	-0.010748036
39	0x3da6c029	0.081421204
40	0xbcf1ff95	-0.029540816
41	0x3d8d84f1	0.06910122
42	0x3d2bcd78	0.041943997
43	0xbdb4748f	-0.08811294
44	0xbd5d5b56	-0.054042183
45	0x3d19d5a8	0.037557274
46	0xba4d10b2	-0.0007822617
47	0xbd1addb3	-0.037809085
48	0xbd6787c1	-0.05652595
49	0xbbb16a6b	-0.0054142973
50	0x3d82423a	0.06360288
51	0x3c1a1dfc	0.009406563
52	0xbc49e5df	-0.012322872
53	0x3cc1ff22	0.023681227
54	0x3cbb9f3e	0.022903081
55	0xbcc2829c	-0.02374392
56	0x3b2dbb02	0.002650917
57	0xbca73c89	-0.020414608
58	0xbce6f8d3	-0.02819482
59	0xbcc75c9e	-0.024336156
60	0x3c84c913	0.01620916
61	0x3bca738a	0.006178324
62	0xbca19537	-0.019724471
63	0xbc4e78c1	-0.012602032
64	0xbc868dcd	-0.016425038
65	0x3cf5b462	0.02999324
66	0x3a95ea85	0.001143769
67	0xbce536e7	-0.027980281
68	0xbd3d7649	-0.046255384
69	0xbcfb309d	-0.030662829
70	0x3cdec709	0.027194517
71	0xbd0d712b	-0.034531754
72	0xbd118552	-0.035527535
73	0x3d1ea45b	0.03873096
74	0x3c943eee	0.018096413
75	0x3d2a0d7b	0.041516762
76	0xbcd5ade4	-0.026083894
77	0x3d87dce2	0.06633927
78	0xbd767295	-0.060167868
79	0xbd8a6ecb	-0.06759413
80	0xbcf16e0c	-0.02947142
81	0x3d91a609	0.07111747
82	0x3d30d954	0.04317601
83	0xbd178f3a	-0.037001826
84	0xbc33c831	-0.010973022
85	0xbc5b53fa	-0.013386721
86	0x3ceb5de2	0.02873129
87	0x3cc4cc50	0.024023205
88	0x3bd9b228	0.0066435523
89	0xbc1f2df5	-0.009715547
90	0x3d0a955c	0.033833846
91	0xbd178bf0	-0.03699869
92	0xbb504fb8	-0.0031785797
93	0x3d656922	0.056008466
94	0x3d62f502	0.05540944
95	0xbc395bf5	-0.011313428
96	0xbd0e09f6	-0.03467747
97	0xbd873200	-0.066013336
98	0xbda06541	-0.07831813
99	0xbcf6a5bc	-0.030108325
100	0xbd710abb	-0.058848124
101	0x3ccab214	0.024743117
102	0x3aed9b30	0.0018127915
103	0x3c50d6f5	0.012746562
104	0x3dab9e3d	0.08379791
105	0x3db5b273	0.08871927
106	0xbbb90bc2	-0.0056471536
107	0x3ca59c86	0.020216238
108	0xbc1bf1b6	-0.009518078
109	0x3c91991a	0.0177732
110	0xbd290f5b	-0.04127441
111	0xbd028370	-0.03186363
112	0x3d2877b4	0.041129783
113	0xbb920295	-0.004455874
114	0x3cd5642d	0.026048744
115	0x3a01e703	0.0004955383
116	0x3cdec9bf	0.02719581
117	0x3d38ee25	0.045148987
118	0x3b5946d8	0.0033153798
119	0xbd5585f6	-0.05212971
120	0x3d1eb648	0.038748056
121	0x3b39258f	0.0028251146
122	0xbd20b7c0	-0.039237738
123	0xbc65c30b	-0.014023553
124	0x3dad09de	0.08449148
125	0x3cd974f3	0.026545024
126	0x3bcea09e	0.006305768
127	0xbc8d3aae	-0.017239895

duration_linear.weight f4 [1, 128]
0	0x3d309348	0.04310921
1	0xbd450893	-0.04810388
2	0xbda8d83a	-0.08244367
3	0xbd599e6d	-0.053129602
4	0x3cefbfbf	0.029266236
5	0x3cc8f81a	0.024532367
6	0x3d74382f	0.059623893
7	0x3ce05e88	0.027388826
8	0x3d36d4d5	0.044636566
9	0xbcd1ae19	-0.025595712
10	0xbcb52657	-0.022113008
11	0x3cec7be8	0.028867677
12	0xbceb6529	-0.02873476
13	0xbd491669	-0.049093638
14	0x3d76c606	0.060247444
15	0xbdb43b5a	-0.08800383
16	0x3d42fe06	0.047605537
17	0xbc33077b	-0.010927076
18	0x3d342e3a	0.043989398
19	0x3b8d7888	0.004317347
20	0x3ceed949	0.029156344
21	0xbd51f0bb	-0.05125497
22	0x3ba72ea8	0.0051019974
23	0xbd252e7c	-0.040327534
24	0x3d38dd68	0.045133024
25	0xbd94a514	-0.07258049
26	0x3b0b28fc	0.0021234145
27	0xbd84a79f	-0.06477284
28	0xbd2e78e1	-0.042595748
29	0xbb90bc48	-0.004416976
30	0xbcb27d38	-0.021788225
31	0xbc861c38	-0.016370878
32	0xbdafe6d8	-0.08588952
33	0x3ad34f60	0.0016121678
34	0x3d5689e2	0.05237759
35	0x3d2d60a5	0.042328496
36	0xbd85695d	-0.06514237
37	0xbb3fac24	-0.002924689
38	0x3d7c7b07	0.061640766
39	0x3cab3f58	0.020904228
40	0x3d618468	0.055057913
41	0x3b47f6ae	0.0030512023
42	0xbc38a4e6	-0.011269784
43	0xbdf2b508	-0.11850935
44	0x3d736171	0.0594191
45	0x3d5ba605	0.053625125
46	0xbd8728bf	-0.065995686
47	0xbdb64f53	-0.08901849
48	0xbc88ab7e	-0.016683336
49	0xbda1b9e1	-0.07896782
50	0x3dc66a69	0.09688265
51	0x3cb26813	0.021778142
52	0xbcb0096d	-0.02148887
53	0x3d03bb48	0.032161027
54	0xbca9e1fb	-0.020737639
55	0xbb3ff078	-0.0029287618
56	0x3c17bc8b	0.009261261
57	0xbd86fda1	-0.065913446
58	0xbcd0aca6	-0.02547295
59	0xbd9da529	-0.076975174
60	0xbd82565b	-0.06364127
61	0xbd98c5f3	-0.07459631
62	0xbc93e788	-0.018054739
63	0xbc88eb54	-0.016713776
64	0x3dc4325c	0.09579918
65	0x3ccb97d5	0.024852673
66	0xbc987899	-0.018612193
67	0x3da50423	0.0805743
68	0xbcd822fe	-0.026383873
69	0xbc995bf7	-0.01872061
70	0x3cda643d	0.026659125
71	0xbd00096a	-0.031258978
72	0x3d81197a	0.063036874
73	0xbbb3e8b5	-0.0054903873
74	0xbd1cda6a	-0.038294233
75	0xbd828654	-0.06373277
76	0x3cb9fe97	0.022704406
77	0xbd49bb93	-0.04925115
78	0x3d42713c	0.04747127
79	0x3d8fac20	0.07015252
80	0x3d0c6dea	0.03428451
81	0x3c418c8f	0.011813297
82	0x3d3441a9	0.04400793
83	0xbd7a822e	-0.061159305
84	0x3d6f6762	0.058448203
85	0xbd1ef909	-0.038811717
86	0xbcfdeab8	-0.030995712
87	0x3d5099e8	0.050928026
88	0xbd8dd7b7	-0.0692591
89	0x3d4146a4	0.04718651
90	0xbd8fd5d1	-0.07023204
91	0x3cdde312	0.027085815
92	0x3d426724	0.047461644
93	0xbcf286a1	-0.029605212
94	0x3dd697e5	0.1047819
95	0x3d28d3c8	0.041217595
96	0xbd0278e9	-0.03185359
97	0xbd85f144	-0.065401584
98	0x3ce61309	0.028085249
99	0xbd0ae0a2	-0.033905633
100	0xbd50b4ea	-0.050953783
101	0xbd84e848	-0.06489617
102	0x3d3dec4a	0.04636792
103	0x3d581a17	0.052759256
104	0xbcf06389	-0.029344337
105	0x3daecd0f	0.085352056
106	0x3d635bca	0.05550746
107	0xbd9ca956	-0.07649486
108	0x3d9efdbf	0.07763242
109	0x3d449a07	0.047998454
110	0xbd73b434	-0.059498027
111	0x3d00fc5e	0.031490676
112	0x3c684546	0.014176672
113	0x3d53894b	0.051644605
114	0x3d3cc800	0.046089172
115	0xbd9858e6	-0.07438831
116	0xbda84aba	-0.08217378
117	0x3dbd79db	0.09251758
118	0x3d5df598	0.054189295
119	0xbd9c76c2	-0.07639839
120	0xba969f7b	-0.0011491621
121	0x3db21c6d	0.08696828
122	0xbdcd9f12	-0.10040106
123	0x3d46b9fb	0.04851721
124	0x3be28c73	0.0069137155
125	0xbd2c586a	-0.042076506
126	0x3c45e32f	0.012078091
127	0x3db42ef8	0.08798021
