torch/model60.pth (torch, 342035 bytes, 8 tensors)

lstm.weight_ih_l0 f4 [512, 3]
000000 e2 06 86 bd ad 0c 9b 3d 41 67 67 3c 8f 34 9e 3d
       -0.065442815 0.07570777 0.014123739 0.077248685
000010 df 78 0d bd c0 59 1f bd 15 06 c3 3c 72 cd 66 bd
       -0.0345391 -0.03890395 0.023806611 -0.05634827
000020 a3 dc 82 3d dd 4c 83 3c c7 b9 a8 3d 8f dd d5 3d
       0.06389739 0.016027862 0.08238559 0.104426496
000030 08 6c 9a 3d 8e 44 c6 3c 21 00 a9 bd ba f5 df 3c
       0.075401366 0.024202611 -0.08251978 0.027338851
000040 58 d5 f4 bd 1c fa ca 3d d4 15 b0 3d 01 34 aa 3d
       -0.119547546 0.09910986 0.085979134 0.083107
000050 74 41 b0 bd 0a 14 6a 3d 85 36 ef 3c 97 30 22 be
       -0.08606234 0.057148017 0.029200802 -0.15838848
000060 01 f9 95 3d a8 d7 9b 3d ba 62 03 3e da 34 2f 3c
       0.07322884 0.076094925 0.1283063 0.010693753
000070 f3 48 60 bd 76 32 67 3c 53 40 22 3d 1a cb 93 bd
       -0.05475707 0.014111152 0.039612126 -0.07216473
000080 0d 65 5e 3c 9d fd c6 bc 90 1c b0 3d 0c 70 50 bd
       0.013573897 -0.024290854 0.08599198 -0.050888106
000090 60 f7 ea bc 98 bb 4b 3d cf c6 44 be 4b d8 6c bd
       -0.02868241 0.04973945 -0.19216464 -0.05782346
0000a0 e9 b8 2d bd cd ce a3 3d 7e 0f e1 bc 41 ce c4 3d
       -0.042412672 0.079984285 -0.027473208 0.09609652
0000b0 25 67 07 3e 36 5d 93 bd dc 71 60 3d e7 9a 22 be
       0.1322294 -0.07195513 0.054796085 -0.15879403
0000c0 5d 9d 68 3d d9 c7 80 3d 03 2e 80 3d 29 04 40 3d
       0.0567907 0.06288118 0.06258776 0.046878967
0000d0 72 43 2a 3e 06 3d 0c bd 32 4b 10 bd 80 9a 67 3d
       0.16627291 -0.034237884 -0.03522796 0.056543827
0000e0 76 ca 20 3d 8a f7 31 3c a0 09 a5 3d a8 cb 23 bd
       0.03925558 0.010862241 0.080584764 -0.039989144
0000f0 90 e4 2d bc f2 87 a4 3d cc 4f 85 3d c8 c5 c1 bd
       -0.010613576 0.08033742 0.06509361 -0.09461552
000100 62 67 bf 3c 96 25 be 3b 0b 55 a4 bd ff aa 31 3c
       0.023364726 0.0058028204 -0.08024033 0.010843991
000110 2d 9c 03 bd d3 22 99 3c 82 66 aa 3e ec 16 0d bf
       -0.032131363 0.018693363 0.33281332 -0.551131
000120 4a d8 96 3d d7 a6 00 bd 04 40 39 3d df a6 a3 3d
       0.073654726 -0.03140911 0.045227066 0.079908125
000130 8e f2 3a 3d fe 8a 2a 3c 36 0b 63 bd 59 02 0d 3e
       0.045641474 0.010409115 -0.055430613 0.13770427
000140 41 74 a2 3d 1d c0 26 be 04 bd 4e 3e 4b 28 b0 be
       0.0793233 -0.16284223 0.20189291 -0.3440574
000150 11 33 29 bc ba 1b b7 3d 5c 83 cb bd 49 e3 05 3d
       -0.010327117 0.08940835 -0.09937164 0.03268746
000160 e8 62 ce 3d 92 32 7f bd a3 99 6d 3d bc 8b 81 3d
       0.100774586 -0.062304087 0.058007848 0.0632548
000170 81 94 43 3e 9d 25 fd bc 8e 51 ed 3c 8d 7f 10 3d
       0.19099618 -0.030901724 0.028969552 0.035277892
000180 5f 39 19 bc f9 26 b9 3d c4 f5 ca 3b a7 6b ac bd
       -0.009352057 0.090406366 0.0061938483 -0.084189706
000190 df 44 79 bd bb 45 98 ba 19 47 ae bd af 8c e4 3d
       -0.060856696 -0.0011617461 -0.085096546 0.11159646
0001a0 86 63 13 3e 76 65 96 bc f8 b2 9d 3d d1 91 dd 3d
       0.14393434 -0.018358927 0.07700151 0.10818828
0001b0 13 bc ce bd 6b f2 92 3d 91 c3 49 bc 8c b9 96 bd
       -0.10094466 0.07175144 -0.012314693 -0.07359609
0001c0 01 8e 54 3d 76 1c 5b bd 81 22 63 3d 8c 70 45 bd
       0.051893238 -0.05349394 0.055452827 -0.048203036
0001d0 7a f5 13 3c c1 cb 3b bb 20 98 00 3e bd 6f 93 3d
       0.009030694 -0.0028655382 0.12558031 0.07199047
0001e0 ee 61 de bd f7 5b 6b 3d 2f b3 3b 3e ee 20 97 bd
       -0.10858522 0.05746075 0.18330072 -0.07379328
0001f0 be 0f ba 3d 17 9d 8d bd fb 76 87 bc eb 04 15 3d
       0.09085034 -0.06914728 -0.016536226 0.036381643
000200 60 4f 02 bd bd 7d 76 bd 3d 07 af bd 8f b5 a8 ba
       -0.03181398 -0.060178507 -0.085463025 -0.0012871491
000210 bb 88 54 bd 92 40 3f 3d d8 0f 64 39 35 44 40 3d
       -0.05188821 0.04669244 0.00021749677 0.046940047
000220 58 51 52 3d 75 f6 ce 3d a5 b4 73 bd fa 03 94 3c
       0.051347107 0.10105602 -0.059498448 0.018068302
000230 04 27 a5 bc ef c1 1b be 7f fd a4 3d 09 c2 94 bb
       -0.020160206 -0.15210699 0.08056163 -0.0045397324
000240 de 3b c5 3c a6 fa 52 3b bc 3b 81 bd 9a 4a 6e bd
       0.024076398 0.0032192855 -0.063102216 -0.058176614
000250 a6 29 82 3d 80 cc 77 3d fb bd 5c bd ed 7e 84 3d
       0.063556 0.06049776 -0.053892117 0.06469522
000260 84 92 22 3d 3f e9 d6 bc e0 7b 94 bc 51 0b b8 3d
       0.03969051 -0.026234267 -0.018125474 0.089865334
000270 01 6c ab bd 16 16 cd 3c df e5 a4 bd f6 8d d8 bb
       -0.083702095 0.025034945 -0.08051657 -0.00660872
000280 b0 18 a2 bd 6c 83 e2 3c 08 15 67 bd 90 36 70 3c
       -0.07914865 0.027650557 -0.05641654 0.014661446
000290 da b5 05 3e f1 b3 50 bd cc 80 b8 bd 9e 14 aa bc
       0.13057652 -0.050952855 -0.09008941 -0.020761784
0002a0 6d bb 0c 3c a9 c3 ed 3d 5a b1 6e 3d 57 14 ac bc
       0.008589608 0.11609585 0.058274604 -0.021005793
0002b0 91 90 68 bd d0 a5 b8 3d 19 89 77 bd 34 4f 95 3d
       -0.056778494 0.09016001 -0.06043348 0.072904974
0002c0 71 58 4c 3d c9 d0 a1 3d ac 1c 89 3d 5d 44 a7 3d
       0.04988903 0.07901151 0.06694922 0.08167336
0002d0 8b c3 f1 3c d8 74 48 3d d9 6a 5c bb 56 b5 41 bc
       0.029512187 0.048939556 -0.0033633022 -0.011823019
0002e0 68 a7 87 3d 46 21 0e bd c8 c0 a6 3d ad 19 aa 3d
       0.06623727 -0.0346997 0.08142239 0.083056785
0002f0 ab 4f 0a bd 91 0b c7 3c d9 22 f9 bc a2 41 3e 3d
       -0.033767384 0.024297507 -0.030412124 0.04644931
000300 8d 05 87 bd e9 6e 5d bc 4d dd 27 3c 77 bc fe bd
       -0.065928556 -0.013515213 0.010245633 -0.124382906
000310 b5 f4 ce 3d 1d c7 33 bc 4f fa a3 3c d4 54 de 3d
       0.10105268 -0.010972765 0.020016817 0.108560234
000320 e9 80 96 3e 38 07 83 bd ec 6f 1b bd 1e 6d ec 3d
       0.29395226 -0.06397861 -0.037948534 0.1154425
000330 b2 7f 1f bc 35 a9 6a be 85 06 54 be 24 67 0a bd
       -0.009735035 -0.2291611 -0.20705612 -0.03378977
000340 8a 75 b9 3d 92 33 a7 bc 58 87 27 bd 2f 30 26 3d
       0.09055622 -0.020410333 -0.04090056 0.040573295
000350 84 a5 81 3d c5 80 5b bd c3 7e 03 be d4 39 27 3e
       0.06330398 -0.0535896 -0.12841325 0.16330653
000360 7c 4b 97 bb f4 93 64 3d 58 68 69 bc ac 07 9b bd
       -0.0046171527 0.05580516 -0.014246069 -0.07569823
000370 e4 cb 02 bd 87 d3 18 3d 26 72 c7 3d 5d 62 68 3d
       -0.031932727 0.037311103 0.09738569 0.05673443
000380 63 97 8b 3c b3 2a 8b bc 9f 21 cb 3c 9f 10 93 bc
       0.01703996 -0.016988134 0.024796305 -0.017952261
000390 11 66 db 3b 3f c7 90 3d 51 07 62 3d 06 26 25 3d
       0.006695517 0.07069253 0.05518276 0.040319465
0003a0 df a1 20 3d d5 59 56 3d a1 2c 87 bd 31 60 83 3d
       0.039216872 0.052331764 -0.06600309 0.064148314
0003b0 62 1d 13 3d eb 4c 0e be 02 a0 88 bb 35 3c 08 3e
       0.035916694 -0.1389653 -0.004169465 0.13304217
0003c0 02 3d bc bd 57 c9 21 be bd 39 82 bd 11 31 8d bd
       -0.09191324 -0.15799461 -0.06358669 -0.06894124
0003d0 8b 2f aa 3c 2d ce 98 3c d7 c8 08 bd 9b 22 1c 3e
       0.020774623 0.018653 -0.03339466 0.15247576
0003e0 c2 84 1e bf d0 61 29 3b f7 05 bf 3d fe 51 71 bd
       -0.6192132 0.0025845654 0.093273096 -0.058916084
0003f0 9d 27 5e bd 5c b0 84 3d c4 c4 2f 3d d3 f8 37 3d
       -0.054236997 0.064789504 0.04291226 0.04491503

lstm.weight_hh_l0 f4 [512, 128]
000000 8b 1b bf bb 2b 85 b1 3d 07 49 9d 3d a6 da 8a 3c
       -0.005832141 0.08667978 0.076799445 0.016949963
000010 01 c5 76 bd ff f0 69 bd 96 68 96 3d 81 5b 73 bd
       -0.06024647 -0.057114597 0.07344167 -0.059413437
000020 7b 05 11 3c 91 4a c3 bc bc 9b a3 3d bc 88 f7 bc
       0.008851404 -0.023839267 0.07988688 -0.030216567
000030 62 28 a9 bc 26 1a 19 3d cf c7 9f bd cb 98 22 3d
       -0.020649139 0.037378453 -0.07801782 0.039696496
000040 8f 14 5c 3c 14 70 83 3d fa 77 ab bd e0 2a 9a 3d
       0.013432636 0.064178616 -0.08372493 0.07527709
000050 d4 ff 5c bd 9a 80 59 bd 7a dc 3a 3d 5a a0 22 3a
       -0.053954914 -0.05310116 0.04562042 0.0006203704
000060 49 9a 8c 3d f1 d7 b5 3d fc 67 9d bc c8 a1 cc bd
       0.06865365 0.08879078 -0.019214623 -0.09991795
000070 d3 29 a6 bd ff 97 bd bd 86 ea 7c 3d 34 5d 82 bd
       -0.08113446 -0.092575066 0.061747096 -0.06365433
000080 00 69 9a ba 71 1d 01 bd cf 6f 3f bd c1 f5 9a bd
       -0.001178056 -0.03152222 -0.04673749 -0.07566405
000090 1e ed 26 bd f4 5c 29 bd 39 7f 48 bd 16 7f 8b 3d
       -0.040753476 -0.041348413 -0.048949454 0.06811349
0000a0 81 c6 93 3d b5 f8 15 3d a1 43 33 3d 49 a4 11 bd
       0.07215596 0.03661414 0.043765668 -0.035557065
0000b0 aa 8c e2 3b 4e 89 00 3d 2f 97 94 bd 4d fa 87 bd
       0.006913741 0.031380944 -0.072553985 -0.06639538
0000c0 da c5 4b bc 64 0d 9a bd e5 f2 13 3d 76 13 78 3d
       -0.012437308 -0.07522085 0.036120314 0.060565434
0000d0 e5 a6 5b 3d 4a 95 a5 bd 40 ec 3c bd 50 a2 91 bd
       0.05362596 -0.08085115 -0.046123743 -0.07111037
0000e0 2f fb 32 3d 90 c7 54 bc 75 3c c0 3c 7a 52 5c bd
       0.04369658 -0.0129870325 0.023466328 -0.053789593
0000f0 bf c2 6a 3d 49 c6 63 bc 02 d6 19 bd 57 1b 58 3d
       0.05731463 -0.013902255 -0.03755761 0.05276045
000100 c6 47 a6 3b 07 43 93 bd fd 71 c3 3d 0c 2d 98 3d
       0.005074474 -0.07190519 0.09543226 0.07430467
000110 4b 8c 50 3d c2 7d e1 3d b9 25 81 bd 7a f9 8e 3d
       0.050915044 0.110103145 -0.06306023 0.06981178
000120 de 7d 94 bc a5 61 78 3d 38 04 b8 bd 02 4f dd 3c
       -0.018126424 0.060639996 -0.0898518 0.027015213
000130 46 38 97 bd f5 da 65 3c 20 ba 75 3d 42 3e 25 bd
       -0.0738378 0.014029254 0.059991956 -0.040342577
000140 7b e2 bc bd 6f 6b 3f 3c cc b0 c5 3c 2b e6 85 bc
       -0.09222885 0.011683329 0.024132155 -0.016345104
000150 56 ee d2 3c 4a f6 d5 3c a2 4f 4f 3d 86 d0 42 bd
       0.025748413 0.026118416 0.050613053 -0.047562145
000160 7c e5 69 3d a0 de 25 bd 11 23 98 bd 91 9d 28 bd
       0.05710362 -0.040495515 -0.074285634 -0.041165892
000170 db d3 9a bd 74 7e 27 bc 3a 23 96 3d 76 3e 35 bb
       -0.075599395 -0.01022302 0.07330938 -0.0027655638
000180 f0 90 c7 3d eb 89 4c 3c f4 27 95 bd 9d 43 c3 3c
       0.097444415 0.012484054 -0.07283011 0.023835951
000190 e3 5f 63 bd 5a f5 67 bd f2 3d 93 bd 47 f7 e6 3c
       -0.055511367 -0.05663047 -0.071895495 0.028194083
0001a0 10 2d 6b bd 3d 65 34 3d c6 ea 5c bd 69 81 28 bc
       -0.05741602 0.04404186 -0.053934835 -0.01028476
0001b0 60 3a 95 3d 37 13 d1 3c 51 a8 92 3c c3 98 96 bc
       0.07286525 0.025521858 0.017902525 -0.01838339
0001c0 1a 39 19 bd 0a 08 64 3d 47 a5 dd 39 f0 29 f7 3b
       -0.037407972 0.05567173 0.00042275546 0.007542841
0001d0 05 1c a3 3d 8e d2 82 3d 33 27 85 bd 0e 7e 95 3d
       0.07964329 0.06387816 -0.06501617 0.07299434
0001e0 dc a7 11 3d 64 bb a4 bd 76 36 3b bd 8e 70 99 3c
       0.035560474 -0.080435544 -0.045706235 0.018730428
0001f0 b2 aa 3d 3d 72 33 c5 3c e8 21 b0 bd 09 0d 77 bd
       0.046305366 0.024072383 -0.08600217 -0.060315166
000200 bf 9d 2f bd 88 ec db 3b 46 09 38 3d 72 63 07 bd
       -0.042875048 0.0067115463 0.04493072 -0.033053823
000210 13 b8 a0 bd 63 60 8c bd 4f da 54 bd 61 d9 48 bd
       -0.07847609 -0.06854322 -0.051966008 -0.049035434
000220 8d 1c 60 3d cf ce 5f bc ad 04 a8 bd 1e 97 4d 3d
       0.05471473 -0.013660147 -0.08204017 0.050192945
000230 54 fe 8b bc dc c9 fc 3c 70 2b 21 bd 4d 3c 4f bd
       -0.017089047 0.030857973 -0.039348066 -0.050594617
000240 5e 23 8b 3d e4 47 b6 bd f2 74 91 bd 2e 5a 8f 3d
       0.06793855 -0.08900431 -0.07102384 0.06999622
000250 40 3e 1c 3d f2 4a cd 3c f6 6f 7d bd ff 29 12 3d
       0.038145304 0.02506015 -0.061874352 0.03568458
000260 a1 99 83 3d b3 17 a0 3d ca 39 0e 3d e6 23 66 bd
       0.06425787 0.0781702 0.03472308 -0.05618658
000270 7e 2f 86 bd 0e 2d 67 bd a0 c9 98 bd a0 2d 26 bd
       -0.06552027 -0.056439452 -0.07460332 -0.040570855
000280 af 28 08 bc 13 af 3b 3d b1 55 81 3d 3c 61 78 3c
       -0.008310481 0.04582126 0.063151725 0.015159901
000290 08 e2 a3 3d bf 82 1e bb d6 f7 6e bd ff 81 87 3d
       0.080020964 -0.0024186817 -0.058341824 0.06616592
0002a0 29 8c ab 3c ec 5d 7e bc a0 90 ae bd a1 0a 82 bd
       0.020940857 -0.015525322 -0.08523679 -0.063496836
0002b0 fa 84 a3 bc fa 9f ab 3d 22 cc 95 3d 00 46 93 3d
       -0.01996087 0.083801225 0.07314326 0.07191086
0002c0 dd d7 47 3d 30 4f 89 3d 3d 65 7e 3d dd 89 09 3d
       0.048789848 0.06704557 0.062108267 0.033578742
0002d0 f8 ff 5f 3d 38 77 b6 bc d9 a6 10 3d 45 f1 55 3c
       0.05468747 -0.022273645 0.03531537 0.013058011
0002e0 04 a1 20 3c 20 42 8b 3b ba f2 7f 3d 97 fa 68 3d
       0.009804014 0.004249826 0.06248734 0.056879606
0002f0 a3 46 41 3d ac ac 0f 3d 9b b3 21 bd 99 ca b9 bc
       0.047186505 0.035076782 -0.039477926 -0.022679614
000300 3d 65 74 bd af 4f 3b 3d d7 64 0d 3d c1 3d b1 bd
       -0.05966686 0.04573029 0.034519996 -0.08654357
000310 ce ca 7d 3c 5a 29 97 3d 7b 6b cf 3b e0 cf d8 bc
       0.015490247 0.07380934 0.0063299513 -0.02646631
000320 5e d9 91 bd 64 fd ad bc 26 66 84 3c 89 95 9f 3d
       -0.071215376 -0.02123899 0.01616199 0.077921934
000330 b5 51 8a bb 9f 16 4a bd 51 df ae bd f3 45 38 bd
       -0.004221166 -0.04933798 -0.08538688 -0.044988584
000340 f9 6d 95 3d f0 10 6e 3c f3 5b 5f 3d 97 65 2b bc
       0.07296366 0.014530405 0.05453105 -0.010461233
000350 65 c8 42 bd 6b 20 44 bd e2 43 f6 bc d3 7d f5 3c
       -0.047554392 -0.04788248 -0.030061666 0.029967224
000360 19 67 0d 3d 42 2f 45 3d 73 66 94 bd 44 1a 70 3d
       0.03452215 0.04814077 -0.07246103 0.0586188
000370 ac 7e 0e 3b c1 c9 a9 3d 29 5b e9 3c 88 6e 8d bd
       0.0021742983 0.08290435 0.028485851 -0.06905848
000380 af 1f 86 3d 91 2d 8f bd 8b 64 8e 3d 2d 33 e5 bc
       0.06549012 -0.06991113 0.06952771 -0.027978504
000390 fb 57 96 bd d2 b8 a4 3d c7 aa 00 3d 4d ec 92 bd
       -0.07341 0.08043064 0.031412866 -0.07173977
0003a0 de b0 83 bd a7 45 63 bd 07 15 5f 3d a8 b0 36 bd
       -0.06430219 -0.055486348 0.054463413 -0.044602066
0003b0 fc b3 60 3d 9a a5 4b 3d 78 63 82 3d 09 c7 5a bd
       0.054859146 0.049718477 0.063666284 -0.05341247
0003c0 1a b8 2d 3c 68 24 5b 3d c3 79 17 3c 84 b7 67 bd
       0.010602975 0.053501517 0.009245339 -0.0565715
0003d0 9f 0c ef bc 3d 0d 8f bd a9 29 88 3c eb c2 9d bd
       -0.029180823 -0.06984947 0.016621428 -0.07703193
0003e0 20 fe 18 bd 97 b8 41 3d 5f 71 fb 3c 68 a6 eb 3c
       -0.037351727 0.04729518 0.030693708 0.028765872
0003f0 13 80 5a bc 26 e0 b9 3b 2e 3a 90 3d 0c 54 31 3c
       -0.013336199 0.0056724725 0.07042347 0.010823261

lstm.bias_ih_l0 f4 [512]
000000 8d a6 f0 bd 46 1e df b9 cb dd 80 3d ff 06 99 bd
       -0.11750517 -0.0004255643 0.06292304 -0.074720375
000010 9b 77 79 3b d3 8f 2b 3c a6 51 01 3d b1 8c ff 3c
       0.0038065675 0.010471302 0.031572007 0.031195017
000020 f5 c8 3a bd 98 b5 fd bd 88 57 e0 3c 1a 18 98 bd
       -0.045601804 -0.12388152 0.027385488 -0.07426472
000030 11 1f 49 3d 6b 62 4b bd 12 0a f2 ba 3f 4e 89 bd
       0.049101893 -0.049654406 -0.0018466136 -0.067043774
000040 d0 a1 2d 3d 69 99 5b 3d 55 be 6b bd 81 3d 37 ba
       0.042390645 0.0536131 -0.05755456 -0.0006990061
000050 97 34 25 3d d7 97 18 3c 3f 48 79 bd 39 ba 86 be
       0.040333357 0.009313545 -0.060859915 -0.26313952
000060 b3 1f a9 bd 0a 93 a1 3d 1a 66 39 be e7 0d 1a be
       -0.08257999 0.078893736 -0.18105355 -0.15044366
000070 81 fe d9 bc 2b 3f 8f 3d 51 78 d9 bc 59 97 97 bd
       -0.026610615 0.0699447 -0.02654663 -0.07401914
000080 d1 90 86 bd 6b 56 47 3d 8e 19 2c be bf 7b 01 be
       -0.0657059 0.0486664 -0.16806623 -0.12644862
000090 aa 23 2c 3c 3e ac 80 3d a2 ed 26 bd 17 72 e6 bd
       0.01050655 0.062828526 -0.040753968 -0.1125223
0000a0 ae f6 e6 bd b0 7d 0d be e8 34 12 38 d2 57 0e bd
       -0.11277519 -0.13817477 3.4858385e-05 -0.03475172
0000b0 88 8f 0b 3c de f9 e7 bd 05 73 f5 bd e6 4b f0 bd
       0.008518107 -0.11326955 -0.11984829 -0.117332265
0000c0 8b 50 55 3c 22 b7 5c bd c2 f8 2a be 50 5c cd bd
       0.013019691 -0.053885587 -0.16696456 -0.10027373
0000d0 06 f6 0c 3d 17 37 64 bc de 9b 34 bc ef 13 6b 3d
       0.034414314 -0.01392915 -0.01102349 0.057392057
0000e0 d3 5b d3 bd 12 b8 c0 3d b3 fc 90 3d 6b 2a ce bc
       -0.103202485 0.094101086 0.070794486 -0.02516671
0000f0 4a 0d 87 bd a0 6f 9b bd 35 83 99 3d 24 89 09 be
       -0.065943316 -0.0758965 0.07495729 -0.13431221
000100 a9 ea 2c bd 5e 11 0b be 4c 74 82 bd ca ef 03 bd
       -0.042215977 -0.13580844 -0.06369838 -0.032211103
000110 44 9e 1d be a3 a8 e7 bd 6d 8a e3 bc 65 dc 3c be
       -0.15392405 -0.11311462 -0.027775967 -0.18443449
000120 56 ec d8 bc 16 ca 87 3d f9 bc 6f bd f3 04 85 3c
       -0.026479881 0.06630342 -0.058529828 0.016237712
000130 94 81 91 bd e2 42 ec 3b 6a 6d 1f 3c b2 d1 0a bd
       -0.07104793 0.0072101215 0.009730676 -0.033891387
000140 81 c5 99 3c e2 23 d2 bd c7 84 58 bf ae 47 b6 bd
       0.018770935 -0.1026075 -0.845776 -0.089003906
000150 60 c8 9d bd 44 08 e3 3c 7a 41 c5 bd b0 bc 2e be
       -0.07704234 0.027713902 -0.09631629 -0.17064166
000160 10 7e db bd 49 6d df bd 0f fb c8 3c e2 b7 f9 bd
       -0.10717404 -0.10909516 0.024533777 -0.12193276
000170 e4 98 f7 bd a3 0c d0 bd 60 7a dc bd be 70 9c bd
       -0.120897084 -0.1015866 -0.10765529 -0.07638691
000180 fb 85 9a bd 15 cb 84 3d 45 78 ad 3c 00 7a 49 3d
       -0.07545086 0.06484047 0.021175513 0.049188614
000190 ee 8f 5a 3d 09 19 6f be 86 53 c8 bd bd 09 63 3c
       0.05335992 -0.23349394 -0.09781556 0.013857302
0001a0 c0 00 f3 bc 1d b0 75 bd 50 f2 3c bd 90 24 52 bc
       -0.029663444 -0.059982408 -0.046129525 -0.0128261
0001b0 ca bc a4 bd 06 b0 b1 bc d0 b4 94 3d 38 9f 2e bd
       -0.08043821 -0.02169038 0.0726105 -0.04263231
0001c0 7c db 0f 3d e3 d0 d5 be 93 cb 5f bd 1c 63 05 bd
       0.035121426 -0.4176093 -0.054637503 -0.03256522
0001d0 13 c1 a7 3c 4c 89 00 be 18 ee 8f bd 8a 57 03 be
       0.020477807 -0.12552375 -0.07027835 -0.12826362
0001e0 1a 60 dd bd 15 a4 d8 bd 13 2c 83 bb bb fa a9 3d
       -0.108093455 -0.10578171 -0.004003057 0.08299776
0001f0 84 fb 92 bc 98 ba b1 bc dd f6 15 bd 54 ea 71 3d
       -0.017942198 -0.02169542 -0.03661238 0.059061363
000200 68 13 14 3d a4 2e 71 bd cc 52 14 3b 9d b4 90 3d
       0.03615132 -0.05888237 0.0022632359 0.07065699
000210 ca cd 39 bd c0 5e bc 3c 1f 69 cd 3b 21 d7 70 bc
       -0.04536227 0.0229944 0.006268635 -0.014699728
000220 98 92 62 3d 62 62 39 3d 3f 23 89 bd 3e e5 f0 bc
       0.055315584 0.04525984 -0.06696176 -0.029406186
000230 95 18 e6 3d fd 6f 85 3d 3a e4 9e 3d e2 22 04 bd
       0.112351574 0.06515501 0.077583745 -0.03225983
000240 9c f6 e4 39 d1 11 f9 3d ef eb 7b bd c9 ba 91 bd
       0.00043671287 0.12161601 -0.0615043 -0.071157046
000250 1c f4 0b 3d 72 b2 44 3d 7b ce 01 3e 91 da 90 3e
       0.034168348 0.04802174 0.12676422 0.28291753
000260 79 aa b6 3d be f3 85 3c 91 17 8c 3e bd 96 48 3e
       0.08919234 0.016351577 0.2736173 0.19588752
000270 dc e3 9d 3d e9 a9 33 3d 97 02 d2 3d 29 03 ff bc
       0.07709476 0.04386321 0.102544 -0.031129437
000280 c8 fb d8 3d 0b 2d 55 3c 7e d1 8d 3d 13 e3 23 bd
       0.105948985 0.013011227 0.06924723 -0.040011477
000290 31 4f 54 bd 81 d7 b2 3d 5c 6d d2 3c 13 8b b1 3a
       -0.051833335 0.0873251 0.025686912 0.0013545476
0002a0 6c 87 9f bc 5e 33 c1 bc 80 d5 ba 3c fb dd 02 3c
       -0.019473754 -0.023584064 0.022806883 0.007987495
0002b0 e6 0d a1 ba e7 12 9b 3d d5 cf 10 3e bf 82 68 3d
       -0.0012287467 0.07571965 0.14141782 0.056765314
0002c0 40 a9 65 bd de 48 a1 bc ef 1f 46 3e 35 72 0c bd
       -0.056069613 -0.019688066 0.19348119 -0.034288604
0002d0 76 dc ab 3d 2b 2b c1 bb 63 c1 a9 3d 19 9d 24 3d
       0.08391659 -0.0058950386 0.08288839 0.040188882
0002e0 48 d5 97 3d a6 62 7a 3d 36 d4 a4 3d da 82 17 bd
       0.07413727 0.061129235 0.080482885 -0.036990024
0002f0 18 3c 8b bd 4a 12 fe bc 6f a2 11 3d 62 df 23 bd
       -0.06798571 -0.03101458 0.0355553 -0.040007956
000300 01 dc fa 3d 9a 72 2c 3e 13 05 2e 3e b3 f6 6f bd
       0.12248994 0.16840592 0.16994123 -0.05858488
000310 71 10 f7 3d 75 74 22 3e 6a d5 82 3d b6 a8 64 bd
       0.12063683 0.15864737 0.06388362 -0.055824958
000320 d8 86 81 bd 75 34 ee bb 8f e8 2f 3e d7 71 70 3d
       -0.063245475 -0.007269437 0.17178558 0.058702316
000330 e9 dd 80 3d 53 ce 8e 3d 76 32 34 bb 78 0b 6c 3d
       0.06292326 0.06972947 -0.0027495897 0.057628125
000340 53 59 e3 3d 71 cb 91 bd 1a fc bc 3f af 7b 1b bd
       0.111010216 -0.071188815 1.4764435 -0.03795975
000350 3f a6 40 bc 77 44 9c bd e9 14 3c bd 79 9d a1 3c
       -0.011758386 -0.07630246 -0.04591838 0.01972841
000360 d0 3b 63 3d 90 54 46 bc d5 d6 a7 3d cc 28 ea bc
       0.055476964 -0.012105122 0.08195273 -0.028583907
000370 14 7d c7 3d c6 3b 05 bb 08 ed ca bc d9 55 96 bd
       0.09740654 -0.0020329817 -0.024771228 -0.07340593
000380 97 44 0b 3e 93 8f 6a 3e 81 6f 93 3b 32 4a e3 3d
       0.13600384 0.22906332 0.0044993763 0.11098136
000390 59 51 5e bd 20 10 11 3e 23 e5 ac bb ec 57 2e 3d
       -0.054276798 0.14166307 -0.0052763387 0.042564318
0003a0 6b 42 cc 3d d9 14 a7 3d 30 16 a7 bd 06 09 c5 3d
       0.09973606 0.08158273 -0.08158529 0.09620862
0003b0 c0 ca 2d 3e e6 85 ca bc f1 97 1b bd 65 f6 01 3e
       0.16971874 -0.02472205 -0.0379867 0.12691648
0003c0 54 be 02 3d 65 0e b8 3e 5c 72 2c 3d f8 49 ca 3d
       0.031919792 0.35948482 0.04210125 0.0987739
0003d0 bd 86 a8 3d 8d 97 15 3d 1b 41 e6 bb 33 d9 37 3e
       0.08228824 0.036521483 -0.007026804 0.17953949
0003e0 62 13 cc 3e ce 62 c2 bc 61 5e 3f bd 1f 2a 15 bd
       0.39858538 -0.023728754 -0.046720866 -0.036417123
0003f0 53 15 b8 3d 03 91 a0 bb 73 19 5b 3d d2 56 af bb
       0.08988442 -0.0049000992 0.053491067 -0.005350926

lstm.bias_hh_l0 f4 [512]
000000 65 4d 86 bd 3b 1e 93 3d 91 22 8e 3d 2c 68 09 bc
       -0.065577306 0.071835004 0.06940187 -0.008386653
000010 c0 5a c8 3b 2f 72 cb bd c2 50 71 3c b2 89 a9 3c
       0.006114334 -0.09933888 0.014728727 0.020695541
000020 36 cc 5e bd ed a7 aa bb a3 38 b2 bd f0 f9 be bd
       -0.05439397 -0.0052080066 -0.08702209 -0.093250155
000030 91 b7 25 3d 18 c4 06 3d 98 03 22 be f1 72 70 bd
       0.040458266 0.032901853 -0.15821683 -0.058703367
000040 d6 12 72 3d ed ba b0 bc 72 4b 85 bc d2 85 49 3d
       0.059099995 -0.021573508 -0.016271327 0.049199887
000050 fb 06 36 3d 70 cb ba bd c1 28 94 bd 10 59 13 be
       0.04444025 -0.09120834 -0.07234336 -0.14389443
000060 c2 90 6b bd c1 4c 8a bc 83 68 17 be 30 50 2e be
       -0.0575111 -0.016882302 -0.14785962 -0.17022777
000070 dc e4 04 be f5 94 58 3d 1a 86 ed bd 33 82 4e 3d
       -0.12977928 0.05287643 -0.115978435 0.050417136
000080 87 12 e7 3c 22 dc c0 bd c4 36 bf bd 99 34 b7 bd
       0.028207077 -0.09416987 -0.093366176 -0.08945579
000090 9e 62 20 3c 87 0e 1c bc b5 07 89 bd 81 be 2d be
       0.009789137 -0.009524948 -0.06690923 -0.16967203
0000a0 a8 a3 10 be 06 d6 8b bb ad 00 5a bd f8 c1 c0 bd
       -0.1412493 -0.004267457 -0.0532233 -0.094119966
0000b0 73 8d e6 bd eb 03 11 3d 3b 36 a0 bd 06 ea 11 be
       -0.11257448 0.035404127 -0.07822844 -0.14249429
0000c0 53 d8 14 3d 9d c1 c6 bd ca 14 89 bd 7c cd 6f bd
       0.036339115 -0.097048976 -0.06693418 -0.058545575
0000d0 e5 f2 8f bd 1c 6a 05 bc b7 ac e5 bd d3 ab 82 3d
       -0.0702875 -0.008142974 -0.11214583 0.06380429
0000e0 52 d0 81 bd e6 fa 08 3d 72 44 20 bd a2 e6 8b 3d
       -0.06338562 0.0334424 -0.039127775 0.06831099
0000f0 ac 76 01 3c 76 f7 1d 3c f3 79 de bc 3e a3 24 be
       0.007901829 0.009641519 -0.02715776 -0.16077897
000100 d0 e7 a8 bd 7e 1e 5f be 88 9a ab bd ee 38 41 bd
       -0.0824734 -0.21788976 -0.08379084 -0.047173433
000110 d6 80 c4 bd fe 23 43 be 91 31 19 bc e2 ec 18 bd
       -0.09594886 -0.19056699 -0.009350196 -0.037335284
000120 8d 91 41 3d a5 d2 b4 bd aa 23 8c 3d ca 30 45 3d
       0.04725795 -0.0882924 0.0684274 0.048142232
000130 8e 24 28 bd 8b 86 d3 bc c5 5c c6 bc 30 68 08 be
       -0.041050486 -0.025820991 -0.024214158 -0.13320994
000140 e2 20 2d bd 12 f9 15 bc 7c e8 7a bf 69 e9 83 bd
       -0.042267688 -0.009153621 -0.98010993 -0.06441004
000150 bb 4f 28 3c f4 fd e6 bc f9 ba af 3c 63 32 20 be
       0.0102729155 -0.028197266 0.02145146 -0.15644221
000160 02 8e 5e bd b6 a7 4f bd 7b 93 bb 3c e7 6d 99 bd
       -0.054334648 -0.05069705 0.022897473 -0.07491665
000170 ff 04 19 be 20 f1 2a bc 16 2b bc 3c ef f7 df bd
       -0.14943312 -0.010433465 0.022969764 -0.109359615
000180 48 f0 57 bd e8 cf db bd 50 90 ce 3c 5a 56 25 bd
       -0.052719384 -0.10733014 0.025215298 -0.040365554
000190 19 a5 9e bd 04 cb 55 be a3 43 c1 bd 3b 30 1f 3c
       -0.07746334 -0.20878226 -0.09436729 0.009716089
0001a0 53 73 b1 bb 7e 09 88 bd 9e af 91 3d 14 e6 44 3d
       -0.005415359 -0.066424355 0.071135744 0.048070982
0001b0 30 7d f5 bd 0b 72 9a bd 6f e8 4e 3b 34 d8 32 be
       -0.11986768 -0.07541283 0.0031571647 -0.17465287
0001c0 bf 1a 13 bc 31 7a be be ee 5a d6 bd 73 b7 3a bd
       -0.008978545 -0.372026 -0.10466562 -0.045585107
0001d0 c3 8d f2 ba 0f cd 05 be 3c 6d c1 bc d2 4a 6f bd
       -0.0018505383 -0.13066505 -0.023611657 -0.058420964
0001e0 2d 25 68 be bb c9 70 bd 76 25 37 bd 6f b3 4a 3d
       -0.22670431 -0.058786135 -0.04471346 0.049487527
0001f0 19 58 36 3d d1 71 61 bd 14 79 02 3c f8 7c 05 3d
       0.04451761 -0.055040184 0.007963438 0.032589883
000200 9f 7f eb 3d 9f d8 1d bd a2 b0 b6 bc 5e 91 78 bd
       0.11498951 -0.038536664 -0.022301022 -0.060685508
000210 d4 19 96 3d 40 e2 a9 3d 20 d4 86 3c 55 04 b1 3d
       0.07329145 0.08295107 0.016458571 0.086434044
000220 72 41 8e 3d 9e 81 97 3d 5d 27 28 3c a9 6e 44 3d
       0.069460765 0.073977694 0.010263291 0.047957096
000230 30 e4 be 3d af 9e a3 3d 0b 5d d1 3d 7c ec d0 3d
       0.09320867 0.07989251 0.10222825 0.10201356
000240 cf fb e2 3b 92 bd 49 3e 03 1b c1 3d 2b 7a ec bc
       0.0069269906 0.19701222 0.0942898 -0.028866848
000250 dc 39 0e bd 32 b2 cb bc 73 22 89 3d 9f d8 bb 3e
       -0.034723148 -0.024865244 0.06696024 0.36688706
000260 f8 0b 60 3d 9c 48 8a bd 6c 2e 62 3e 5d 69 4b 3e
       0.054698914 -0.067521304 0.22088021 0.19864412
000270 e4 55 bc bb 14 35 04 bd 18 e5 f8 bc dc 3f c9 3d
       -0.0057475436 -0.03227718 -0.030382678 0.09826633
000280 db 85 80 3d be 1d 75 3d 06 98 10 3e ed 2b d2 3d
       0.06275531 0.059842817 0.14120492 0.102622844
000290 96 c1 01 bd d3 42 92 3c f4 fd af 3b 74 a9 06 bd
       -0.03167876 0.01785413 0.0053708497 -0.032876447
0002a0 08 52 a2 3c 2a c5 80 3d 40 40 34 3d b3 1e 8a bc
       0.019814506 0.06287606 0.044006586 -0.016860342
0002b0 8e 09 40 3d 90 dc 4d 3d 9c 51 f4 3d ca 4b 54 3d
       0.046884112 0.050259173 0.11929628 0.05183009
0002c0 94 e4 df bc 7b 0a 29 3d 41 81 6e 3e 14 c4 4d bd
       -0.027330674 0.04126976 0.23291494 -0.050235823
0002d0 2b 78 46 3d 30 8d b9 3d 5a 73 1a bd 54 44 2b bc
       0.048454445 0.090601325 -0.037707664 -0.010453302
0002e0 65 c4 29 bd 48 0e b3 bc 9a db 5b bd 6b 59 8c 3c
       -0.041447062 -0.021857396 -0.053676225 0.017132482
0002f0 fb 93 23 bc f6 7c 6f 3c 8b 6c b1 3d d6 a8 da 3b
       -0.009984012 0.014617195 0.08663281 0.006672959
000300 2d 41 cb 3d 70 56 d9 3c bb e1 cd 3d 44 d2 85 3d
       0.09924541 0.026530474 0.1005282 0.065342456
000310 fc c0 1a 3e 29 05 71 3e 5c e6 61 bd d3 5f 5f 3d
       0.1511268 0.23537125 -0.05515133 0.054534744
000320 fd 50 cb bc 67 02 55 3d bf 61 0e 3e fa df 8e 3c
       -0.024818892 0.052004244 0.13904475 0.017440785
000330 15 02 1b bb 8d ba ff bc 31 e8 e7 3d c6 e9 09 bd
       -0.0023652364 -0.031216884 0.11323584 -0.03367021
000340 99 75 15 3e d7 59 23 3d 1c d0 bc 3f 3e 8b af 3b
       0.14595641 0.0398806 1.475101 0.005357175
000350 be 76 19 bd b0 00 90 3b 15 20 a3 bd ac 89 42 bc
       -0.037466757 0.004394613 -0.079651035 -0.011873644
000360 e0 4f 3a 3c 8a 7c 88 3c 18 a8 a3 3d 1f a5 86 b9
       0.011371583 0.016660947 0.07991046 -0.00025681496
000370 b3 92 fa 3d 0e 24 72 bd 0d 76 ec 3c 9d dc 60 bd
       0.12235012 -0.059116416 0.028864885 -0.054897893
000380 e2 59 6b 3c 74 ea 7f 3e 43 20 73 bc bd be b6 3d
       0.014364691 0.2499178 -0.014839235 0.08923099
000390 3f 19 b7 3d a3 d6 32 3e 32 9d a7 bd e9 46 2a 3a
       0.08940362 0.1746469 -0.081842795 0.0006495552
0003a0 7d 32 40 3d 12 c6 99 bc ab 28 e8 3c 34 98 69 bb
       0.04692315 -0.018771205 0.028339704 -0.0035643699
0003b0 4c 42 f3 3d cc b7 bc 3d 35 61 42 3d ef e3 9c 3b
       0.118778795 0.09214744 0.047455985 0.004787914
0003c0 1f f3 3a 3d 61 ad ce 3e a4 92 59 3d d8 90 be 3d
       0.045642015 0.40366653 0.053118363 0.093049705
0003d0 9d 61 b5 bc 12 e4 f7 3d c7 a0 3c bc ac 1c 91 3c
       -0.022141272 0.12104048 -0.011512942 0.017713867
0003e0 8d f1 dc 3e a8 e8 59 3d 6a 9e 72 bd 7a 83 16 bd
       0.4315304 0.053200394 -0.059233107 -0.03674648
0003f0 1f 56 5e 3d 23 c9 2a bd 52 e0 b6 bc ea 9f ac 3b
       0.05428135 -0.041695725 -0.022323761 0.0052680867

pitch_linear.weight f4 [128, 128]
000000 9f 72 78 be 8e 24 e4 3d 87 67 40 3c 6f 5d a9 3d
       -0.24262474 0.11139785 0.011743433 0.08269774
000010 ba 9c 49 3d 06 42 7e 3e 06 24 20 39 d0 d0 86 3e
       0.04922173 0.24829873 0.00015272209 0.26331186
000020 43 a9 b5 3e ff bb 7e 3d f6 ca 7d bd 9c 8b 06 3c
       0.354807 0.062191006 -0.061961137 0.008211996
000030 f1 3e 64 be e6 47 14 be 42 0f a8 bc ce 0d 97 ba
       -0.22289635 -0.14480552 -0.020515088 -0.00115245
000040 3e 5c 61 3c f8 7b 86 be 2b 6d 17 be 1c df 89 3d
       0.013754902 -0.26266456 -0.14787738 0.06732008
000050 7e 7d 8d 3e 87 51 80 be d4 c4 08 3e c9 4e 6c be
       0.27634805 -0.250622 0.13356334 -0.23076929
000060 56 ca 7e 3c eb d7 8a 3d a0 01 8b 3e c2 5a 98 be
       0.01555117 0.06779464 0.27149677 -0.29756743
000070 7b 5d 81 be b5 e2 58 bc 7d c8 6f bc 31 c2 92 bd
       -0.25266632 -0.013237645 -0.0146352025 -0.07165945
000080 06 21 99 bd 00 00 80 3d 8b 26 b6 3e 0f c6 b0 3d
       -0.07477002 0.0625 0.3557628 0.08631527
000090 40 e6 ff b9 15 df dd 3d 57 74 2a be 0a 83 80 be
       -0.0004880894 0.10833565 -0.16645943 -0.25099975
0000a0 67 44 f5 3a b6 55 31 be 51 a9 49 3d 5d 9f e6 3b
       0.0018712402 -0.17317852 0.04923374 0.0070380406
0000b0 45 fa 2e be 9d dd 3b 3d a8 0c 21 3e af 70 9b be
       -0.17087658 0.045865644 0.15727484 -0.30359408
0000c0 fe 54 53 3c cd 0b 9a bc e1 ce d2 be 77 32 0e 3d
       0.012898682 -0.018804455 -0.4117346 0.034716096
0000d0 52 fd 80 3d 2c 9e d6 bc 9f c3 05 bd 3a 16 08 3c
       0.06298317 -0.02619847 -0.032657262 0.0083060805
0000e0 f7 3f f3 3c 74 79 2f 3d 33 c2 21 be ba 76 1f bd
       0.029693587 0.042840436 -0.15796737 -0.038931586
0000f0 49 1f 02 bd 2a 7a 27 3d 5e 3f 83 3c 64 52 0c 3e
       -0.031768117 0.04088799 0.016021427 0.13703305
000100 85 4f 7b be f8 95 98 3e 75 fe 75 3e e5 e0 9a 3b
       -0.24542053 0.29801917 0.24022849 0.0047265165
000110 fc dc c5 be d3 cc 80 3e af 1a 17 3d af 4d 2f be
       -0.3864516 0.25156268 0.03689068 -0.17119478
000120 a6 57 2e 3c 07 4b 8c bd a7 90 1c be 83 26 eb 3d
       0.010641014 -0.06850248 -0.15289555 0.11481955
000130 c2 6d b0 be c9 4c ce 3d cc a1 21 3e 63 ba 8e 3e
       -0.3445874 0.10073239 0.15784377 0.27876577
000140 c5 fe 9c be 15 dc 1d bd e6 32 bf 3e 18 4a 99 bc
       -0.30663124 -0.038539965 0.3734352 -0.018712088
000150 e2 0e b9 bd 7f e0 db bd 68 a9 af 3d cd c6 34 be
       -0.09036042 -0.107361786 0.085772336 -0.17653961
000160 ba d8 ee bd 50 ec df 3c 2f 89 38 3d 20 54 35 bc
       -0.11662431 0.027334362 0.045052703 -0.01106742
000170 c5 e0 4d 3e 83 1e 58 bd 59 22 4b 3e a5 05 21 3e
       0.20105274 -0.052763473 0.19837321 0.1572481
000180 e0 ff 87 3e 54 53 ba be cf 30 d4 3d 76 ee 43 3e
       0.26562405 -0.363917 0.10360872 0.19133934
000190 66 5e 4b be 15 10 6f be 05 5a b8 bd c3 0e 3a 3e
       -0.19860229 -0.23345979 -0.09001545 0.18169694
0001a0 23 97 c0 be d5 eb 6c bd c4 25 d6 3d 4d 8f 11 3e
       -0.37615308 -0.057842094 0.10456422 0.14214821
0001b0 b7 9e 7b 3e 0a a5 0b be e2 b6 ef 3d 94 5f 00 be
       0.24572264 -0.13637176 0.11704804 -0.1253646
0001c0 37 d3 b3 bd cc 7c 9f be 21 3b b7 bd a2 3d 7a 3e
       -0.087805204 -0.311499 -0.08946825 0.24437574
0001d0 dc 9b 30 3e 3a 30 b1 bd 3b 90 20 3e cc a3 16 be
       0.17246956 -0.086517766 0.1568002 -0.14710921
0001e0 d2 cb a2 bc 23 69 d4 bb 6b 8e 2d 3e 2b d7 0f be
       -0.01987258 -0.00648226 0.1694886 -0.14046924
0001f0 fe 27 78 3d d1 17 c3 3d a1 d4 5f bd 08 db 95 3d
       0.060585015 0.09526027 -0.054646138 0.073171675
000200 c7 0a 1e be 96 87 40 3e b8 ce 34 3d d9 d3 90 3d
       -0.15433799 0.18801722 0.044142455 0.07071657
000210 1a 1e e3 3d d2 ec dd 3d d9 4d 8b 3d 19 af 51 3e
       0.11089726 0.108361855 0.06801958 0.2047695
000220 f8 8b b7 3e 75 a5 d6 3d 55 0e b8 3b 30 8e 38 3d
       0.35848975 0.10480777 0.005616943 0.045057476
000230 c8 ea f3 bd b5 fb 06 be 49 0a 0a 3d 86 bb ca bd
       -0.11910015 -0.13181956 0.033701215 -0.098990485
000240 ea cd f2 3a f8 2d 80 be 54 9c d2 bd e5 3f 00 3e
       0.0018524502 -0.2503507 -0.102837235 0.12524374
000250 83 27 83 3e 3b c5 56 be 4d 70 09 3e c5 1f 38 be
       0.25616083 -0.20973675 0.13421746 -0.17980869
000260 83 4b f0 bc 40 89 04 3e 1a 01 41 3e be ae be be
       -0.029332882 0.12942982 0.18848076 -0.37242693
000270 34 64 00 be 35 e4 ab 3c 1e 89 d3 bd 53 12 02 be
       -0.12538224 0.020982841 -0.103288874 -0.12702303
000280 81 ed a6 ba e0 0d f3 ba 9b ae bc 3e 10 79 1b 3d
       -0.0012735577 -0.0018543564 0.36851963 0.03795725
000290 a2 56 27 3d 46 87 e3 3d f5 a9 5e be ed a7 f7 bd
       0.040854104 0.11109786 -0.21744521 -0.12092576
0002a0 81 e8 9b bd 8a 04 9a bd 69 66 25 3d a4 f1 28 3e
       -0.07612706 -0.07520397 0.04038087 0.16498429
0002b0 99 4d 80 be 11 bf b6 3d 19 10 1e 3e b8 fb a6 be
       -0.25059202 0.08923162 0.15435828 -0.3261392
0002c0 d0 3d ee bb 8f 4d b5 3d 13 a4 a4 be 31 8f 66 3d
       -0.007270552 0.08852684 -0.3215643 0.0562889
0002d0 3d a6 b1 bc df b7 18 be 10 b4 df bc 9b bc 8b bd
       -0.021685714 -0.14913891 -0.02730754 -0.06823083
0002e0 fb 63 88 3d c7 a2 9b 3d 56 71 5d bd cf 76 5c be
       0.06659695 0.07599407 -0.054063164 -0.21529697
0002f0 c3 9a d0 3d 3f 5b 7f 3d 25 91 fb 3c 16 f0 80 3e
       0.101857685 0.06234288 0.030708859 0.2518317
000300 c9 a6 7b be e3 9f 0c 3e 80 88 f5 3d 5f bb 0c 3e
       -0.24575342 0.13732867 0.11988926 0.13743351
000310 1c e8 9b be d0 00 a3 3e ac 15 80 bd b7 2e 0a be
       -0.30450523 0.31836557 -0.062541336 -0.13494383
000320 79 16 e8 bd 6a fc e7 bd 04 6e 4e be c5 59 e6 bc
       -0.11332411 -0.11327441 -0.20159155 -0.028118977
000330 fd 6f 6e be ef 99 27 bd 46 0f c4 3c 73 b2 82 3e
       -0.23284908 -0.040918287 0.023933064 0.2552677
000340 50 47 5f be c7 46 ea 3d 23 60 7f 3e e0 54 33 3d
       -0.21804547 0.11439281 0.24939017 0.043782115
000350 98 27 fa bc 56 c4 00 3b 8f 60 1d 3e c0 c5 47 be
       -0.030536458 0.0019648275 0.15368865 -0.1950903
000360 4d a5 1f bd a8 2e 41 bc 88 77 d2 3d 74 7c 46 bd
       -0.038976002 -0.011790909 0.10276705 -0.04845853
000370 36 98 1a 3e 57 e6 93 bd 9c 8a 4d 3e 28 1f 4e 3e
       0.15097126 -0.07221668 0.20072407 0.20129073
000380 92 b0 99 3e 82 c7 ad be 9b c8 b8 3d 02 4e b1 3e
       0.30017525 -0.33941275 0.090226375 0.34629828
000390 da 85 30 be bf f8 8c be e5 9d 63 3d 65 b0 1c 3e
       -0.1723856 -0.27533528 0.0555705 0.15301664
0003a0 16 f1 b7 be ab 11 4b bd 0e 3e 14 3e bc 40 28 3d
       -0.3592612 -0.049577396 0.14476797 0.04107736
0003b0 3a ae 84 3e 33 23 62 be 05 b3 a7 3d 32 b1 0e bd
       0.25914174 -0.2208374 0.08188442 -0.034836955
0003c0 ba 07 25 3d cb 31 11 be 82 a6 00 be c4 b5 64 3e
       0.04029057 -0.14179151 -0.12563518 0.22334963
0003d0 eb 07 34 3e 7b 53 8b bd 1b 0c 83 3e f0 24 45 be
       0.17581145 -0.06803032 0.25595173 -0.19252372
0003e0 51 02 19 be d8 84 28 be 6f 58 15 3e 0c a1 f4 bc
       -0.1494229 -0.16456926 0.14584516 -0.02986195
0003f0 2f 20 f2 3d 3a 18 03 3e f7 6b ca bc 5d 32 27 3e
       0.11822545 0.1280221 -0.024709685 0.16327806

pitch_linear.bias f4 [128]
000000 34 eb 9b bf e4 42 aa bf 06 3f a2 bf c7 72 a7 bf
       -1.2181153 -1.3301663 -1.2675483 -1.3081902
000010 b3 08 ad bf df 6d ad bf 38 07 aa bf 71 f3 a2 bf
       -1.351828 -1.3549155 -1.3283453 -1.2730542
000020 e4 7a a8 bf 9d b8 a1 bf f0 36 b1 bf c3 80 ad bf
       -1.3162503 -1.2634465 -1.384489 -1.355492
000030 02 ae a2 bf 60 69 a4 bf 83 9b 9f bf 98 e2 a3 bf
       -1.2709353 -1.2844658 -1.2469333 -1.2803526
000040 84 ac a1 bf e7 33 a9 bf 88 63 a3 bf c7 ae a8 bf
       -1.2630773 -1.3218964 -1.276475 -1.3178338
000050 11 77 a1 bf 9a c0 a7 bf ce 22 a7 bf 49 8e a1 bf
       -1.2614461 -1.3105652 -1.3057497 -1.2621547
000060 24 2b a4 bf d2 f4 9c bf 79 21 a3 bf 39 5c a6 bf
       -1.2825665 -1.2262213 -1.274459 -1.2996894
000070 d3 b0 9e bf 40 c7 8b bf ff 08 89 bf e3 0a 82 bf
       -1.2397712 -1.0920181 -1.070587 -1.0159572
000080 b4 9a 6e bf d8 84 5a bf 1d 79 4c bf 2f cd 3f bf
       -0.9320481 -0.85358953 -0.79872304 -0.7492246
000090 4c d6 ce be a1 47 ec be 5d dc d4 be 0d 93 bb be
       -0.4039787 -0.461484 -0.41574374 -0.36635628
0000a0 fb 17 6b be 47 5e 6c 3d 06 c5 f5 bd cc be e6 3e
       -0.22958367 0.057707097 -0.1200047 0.4506744
0000b0 43 c3 d2 3e cf 99 23 3f 0c a5 21 3f 2e be 05 3f
       0.41164598 0.6390657 0.63142467 0.52243316
0000c0 49 33 90 3f cb 42 5f 3f 62 59 a4 3f b3 bb 98 3f
       1.1265651 0.87211293 1.2839777 1.1932281
0000d0 31 ab a8 3f f5 83 c2 3f 54 fa ae 3f 50 33 ce 3f
       1.3177243 1.519652 1.3670144 1.6109409
0000e0 f1 55 d0 3f e8 4a de 3f 4f 0f dc 3f 0a 0a cb 3f
       1.6276227 1.736661 1.7192172 1.5862439
0000f0 67 34 e1 3f 77 e3 d5 3f f8 71 f3 3f f7 e5 dd 3f
       1.7594117 1.6710042 1.9019156 1.7335805
000100 3a 0b e7 3f b5 e5 e2 3f 66 a6 da 3f 28 f6 ea 3f
       1.8050301 1.7726351 1.7082031 1.8356371
000110 34 5f d8 3f 6b a4 e8 3f 8d 19 d1 3f 82 47 cf 3f
       1.6904054 1.8175176 1.6335922 1.6193697
000120 90 b2 d1 3f 84 c7 cd 3f 46 44 d8 3f 8f d1 b7 3f
       1.6382618 1.6076512 1.6895835 1.4360827
000130 de 54 af 3f 43 9c b5 3f 6d c0 92 3f 20 82 a0 3f
       1.3697774 1.4188312 1.1464974 1.2539711
000140 cc aa 7a 3f 54 5a 71 3f 8b b7 03 3f f0 ab c0 3e
       0.97916865 0.94278455 0.5145194 0.37631178
000150 e2 57 b8 3e 2e 1b 6a 3d 7d c5 e5 ba 2b b3 6c be
       0.3600455 0.057154827 -0.001753017 -0.23115222
000160 bc f1 81 be 29 10 d4 be 3c 70 39 bf 2c fc 3f bf
       -0.2537974 -0.4141858 -0.7243688 -0.7499416
000170 55 59 65 bf 0e f3 71 bf 0f 67 80 bf 28 c9 8a bf
       -0.89589435 -0.945115 -1.0031451 -1.0842638
000180 5b 25 90 bf 79 1f 95 bf 39 a5 95 bf 86 48 99 bf
       -1.12614 -1.165023 -1.1691047 -1.1975257
000190 8c 97 9e bf a9 d9 9d bf 53 cd a4 bf d5 23 a2 bf
       -1.2389998 -1.233205 -1.287516 -1.2667185
0001a0 d9 78 ae bf 5d da a6 bf c2 b1 a4 bf 01 82 a4 bf
       -1.363063 -1.3035389 -1.2866747 -1.2852174
0001b0 ac 5a ac bf 26 84 a7 bf aa f0 a3 bf 6b 89 a4 bf
       -1.3465171 -1.3087204 -1.280782 -1.2854437
0001c0 12 d3 a9 bf 02 67 a6 bf 83 9a af bf 71 9f af bf
       -1.3267539 -1.3000185 -1.3719028 -1.3720533
0001d0 eb bf af bf d9 c7 a2 bf 7f ac a2 bf 99 24 a3 bf
       -1.3730444 -1.2717239 -1.2708892 -1.2745544
0001e0 ed de a8 bf 32 86 ab bf 26 68 af bf 70 a7 ad bf
       -1.3193032 -1.3400328 -1.3703659 -1.3566723
0001f0 ce 7d a2 bf 78 22 ac bf 4f c6 ac bf be 8c a3 bf
       -1.2694643 -1.3448019 -1.3498019 -1.2777326

step_linear.weight f4 [1, 128]
000000 aa 15 38 bc 72 ae 16 3c 03 f1 36 3a 19 50 e5 3c
       -0.011235634 0.009196864 0.00069786626 0.027992295
000010 fe 50 00 3c ac b5 47 bc 6c aa 2d 3b d4 b4 3e 3c
       0.00783181 -0.01218931 0.0026499284 0.0116397925
000020 c8 69 ee 3d d2 eb 7d bc f1 c5 bf bb 69 a9 52 3c
       0.1164127 -0.0154981185 -0.005852454 0.012857773
000030 ed e7 95 bc d2 68 28 bc 22 4f 37 bd a4 6d a8 bb
       -0.018299067 -0.010278897 -0.0447532 -0.0051400233
000040 d6 01 a1 bc a2 c9 c4 bc 1d 8c c1 3b ea 3a b1 ba
       -0.019654196 -0.024021927 0.0059065954 -0.0013521586
000050 9b dd bf 3b 8e c4 70 bc b0 a4 4d 3c c1 8f 0e 3e
       0.005855275 -0.0146953 0.012551472 0.13922025
000060 74 91 57 3c eb 3f 0d 3c 92 4c e7 3c a9 7d a1 bd
       0.013157237 0.008621196 0.028234754 -0.07885296
000070 ec f7 73 bd 81 a3 96 3b 4d ce 94 bc af 68 ab bc
       -0.05956261 0.004597128 -0.018164778 -0.02092394
000080 cb af cd 3b f1 cb 3f bc 2d 2f 9f 3c d0 df 1e bc
       0.0062770597 -0.011706338 0.019431675 -0.009696916
000090 61 cc 77 bc d0 a4 e6 3b bd 69 e8 3c 66 e2 b3 bc
       -0.015124411 0.00703869 0.028370732 -0.021958541
0000a0 59 48 ad 3c 2e 53 5b bc 38 ae 3a 3b 04 39 22 3a
       0.021152662 -0.013386531 0.002848519 0.00061883056
0000b0 75 a5 9f bc 00 59 88 3d f0 bb 72 bb 9d ac f0 bc
       -0.019488076 0.066576004 -0.003703829 -0.029379183
0000c0 cc 0a e3 bc a9 9f 93 bc 6c e1 79 bd 6f 5f 55 bb
       -0.02771511 -0.018020468 -0.061005995 -0.0032558104
0000d0 72 1a f2 3a d9 ab 3a bc 22 e0 1f 3b 4b 73 e3 ba
       0.0018471016 -0.011393511 0.0024395068 -0.0017353086
0000e0 e1 db 87 3b 53 d8 6c 3b a5 c0 23 bd f3 bc 20 3c
       0.0041460847 0.0036139681 -0.039978642 0.009810674
0000f0 fa 8f 6d 3c 71 0c f1 ba ee aa 88 bc a9 e2 b2 bc
       0.014499659 -0.0018390549 -0.016683068 -0.021836596
000100 67 fc 24 bc fe 7f 8d 3d cf 94 ec bb 95 95 80 bc
       -0.010069943 0.06909178 -0.007219888 -0.015696326
000110 8d 1f 9c 3b f2 df 8f 3d af 7d 1a bb 39 a5 e3 bb
       0.0047645033 0.07025136 -0.0023573448 -0.0069471863
000120 d5 22 2a 3b d1 e5 52 ba bc c5 a6 bc eb ca 69 b9
       0.0025960703 -0.00080451096 -0.020357959 -0.00022296204
000130 3a f3 37 bc a6 10 4b 3c 93 b6 24 39 8b d2 86 bc
       -0.011227423 0.012394106 0.00015708273 -0.016457817
000140 d9 99 89 bc e9 6e 15 bc 91 26 87 3e 3b 74 52 bb
       -0.016796993 -0.009120681 0.2639661 -0.0032112736
000150 dd 46 a3 bc 69 d7 16 3b ac 48 71 b9 71 9d 2f ba
       -0.019931251 0.0023016578 -0.00023010623 -0.0006699181
000160 42 d1 76 bc a6 44 2f bc 5a a0 79 bc 07 ab 61 3b
       -0.015064539 -0.010697519 -0.015235985 0.0034434216
000170 29 93 42 3d 7a 52 86 3b ae c1 95 3c a5 42 26 3c
       0.047503624 0.0040991874 0.01828083 0.010147725
000180 81 19 7b bb fe b8 8c ba f4 e9 c0 3c 20 ce b3 3c
       -0.0038314762 -0.0010736284 0.023549058 0.021948874
000190 97 c2 c3 bc a5 ce ec bc fd af 38 3c ea 29 bf bb
       -0.023896499 -0.02890713 0.011272428 -0.005833854
0001a0 21 5f 4c bc 93 a1 87 bc 39 8c 87 38 6c a0 bf 3a
       -0.012473852 -0.016556537 6.46342e-05 0.0014619953
0001b0 76 01 f3 bc ad 61 5f bc 0b 11 1c 3c e9 1f 5a bd
       -0.029663783 -0.013634128 0.009525548 -0.05325309
0001c0 81 b8 d7 ba 93 96 07 be 31 d8 2c bc f0 43 eb bb
       -0.0016458185 -0.13241033 -0.010549591 -0.0071797296
0001d0 76 33 c3 3c f6 3e 88 bb e5 4f 26 3d 59 8f c9 bc
       0.02382825 -0.004157896 0.040603537 -0.024604486
0001e0 ca cb 9b 3c f6 79 4c ba 6b 8a e0 ba af 3b df 3b
       0.019018073 -0.0007800156 -0.0017131096 0.0068125348
0001f0 31 5d 22 b9 b2 87 a3 3c 24 7b cb bb f4 02 07 3b
       -0.0001548424 0.019962166 -0.006209748 0.0020601125

duration_linear.weight f4 [1, 128]
000000 66 4e 49 bd 56 a2 39 3b 77 38 b8 3c 6a 22 b8 39
       -0.049147032 0.002832552 0.022487862 0.00035120855
000010 b0 97 07 bc 29 c4 ae bd d5 e2 e8 3d 4f f3 74 bc
       -0.008275911 -0.08533508 0.1137139 -0.014950587
000020 8c a2 53 3e 46 6a f5 3c 88 64 bb 3b a2 f1 1c 3d
       0.20667475 0.029957902 0.0057187714 0.038316377
000030 b9 ff 5c 3b f8 2c c0 bd ad 6e cd 3c 60 1a b0 3d
       0.0033721759 -0.09383577 0.025077188 0.08598781
000040 a9 9e 2e 3d d0 cc 3a bd 2c c9 13 bd f0 02 ec 3c
       0.04263178 -0.04560548 -0.036080524 0.028809994
000050 de 74 4d 3d e6 b9 a3 3d 08 0a 27 be 89 5b 11 3f
       0.05016028 0.07994442 -0.1631242 0.56780297
000060 b0 1b 27 bc 37 54 41 bd 37 2d 54 3e 2b c7 ac bd
       -0.010199472 -0.047199454 0.20720373 -0.08436426
000070 ae 6e 0a 3d 5d e0 9f bb af 2f 33 3d 4e 2c af 3c
       0.03379696 -0.004879041 0.043746646 0.02138343
000080 48 ba 41 bd e9 bf 80 3c 65 7f 23 3e 12 f5 2f 3d
       -0.047296792 0.01571651 0.15966566 0.042958327
000090 5d 65 80 bd d5 b5 2d 3d ee 9c 97 bd 7c 21 c4 bd
       -0.062693335 0.042409737 -0.07402979 -0.09576699
0000a0 73 b6 0c 3b 34 5f 70 3d b3 4a 86 bd 26 80 19 bd
       0.0021471053 0.058684543 -0.065572165 -0.037475727
0000b0 3c 45 f5 3c 5e cc 2a bd c7 0c 46 3b 74 b1 e7 bc
       0.02994024 -0.041698806 0.0030220018 -0.028282858
0000c0 88 bd cb bd e3 2b c3 3d c2 ef d7 3d 51 1e a6 3c
       -0.099482596 0.09529855 0.10543777 0.020278128
0000d0 95 9d 32 3d 9c 7b 5f 3d d0 13 8b bd 91 53 ea bc
       0.043607313 0.054561242 -0.06790888 -0.0286043
0000e0 10 7e c8 3d 8b 88 68 bd 18 56 5c 3d aa ea 05 3d
       0.097896695 -0.056770843 0.053793043 0.032694496
0000f0 67 72 6c bc 6a cd 5e 3c 57 27 fa bb 15 d8 c9 3d
       -0.0144315725 0.013598779 -0.007634084 0.098556675
000100 8c 91 50 3d dd 2c c8 3d c8 35 47 3e 62 92 d0 3d
       0.050920054 0.09774182 0.1945411 0.1018417
000110 ae d2 94 bb cd 9d 83 3d 14 3c 9f 3c b7 a9 19 be
       -0.0045417165 0.064265825 0.019437827 -0.15006147
000120 04 40 f6 bc 4c 4a 72 bd 41 86 4d bd 1a 15 05 3d
       -0.030059822 -0.059152886 -0.050176863 0.032490827
000130 c2 6a da 3a f8 14 13 3d e1 96 ac 3b 8e 50 08 3e
       0.0016663896 0.03590867 0.0052670096 0.13311979
000140 89 2b bd bc aa b0 f1 3b a3 00 9f 3f 60 40 28 3d
       -0.023092048 0.0073757963 1.2422069 0.041077018
000150 6e 6c 6a 3d ab 8e 02 3a 7c 11 10 3e 92 18 0d be
       0.057232313 0.00049803656 0.1406917 -0.13778904
000160 97 21 ae bb 6f e5 50 3d 57 54 3f 3c 21 9e 06 bd
       -0.005314063 0.051000055 0.011677823 -0.032865647
000170 7d 54 18 3d 39 91 04 be dd a1 b9 bd 1c 34 f1 3d
       0.03718995 -0.12946023 -0.09064076 0.11777517
000180 b9 45 25 bd 39 0c 04 bd bb 4a 1c 3c 15 8f 79 bd
       -0.040349696 -0.03223822 0.0095393015 -0.06092747
000190 09 31 09 3d ac 44 ea bd 19 05 b1 bb af ac 17 bd
       0.03349403 -0.11438879 -0.005402219 -0.03702992
0001a0 0e df b2 3d ac 13 c3 bd 66 d4 1a 3d 5a f6 3e 3d
       0.087339506 -0.095252365 0.037800215 0.046621658
0001b0 63 da 61 bd 16 52 87 bd 40 d5 9c 3d 26 93 61 3e
       -0.05513991 -0.066074535 0.07657862 0.22028789
0001c0 15 2d 8d bd 99 fa 92 be 6c 61 ca 3d 84 04 e8 bd
       -0.06893364 -0.28706816 0.09881863 -0.11328986
0001d0 7c 80 b3 bd 73 9c 2c be 10 83 47 bc bc 4b be 3d
       -0.08764741 -0.16856556 -0.012177244 0.09291789
0001e0 26 9a 90 be a1 90 ad bd 39 03 74 3d 76 76 45 3d
       -0.28242606 -0.084748514 0.059573386 0.048208676
0001f0 38 fa 36 3d 1d 51 09 bd d9 6b 31 3d c0 4e 87 3d
       0.04467222 -0.03352462 0.043315742 0.06606817
